2_Auto_Diff/models/model_parms_case_1.pt (torch, 117911 bytes, 6 tensors)

conv_ensemble_1.0.weight f4 [16, 1, 5, 5]
000000 8d 5e 85 bd 01 22 f0 bd 49 3c fb be b2 44 81 be
       -0.06512175 -0.11725236 -0.4906943 -0.25247723
000010 38 1b c7 3e ff cb 4d bd 80 e7 8a 3e a9 a4 d3 be
       0.38887954 -0.050243374 0.27129745 -0.41336563
000020 a7 2e 0a 3e 6f 58 ac 3e cc 93 1b bd 99 5f 6a 3e
       0.13494359 0.3366122 -0.037982747 0.2288803
000030 0f 8b 22 3d 2e 61 d2 be 8e 13 ff 3e 28 02 96 be
       0.039683398 -0.41089767 0.49819607 -0.2929852
000040 00 39 00 3f e6 c5 8f bd 2d aa 01 be 20 4c 00 bd
       0.50086975 -0.07020168 -0.12662573 -0.0313226
000050 bd c1 fe 3e 6f 68 cd 3e 4c 4c b3 be c8 ef cd be
       0.49757186 0.4011874 -0.35019147 -0.40222
000060 d9 8f d3 bd 13 03 53 3d c3 58 c5 3e 89 d5 f6 bd
       -0.10330171 0.051516604 0.38544282 -0.12052447
000070 95 08 90 bd ec c3 dc bd da 3a 42 bd 69 ff c5 be
       -0.07032887 -0.10779557 -0.047419406 -0.38671425
000080 23 1d 22 bf b7 e6 1c bf 3a f7 d6 be 73 9e 13 be
       -0.6332571 -0.6128954 -0.41985494 -0.14415912
000090 0a e6 83 be b7 37 bf be 32 5b b0 be 07 30 9f be
       -0.25761443 -0.37347195 -0.34444577 -0.3109133
0000a0 11 78 82 3e 6e f9 1a 3e c0 f0 44 3d ef de 04 be
       0.25482228 0.15134212 0.04808116 -0.12975667
0000b0 bd b8 ac 3b 1c ec 36 3e a2 16 89 3e 0b 8a aa 3e
       0.005271046 0.17863506 0.2677508 0.33308443
0000c0 79 48 5d 3d 54 e6 bc 3d 10 13 d5 be c6 7b 6c be
       0.054024193 0.09223619 -0.41616106 -0.23094091
0000d0 07 54 4d be 4a fe e0 bc 21 aa b9 bd a7 29 03 bf
       -0.20051585 -0.027465004 -0.09065653 -0.5123543
0000e0 45 a0 96 be c7 32 b7 bd 94 ee 1b 3f f1 53 00 3f
       -0.2941915 -0.08945232 0.60910916 0.50128084
0000f0 bb 70 da be de 35 83 be 09 8a f1 bd 83 88 17 be
       -0.42664132 -0.25627035 -0.11793906 -0.14798169
000100 af 47 16 3f f2 72 9c 3e 6f 86 8d be a4 57 17 3e
       0.5870313 0.30556446 -0.27641627 0.14779526
000110 af 24 f0 3c cb c6 e8 3e 59 88 45 3e 49 90 a6 be
       0.029314367 0.45464167 0.19290294 -0.32531956
000120 e4 f6 a1 3c fb 21 8a be 8f 51 db bd 66 70 34 be
       0.019771047 -0.2697905 -0.107089154 -0.17621002
000130 72 db 0d 3e 0e f1 a0 be d8 da 92 3d 3e 40 b8 bb
       0.13853243 -0.3143391 0.071706474 -0.0056228926
000140 73 54 9f be bc 2d ae 3c ad 50 7d 3b a4 3c 83 3e
       -0.31119117 0.021262042 0.0038652823 0.25632203
000150 8e 50 0a 3d 79 74 42 bd a2 0f 8c 3e b8 29 10 be
       0.03376823 -0.04747436 0.27355677 -0.14078414
000160 cd c3 df 3e 26 7f 93 3e 00 0f 98 3e e6 4f ec 3e
       0.43704072 0.28807944 0.29698944 0.46154708
000170 4b 69 53 3e a3 b8 58 3e 89 84 2e 3e 31 0c 95 3d
       0.20645635 0.21164183 0.17042746 0.07277716
000180 4e bb 4f be c6 27 2d be e8 36 d9 3e 42 b5 73 3e
       -0.20286295 -0.16909704 0.42424703 0.23799613
000190 b3 d5 c8 3e 8f 06 b1 3e ec 24 27 bf 7f 0f 9b be
       0.3922554 0.34575316 -0.65290713 -0.3028526
0001a0 fc cd 58 be 93 8a 26 3e 42 7e d6 3e 47 d7 9c be
       -0.21172327 0.162638 0.41893202 -0.30632994
0001b0 3d b5 08 be 88 fb 5a 3e 6c 18 89 3e 88 73 a5 3d
       -0.13350387 0.21385014 0.26776445 0.080786765
0001c0 b8 86 fc bd a2 a4 07 3e 00 03 0c 3d 16 2e f7 3e
       -0.12330383 0.13246396 0.03418255 0.48277348
0001d0 30 76 49 be bf fe 29 be 96 8a dd be 43 75 fd 3e
       -0.19673991 -0.16601084 -0.43269795 0.49503526
0001e0 2e cb 09 3f e9 f7 b4 be 92 ed e5 be 19 d0 52 be
       0.5382565 -0.3534539 -0.44907814 -0.20587195
0001f0 57 79 7c 3e 33 d8 a7 3d d9 14 51 be b6 20 1f 3e
       0.24655662 0.081955336 -0.20418109 0.15539822
000200 3a 95 a8 be 19 29 c1 3e 2d ec 86 3c 9f db 43 3d
       -0.3292635 0.37726668 0.01647004 0.04781687
000210 17 e7 1f be 59 be a2 be ad 34 ec bb c6 8d 95 be
       -0.15615498 -0.3178585 -0.007208428 -0.29209727
000220 a0 e9 b0 bc 0d 0d 51 be 68 02 02 be 6e 51 af 3d
       -0.021595776 -0.20415135 -0.1269623 0.08560453
000230 3c 09 f9 bd 06 55 69 be ae 14 dd bd ce 64 68 be
       -0.121599644 -0.2278634 -0.1079496 -0.22694704
000240 aa 15 84 3e 4d c4 87 be b3 e0 61 be 82 2c 6f be
       0.25797778 -0.26516953 -0.22058372 -0.23356822
000250 f1 7c 87 3e ff 89 1b 3e 10 2c e7 be 56 6a e8 3e
       0.2646251 0.1518936 -0.45150805 0.45393628
000260 b7 5e 90 3e 99 3d b9 be 53 19 d3 bd d3 6d 15 bf
       0.28197262 -0.36179808 -0.103075646 -0.58370703
000270 13 ed 5a 3d 9f 75 f9 be 83 7f 67 bd 86 59 ae be
       0.053448748 -0.4872255 -0.05651809 -0.34052676
000280 c9 fd 46 3e c8 23 ec 3e 33 4e 4f bc 47 af 40 3e
       0.19432749 0.4612105 -0.0126529215 0.18816863
000290 c9 8e 9f 3e c0 3e 80 be 96 0d 8d 3e b6 62 a8 3e
       0.31163624 -0.25047874 0.27549428 0.3288781
0002a0 3f 45 b6 bd 1c 16 2e be cc be b8 be 8e 98 e2 3e
       -0.088999264 -0.17000622 -0.36083066 0.44257015
0002b0 83 37 5b be 3f 2f 05 3e f7 82 9f 3e 27 7c 8a bd
       -0.21407895 0.13006304 0.31154606 -0.067619614
0002c0 17 dd 7a 3e 2c 52 9f be c1 17 ab be e8 3a fd be
       0.24498402 -0.3111738 -0.3341656 -0.49459004
0002d0 bf 88 37 be 9e 9d 4c be 44 49 70 3d e9 86 1e be
       -0.17923258 -0.19982001 0.05866362 -0.15481152
0002e0 31 7b b2 be 91 1e ef bd 8e c0 88 be 89 9f da bd
       -0.34859613 -0.11675752 -0.26709408 -0.1067496
0002f0 be 58 6e be 7e 0d df 3d e9 84 7c 3e cc 8c 3c 3d
       -0.2327604 0.10891245 0.24660076 0.046032712
000300 e1 37 1d 3e 40 e1 21 be 6b 04 99 3d 7d 6f 9f 3d
       0.15353347 -0.15808582 0.07471546 0.077849366
000310 0c f7 4f bc 0f 19 dd bd 11 46 de 3d b6 01 c8 3e
       -0.012693178 -0.10795795 0.10853208 0.39063805
000320 b3 e4 aa 3d 7a c0 90 be 65 85 2b be 11 88 da be
       0.08344402 -0.28271848 -0.16750105 -0.42681935
000330 d2 de 06 bf 2d 58 8e 3e 61 cd af 3e a5 e3 df be
       -0.52683747 0.27801648 0.3433638 -0.43728366
000340 69 44 09 3e 10 3e 46 3e 3e 3f 52 be 05 ac d9 3c
       0.13405003 0.19359612 -0.20531937 0.026571283
000350 94 2f 36 b7 6b 39 e4 3d 09 dd 21 3f 8f 2d 2a bd
       -1.0859123e-05 0.11143764 0.632279 -0.041547354
000360 f3 aa ad bb 7c f8 a2 bd b9 19 cd bc 2d 1e 56 3e
       -0.0052999198 -0.07957551 -0.02503668 0.20909949
000370 ed 69 04 3e d9 e4 64 3e c9 17 0d 3f 1b b5 92 3d
       0.12931032 0.22352923 0.5511442 0.071634494
000380 da 97 00 bf 47 fa 6d be a1 45 ea 3e 5c 65 13 3e
       -0.5023171 -0.23240004 0.45756248 0.14394134
000390 7f 5c 39 be 93 a2 8b be 7e 17 9d 3e 5f e8 f5 3d
       -0.1810169 -0.27272472 0.30681986 0.12007212
0003a0 bf d7 45 3e f1 57 fd 3d 11 a8 63 3e 91 14 61 3e
       0.19320582 0.12370289 0.22232081 0.21980502
0003b0 67 db 8a 3e 3d 83 13 3f 30 25 32 3e 78 3a 87 be
       0.27120516 0.5762213 0.17396998 -0.26411796
0003c0 30 f2 8d be f0 ed 40 be a4 e6 9f 3e 29 d9 8d be
       -0.27723837 -0.18840766 0.31230652 -0.27704743
0003d0 0d 4b 61 3e 91 ed aa be 5d 9a 54 bf ca 7e ac be
       0.22001286 -0.33384374 -0.8304804 -0.33690482
0003e0 88 95 15 bd c5 7c 08 3e 44 85 ac 3d 85 2c 2b 3e
       -0.036519557 0.13328846 0.08423856 0.16716202
0003f0 c8 a8 93 3d 34 ad 34 3e c0 4d 8e be 2a 30 b3 bd
       0.07209927 0.17644197 -0.27793694 -0.08749421

conv_ensemble_1.0.bias f4 [16]
000000 ac f8 1d be 6c 96 ff bd a9 7a 11 bb ec 33 ee be
       -0.15426892 -0.124798626 -0.0022198355 -0.46523988
000010 98 08 a5 be 28 be ac be ff 76 87 3d 37 9a 13 be
       -0.3223312 -0.33738828 0.066144936 -0.14414297
000020 af e0 43 3e 78 8e 0e bd 9c a0 15 bd 94 6e 6f 3e
       0.19128679 -0.034803838 -0.036530122 0.23382026
000030 1c 0a 96 bd 86 23 1b bd e1 89 9a 3d 64 c1 88 bd
       -0.07326147 -0.037875675 0.075458296 -0.06677511

conv_ensemble_2.0.weight f4 [32, 16, 5, 5]
000000 9b 32 03 3c b1 37 48 3d 29 53 80 3c 3a cf f0 bc
       0.008007671 0.048881236 0.015664654 -0.029395688
000010 29 6a f0 3c 18 68 81 bd 5d ab fb bc da 60 1c bd
       0.029347496 -0.063186824 -0.03072136 -0.038178302
000020 f5 d5 bc 3c 98 ce 95 3b d1 11 04 bd 9e 59 4b 3a
       0.023051241 0.004571747 -0.032243554 0.00077571895
000030 e8 27 ee 3c 11 e0 6b bd f3 c3 55 bc e8 90 83 3d
       0.029071763 -0.057586733 -0.013047206 0.06424123
000040 2e 3f 67 3d d5 01 75 3b f0 cc 17 bd 85 01 07 bd
       0.056456737 0.0037385125 -0.037060678 -0.032960434
000050 27 b6 3a bc 91 fd 3d bd 6b 9a e8 bc d0 5f 66 bd
       -0.011395968 -0.046384398 -0.028393945 -0.056243718
000060 0c df a1 3c b2 1e 81 bc c8 db 7f bd dc de 95 bd
       0.019759677 -0.015761707 -0.06246546 -0.07317898
000070 1f db 5a 38 55 03 b1 bc 85 04 2b bc 34 bc 65 3c
       5.2179323e-05 -0.021608034 -0.010438089 0.014021922
000080 b0 38 5a bd 35 fc 10 bc b6 14 34 bc 26 b3 61 bd
       -0.053276718 -0.008849193 -0.010991266 -0.05510249
000090 75 9e a2 bd 78 19 af bc b2 d9 93 3d f8 f3 a2 3d
       -0.079403795 -0.02137445 0.072192565 0.079566896
0000a0 4e 66 fd bc fc 9b ec bc 06 7f e2 3c 38 d2 39 bd
       -0.030932572 -0.028882973 0.02764846 -0.045366496
0000b0 0f 56 92 3d 63 6e 5e bd 5c 00 7c bb 23 39 da 3d
       0.071453206 -0.05430449 -0.0038452363 0.10655429
0000c0 85 93 68 3d 71 ef 94 bc 87 6a 99 bc 22 f4 ad bd
       0.05678131 -0.01818058 -0.018727554 -0.0849383
0000d0 49 52 a7 bd a8 7e f5 3c b6 ca 34 bd 2a c5 2f bd
       -0.081699915 0.029967621 -0.044138633 -0.04291264
0000e0 97 54 02 bd d5 00 a1 bd a7 3d c7 bd bd 4d 22 3c
       -0.031818952 -0.07861487 -0.09728556 0.00990623
0000f0 58 c7 4a bd 79 46 61 3d a9 8f 58 bd ec 24 41 bb
       -0.049506515 0.05499885 -0.05287138 -0.002947147
000100 53 c5 cf 3c fc a4 48 3d 7b 27 e0 3c 89 34 e5 3c
       0.025362646 0.048985466 0.027362576 0.027979152
000110 95 4b ce 3c 4c 2e 33 3d f8 fe d0 3a 2e 01 9a bd
       0.025182525 0.043745324 0.0015945127 -0.07519756
000120 2d 61 1f bc 1e 41 fc 3d 75 b8 de bc 24 eb 64 bd
       -0.009727758 0.123171076 -0.027187565 -0.05588831
000130 a0 36 4c bd 8b 73 a2 bd 0c 7a ec 3b 31 34 29 bc
       -0.049856782 -0.07932194 0.0072166976 -0.010327385
000140 72 4f e6 bc 80 86 58 bd 67 7d 6f bd 9d 1d 9a bd
       -0.028114054 -0.052862644 -0.058469202 -0.075251795
000150 85 ae 96 bd e5 7e ca bd 15 a1 9a bd d6 2d a6 bc
       -0.07357506 -0.098874845 -0.07550255 -0.020285528
000160 f4 b1 ff bc 9d 7e e0 bc 6b d1 8d bc 4e 52 ef bc
       -0.031212784 -0.027404124 -0.017311772 -0.02921405
000170 e4 d2 73 bd eb 77 77 bd 5e 3a 19 bc b6 70 3e bd
       -0.059527293 -0.060417097 -0.009352295 -0.04649421
000180 29 e6 84 bc 67 71 c7 bd 5a 62 70 bd 88 bd a0 bd
       -0.01622303 -0.09738427 -0.058687545 -0.0784865
000190 7c dd db bb be 18 c2 ba 51 7d ce 3d ca c2 35 bd
       -0.0067097526 -0.0014808399 0.10082496 -0.04437522
0001a0 e5 ce d8 bc d9 3f d3 3c 6e e6 5e bd 67 47 de bc
       -0.026465843 0.02578728 -0.054418974 -0.027133657
0001b0 ab 22 df bd 36 83 5c bd b7 12 61 bc 95 00 33 bd
       -0.10895284 -0.05383607 -0.013737372 -0.043701727
0001c0 73 50 81 3b d2 1f 52 3c 22 d6 35 3c 44 e0 4f 3d
       0.003946358 0.012824969 0.0110984165 0.050750986
0001d0 a8 88 f8 3b 6a fc 4c 3d b1 17 c6 bc 0e cd 5e 3b
       0.00758465 0.05004541 -0.024181219 0.0033996734
0001e0 d0 3f 96 3c 73 b2 4c 3d c4 50 4c 3d ba 43 71 bd
       0.018340975 0.04997487 0.04988171 -0.05890248
0001f0 5d 2a bc 3c 1a d0 55 bd 08 10 31 bd f9 8e d1 3c
       0.02296942 -0.052200414 -0.04322818 0.02558087
000200 e4 fa bb 3c 71 e4 b0 3c 2e 47 63 3d 6c e1 d3 bc
       0.022946782 0.021593304 0.055487804 -0.025864325
000210 8f 9b 5f bc a7 05 4d bd 88 7c 44 bd c5 fa ce 3c
       -0.013647928 -0.05005422 -0.047970325 0.02526606
000220 65 ce 39 bd 27 53 01 3d 2e e1 1e bc 5c 07 6a bc
       -0.04536285 0.03157344 -0.009697242 -0.014283981
000230 4c b6 26 3d d9 a7 4e bd b5 bd 24 3d e6 6f 87 3d
       0.040701196 -0.05045304 0.04021998 0.0661314
000240 7b 41 c1 3c 7e fd 8e bc 60 f1 1f bd 2e 85 f2 3b
       0.023590794 -0.017454859 -0.039048553 0.00740113
000250 80 37 d5 3a a5 80 58 ba d5 98 aa bc 8d b7 15 3d
       0.0016267151 -0.00082589156 -0.02082483 0.036552
000260 16 9f 96 3d 6b bf 08 bc b2 48 c4 3d 70 40 b6 bd
       0.07354562 -0.008346419 0.09584178 -0.08899009
000270 16 fe 97 bc a3 ba 7a bd 2f 68 8b bb 21 42 8f 3c
       -0.018553775 -0.061213147 -0.004254363 0.017487587
000280 c3 77 b1 bd 64 4b 50 3d ef db ae 3b 94 b6 56 bc
       -0.08665421 0.050853148 0.0053362767 -0.013105053
000290 17 41 6e 3d 7c 3e cc 3c 97 82 3c bd d8 31 1f 3c
       0.058167543 0.024932139 -0.046022978 0.0097164735
0002a0 01 c3 1f bd c3 84 04 3c 85 dd 13 3d 6a be 8c bc
       -0.03900433 0.0080882935 0.03609993 -0.01718064
0002b0 ac a7 c9 b8 58 64 89 bd 57 47 90 3b 81 8c 05 3c
       -9.615658e-05 -0.06708592 0.0044030356 0.0081511745
0002c0 8f 44 81 bd da ac 0f 3c 5f d2 b5 3c e0 9d 23 bc
       -0.06311905 0.008769238 0.02219504 -0.009986371
0002d0 b5 25 be 3c 86 2e 32 bd 83 ba 7d bd 5f 64 92 bd
       0.02321134 -0.0435014 -0.06194545 -0.071480505
0002e0 05 c3 c1 3c f5 59 0c 3d c2 2f d5 3c 50 49 0e bd
       0.023652563 0.034265477 0.02602375 -0.034737885
0002f0 34 0b 5b 3c 0f 40 52 3d 08 5a 3d 3d 2e 0c bb 3c
       0.01336937 0.051330622 0.04622844 0.022832956
000300 40 23 c1 3c e6 d4 86 39 85 eb 7f 3d 2a 7d 4b 3c
       0.023576379 0.00025717093 0.06248047 0.012419978
000310 b6 fd e8 3c 66 66 3e 3d af 4d d7 bc 0a 63 58 3d
       0.028441291 0.046484374 -0.02628216 0.052828826
000320 31 3b 8f bd bd 51 6d 3d ba e1 7c 3d ab ad f2 3b
       -0.06993712 0.05793928 0.061738707 0.0074059567
000330 0a 47 ca bb a6 44 56 3c 86 b9 51 bd 09 30 9c ba
       -0.0061730193 0.0130778905 -0.05120232 -0.0011916171
000340 07 13 ca bc 99 06 63 bc df c0 21 3d 62 e2 90 bc
       -0.024667276 -0.0138565535 0.039490577 -0.017686073
000350 70 67 76 bd 1c 49 4c 3b 25 4a c3 bc 5f 86 4b 3d
       -0.06015724 0.0031171506 -0.023839066 0.049688693
000360 33 26 23 3c ba cf 4d bd 31 1b 3a 3d de d5 27 bd
       0.009957838 -0.05024693 0.045436088 -0.040975444
000370 f1 ee c3 bc cc b1 95 bc 94 6f ab 3d 3c ea a7 3a
       -0.023917647 -0.018273257 0.08370891 0.0012810896
000380 ad cc 1d bd 40 00 6a bb 2e 05 14 3e dd c8 19 bd
       -0.038525272 -0.0035705715 0.14455101 -0.037545074
000390 7b 70 9a 3c e1 ea 4c 3d fa 7b bc bd 36 af 40 bd
       0.018852463 0.050028685 -0.09203334 -0.047042094
0003a0 ed 98 40 bd 2b 36 bd 3c 83 cc ae 3d cf eb f3 3c
       -0.04702084 0.023097118 0.08535101 0.029775528
0003b0 0a 3f c2 bd 72 c2 77 bd d5 4e 34 3c 63 26 d8 bc
       -0.0948468 -0.060488172 0.011005123 -0.026385492
0003c0 91 72 6a bc d0 9c a9 bd db 5a 28 3d e9 dd af bc
       -0.014309541 -0.08281863 0.04110227 -0.02146812
0003d0 08 bc de bb 7d 2b bf 3c db d3 78 3d 92 f8 b7 3b
       -0.0067973174 0.023336167 0.060748916 0.0056143487
0003e0 e9 2d be bc 9b f7 d4 bc 73 f2 a2 bd 35 79 6b 3d
       -0.023215251 -0.025996974 -0.079564 0.05748864
0003f0 a6 fc c5 bc 5b f4 25 bd c3 23 fd 3c 72 44 8e bc
       -0.024168324 -0.04051624 0.030900842 -0.017366622

conv_ensemble_2.0.bias f4 [32]
000000 37 38 d4 3c a3 1e 2c 3d 55 69 c4 bd 1c 60 0d bd
       0.025905712 0.042021405 -0.09590403 -0.034515485
000010 ac 34 af bc 9e a8 67 bd a1 e5 e4 bd a8 6e bc bc
       -0.02138742 -0.05655729 -0.11176611 -0.023001984
000020 dc a0 24 be ca a2 29 bd af d5 be bc 85 cc 19 bd
       -0.16076988 -0.041415013 -0.023295252 -0.03754856
000030 4a a8 4a bd cf e8 e7 bd 87 c0 bc bd ea 4c 25 3d
       -0.0494769 -0.113237016 -0.09216409 0.040356554
000040 4f 00 b3 bd 8d d0 21 bd 46 8f 67 3d 8d d7 94 3d
       -0.08740293 -0.03950553 0.05653312 0.072676755
000050 6d db b5 bd 2f 56 4e bd e9 77 a6 bd 63 55 bb bb
       -0.08879743 -0.05037516 -0.0812834 -0.005716966
000060 68 30 00 bd 83 eb 8b 3d 78 95 06 bc 2f 47 ed bd
       -0.031296164 0.0683203 -0.008214347 -0.11585843
000070 7d da db bd 54 ea 38 3d 38 b9 1d 3d 69 bf a1 3d
       -0.10735033 0.045145348 0.038506716 0.07897837

fully_connected_layer.weight f4 [10, 1568]
000000 8c 74 18 bd 74 3d 3d bc b7 c7 47 bc fa fa c7 bc
       -0.037220523 -0.011550296 -0.012193612 -0.024411667
000010 6b df 4b bd 75 7d 60 3b 25 c0 cf bc a0 8d 7d bd
       -0.049773615 0.0034254466 -0.025360176 -0.061902642
000020 1e 01 87 3c 8f 9f e9 bd a9 20 83 3a c8 92 9f bd
       0.016480025 -0.114073865 0.001000424 -0.07791668
000030 15 ab 83 bc 09 80 fb bc da f5 58 bd 57 a6 d1 bb
       -0.01607279 -0.0307007 -0.052968837 -0.006398003
000040 36 33 94 bb 7f b0 a6 3d 5f 7d d4 3c fc a3 0a 3d
       -0.0045227064 0.08139133 0.025938688 0.033847794
000050 6e fb cc b9 54 50 42 39 7f c9 b0 bc 73 e2 9d 3b
       -0.00039097242 0.00018531206 -0.021580456 0.0048182546
000060 8f 86 3b 3d 07 5b f7 3d 9a cd 55 3b 8b 03 a6 3d
       0.045782622 0.12077909 0.0032623769 0.081061445
000070 61 c8 44 3d 35 ad 6c 3d 5d 0a 77 bc c6 69 d4 3c
       0.04804266 0.05778237 -0.015078154 0.025929343
000080 97 d3 31 3d 41 d1 82 3b 67 a6 0a 3d 3d 42 3e bc
       0.04341468 0.00399223 0.0338501 -0.011612472
000090 26 08 33 bd 19 2f 8b 3c a0 99 82 3a 97 5a a5 bb
       -0.043708943 0.016990231 0.0009963997 -0.0050461995
0000a0 3a 27 88 bd fa ea 91 3d af b5 78 3c e4 6e dc bb
       -0.06648107 0.07124896 0.0151800355 -0.0067270864
0000b0 46 f4 91 bc 96 95 a9 bc ce e1 62 bc 4b 36 b4 bc
       -0.017816674 -0.020701211 -0.013847781 -0.021998545
0000c0 fa 82 b0 3b 2f 80 16 3c 6d 2c 22 bd 1c 41 36 bc
       0.0053867074 0.009185835 -0.03959315 -0.011123922
0000d0 1c 24 00 3d 3b 26 f4 3b 87 2e a3 3b 6b 27 b3 3b
       0.031284437 0.0074508465 0.0049799117 0.0054673455
0000e0 f7 8a d6 3d 19 92 54 bd 3b e9 31 3e 01 ea ca bd
       0.10475724 -0.051897142 0.17374127 -0.09907914
0000f0 3d 5c e1 3d ee 3f 85 bd a9 0a 96 3c 15 15 18 be
       0.11003921 -0.06506334 0.01831563 -0.14851792
000100 66 e3 80 3d c6 8d a3 3c 69 ae b4 3d 0e 47 54 3d
       0.06293373 0.019965064 0.088223286 0.051825576
000110 15 50 04 be 53 12 b1 3d 9e f7 b0 3d 41 df ce bc
       -0.12921174 0.08646073 0.08640979 -0.02525294
000120 5e 0f 35 3d 17 ce 17 3e 23 18 f8 3b 00 fe d1 bc
       0.04420411 0.14824711 0.0075712367 -0.025633812
000130 9c 7f 73 3d 1e 2e ca bc 7b 1d a2 bc 75 2a 43 bd
       0.05944787 -0.024680194 -0.019789448 -0.047647912
000140 28 37 27 3d b0 a6 90 3c cd 49 a3 bd 0d ca 97 bb
       0.040824085 0.017657608 -0.07973061 -0.0046322406
000150 f5 69 f6 3b e2 cf 86 bd b4 a0 b2 bd 1b ba 58 bb
       0.0075199553 -0.06582619 -0.08722058 -0.0033069912
000160 fa f2 da 3b 52 40 e2 bc ea 58 0d 3d 5e 8a ef bd
       0.006681797 -0.027618561 0.034508623 -0.11696313
000170 7b c3 96 bd 58 29 2f 3c a0 b3 98 3c e2 10 cf ba
       -0.07361504 0.010691009 0.01864034 -0.0015797878
000180 41 a8 3d 3d 3d fb 88 3d 2c f8 be bc 26 6a 0d 3e
       0.046303038 0.06688545 -0.023311697 0.13810024
000190 75 30 e3 bd 65 cd 6b 3b 89 b6 db bd 21 4c d1 bd
       -0.11093227 0.003598058 -0.10728175 -0.102195986
0001a0 28 aa a9 bd 6e c8 8f bd 66 73 96 3d 32 00 f4 bd
       -0.08284408 -0.07020651 0.07346229 -0.119141
0001b0 2e c3 28 3d 91 1d 7a 3d cf c0 05 bc 97 3a 3e bd
       0.041201763 0.061063353 -0.008163645 -0.046442594
0001c0 55 37 57 3c 97 7a cd 3d 5f 10 2b 3d fe 03 0d 3e
       0.013135751 0.10033148 0.04176366 0.13771054
0001d0 b3 22 ad 3c 77 85 0b 3d f1 1d c1 3b a7 22 d5 3c
       0.02113471 0.03406283 0.005893462 0.0260175
0001e0 e4 ac c8 bc e6 9c 97 3c e3 28 7d 3c ec ec 24 3e
       -0.024496503 0.018507432 0.015451643 0.16106004
0001f0 8b 85 d4 3b 08 48 37 bd 78 fc 7a 3d 4e a4 d6 bd
       0.006485646 -0.04474643 0.06127593 -0.104805574
000200 f5 c3 90 bd 9b e0 cb bb d3 75 30 bd 94 e8 84 bd
       -0.07068626 -0.0062218434 -0.043081116 -0.06489673
000210 2b c7 67 3d 80 28 be 3d db d1 32 bd b7 8a 44 3d
       0.056586426 0.092850685 -0.043657165 0.04798385
000220 13 37 c0 3d c2 5d 63 bb 0b 50 80 bc 38 53 4f bb
       0.093855046 -0.0034693335 -0.015663167 -0.0031635296
000230 22 4c c8 3c 06 e5 10 bd 55 a4 d4 bc e2 82 54 3d
       0.024450365 -0.035374664 -0.025957266 0.051882632
000240 4d 0c ee bd 74 8e cb bb dd 28 43 bc d5 b3 ad 3c
       -0.1162344 -0.00621205 -0.011911598 0.021203915
000250 73 36 97 3b 92 f7 d3 bb b9 96 0b bb 0c 7c cc 3b
       0.004614645 -0.0064687217 -0.0021299555 0.0062403735
000260 ae 28 98 bc e5 4a 16 bc 6a 07 d9 3d 93 db 06 3e
       -0.018574085 -0.00917313 0.10597117 0.13169698
000270 47 69 94 bd fd c3 17 bb e1 4d ef bd 75 2f 59 3d
       -0.072466426 -0.002315759 -0.11684776 0.053023774
000280 19 da 9f bd 0f 5d 3f 3b 66 08 d8 bb 92 af c2 bd
       -0.07805271 0.0029199754 -0.006592798 -0.09506144
000290 66 58 8d 3d 4a b6 35 be 66 f1 ff bc f4 8b 9a bd
       0.06901626 -0.17745319 -0.031243037 -0.07546225
0002a0 a9 13 8f bc f2 89 af 3a 23 5e b3 bc 2b 26 0e 3d
       -0.01746543 0.0013392551 -0.021895474 0.03470437
0002b0 8d 8a 0a be cf de 62 bd 60 2a 08 3e 1b dc a9 bb
       -0.13529415 -0.055388268 0.13297415 -0.0051837093
0002c0 c6 bd 08 3e aa 88 85 bc 88 52 83 bc 5e f8 a2 3d
       0.13353643 -0.016300518 -0.016030565 0.079575285
0002d0 ae ed 4a bc 34 2f 5b 3d 0f b0 0b bd c8 fc b0 3c
       -0.012385769 0.053511813 -0.03410345 0.02160491
0002e0 f3 0a 38 3d 48 08 30 3c e8 8e cf ba 8f e4 17 3e
       0.044932317 0.010744162 -0.0015835436 0.14833282
0002f0 5a 3e 01 3e 2e 1f cf bd c8 fa 1d 3d 6e 62 47 bc
       0.12621441 -0.10113369 0.03856924 -0.012169464
000300 22 91 28 bd ba e2 14 3c 05 f7 c6 3d d7 34 0e 3d
       -0.041154034 0.009087259 0.09715084 0.03471836
000310 0a d9 05 be 60 2e 03 3e a0 e7 7e be 83 94 a4 bd
       -0.13071075 0.1281066 -0.24893045 -0.08036139
000320 b2 8a 4f 3e 9a c2 89 bd f4 5a 3a 3d 4f 8e 66 3d
       0.20267752 -0.067265704 0.045496896 0.05628806
000330 67 f3 e1 bd ae 35 7f be 34 d7 19 3d e0 23 96 bb
       -0.110327534 -0.24922821 0.03755875 -0.0045819134
000340 3b 50 8e bc 54 13 1b 3d d3 a2 df 3d 57 9d 0a 3c
       -0.017372241 0.03786023 0.10919728 0.008460364
000350 24 24 d8 bd cf 14 14 3d 17 1c 2d bd 4f 4b d3 3c
       -0.10553768 0.036152657 -0.042263117 0.025792746
000360 d2 cd d4 bc 9c 3d ce 3d b3 24 30 3c 20 56 a6 bd
       -0.025977049 0.10070345 0.010750937 -0.08121896
000370 bd a9 42 3d 89 25 01 bd 4e 00 6d bd 29 79 2a bd
       0.047525156 -0.031529937 -0.05786162 -0.041619454
000380 27 3d 2e 3e d8 8a 1d bd 36 6b 0c be cc 35 9e 3c
       0.17015515 -0.03846249 -0.13712773 0.019312762
000390 aa 1b 1f 3d f7 82 2e bd 18 2b 9c 3b 89 7b d8 bc
       0.038844742 -0.042605367 0.0047658794 -0.026426094
0003a0 67 85 e3 bc c0 80 95 3c 40 c9 2a ba 06 09 a3 3d
       -0.027773572 0.01824987 -0.0006514974 0.079607055
0003b0 92 5f 0e be 62 69 5d bb fc ac 17 bc 21 6c 37 3b
       -0.13903645 -0.0033784737 -0.009257551 0.0027988034
0003c0 32 cb c2 3d 40 4b d5 bc 10 ca 08 3e be 0e 35 3d
       0.09511413 -0.026036859 0.1335833 0.044203512
0003d0 2f 25 40 3d 19 1b 46 3d 4d 3c 81 bd d8 0f cb bc
       0.04691046 0.048365686 -0.063103296 -0.024787828
0003e0 05 26 3f 3c b9 50 0d bd e1 42 4c 3d e6 63 ce 3b
       0.011666779 -0.03450081 0.04986847 0.00629853
0003f0 ac 5f 78 bd e2 b4 00 bd eb 6e a8 3d 2d e8 09 be
       -0.060638115 -0.031422503 0.08224281 -0.13467474

fully_connected_layer.bias f4 [10]
000000 79 93 ed bc 4e ad 29 bd 94 91 b9 3d 4e 1c 32 3d
       -0.029000985 -0.04142504 0.0906097 0.043484025
000010 51 49 7a 3d 5e 2c f5 bd 96 6b 2c 3d e2 a5 78 3d
       0.061105076 -0.11971353 0.04209479 0.060705073
000020 16 2d 8a bc ba 66 86 bd
       -0.016867202 -0.06562562
