2_Auto_Diff/models/model_parms_case_2.pt (torch, 117911 bytes, 6 tensors)

conv_ensemble_1.0.weight f4 [16, 1, 5, 5]
0	0xbd25a193	-0.040437292
1	0x3e961cc6	0.29318827
2	0x3eec0d13	0.46103725
3	0xbdf98fac	-0.12185606
4	0xbecf5272	-0.40492588
5	0xbe893f6a	-0.26806194
6	0xbc831e7d	-0.016005749
7	0x3f144c16	0.579286
8	0x3e4a33e6	0.1974636
9	0xbe92c769	-0.28667763
10	0xbeeedda6	-0.4665348
11	0xbe440405	-0.19142158
12	0x3e90a6c1	0.28252223
13	0x3ef21ea5	0.47289005
14	0xbe0d9291	-0.13825442
15	0xbe6ebae7	-0.23313485
16	0xbeb53945	-0.35395256
17	0xbe8cdc89	-0.27512005
18	0x3d62a564	0.05533351
19	0x3e99ec5b	0.30063137
20	0x3e367e7c	0.17821687
21	0xbe2a3102	-0.16620257
22	0xbe06e9cc	-0.13175124
23	0xbde18b8d	-0.11012945
24	0x3e97100c	0.2950443
25	0xbe63c1fc	-0.22241968
26	0x3ddd98ac	0.108201355
27	0xbe365114	-0.17804366
28	0xbe15b702	-0.14620593
29	0xbe2275fd	-0.15865321
30	0xbd4b147d	-0.049580086
31	0xba2c7098	-0.0006578057
32	0xbdbc63ea	-0.091987446
33	0x3d4030c4	0.046921507
34	0x3e09df77	0.13464151
35	0x3d8fb40a	0.070167616
36	0x3e0111ac	0.12604398
37	0x3e0e10bd	0.13873573
38	0xbd890ba6	-0.06691675
39	0x3e368e63	0.17827754
40	0xbcc07c8c	-0.023496889
41	0xbd5085c4	-0.05090882
42	0x3dc3be30	0.0955776
43	0x3d7ba116	0.06143292
44	0x3e36adeb	0.17839782
45	0x3ddadcc9	0.10686643
46	0x3e119522	0.14217046
47	0x3ea5500b	0.3228763
48	0xbd1cdee0	-0.038298488
49	0x3e9fd3de	0.3121633
50	0x3e2c2979	0.16812696
51	0x3dc3205a	0.09527655
52	0xbe970dca	-0.29502708
53	0xbd9be0ed	-0.076112606
54	0x3e4b2311	0.19837596
55	0xbd284174	-0.041078046
56	0x3f07245a	0.52789843
57	0xbe38564e	-0.18001673
58	0xbf00c377	-0.50298256
59	0x3e363e64	0.17797238
60	0xbe897ea7	-0.2685444
61	0x3ebfdde6	0.37473983
62	0x3f1e5476	0.6184763
63	0xbf0d0383	-0.55083483
64	0x3da29db2	0.07940234
65	0xbed30cc6	-0.41220683
66	0xbec6120d	-0.38685647
67	0x3f57782c	0.8416774
68	0xbd9db76f	-0.07701003
69	0xbd997095	-0.074921764
70	0x3e520b6a	0.20512167
71	0xbf08d136	-0.5344423
72	0xbd06ce0a	-0.032911338
73	0x3e809914	0.2511679
74	0x3d8b11ea	0.06790526
75	0x3e405310	0.18781686
76	0xbdae4d0a	-0.08510788
77	0xbde69647	-0.11259132
78	0xbe1733aa	-0.14765802
79	0xbd0b8ed1	-0.034071747
80	0x3e6a9a36	0.2291039
81	0xbd031581	-0.03200293
82	0xbc7cbfde	-0.015426604
83	0xbeb445f7	-0.3520963
84	0xbf12f6d5	-0.57407886
85	0x3e996c66	0.29965514
86	0xbe399036	-0.18121418
87	0xbe513909	-0.20431913
88	0xbecb3ef2	-0.3969646
89	0xbf1655cc	-0.58724666
90	0x3e1a781e	0.15084884
91	0xbda254ad	-0.07926307
92	0x3d8bb495	0.06821553
93	0x3daeaf97	0.08529585
94	0xbd9d90ff	-0.076936714
95	0x3e4a2c23	0.197434
96	0x3e9d18df	0.30683038
97	0x3e52bdaf	0.20580171
98	0x3e11f4fc	0.1425361
99	0x3e114734	0.14187318
100	0x3e3b15d0	0.1827004
101	0x3ee23c18	0.44186473
102	0x3dd68a05	0.10475544
103	0xbf23cfa1	-0.6398869
104	0xbe85cf49	-0.2613471
105	0x3e0f75d1	0.14009787
106	0x3ea98dcd	0.33115998
107	0x3dfbd432	0.122963324
108	0xbf1c259a	-0.60994875
109	0x3dee6706	0.11640744
110	0xbba89403	-0.0051445975
111	0xbe3a0e8f	-0.18169616
112	0xbea5769a	-0.32317048
113	0xbe280adf	-0.16410397
114	0x3eb70eef	0.3575358
115	0xbdd71ab3	-0.10503139
116	0xbea95f6b	-0.3308061
117	0xbe942758	-0.28936267
118	0x3ccef5df	0.025263725
119	0x3e1b98dd	0.15195031
120	0xbdc79bb2	-0.097464934
121	0xbd6995bc	-0.057027563
122	0x3d69b6a8	0.05705896
123	0x3e252f1c	0.16131252
124	0x3e9b8837	0.3037736
125	0x3db20734	0.0869278
126	0x3d733a65	0.05938186
127	0xbe926a47	-0.28596708
128	0x3db9c2f3	0.09070387
129	0x3dc38b38	0.09548038
130	0x3e887833	0.26654205
131	0xbdbca6b7	-0.09211486
132	0xbf0049d5	-0.5011266
133	0x3cf1ac3e	0.029501077
134	0x3e929a29	0.2863324
135	0xbc82df63	-0.01597566
136	0xbdfb2f29	-0.122648545
137	0xbf05df78	-0.5229411
138	0x3e159dd1	0.14610983
139	0x3ea2fedd	0.3183507
140	0xbdd1a460	-0.1023643
141	0xbdc00b7f	-0.09377193
142	0xbda7ead5	-0.081990875
143	0xbdaa6c64	-0.08321455
144	0x3ebb9f8b	0.3664516
145	0x3d58e51c	0.05295287
146	0xbb854fd6	-0.004068355
147	0xbd63a59d	-0.055577863
148	0x3daf710c	0.08566484
149	0x3ea772b0	0.32704687
150	0xbec537f6	-0.38519257
151	0xbeec98b4	-0.46210253
152	0xbe1d36bf	-0.15352915
153	0xbe84fa5c	-0.2597226
154	0xbe4bcc56	-0.19902167
155	0xbdda0601	-0.106456764
156	0xbd5a35f6	-0.053274117
157	0x3e658330	0.22413325
158	0x3e186948	0.14883912
159	0xbe89b215	-0.26893678
160	0xbe38623a	-0.1800622
161	0x3e4d776f	0.20065092
162	0x3e783ca1	0.24241878
163	0xbd84c53e	-0.064829335
164	0xbea61797	-0.32439873
165	0xbbd2900f	-0.0064258645
166	0x3e8b392a	0.2719205
167	0x3d057db3	0.03259058
168	0x3e407f8c	0.18798655
169	0xbe1ae4bb	-0.15126316
170	0x3e205bcb	0.15660016
171	0x3e86b52d	0.263101
172	0x3e3833eb	0.17988555
173	0x3e8bdf23	0.27318677
174	0x3dff2429	0.12458069
175	0x3d4075b1	0.04698724
176	0x3dc71934	0.09721604
177	0xbce08d3e	-0.0274111
178	0x3cd9de86	0.026595365
179	0xbcbc5127	-0.022987915
180	0x3e18fffe	0.14941403
181	0x3e01938e	0.12653944
182	0x3e6becde	0.23039576
183	0x3e310189	0.17285742
184	0xbd7d029f	-0.061770078
185	0x3e02f2bc	0.12787908
186	0x3e40ebc6	0.1883994
187	0x3e3bb387	0.18330203
188	0x3e4dc1a8	0.20093405
189	0x3dacf5cb	0.08445319
190	0x3e579137	0.21051489
191	0x3e667da7	0.2250887
192	0x3e7a2eca	0.24431911
193	0x3e84cb36	0.25936288
194	0x3e6a5842	0.2288523
195	0xbe09f107	-0.13470851
196	0x3d92519a	0.071444705
197	0x3cba0dd8	0.02271168
198	0x3d1c61ee	0.03817933
199	0xbd488283	-0.04895259
200	0x3e083698	0.13302076
201	0x3ddd3799	0.1080162
202	0x3dd02153	0.10162606
203	0x3e871c40	0.2638874
204	0x3e042307	0.12903987
205	0x3e80fe4a	0.25194007
206	0x3ed2a58c	0.41141927
207	0x3ea1f9c8	0.3163588
208	0x3cf8f4d8	0.030390188
209	0xbd4cb6c6	-0.049978994
210	0x3caeb51c	0.021326594
211	0x3cf4e7d2	0.029895697
212	0xbdf0decb	-0.117612444
213	0xbe1e37c8	-0.15450966
214	0x3e6087f7	0.21926866
215	0xbefcae98	-0.49351954
216	0xbed89231	-0.42299035
217	0xbe843c2c	-0.25827157
218	0xbe416f0a	-0.18890014
219	0x3e29b750	0.16573834
220	0xbe8c4f7f	-0.274044
221	0xbe868d9d	-0.26279917
222	0xbebd1445	-0.36929527
223	0x3d367ff2	0.044555612
224	0x3dce763e	0.10081147
225	0x3de265da	0.11054583
226	0x3e32142e	0.1739051
227	0x3df4081c	0.11915609
228	0x3d937324	0.07199696
229	0xbcf02ddd	-0.029318744
230	0x3de7bb05	0.11314968
231	0x3e902656	0.28154248
232	0xbd76924f	-0.060198124
233	0x3c781c44	0.015143458
234	0xbd1f0c1d	-0.03882991
235	0x3e414c8b	0.18876855
236	0x3e9ffa18	0.31245494
237	0xbe7e0348	-0.24805939
238	0xbe143808	-0.14474499
239	0xbd10c9f0	-0.035348833
240	0xbda99ea6	-0.08282213
241	0x3ea32a16	0.31868047
242	0xbd8a17e9	-0.06742842
243	0xbda55bd2	-0.08074154
244	0xbe50dd25	-0.2039686
245	0x3e09c2a6	0.13453159
246	0x3e4a31ed	0.19745608
247	0xbdaa201e	-0.08306907
248	0xbe86fafa	-0.26363355
249	0xbe637a2b	-0.22214572
250	0x3d3f2fbb	0.04667638
251	0xbd3ea5c7	-0.046544816
252	0xbd330145	-0.043702383
253	0x3ec358cc	0.38153684
254	0xbe142444	-0.14466959
255	0xbc62d5c9	-0.013844916

conv_ensemble_1.0.bias f4 [16]
0	0xbef537dc	-0.4789418
1	0xbe2753b2	-0.16340521
2	0xbe53b6bc	-0.20675176
3	0xbf5bbc14	-0.8583386
4	0xbf000cf5	-0.5001977
5	0xbea94397	-0.3305938
6	0xbf0ce6d3	-0.5503971
7	0xbfa05b99	-1.2527953
8	0xbf389de9	-0.7211595
9	0xbeb8e95c	-0.3611554
10	0xbe874d95	-0.26426378
11	0xbea7404e	-0.32666248
12	0xbf2a0758	-0.66417456
13	0xbe16e4e9	-0.1473576
14	0xbf463667	-0.7742676
15	0xbeb3698c	-0.35041463

conv_ensemble_2.0.weight f4 [32, 16, 5, 5]
0	0x3e1468f6	0.14493164
1	0x3dd61026	0.10452299
2	0xbdd2d815	-0.102951206
3	0xbe226e62	-0.1586242
4	0xbd2e5760	-0.042563796
5	0x3e0a5408	0.13508618
6	0x3dcbffc1	0.099608906
7	0xbd06e30a	-0.032931365
8	0xbd98bdf9	-0.074581094
9	0xbdd5cc38	-0.10439342
10	0x3d7df8df	0.06200492
11	0x3dc630ed	0.096773006
12	0xbc00dd6c	-0.007865291
13	0xbe02dac9	-0.12778772
14	0xbe4817c7	-0.1954032
15	0x3c0f1d3c	0.008734997
16	0x3d8f95e2	0.0701101
17	0xbbfcd896	-0.0077162487
18	0xbdb70690	-0.089367986
19	0xbe5dd09a	-0.21661606
20	0xbd34b425	-0.04411711
21	0xbe18a89c	-0.1490807
22	0xbd2e757d	-0.042592514
23	0xbdf0902c	-0.117462486
24	0x3cf460e4	0.029831357
25	0xbd4a6a9c	-0.049418077
26	0xbd027586	-0.03185036
27	0x3d04a2a7	0.03238168
28	0xbd648628	-0.055792004
29	0xbe37f6e4	-0.17965275
30	0xbdfb933c	-0.12283942
31	0xbdcbbdc7	-0.099483065
32	0xbdc00b76	-0.09377186
33	0xbe030eeb	-0.1279866
34	0xbe676854	-0.22598392
35	0xbd4011e6	-0.04689207
36	0xbd65875f	-0.056037303
37	0xbd28d2f6	-0.041216813
38	0xbe10557e	-0.14095113
39	0xbe570ad2	-0.21000221
40	0x3d511bbb	0.051051836
41	0x3d3b040a	0.04565815
42	0x3d366ab3	0.04453535
43	0x3e03c76e	0.12869045
44	0x3d905950	0.07048285
45	0x3de9e457	0.114205055
46	0x3d2a8658	0.041632026
47	0xbc02a5dd	-0.007974115
48	0xbcaa6699	-0.020800875
49	0xbd42ef9d	-0.047591794
50	0x3d9083cb	0.070563875
51	0x3d82be61	0.06383968
52	0xbdb12030	-0.086487174
53	0xbe6e350e	-0.23262426
54	0xbd60e77c	-0.05490826
55	0xbc4a9041	-0.012363494
56	0x3cad599e	0.021160897
57	0xbe82ed4f	-0.25571677
58	0xbe2b5af0	-0.16733909
59	0xbd5226c7	-0.051306512
60	0xbdbb8e9b	-0.09158059
61	0xbe1b1794	-0.15145713
62	0xbe15bad0	-0.14622045
63	0x3d2d7c80	0.04235506
64	0xbe34e7d1	-0.17666556
65	0xbd97511e	-0.07388519
66	0xbd90b91d	-0.070665576
67	0xbd7c7151	-0.061631504
68	0x3dc0b25a	0.09409018
69	0xbe106683	-0.14101605
70	0xbda72065	-0.08160476
71	0xbda17c5a	-0.07885046
72	0x3c94d53a	0.01816808
73	0xbb69c37e	-0.00356695
74	0x3b52c60e	0.0032161507
75	0x3c347691	0.011014597
76	0xbe110c7a	-0.14164916
77	0xbd9a2044	-0.075256854
78	0x3e827a5e	0.25483984
79	0x3da23869	0.07920916
80	0xbbf18698	-0.007370781
81	0xbe4b7c5f	-0.19871663
82	0xbe328723	-0.17434363
83	0x3b038f53	0.0020074442
84	0x3e4bef27	0.19915448
85	0xbd5ac633	-0.053411674
86	0xbe94ae7b	-0.29039368
87	0xbd8dd4c1	-0.06925345
88	0x3e7ac688	0.24489796
89	0x3ebc27e8	0.36749196
90	0xbde6aeea	-0.11263831
91	0xbe2b0736	-0.1670197
92	0xbdba35de	-0.090923056
93	0xbd0f91d6	-0.03505119
94	0xbe261622	-0.1621938
95	0xbdd3ee43	-0.10348179
96	0xbddab30b	-0.10678681
97	0x3e3934d0	0.18086553
98	0xbc8fe8e8	-0.017567113
99	0xbbff83ca	-0.007797693
100	0x3d813fa6	0.06310968
101	0xbca58fd4	-0.020210184
102	0xbce90bd2	-0.02844802
103	0xbdaa7cbc	-0.083245724
104	0xbdbb0b53	-0.09133019
105	0x3d351e8e	0.044218592
106	0x3dc9a4f0	0.098459125
107	0xbe33e705	-0.17568596
108	0xbe0b6dce	-0.13616106
109	0xbce50191	-0.027954848
110	0x3dd9e6f2	0.106397524
111	0x3df87420	0.12131524
112	0xbe00fcdc	-0.12596458
113	0xbda4458b	-0.08021077
114	0xbd9fb825	-0.07798795
115	0xbca9d182	-0.020729784
116	0x3c9ca338	0.019120798
117	0xbbffd2a7	-0.007807094
118	0x3e1c6750	0.15273786
119	0xbdc67f97	-0.096923046
120	0x3d9be1fd	0.07611463
121	0x3d493598	0.049123377
122	0xbe3ad5fb	-0.1824569
123	0xbb50e5ae	-0.003187518
124	0x3d5358ae	0.051598243
125	0xbdbedb33	-0.09319153
126	0x3d724ac4	0.059153333
127	0xbd675e0e	-0.056486182
128	0xbe3d7dc5	-0.18505009
129	0x3ba7f5fc	0.005125759
130	0x3c059381	0.008152843
131	0x3d945aef	0.07243907
132	0xbd5243d8	-0.051334232
133	0xbdeef5d6	-0.11667983
134	0xbd898b98	-0.067160785
135	0x3e2c7a83	0.1684361
136	0x3e0e4180	0.13892174
137	0xbe5809c4	-0.21097475
138	0xbdb0179f	-0.08598255
139	0x3db4bac1	0.08824683
140	0x3e2cb310	0.16865182
141	0x3dd61dc0	0.10454893
142	0xbe8eceaa	-0.27892047
143	0xbe3f84d4	-0.18703014
144	0xbd016530	-0.03159064
145	0xbd986be4	-0.074424535
146	0x3c2e928b	0.010655056
147	0xbe9142cc	-0.28371274
148	0xbda1db22	-0.079031244
149	0xbd877bf9	-0.06615443
150	0xbe0313ee	-0.12800571
151	0x3db00563	0.085947774
152	0x3d4e1321	0.05031121
153	0x3d74e00b	0.059783977
154	0x3cf1b340	0.029504418
155	0xbd844bc2	-0.06459762
156	0xbc8af60c	-0.016963027
157	0xbdc87664	-0.09788206
158	0xbe5d4e25	-0.21611841
159	0xbe456e9e	-0.19280478
160	0xbdc83104	-0.09774974
161	0x3cd901ef	0.02649018
162	0x3e498179	0.19678296
163	0xbdcadde4	-0.099056035
164	0x3dce3cc2	0.100701824
165	0xbd09b283	-0.033617508
166	0xbdb20614	-0.086925656
167	0x3cbb5add	0.022870475
168	0xbda93ac9	-0.082631655
169	0x3eabf8d9	0.33588293
170	0x3db270fb	0.087129556
171	0xbc32c118	-0.010910295
172	0xbbd03421	-0.0063538705
173	0xbe2bbc21	-0.16770984
174	0x3dac4015	0.0841066
175	0xbda20c57	-0.0791251
176	0xbd2c7408	-0.042102844
177	0x3dd0a7e4	0.101882726
178	0xbd85140f	-0.064979665
179	0xbe4aa36c	-0.19788903
180	0xbd968792	-0.07350077
181	0xbd9ae27c	-0.0756273
182	0x3de93abd	0.113881566
183	0xbda82c11	-0.0821153
184	0xbeb0bef0	-0.34520674
185	0xbe6f0eb4	-0.23345453
186	0xbd0d3caf	-0.0344817
187	0x3dc8d499	0.09806175
188	0xbe0395f6	-0.12850174
189	0xbeafabc5	-0.34310737
190	0xbd7e4a1d	-0.0620824
191	0x3c0a7448	0.008450575
192	0x3de7e9e4	0.11323908
193	0xbd8a58b4	-0.067552
194	0xbe0058a7	-0.12533818
195	0x3d0ad6ef	0.033896383
196	0x3e2f6fa5	0.17132433
197	0x3e360bee	0.17777988
198	0xbd65f3ff	-0.056140896
199	0xbe2fd554	-0.17171222
200	0x3e5bfe2b	0.21483676
201	0x3e1c2275	0.1524752
202	0xbd29cfb7	-0.041457858
203	0x3c828176	0.015930872
204	0x3d7139cc	0.05889301
205	0x3d6728bd	0.056435335
206	0x3dd7fbbc	0.105460614
207	0xbd0dcb85	-0.03461792
208	0xbd98a832	-0.07453956
209	0x3d15d9ef	0.03658479
210	0x3d4d851a	0.050175764
211	0x3d1bd062	0.038040526
212	0xbdb64e02	-0.089015976
213	0xbbfc5a39	-0.007701185
214	0xbde3a249	-0.11114938
215	0xbd83ede8	-0.064418614
216	0xbe106764	-0.1410194
217	0x3cd07dde	0.025450643
218	0x3e357893	0.17721777
219	0x3c94e853	0.018177187
220	0xbd85c4a4	-0.06531647
221	0xbe146ffa	-0.1449584
222	0xbd53efb2	-0.051742263
223	0x3e840718	0.25786662
224	0x3e168f12	0.14703014
225	0xbddd8925	-0.10817174
226	0xbd55a24c	-0.05215673
227	0xbde0a37a	-0.10968681
228	0x3d55e182	0.052217014
229	0x3d0eae5c	0.03483425
230	0xbd4fc467	-0.050724413
231	0xbe226394	-0.15858299
232	0xbd3f8ab0	-0.046763122
233	0x3c0081c2	0.007843437
234	0x3cb4ba64	0.022061534
235	0xbd5522e6	-0.052035235
236	0xbdcf21e4	-0.10113886
237	0xbd8d15fe	-0.0688896
238	0x3c8d8dda	0.017279554
239	0xbd97f763	-0.07420232
240	0xbe378c9b	-0.1792473
241	0x3d2487dd	0.04016863
242	0xbd906cf1	-0.07052029
243	0xbd84dcd6	-0.064874336
244	0xbd86c485	-0.06580452
245	0xbe49d97d	-0.19711871
246	0x3dfa9666	0.122357175
247	0x3e3df69d	0.18551107
248	0xbde5da41	-0.11223269
249	0x3d3ff080	0.046860218
250	0xbd1c6d0c	-0.038189933
251	0xbe07fe4e	-0.13280603
252	0xbdbfbb48	-0.09361893
253	0xbd27a210	-0.04092604
254	0x3e1b3d1e	0.15160033
255	0xbd24ab93	-0.04020269

conv_ensemble_2.0.bias f4 [32]
0	0xbee7cb6b	-0.45272383
1	0x3e715d64	0.23570782
2	0x3e84a84c	0.2590965
3	0xbd2233da	-0.03960023
4	0x3e3897ee	0.18026707
5	0x3e73d2bc	0.23810858
6	0x3f0e6d0a	0.5563513
7	0x3dcdb8f7	0.10045045
8	0x3dc32c21	0.09529901
9	0xbf322524	-0.6958792
10	0xbd5ab37e	-0.053393833
11	0xbf1a460e	-0.60263145
12	0x3e2c79af	0.16843294
13	0x3ef04797	0.4692962
14	0x3dbcab88	0.092124045
15	0xbd4946f0	-0.049139917
16	0xbdbd3db5	-0.09240285
17	0xbe1fc2eb	-0.15601699
18	0x3c05178a	0.008123288
19	0xbea5d78e	-0.32391018
20	0x3e594f0a	0.21221557
21	0x3e075284	0.13215071
22	0xbcfc3166	-0.030785274
23	0x3e3cd3d3	0.1844018
24	0x3d197349	0.03746346
25	0xbf404cef	-0.7511739
26	0x3d1d51cc	0.038408086
27	0x3edd0237	0.43165752
28	0xbe758dbe	-0.23979852
29	0xbe644cfb	-0.2229499
30	0xbe12b99b	-0.14328615
31	0xbcfa6e06	-0.030570041

fully_connected_layer.weight f4 [10, 1568]
0	0x3d7affe7	0.061279204
1	0xbacba214	-0.0015535974
2	0x3e308915	0.17239793
3	0xbd2314eb	-0.03981487
4	0xbd457c09	-0.048213992
5	0xbd026cfc	-0.031842217
6	0x3d9147d8	0.07093781
7	0x3db9c1c1	0.09070159
8	0x3d997871	0.074936755
9	0x3d9456da	0.07243128
10	0xbd9d006b	-0.07666095
11	0x3d878e57	0.06618946
12	0x3db45341	0.08804942
13	0xbd32df36	-0.0436699
14	0x3d7437b9	0.059623454
15	0x3d84fd62	0.064936414
16	0xbca468a3	-0.020069426
17	0x3d05f219	0.032701585
18	0x3d966abb	0.07344576
19	0x3e2cdf33	0.16882019
20	0xbd8036e2	-0.06260468
21	0xbdae814c	-0.08520755
22	0x3d40a212	0.047029562
23	0xbbdb0ca5	-0.006684857
24	0xbdab0573	-0.08350649
25	0xbd7067de	-0.058692805
26	0x3e41f22f	0.18940042
27	0x3d42dfcf	0.04757672
28	0xbe021fc0	-0.12707424
29	0xbc4a8b46	-0.012362307
30	0x3dcdfac3	0.100575946
31	0xbe915ec1	-0.28392604
32	0xbe19507b	-0.14972107
33	0xbd6b153c	-0.057393298
34	0x3dbe5f59	0.0929553
35	0xbdc2f259	-0.095188804
36	0x3d8c6e9d	0.06857035
37	0x3da2594f	0.079271905
38	0x3d84d0bf	0.06485128
39	0xbdf84161	-0.12121845
40	0xbe804756	-0.25054425
41	0xbe0305d4	-0.12795192
42	0xbd4410a1	-0.04786742
43	0x3d85937e	0.065222725
44	0x3e17dcc6	0.14830312
45	0xbd814770	-0.06312454
46	0x3b0ca4ed	0.0021460608
47	0xbdbcfc6d	-0.09227834
48	0x3d25d2e0	0.04048431
49	0x3de9d1cd	0.114169694
50	0x3e860ae1	0.26180175
51	0xbcaa8adf	-0.020818172
52	0xbe5e1916	-0.21689257
53	0xbdebc01c	-0.11511251
54	0x3dd716d9	0.10502405
55	0x3da31876	0.0796365
56	0x3e1c3ecc	0.1525833
57	0x3de95742	0.11393596
58	0xbe27266e	-0.16323254
59	0x3b9aa858	0.004719775
60	0xbdcbc232	-0.09949149
61	0x3d3bd743	0.045859586
62	0xbdc0dff7	-0.09417718
63	0xbdc8b2f1	-0.09799755
64	0x3d2f214a	0.042756356
65	0xbde02d66	-0.10946159
66	0x3db98d92	0.090602055
67	0xbc94ee97	-0.018180175
68	0x3dbc2e16	0.09188478
69	0x3dad8d0d	0.08474169
70	0x3e0864e5	0.13319738
71	0x3e0e292f	0.13882898
72	0x3cf5da07	0.03001119
73	0xbdf9f1b3	-0.122043036
74	0xbe4407e0	-0.19143629
75	0xbe172f9e	-0.14764258
76	0x3d9e8076	0.07739346
77	0x3cc11bca	0.023572821
78	0x3d9315fd	0.07181928
79	0xbd0997eb	-0.033592146
80	0xbddf66e6	-0.10908298
81	0xbdc0a82f	-0.094070785
82	0xbdba9ba1	-0.09111715
83	0xbcf6a390	-0.03010729
84	0x3d00e0fb	0.031464558
85	0xbbe3d0b6	-0.0069523705
86	0xbd032455	-0.03201707
87	0xba00c4a6	-0.00049121154
88	0x3d735ed5	0.05941661
89	0xbdab408b	-0.0836192
90	0xbd9d9a29	-0.07695419
91	0x3dfa5607	0.1222344
92	0xbd54fd41	-0.051999334
93	0xbcb9b5fa	-0.022669781
94	0xbd107d4f	-0.035275754
95	0x3c8ea851	0.017414244
96	0x3c4b6416	0.012413999
97	0xbd34f5d6	-0.04417976
98	0xbe0129a9	-0.12613548
99	0xbe13d71f	-0.14437531
100	0xbd33bcd6	-0.04388126
101	0x3c370390	0.011170283
102	0x3d0943de	0.03351199
103	0x3dc9abc4	0.09847215
104	0xbc328227	-0.010895289
105	0xbdad8886	-0.084733054
106	0x3da86d14	0.0822393
107	0xbdd9c725	-0.10633687
108	0xbbb9a69b	-0.005665613
109	0x3c29458f	0.0103315255
110	0x39ef53ae	0.0004564798
111	0x3e0f7793	0.14010458
112	0x3e27f1f4	0.16400892
113	0xbd85e61f	-0.06538033
114	0x3e2bcabb	0.16776554
115	0x3e0f5675	0.13997824
116	0x3d17b09e	0.03703367
117	0x3cd5b38c	0.026086591
118	0x3d03d5ff	0.032186504
119	0x3ed9a618	0.42509532
120	0x3e01e781	0.12685968
121	0x3d6c6ef1	0.05772299
122	0x3d94bde9	0.07262785
123	0xbdecb016	-0.11557023
124	0x3c752481	0.0149623165
125	0x3ca6b87e	0.020351645
126	0x3e78e475	0.243059
127	0x3e39fa7c	0.18161958
128	0x3e0951dc	0.13410133
129	0xbca90bf9	-0.020635592
130	0x3c9fa906	0.019489776
131	0xbc135b62	-0.008993955
132	0xbdd51e20	-0.104061365
133	0x3dde5582	0.10856153
134	0xbcbe1bd0	-0.023206621
135	0x3da8d6a9	0.08244068
136	0x3d25d8f6	0.040490113
137	0xbcb51cc7	-0.022108449
138	0x3af85565	0.0018946348
139	0xbe2b9ea7	-0.1675974
140	0xbd3ae8c8	-0.045632154
141	0xbe138952	-0.14407852
142	0xbd060587	-0.032720115
143	0x3e6bfc5e	0.23045489
144	0x3e5d3592	0.21602467
145	0xbdb63e0b	-0.088985525
146	0xbe2e9217	-0.17047916
147	0x3d90becf	0.07067644
148	0x3d50c1e6	0.050966166
149	0x3e5b4bb3	0.21415596
150	0xbc6bdd57	-0.014396033
151	0xbd191c0d	-0.037380267
152	0x3cb46c93	0.022024428
153	0x3d3847df	0.044990417
154	0x3dc91522	0.09818484
155	0x3d720f51	0.059096638
156	0xbdd099bf	-0.10185575
157	0x3c73df38	0.0148847625
158	0x3dc918ac	0.09819159
159	0xbce19873	-0.027538514
160	0x3d81daff	0.06340598
161	0x3d46d4c4	0.048542753
162	0x3d8484b3	0.06470623
163	0xbde3ce86	-0.111233756
164	0x3d56191d	0.052270044
165	0xbd9eb42d	-0.077492096
166	0xbd82bd9b	-0.063838206
167	0xbd51a100	-0.051178932
168	0x3d6603fb	0.05615614
169	0x3caf2527	0.02138002
170	0x3d8028f2	0.0625781
171	0x3b80b9b3	0.003928387
172	0xbc6b756d	-0.014371258
173	0x3d9ccf77	0.07656758
174	0xbe048bef	-0.12944005
175	0x3da56fd4	0.0807797
176	0x3d3e5a78	0.046472996
177	0xbe24fc2b	-0.1611182
178	0x3cd6779f	0.026180087
179	0x3dff1996	0.12456052
180	0xbda2cd51	-0.07949317
181	0xbe2e319c	-0.17011112
182	0xbe34448b	-0.17604272
183	0xbcc0c127	-0.023529602
184	0x3d8c522b	0.0685161
185	0x3e0f7b90	0.14011979
186	0xbdcaa760	-0.098952055
187	0xbdd023a2	-0.101630464
188	0xbe0219bf	-0.12705134
189	0xbe7603cf	-0.2402489
190	0xbe49e42b	-0.19715945
191	0x3e067c83	0.13133435
192	0x3e34c316	0.17652544
193	0x3e11472b	0.14187305
194	0x3dea0460	0.11426616
195	0xbd124031	-0.03570575
196	0x3d72d6f4	0.059287027
197	0x3e67aef5	0.22625335
198	0x3dd8ecb7	0.10592025
199	0x3d3f90b2	0.04676885
200	0xbe056ab7	-0.1302899
201	0x3c999d96	0.0187519
202	0xbbf54b3c	-0.0074857753
203	0x3dc5e31e	0.0966246
204	0x3e0f0ad7	0.13968979
205	0x3b82e942	0.0039950917
206	0xbe037840	-0.1283884
207	0x3da5aac2	0.0808921
208	0x3d9d3fa2	0.076781526
209	0x3e0af216	0.13568911
210	0x3dd52354	0.10407129
211	0x3d9a5cb2	0.075372115
212	0x3d106593	0.03525312
213	0xbe79ac6e	-0.24382183
214	0x3c407c4a	0.011748383
215	0x3e20502c	0.15655583
216	0x3e465d33	0.1937149
217	0x3c85649e	0.01628333
218	0x3e64fb74	0.22361547
219	0xbc961cf8	-0.01832436
220	0xbe2d8569	-0.16945423
221	0x3d994ad2	0.07484974
222	0x3d99d7ee	0.075118884
223	0xbc07cd09	-0.00828863
224	0x3da72ed7	0.08163231
225	0x3d448172	0.04797501
226	0xbdf9b9bc	-0.12193629
227	0x3d3522c7	0.04422262
228	0x3d1f8ce8	0.038952738
229	0xbd8f1864	-0.06987074
230	0xbe01ebb3	-0.12687568
231	0xbe4b65e0	-0.19863081
232	0xbe20c00d	-0.15698262
233	0xbd96aa2b	-0.07356676
234	0x3d94857f	0.07252025
235	0x3d91f6c9	0.07127149
236	0x3d80f19f	0.062960856
237	0xbe0fa430	-0.14027476
238	0xbde3bd20	-0.11120057
239	0xbdab209c	-0.08355829
240	0x3c7501e7	0.014954067
241	0x3d42fb04	0.04760267
242	0x3e2ce09e	0.1688256
243	0x3dadc59d	0.08484957
244	0xbda22ee6	-0.079191014
245	0xbdf8b8d9	-0.12144632
246	0xbdef759c	-0.11692354
247	0xbd7bf3cd	-0.061511803
248	0xbca01805	-0.019542703
249	0xbcbaa6e8	-0.022784665
250	0x3ddcbbd5	0.107780136
251	0x3a174c6d	0.0005771581
252	0x3e2bc138	0.16772926
253	0x3b11f10e	0.0022268924
254	0xbd3ff8df	-0.0468682
255	0x3d18f3e0	0.037341952

fully_connected_layer.bias f4 [10]
0	0xbee47a7f	-0.44624707
1	0xbe7c6f4e	-0.24651834
2	0x3e626a0c	0.22110766
3	0x3e5e32e1	0.21699096
4	0x3ecd3acd	0.40083924
5	0xbf0f3d08	-0.559525
6	0x3f2a686d	0.6656559
7	0x3d817107	0.063203864
8	0xbe77b6f5	-0.24190886
9	0xbe079c5c	-0.1324324
