2_Auto_Diff/models/model_parms_case_3.pt (torch, 117911 bytes, 6 tensors)

conv_ensemble_1.0.weight f4 [16, 1, 5, 5]
0.019772315 0.20453313 0.3761407 0.1802298 -0.544148 0.0238151 0.037124943 0.02372081
0.26583546 -0.35345444 0.21517275 0.18271388 0.44367215 0.33496016 -0.3976067 0.13394308
0.19713634 0.38945347 0.056585003 0.062955044 0.12579 -0.08950421 -0.12284091 -0.038895786
0.28747573 -0.40202928 -0.09289852 -0.29679674 0.20252521 0.25944152 -0.087751485 -0.07720995
0.36144304 0.007992129 0.25858176 0.49496368 0.39651847 0.1292729 -0.2595098 0.3063616
0.29732564 -0.21601807 -0.41666698 -0.43417042 -0.006283843 -0.39729023 0.030441344 0.16250387
0.0323145 -0.42681855 0.06908074 -0.19479775 -0.49239048 0.51655954 0.0116293775 0.37378666
0.33341792 -0.40166482 0.4456074 0.034795623 0.2681128 0.47826064 -0.06663084 0.36864877
0.41646957 0.058383252 0.23679814 -0.3102162 -0.06921758 -0.09342048 0.03680922 0.3141447
-0.5791858 -0.30940238 -0.2449238 -0.3084894 -0.18475628 0.7342245 -0.3229669 -0.143432
-0.033745762 0.28601843 0.42377713 -0.10621731 -0.43179983 0.002116556 0.5747528 -0.13448963
-0.3655988 -0.05026305 0.2531947 0.73985946 -0.08002389 -0.01786626 0.13643776 0.07423289
0.3565641 -0.3769584 -0.013898718 -0.19838116 0.029193023 0.1570794 -0.205492 -0.28732717
0.0901627 -0.10884285 0.25142658 -0.56665397 -0.33068138 0.33908632 0.124381065 0.32099047
-0.39231354 0.17124954 0.096685655 0.6683634 0.27725938 -0.46756527 -0.23917867 -0.17032933
0.48931682 -0.18886122 -0.5950702 0.10483478 0.11329731 -0.36970386 0.58120084 0.19755115
-0.6230417 -0.43302745 -0.44298455 0.60750103 0.05251382 -0.34563914 -0.11616856 0.2729437
0.2308353 0.20774068 0.16196884 0.34044644 0.3099939 -0.0694302 0.06465532 -0.3143553
-0.24051552 0.0027634848 -0.2258225 0.40756306 -0.43692848 -0.030150663 -0.18356657 -0.19538526
0.39887357 0.05220451 0.46166998 0.1553835 0.45312682 0.5816856 0.04099565 -0.22661828
0.05185262 0.21504766 0.14267004 -0.37623265 -0.44506267 0.010251981 -0.21864904 -0.29957744
-0.15197137 0.020896597 -0.09772894 -0.11022413 -0.15499125 -0.36075425 -0.106103085 0.31976372
-0.3535725 -0.2669424 0.32556432 0.23104627 0.087551326 -0.6202726 0.38733172 0.26378828
-0.22943163 0.1464974 -0.35642222 0.6109643 -0.095415354 0.21602958 0.16055103 -0.55244166
0.3088151 0.026017511 -0.27753454 0.085704386 -0.086464174 -0.40989643 0.14409447 0.1410927
0.28594196 -0.049464114 0.19882527 0.06043833 -0.43337056 0.12491221 -0.67143416 0.19467944
0.64226806 0.14729217 -0.12992015 -0.5732785 -0.42424655 0.25236252 0.042582404 0.34590605
-0.59816074 -0.6394425 0.86875135 0.28908435 0.058439735 -0.418966 0.15510227 0.4625993
0.019230299 -0.16390686 0.5427191 0.22174641 0.019504791 0.33193147 -0.54767746 -0.036564123
-0.031885736 0.52115715 0.08900588 -0.5303605 -0.09276855 0.385811 -0.21971482 0.28776893
-0.30136648 0.09777652 0.32112768 -0.3911621 -0.4400786 -0.12581985 0.1571944 -0.18871179
-0.24224806 -0.42611527 -0.37873703 0.32223114 0.31967583 0.40272412 0.10822296 -0.2974162
00000000: 8df9 a13c 2271 513e 8495 c03e 298e 383e
00000010: 494d 0bbf e217 c33c 5310 183d 2552 c23c
00000020: 961b 883e fbf7 b4be 3f56 5c3e 5919 3b3e
00000030: ff28 e33e e67f ab3e 1b93 cbbe 6028 093e
00000040: 1cde 493e 7266 c73e adc5 673d 93ee 803d
00000050: 18cf 003e fc4d b7bd 0494 fbbd 3051 1fbd
00000060: 0530 933e c8d6 cdbe 9441 bebd bef5 97be
00000070: c562 4f3e 85d5 843e 0db7 b3bd 4020 9ebd
00000080: 100f b93e 6bf1 023c d464 843e e16b fd3e
00000090: 7804 cb3e 1d60 043e 78de 84be 6ddb 9c3e
000000a0: 113b 983e d733 5dbe 6055 d5be 964b debe
000000b0: b2e8 cdbb a069 cbbe 2060 f93c 6a67 263e
000000c0: 365c 043d f687 dabe 347a 8d3d 1079 47be
000000d0: 9b1a fcbe 3f3d 043f 2589 3e3c f760 bf3e
000000e0: c1b5 aa3e 03a7 cdbe a726 e43e db85 0e3d
000000f0: 1546 893e 94de f43e c075 88bd 88bf bc3e
00000100: 803b d53e 4723 6f3d 367b 723e a8d4 9ebe
00000110: f2c1 8dbd 3d53 bfbd 44c5 163d 93d7 a03e
00000120: 8545 14bf fd69 9ebe 4ecd 7abe 53f2 9dbe
00000130: c030 3dbe 23f6 3b3f eb5b a5be d7df 12be
00000140: ff38 0abd 0271 923e 51f9 d83e 7688 d9bd
00000150: de14 ddbe ebb5 0a3b 0023 133f a6b7 09be
00000160: c42f bbbe a1e0 4dbd bca2 813e 6e67 3d3f
00000170: 91e3 a3bd 435c 92bc 57b6 0b3e 6a07 983d
00000180: 928f b63e b100 c1be 73b7 63bc 6e24 4bbe
00000190: 3526 ef3c 6cd9 203e 7f6c 52be 8c1c 93be
000001a0: 39a7 b83d 00e9 debd fcba 803e 3c10 11bf
000001b0: 124f a9be b99c ad3e 80bb fe3d dd58 a43e
000001c0: 52dd c8be 0a5c 2f3e 2103 c63d dd19 2b3f
000001d0: f1f4 8d3e b764 efbe 41eb 74be d06a 2ebe
000001e0: bc87 fa3e d664 41be 8556 18bf 9eb3 d63d
000001f0: 6c08 e83d d349 bdbe 94c9 143f d94a 4a3e
00000200: a97f 1fbf c6b5 ddbe dfce e2be 3085 1b3f
00000210: bb18 573d 9df7 b0be c8e9 edbd 47bf 8b3e
00000220: 1760 6c3e f9b9 543e 29db 253e ff4e ae3e
00000230: 85b7 9e3e 6c31 8ebd 026a 843d 2ef3 a0be
00000240: b349 76be 951b 353b 033e 67be 1bac d03e
00000250: 17b5 dfbe 86fe f6bc e0f8 3bbe 1313 48be
00000260: 2839 cc3e 65d4 553d 0260 ec3e da1c 1f3e
00000270: 3d00 e83e 59e9 143f 0eeb 273d 9f0e 68be
00000280: 6a63 543d 7435 5c3e 1818 123e 91a1 c0be
00000290: 41df e3be edf7 273c 89e5 5fbe 3762 99be
000002a0: 629e 1bbe 572f ab3c 1c26 c8bd 30bd e1bd
000002b0: 07b6 1ebe c8b4 b8be 934c d9bd 12b8 a33e
000002c0: 7407 b5be adac 88be 5eb0 a63e 6597 6c3e
000002d0: 1c4e b33d 2fca 1ebf 5850 c63e 420f 873e
000002e0: 20f0 6abe 6a03 163e f97c b6be 2868 1c3f
000002f0: 2069 c3bd dc36 5d3e 7d67 243e d16c 0dbf
00000300: 031d 9e3e ad22 d53c 0219 8ebe c885 af3d
00000310: 2114 b1bd f2dd d1be 808d 133e 9b7a 103e
00000320: fc66 923e e29a 4abd da98 4b3e 2f8e 773d
00000330: bfe2 ddbe f9d1 ff3d 1ce3 2bbf 0c5a 473e
00000340: ae6b 243f c2d3 163e ca09 05be 61c2 12bf
00000350: d836 d9be a935 813e e36a 2e3d 991a b13e
00000360: 1021 19bf 81b2 23bf 7d66 5e3f dd02 943e
00000370: 815e 6f3d b682 d6be 21d3 1e3e d1d9 ec3e
00000380: dc88 9d3c 33d7 27be a4ef 0a3f 7e11 633e
00000390: 83c8 9f3c ecf2 a93e 9734 0cbf 43c4 15bd
000003a0: 9e9a 02bd 8e6a 053f b748 b63d b5c5 07bf
000003b0: 70fd bdbd 0589 c53e ecfc 60be 7356 933e
000003c0: b54c 9abe 0e3f c83d d96a a43e 6646 c8be
000003d0: fb51 e1be ebd6 00be 92f7 203e aa3d 41be
000003e0: e00f 78be c82b dabe d2e9 c1be 7bfb a43e
000003f0: 8dac a33e db31 ce3e 00a4 dd3d f046 98be

conv_ensemble_1.0.bias f4 [16]
-0.4379908 0.18891774 0.07532533 0.073312454 0.063491374 0.1856362 0.023937577 -0.07204135
0.07742655 -0.08306156 -0.11066994 0.065660514 0.12324851 -0.2285163 0.08504402 0.29558873
00000000: 5540 e0be a773 413e 2b44 9a3d d724 963d
00000010: c407 823d 6a17 3e3e bd18 c43c 6a8a 93bd
00000020: d091 9e3d 2e1c aabd eca6 e2bd 0579 863d
00000030: b769 fc3d 2d00 6abe 8f2b ae3d 6857 973e

conv_ensemble_2.0.weight f4 [32, 16, 5, 5]
-0.01542596 -0.1156628 -0.17327462 -0.014312431 -0.1192118 0.046419874 -0.05240686 -0.12016926
-0.053128168 0.046938132 0.009858983 -0.08346176 -0.20281085 -0.066086344 0.010820303 0.015046428
0.043339275 0.04374474 -0.19966204 -0.058133252 0.030984454 -0.044482283 0.047184657 -0.0893781
-0.124641106 -0.067390844 -0.03833139 0.027187534 0.09008192 0.016361747 -0.0026427472 -0.12772147
0.06104973 -0.03599067 0.022640636 -0.027135706 -0.12245849 0.08899297 -0.029775428 0.069554985
0.046355773 0.12141492 0.12148309 0.075130776 -0.07212126 0.006870603 0.029017255 -0.12710376
-0.05883368 0.04316809 -0.20986587 0.007935924 -0.088060535 -0.0018447785 0.024252288 -0.046710394
-0.047069587 -0.07277459 -0.106868915 -0.055651795 -0.09356186 -0.056393623 0.0028170121 0.029531002
0.07231149 -0.11444058 0.118807755 -0.02290085 0.14908434 0.020693043 -0.16232584 -0.015945256
-0.06074522 -0.0107414955 0.026738165 0.095193505 0.06542547 -0.09348329 -0.08085487 -0.15598843
0.10353854 0.0037438415 0.032412287 -0.14599748 0.095621444 -0.066765934 0.010723309 -0.11558471
-0.036691144 -0.12692827 -0.053896736 -0.033020057 0.11765455 0.022249406 -0.017301677 -0.11582865
-0.15616946 0.09917955 -0.09577984 -0.03047537 -0.01432431 0.018505026 -0.040733 -0.102194086
-0.014644893 0.0030522365 0.054518774 -0.067066446 -0.11176454 -0.03130721 -0.086584456 0.0032810795
-0.15904349 0.08459098 0.024202567 0.039690886 -0.02168905 -0.047388505 0.15983704 -0.015352948
-0.097627565 -0.11134903 -0.048917808 0.018466154 0.025080755 -0.048851617 0.020315265 -0.064297244
0.029371696 0.13898648 0.13146652 -0.11362524 0.06932626 -0.1774028 0.18982686 0.025354773
-0.0058651436 0.08635332 -0.092209175 0.111144364 0.022799518 -0.052066598 0.11863934 -0.050760414
0.043553013 -0.09097074 -0.16948305 0.1445476 -0.013101812 -0.037872244 -0.053520825 -0.056216188
-0.014706743 0.05618482 0.0028469353 0.008208363 -0.06269882 -0.063448876 -0.087726764 0.06264068
0.004263574 -0.036697246 -6.713162e-05 0.07947714 0.007482439 0.027963767 -0.08691617 0.02797611
0.019881193 0.0092934985 0.028302023 -0.036957227 -0.03382609 -0.017525217 -0.09689672 -0.07701235
-0.11354211 0.058700155 -0.085342854 0.07196583 -0.052102923 0.12627092 -0.0802685 0.00801478
0.029928006 -0.0054657795 0.12956572 -0.13925464 0.039056923 0.121587805 0.03879691 0.060965195
0.0100075295 -0.060898848 0.17501286 -0.054116387 -0.08744652 -0.0406013 -0.03596111 0.018770806
-0.13208173 0.055643875 -0.10409681 -0.012834059 0.001113341 -0.068752766 0.060138762 0.07137114
-0.059804834 0.015381662 0.027712371 0.30019397 -0.05643575 -0.01833304 0.04054354 -0.029171834
0.10548065 0.024563093 -0.045094475 0.14536919 -0.016728021 -0.07359972 0.022093814 -0.02227163
0.095733255 -0.024973245 -0.048682246 0.14710869 -0.037514172 0.01216551 0.0062973816 -0.030464722
-0.07355815 -0.02994642 -0.054531634 0.047802906 -0.07869008 0.021129481 -0.06040225 0.0059189517
0.027500536 -0.06286254 0.07193144 -0.08634013 0.010618942 -0.0018749954 -0.04456507 0.050152197
-0.0032411257 -0.073782675 -0.09078296 0.071674965 0.108703494 -0.056702964 -0.004780028 -0.04261053
00000000: 2abd 7cbc 9ee0 ecbd e76e 31be b07e 6abc
00000010: 5125 f4bd c422 3e3d 93a8 56bd 4d1b f6bd
00000020: ec9c 59bd 3342 403d 9287 213c 00ee aabd
00000030: a6ad 4fbe 4758 87bd a447 313c 4b85 763c
00000040: 8684 313d af2d 333d 3574 4cbe 221d 6ebd
00000050: 1cd3 fd3c 0e33 36bd b344 413d de0b b7bd
00000060: d643 ffbd 3604 8abd 6001 1dbd 64b8 de3c
00000070: df7c b83d 1209 863c f131 2dbb 6bc9 02be
00000080: 480f 7a3d f46a 13bd db78 b93c b34b debc
00000090: 84cb fabd f241 b63d 99eb f3bc d872 8e3d
000000a0: 8ddf 3d3d 63a8 f83d 20cc f83d 2ade 993d
000000b0: 50b4 93bd cc22 e13b 98b5 ed3c 7d27 02be
000000c0: 96fb 70bd 06d1 303d 14e7 56be ae05 023c
000000d0: 1559 b4bd 7fcc f1ba bcac c63c 6653 3fbd
000000e0: 0acc 40bd d80a 95bd 17de dabd 23f3 63bd
000000f0: 5c9d bfbd 00fd 66bd 9f9d 383b 00eb f13c
00000100: 0c18 943d d35f eabd 7b51 f33d 909a bbbc
00000110: 91a9 183e 7584 a93c bf38 26be a09f 82bc
00000120: fbcf 78bd 19fd 2fbc ff09 db3c d0f4 c23d
00000130: cafd 853d 2b74 bfbd 3d97 a5bd 6ebb 1fbe
00000140: 040c d43d 3d5b 753b bfc2 043d 5d80 15be
00000150: 2dd5 c33d 94bc 88bd d1b0 2f3c adb7 ecbd
00000160: 7449 16bd 7cf9 01be d3c2 5cbd 0a40 07bd
00000170: def4 f03d 6344 b63c 3fbc 8dbc 9237 edbd
00000180: e3ea 1fbe a61e cb3d 3928 c4bd 7ca7 f9bc
00000190: 83b0 6abc da97 973c a5d7 26bd 224b d1bd
000001a0: 22f1 6fbc 0808 483b 144f 5f3d 225a 89bd
000001b0: cfe4 e4bd fd3b 00bd 3153 b1bd 6107 573b
000001c0: 4cdc 22be 093e ad3d 7644 c63c e992 223d
000001d0: 3cad b1bc 731a 42bd 52ac 233e ee8a 7bbc
000001e0: f6f0 c7bd f60a e4bd 0a5e 48bd 5546 973c
000001f0: 2876 cd3c a218 48bd 336c a63c 46ae 83bd
00000200: e99c f03c 7952 0e3e 299f 063e 5ab4 e8bd
00000210: edfa 8d3d 14a9 35be f961 423e d0b4 cf3c
00000220: 6430 c0bb 02da b03d 2ad8 bcbd a89f e33d
00000230: 0ec6 ba3c c943 55bd 2ff9 f23d 27ea 4fbd
00000240: a564 323d de4e babd f78c 2dbe 4904 143e
00000250: fca8 56bc ed1f 1bbd a738 5bbd f242 66bd
00000260: 8df4 70bc 0e22 663d a693 3a3b 5f7c 063c
00000270: 3d68 80bd 7cf1 81bd 17aa b3bd c249 803d
00000280: 73b5 8b3b da4f 16bd 04c9 8cb8 e9c4 a23d
00000290: 3f2f f53b 4514 e53c 1b01 b2bd 282e e53c
000002a0: e2dd a23c c243 183c a5d9 e73c 7660 17bd
000002b0: 3a8d 0abd 0b91 8fbc ca71 c6bd a7b8 9dbd
000002c0: c488 e8bd 936f 703d 3cc8 aebd d262 933d
000002d0: e069 55bd 2a4d 013e d063 a4bd 6c50 033c
000002e0: 942b f53c 481a b3bb e0ac 043e c598 0ebe
000002f0: 27fa 1f3d 0703 f93d 82e9 1e3d a4b6 793d
00000300: 9ff6 233c 1271 79bd 9236 333e 25a9 5dbd
00000310: 2917 b3bd 8c4d 26bd f54b 13bd 3cc5 993c
00000320: 6f40 07be d5ea 633d b530 d5bd f245 52bc
00000330: 86ed 913a 40ce 8cbd 1054 763d 082b 923d
00000340: eaf5 74bd 5e03 7c3c 0e05 e33c 06b3 993e
00000350: 2c29 67bd 2c2f 96bc fc10 263d c5f9 eebc
00000360: 3d06 d83d 8a38 c93c fcb4 38bd a9db 143e
00000370: 3409 89bc 73bb 96bd 16fe b43c fe72 b6bc
00000380: cc0f c43d b194 ccbc 0967 47bd a9a3 163e
00000390: 76a8 19bd d951 473c 445a ce3b 2791 f9bc
000003a0: a8a5 96bd 3252 f5bc 905c 5fbd fbcc 433d
000003b0: 4428 a1bd bc17 ad3c 5a68 77bd c4f3 c13b
000003c0: ce48 e13c 13be 80bd ca50 933d 18d3 b0bd
000003d0: 12fb 2d3c 68c2 f5ba dd89 36bd 646c 4d3d
000003e0: 1169 54bb 5f1b 97bd 6bec b9bd 53ca 923d
000003f0: f09f de3d 5e41 68bd c8a1 9cbb 6188 2ebd

conv_ensemble_2.0.bias f4 [32]
-0.05033766 -0.0832147 0.023556454 -0.042665523 0.03091643 0.03516416 0.0033650869 0.046828397
-0.062386736 -0.027258381 -0.07256108 -0.11808793 -0.08439591 -0.06730601 -0.019352594 0.01381012
-0.036966864 0.0015469638 -0.0029458117 0.060061015 -0.07046944 -0.034398578 0.01056178 -0.058033448
-0.08971927 0.06038366 0.09458163 -0.10041406 -0.0085725235 -0.018631069 -0.051545724 -0.06470064
00000000: dd2e 4ebd 786c aabd 77f9 c03c 0bc2 2ebd
00000010: 7444 fd3c 4b08 103d ca88 5c3b 22cf 3f3d
00000020: 3c89 7fbd f84c dfbc e79a 94bd 16d8 f1bd
00000030: c3d7 acbd bcd7 89bd 5589 9ebc d743 623c
00000040: 916a 17bd 7ec3 ca3a 850e 41bb 8a02 763d
00000050: 4852 90bd 86e5 0cbd 510b 2d3c 7bb4 6dbd
00000060: bdbe b7bd db54 773d 03b4 c13d e3a5 cdbd
00000070: c573 0cbc 2fa0 98bc 9c21 53bd c581 84bd

fully_connected_layer.weight f4 [10, 1568]
0.12621649 0.03017189 -0.046196807 0.04593942 -0.006084309 -0.028116312 -0.053629797 0.23792747
0.20737831 0.016840978 -0.07090775 -0.008295784 -0.078564815 -0.011223723 0.04669692 0.08101086
0.094342306 0.007574312 0.013318341 -0.06060217 -0.023628531 -0.030870287 0.031505726 -0.10676503
0.015474207 0.06298168 -0.041804817 -0.03426461 -0.021628331 -0.008519882 0.11085072 0.054362025
-0.007674655 -0.0521757 0.06648419 -0.015494225 -0.08911908 0.03989405 -0.040599935 -0.04444092
-0.02913365 0.03611066 -0.06828677 -0.08825004 -0.14709206 -0.024018085 0.11344419 0.019507099
0.0974058 0.1367598 -0.09978345 -0.0056634047 -0.10570288 -0.044730324 -0.029241685 -0.14614713
-0.06958129 -0.12732244 0.09692922 0.09095555 0.0019641216 0.10212923 -0.0067637516 0.033186205
-0.03172041 -0.0074117696 0.11795903 0.08881411 0.35080528 0.14021769 0.09608136 -0.122873686
0.08326571 -0.019106435 0.019711046 0.052751657 -0.06709923 -0.029380897 -0.04932047 0.029616188
-0.077518925 0.06416613 -0.050510492 -0.062471405 -0.065773346 -0.1163469 -0.017143086 -0.026214441
-0.042740297 -0.090564 0.07869816 -0.16407438 0.015247038 0.10615649 -0.09603128 -0.0991929
-0.25610474 0.09173082 0.07186513 -0.062653586 0.017075632 -0.12023078 -0.21876775 0.1459303
0.054503474 0.014943945 -0.07163958 0.033306908 -0.1510501 0.034814328 0.07316539 0.04010125
-0.009153705 0.054626502 -0.01898393 -0.06379289 0.09561103 -0.08864157 0.03749323 -0.09274677
0.080056936 0.08783258 0.008186538 0.096792564 0.004526479 -0.14092493 -0.06038618 0.019792104
-0.059927266 0.029865267 0.07305001 0.073795386 -0.2283761 -0.012279539 0.031670753 -0.13177137
0.03219052 -0.07484737 0.17237136 0.0045236447 -0.0266241 -0.024541017 0.08110803 -0.04472416
-0.09067942 -0.10339814 0.035345808 -0.051141728 -0.004106377 -0.08315385 0.09126571 -0.12948321
-0.13145317 0.080589615 0.0005993071 -0.02106363 0.029300403 0.3250909 -0.031446997 0.022884881
-0.026035601 -0.008650563 0.016553465 0.100998916 -0.04367621 -0.048037224 -0.008134068 0.029470233
0.15909477 0.13046694 -0.08587661 0.0788562 0.08977501 -0.17915125 0.109115966 0.1161434
0.081628606 0.018738141 -0.018609669 0.16665727 0.2925262 -0.019845182 -0.022663437 -0.0730839
-0.056392346 0.13879313 -0.14506403 -0.17104477 0.13979961 0.060553316 0.072253674 0.27735025
0.12530889 0.0063246386 -0.07203708 0.06585118 -0.05675275 -0.044233207 0.0727798 0.0023974506
-0.0002466847 -0.067133866 0.013553775 0.036622737 0.00973179 -0.058947053 -0.10787716 0.08016438
-0.07483119 0.012234319 -0.038376488 -0.013622296 -0.010664547 -0.0043182815 0.024788624 0.046091195
-0.048932914 -0.015032265 0.036034413 -0.059978172 0.0005873046 0.044270106 -0.04424882 0.010711124
-0.00047935816 -0.051434267 0.06036112 -0.0084261475 -0.036874454 0.01990196 0.043889 0.012406336
0.032307763 0.07238868 0.05703593 0.06511683 0.0017783154 0.040435024 -0.0036554446 0.028348684
0.000629525 0.017147228 0.0028130626 -0.01477612 0.012063053 0.06424125 0.0035514857 -0.16290027
0.025802469 0.05573807 -0.11922379 -0.06492977 0.16456199 0.030478485 0.0035499926 0.17092091
00000000: e53e 013e 0a2b f73c dd38 3dbd f92a 3c3d
00000010: e25e c7bb 2e54 e6bc ebaa 5bbd 42a3 733e
00000020: fb5a 543e 17f6 893c 1538 91bd 0aeb 07bc
00000030: 97e6 a0bd b5e3 37bc 4545 3f3d 06e9 a53d
00000040: 8a36 c13d ef31 f83b 2c35 5a3c fb39 78bd
00000050: 9f90 c1bc afe3 fcbc 260c 013d a0a7 dabd
00000060: 8787 7d3c 8afc 803d 873b 2bbd 0c59 0cbd
00000070: e62d b1bc fa96 0bbc b405 e33d b7aa 5e3d
00000080: ac7b fbbb 30b6 55bd dd28 883d 7ddb 7dbc
00000090: 1084 b6bd f267 233d 1e4c 26bd af07 36bd
000000a0: b1a9 eebc c5e8 133d efd9 8bbd 70bc b4bd
000000b0: 4d9f 16be 93c1 c4bc 6d55 e83d 5acd 9f3c
000000c0: b17c c73d c30a 0c3e 445b ccbd 1594 b9bb
000000d0: c07a d8bd 2537 37bd 428c efbc 98a7 15be
000000e0: a380 8ebd d060 02be d482 c63d e746 ba3d
000000f0: 7eb8 003b 2129 d13d 76a2 ddbb 42ee 073d
00000100: 43ed 01bd 6ede f2bb 8194 f13d 2ce4 b53d
00000110: c09c b33e 3a95 0f3e 4ec6 c43d 33a5 fbbd
00000120: 3687 aa3d 1985 9cbc 0f79 a13c 1f12 583d
00000130: 526b 89bd 35b0 f0bc 4304 4abd a69d f23c
00000140: 3ec2 9ebd 8869 833d 17e4 4ebd 04e2 7fbd
00000150: 2db4 86bd 4947 eebd a86f 8cbc abbf d6bc
00000160: 7310 2fbd 9e79 b9bd 802c a13d 1d03 28be
00000170: b6ce 793c 9368 d93d 0cac c4bd a625 cbbd
00000180: 2920 83be 5edd bb3d 062e 933d 8650 80bd
00000190: 32e2 8b3c 8e3b f6bd a704 60be c16e 153e
000001a0: 093f 5f3d 73d7 743c c6b7 92bd d36c 083d
000001b0: e1ac 1abe 7899 0e3d bcd7 953d 3541 243d
000001c0: 6cf9 15bc 0ac0 5f3d 3084 9bbc d9a5 82bd
000001d0: b7cf c33d b689 b5bd 8092 193d 05f2 bdbd
000001e0: e4f4 a33d 91e1 b33d d420 063c 2e3b c63d
000001f0: dc52 943b a04e 10be 8057 77bd 0d23 a23c
00000200: 4b76 75bd 01a8 f43c 3e9b 953d 0922 973d
00000210: 6ddb 69be 1f30 49bc 31b9 013d 13ef 06be
00000220: 35da 033d 9449 99bd 1e82 303e 153b 943b
00000230: c91a dabc 3e0a c9bc f81b a63d ae30 37bd
00000240: 22b6 b9bd 67c2 d3bd c4c6 103d fd79 51bd
00000250: c98e 86bb 914c aabd 84e9 ba3d 3f97 04be
00000260: a99b 06be 2b0c a53d d21a 1d3a a28d acbc
00000270: 6607 f03c 5072 a63e 91ce 00bd 1379 bb3c
00000280: 9d48 d5bc 17bb 0dbc 229b 873c 85d8 ce3d
00000290: d3e5 32bd aec2 44bd c144 05bc 8f6b f13c
000002a0: bde9 223e 2099 053e 13e0 afbd 5c7f a13d
000002b0: f6db b73d 6d73 37be 3178 df3d 97dc ed3d
000002c0: e62c a73d bb80 993c 4e73 98bc 34a8 2a3e
000002d0: fec5 953e 5d92 a2bc aca8 b9bc 03ad 95bd
000002e0: a9fb 66bd c91f 0e3e aa8b 14be 5c26 2fbe
000002f0: a127 0f3e c106 783d bcf9 933d da00 8e3e
00000300: f950 003e ea3e cf3b 2d88 93bd fcdc 863d
00000310: 9275 68bd e12d 35bd 930d 953d 8c1e 1d3b
00000320: 7655 81b9 7b7d 89bd a710 5e3c b901 163d
00000330: 1672 1f3c 7772 71bd b3ee dcbd 392d a43d
00000340: 1841 99bd 7472 483c aa30 1dbd 0d30 5fbc
00000350: 5aba 2ebc 5f80 8dbb 8311 cb3c 1fca 3c3d
00000360: e16d 48bd e449 76bc d298 133d acab 75bd
00000370: 58f5 193a 9254 353d 403e 35bd b67d 2f3c
00000380: 5d52 fbb9 bdac 52bd 393d 773d d30d 0abc
00000390: ab09 17bd 6f09 a33c f4c4 333d f243 4b3c
000003a0: 2555 043d 8440 943d 829e 693d f95b 853d
000003b0: 5d16 e93a 329f 253d 2f90 6fbb 803b e83c
000003c0: b506 253a 5878 8c3c 5c5b 383b 8a17 72bc
000003d0: 1da4 453c eb90 833d 0bc0 683b 54cf 26be
000003e0: b35f d33c 9a4d 643d 9a2b f4bd e6f9 84bd
000003f0: f082 283e 04ae f93c fea6 683b e405 2f3e

fully_connected_layer.bias f4 [10]
-0.06843961 -0.011439077 0.07836806 0.08139364 0.027736073 -0.09526105 0.07942325 0.0681902
-0.04003361 -0.049406406
00000000: 112a 8cbd f76a 3bbc 6f7f a03d b5b1 a63d
00000010: c336 e33c 3a18 c3bd a8a8 a23d 4ea7 8b3d
00000020: 48fa 23bd 5f5e 4abd
