Homework/3_CNN/models/CovNetNoBatchNorm.pt (torch, 117911 bytes, 6 tensors)

conv_ensemble_1.0.weight f4 [16, 1, 5, 5]
-0.105649784 0.2106031 0.14030528 -0.18856922 0.02805253 -0.009430559 -0.048012353 0.123651415
-0.15750025 -0.0264853 0.21335535 -0.111913465 0.12535222 -0.21230805 0.087650366 -0.1133327
0.14036168 -0.14890447 -0.25449166 0.21398014 0.20442899 -0.18727507 0.06834496 0.10200234
-0.046117138 -0.21991664 0.0024829453 0.18102175 0.091743 -0.0836013 -0.044589654 -0.26044348
-0.1219626 0.12460401 -0.004692467 -0.029606286 0.06035025 0.0002470823 -0.058767755 -0.089551285
-0.20741877 -0.23491411 0.079105385 0.25472817 0.15265672 0.116131425 -0.22006355 0.20256934
0.26016355 -0.01804893 0.21260291 0.18163052 -0.09931603 -0.090923674 -0.08779145 -0.10499391
0.256093 0.15608461 0.093605876 0.17549936 0.21872 0.18595853 0.18167867 -0.11397253
-0.019841045 0.051050074 -0.011859248 -0.157394 -0.12355114 0.14917572 -0.22022909 -0.1967888
0.056691974 0.0004938666 0.07079624 0.073643334 -0.028769204 -0.1376897 -0.04965869 -0.24504334
-0.085786365 0.06460378 -0.018775856 -0.15108347 -0.05548491 0.0911548 -0.0046897833 -0.04777569
-0.09363077 -0.19751725 -0.036210973 0.13588066 -0.099065594 0.091307305 0.12326368 -0.15863049
0.04214366 0.19901407 0.017798936 -0.11720466 0.20213369 0.12214297 0.11798071 -0.050500806
-0.121010624 -0.07970304 0.22362846 0.16301832 0.16314425 0.20583251 -0.04207217 -0.11802705
0.010373862 0.19306545 0.013213116 0.17280705 0.08275623 0.16185288 0.19912186 0.10550141
0.07609066 0.2208221 0.10233804 -0.11352349 0.12322919 -0.18219219 -0.18405175 0.017091427
-0.16910924 0.20562497 0.006017111 0.040854406 -0.06464904 0.0069411574 0.27199516 0.17437384
-0.17852703 -0.26648256 -0.13756222 0.21912062 -0.05097504 -0.030813295 -0.24557108 -0.07093567
-0.046296258 -0.067855515 -0.08888074 -0.25508592 -0.1817152 0.23130053 0.05652178 -0.013989268
0.11467215 0.06641091 -0.15007442 -0.047219742 0.013108199 -0.12508814 0.0032225496 -0.13821669
-0.16837251 -0.15611967 0.113004416 -0.22547631 -0.18401703 -0.17028724 -0.025295042 -0.047541004
-0.016275266 -0.18101405 -0.14291014 0.17164147 -0.15995978 -0.11809834 -0.23621361 0.031278044
0.18155634 0.027007926 -0.0056889104 -0.18564749 -0.16078444 -0.19385317 0.024520721 0.008377163
-0.05009653 -0.05979693 -0.2516494 -0.14456068 0.039791677 -0.1118189 -0.23006688 -0.054744113
-0.21885446 -0.16057654 0.11338765 -0.17887324 0.079781316 0.21608903 0.11142031 0.0021121746
-0.14525932 0.016211564 -0.21032722 0.108154416 -0.071446426 -0.0016281239 -0.22419168 -0.032118775
-0.28543344 0.02930905 -0.07202499 -0.040218923 -0.149885 -0.19590841 -0.22275047 0.05906852
0.14815287 -0.15780962 -0.2816687 -0.29125124 -0.083688535 0.16656232 0.08965077 -0.01800874
-0.2538331 0.047758225 0.14458664 -0.037457272 0.18940742 -0.15465893 -0.06294755 0.032432504
-0.005656264 0.19193366 0.07578589 -0.2705177 -0.018426267 0.23053092 0.010310547 -0.19466065
-0.1654625 0.1847226 0.0936611 0.21220599 0.0698645 -0.21611404 0.044633914 -0.10969952
-0.15002456 -0.10036863 -0.1644497 0.08266809 -0.16786641 -0.008923052 -0.16782703 -0.10714613
00000000: ea5e d8bd 57a8 573e 30ac 0f3e 4a18 41be
00000010: 6bce e53c a282 1abc 9aa8 44bd f43c fd3d
00000020: bf47 21be b3f7 d8bc d379 5a3e e332 e5bd
00000030: 555c 003e 4867 59be 0982 b33d fa1a e8bd
00000040: f9ba 0f3e 6a7a 18be bb4c 82be 9c1d 5b3e
00000050: d555 513e 09c5 3fbe 71f8 8b3d 9ae6 d03d
00000060: 53e5 3cbd d431 61be e9b8 223b c45d 393e
00000070: c1e3 bb3d 2937 abbd a4a3 36bd d958 85be
00000080: 87c7 f9bd 6330 ff3d 44c3 99bb e288 f2bc
00000090: d331 773d d38a 8139 75b6 70bd aa66 b7bd
000000a0: 9665 54be 538d 70be 0102 a23d bb6b 823e
000000b0: 0b52 1c3e 50d6 ed3d 5758 61be 566e 4f3e
000000c0: 2834 853e 5adb 93bc 94b4 593e 5afd 393e
000000d0: 3466 cbbd 3136 babd 01cc b3bd 0c07 d7bd
000000e0: 9f1e 833e a5d4 1f3e 70b4 bf3d 1bb6 333e
000000f0: 23f8 5f3e ea6b 3e3e f909 3a3e 6e6a e9bd
00000100: b089 a2bc e219 513d 4b4d 42bc e52b 21be
00000110: 6108 fdbd 85c1 183e bc83 61be 0183 49be
00000120: d835 683d d476 013a 9efd 903d 51d2 963d
00000130: 65ad ebbc 87fe 0cbe e966 4bbd a4ec 7abe
00000140: c3b0 afbd fd4e 843d d3cf 99bc a0b5 1abe
00000150: 2544 63bd 5eaf ba3d c1ac 99bb 71b0 43bd
00000160: 7dc1 bfbd f641 4abe f551 14bd 4d24 0b3e
00000170: e7e2 cabd 53ff ba3d ab71 fc3d 0870 22be
00000180: d59e 2c3d 58ca 4b3e 13cf 913c ff08 f0bd
00000190: 22fc 4e3e 1826 fa3d df9f f13d efd9 4ebd
000001a0: 6bd4 f7bd 593b a3bd dcfe 643e 46ee 263e
000001b0: 490f 273e c2c5 523e de53 2cbd 2ab8 f1bd
000001c0: 22f7 293c f3b2 453e d37b 583c 55f4 303e
000001d0: 197c a93d c3bc 253e 9ae6 4b3e 2011 d83d
000001e0: 6cd5 9b3d 301f 623e 9b96 d13d 017f e8bd
000001f0: 965f fc3d 9790 3abe 1078 3cbe 5203 8c3c
00000200: f92a 2dbe 5a8f 523e 2f2b c53b f356 273d
00000210: b766 84bd a672 e33b f342 8b3e 0e8f 323e
00000220: cacf 36be 6770 88be 1cdd 0cbe 2861 603e
00000230: 34cb 50bd 2a6c fcbc fc76 7bbe b846 91bd
00000240: 25a1 3dbd d5f7 8abd 1b07 b6bd 9f9a 82be
00000250: 8d13 3abe 0cda 6c3e 6283 673d 3e33 65bc
00000260: 3bd9 ea3d 7102 883d 1cad 19be 7d69 41bd
00000270: c6c3 563c 1b17 00be 6931 533b ad88 0dbe
00000280: d869 2cbe d6dd 1fbe dc6e e73d 43e3 66be
00000290: f66e 3cbe c75f 2ebe 8c37 cfbc 5bba 42bd
000002a0: b553 85bc bf5b 39be 0957 12be c8c2 2f3e
000002b0: 7fcc 23be 8bdd f1bd fbe1 71be 681d 003d
000002c0: e8e9 393e ba3f dd3c 0a6a babb 601a 3ebe
000002d0: ada4 24be 7281 46be aedf c83c 5e40 093c
000002e0: 0532 4dbd a0ed 74bd 31d8 80be b707 14be
000002f0: 99fc 223d 4f01 e5bd a796 6bbe 5d3b 60bd
00000300: 621b 60be 2d6e 24be c937 e83d 8c2a 37be
00000310: 6364 a33d 7146 5d3e 5530 e43d 696c 0a3b
00000320: dcbe 14be 1dce 843c 0560 57be 1080 dd3d
00000330: 8152 92bd c666 d5ba 8192 65be fa8e 03bd
00000340: 5524 92be 8819 f03c d781 93bd 99bc 24bd
00000350: 747b 19be 379c 48be b318 64be d5f1 713d
00000360: 63b5 173e d898 21be e136 90be e21e 95be
00000370: e564 abbd 508f 2a3e d39a b73d 1187 93bc
00000380: 69f6 81be 219e 433d 850e 143e cc6c 19bd
00000390: 05f4 413e e95e 1ebe a5ea 80bd f2d7 043d
000003a0: 2e58 b9bb 428a 443e a235 9b3d 4c81 8abe
000003b0: aff2 96bc 4c10 6c3e 92ed 283c 1f55 47be
000003c0: 006f 29be ec27 3d3e 64d1 bf3d 874c 593e
000003d0: 1e15 8f3d 004d 5dbe 0dd2 363d 24aa e0bd
000003e0: 0aa0 19be 118e cdbd 8165 28be e34d a93d
000003f0: 2ce5 2bbe fe31 12bc d9da 2bbe 6e6f dbbd

conv_ensemble_1.0.bias f4 [16]
-0.08626331 -0.0946549 0.26333466 0.05115268 0.14454682 -0.0862125 0.061781775 0.08833476
-0.11934783 -0.03369578 -0.10116136 0.18979546 0.15287411 0.15497097 0.22378686 0.27193078
00000000: d1aa b0bd 6eda c1bd cdd3 863e 7985 513d
00000010: 1504 143e 2e90 b0bd e30e 7d3d dbe8 b43d
00000020: a36c f4bd 9604 0abd b02d cfbd be59 423e
00000030: 088b 1c3e b6b0 1e3e 6228 653e 833a 8b3e

conv_ensemble_2.0.weight f4 [32, 16, 5, 5]
0.001739623 0.025290394 0.03840347 0.025086338 -0.010195374 -0.037728332 0.03328549 0.010764317
-0.030510029 -0.043196965 -0.021698792 0.055143125 0.0036353425 -0.033988323 -0.015080304 0.01817635
-0.010555708 -0.022789571 -0.03245773 0.039567538 -0.010647197 0.011353584 -0.037913457 0.0014071497
0.012476815 0.01571511 -0.03213835 -0.009756406 -0.044265073 0.010090106 0.039915603 0.03460136
0.009737661 0.022423666 0.037058227 -0.0084436815 0.036762852 0.05929729 -0.023953611 -0.061116606
0.0389292 0.013212689 0.06504669 -0.049468912 -0.009413739 0.020258207 0.06128475 -0.030763851
-0.051744755 -0.017848548 0.031076772 -0.026320929 0.0026750064 -0.01690931 -0.01795059 0.02691238
-0.03691183 0.016492978 0.0421086 -0.040882982 0.04042993 -0.057270914 0.0041114236 0.052986365
-0.03733401 0.039143573 -0.047704924 -0.03907972 0.013545018 0.058783833 0.02924797 0.013144592
0.017192142 0.031333055 -0.016641602 0.05663426 -0.0059633083 -0.033495374 0.03680255 -0.017782822
0.04380555 0.01792942 -0.055073176 -0.028378729 -0.027539609 0.021961827 0.0399547 -0.044391572
-0.050102945 -0.009581627 -0.00037485955 0.003324732 -0.053705007 -0.049080513 -0.027331816 0.0013456726
-0.053794015 -0.0023844962 -0.034185503 -0.037137136 0.004557229 -0.042213496 0.02717391 0.05710706
0.00063511997 -0.017835867 -0.057294354 -0.009639223 0.05918006 -0.006894909 -0.048402347 -0.06906025
-0.017644629 0.0045892387 0.055520926 -0.046537276 -0.018135007 -0.003282704 0.022609608 0.03958509
0.0023243746 0.04184838 -0.009244505 0.016824894 -0.0271731 0.010196623 0.05174074 0.025977481
0.01981105 -0.004677424 0.059955183 0.063654706 -0.044270225 -0.059488732 -0.013054535 -0.026747113
0.03798313 0.0145768095 -0.06971705 0.03960286 0.027391724 -0.025762746 -0.020178836 -0.06616326
-0.029728914 0.047370087 0.013256336 0.041463487 0.02134066 -0.02666171 0.005930611 -0.028370576
-0.029434236 -0.03929091 0.0015613822 0.052036874 -0.011559378 0.012448996 -0.018732756 -0.02633659
-0.015270648 -0.0059425244 -0.032208018 -0.02718362 -0.01485874 0.06171379 0.024682825 -0.026274318
0.037820164 -0.04035569 -0.040645353 0.037607 0.012241701 0.013483282 0.0064563537 -0.022992738
-0.041597217 0.046364307 -0.029789656 0.025177987 0.027499817 -0.04113007 -0.00893148 -0.049562976
-0.033671565 -0.03456849 -0.015685953 0.034254998 -0.015351304 -0.061318096 0.032891598 0.03832543
0.052632567 -0.005233811 -0.023307575 -0.035441615 -0.03656026 -0.046259847 -0.055042062 0.04865432
0.031626385 -0.0291532 -0.06377707 0.02641532 -0.003234403 0.04172158 0.018370679 0.0037597723
-0.0416642 0.033877328 0.048408292 0.03523658 -0.04205996 -0.042561978 0.05770632 0.02899674
-0.0155659085 -0.04087602 -0.0062352507 0.021887511 0.0069336924 0.007520656 -0.01394346 -0.0010206942
0.028094778 0.02445042 0.0018862351 0.053548265 0.035492294 0.003094192 -0.022365797 0.03315073
0.030116947 -0.041460186 -0.051801417 -0.014101985 -0.031499423 0.010469865 0.050081223 -0.0033243413
0.011947674 -0.038184162 0.033607926 0.04026038 -0.030559516 -0.04702232 0.010289547 0.016673949
-0.029167797 0.033267036 0.014805508 0.045711614 -0.0093872715 0.014053745 0.00830517 0.0024934597
00000000: 1004 e43a cd2d cf3c f54c 1d3d dd81 cd3c
00000010: 7f0a 27bc 0689 1abd 5e56 083d d15c 303c
00000020: 2bf0 f9bc 4def 30bd aac1 b1bc c2dd 613d
00000030: ed3e 6e3b 5737 0bbd 6113 77bc 92e6 943c
00000040: d9f1 2cbc 32b1 babc 66f2 04bd 9211 223d
00000050: 9571 2ebc 6204 3a3c 244b 1bbd 1c70 b83a
00000060: 8e6b 4c3c f9bc 803c 81a3 03bd 55d9 1fbc
00000070: 4b4f 35bd f950 253c 8b7e 233d 28ba 0d3d
00000080: b68a 1f3c d6b1 b73c 5eca 173d 5e57 0abc
00000090: a594 163d b7e1 723d 5d3a c4bc 6855 7abd
000000a0: 3a74 1f3d 097a 583c 3337 853d ea9f 4abd
000000b0: 153c 1abc 8af4 a53c b805 7b3d 7904 fcbc
000000c0: 4ff2 53bd 1e37 92bc b794 fe3c fd9e d7bc
000000d0: 294f 2f3b 6585 8abc 1e0d 93bc 5a77 dc3c
000000e0: dc30 17bd 481c 873c 117a 2c3d ea74 27bd
000000f0: db99 253d e894 6abd 1fb9 863b 3b08 593d
00000100: 8ceb 18bd 0355 203d 3d66 43bd 0e12 20bd
00000110: eceb 5d3c 51c7 703d 7099 ef3c 6a5c 573c
00000120: 89d6 8c3c 1757 003d f853 88bc 53f9 673d
00000130: db67 c3bb 7232 09bd 45be 163d 48ad 91bc
00000140: 736d 333d b8e0 923c 6994 61bd 827a e8bc
00000150: bf9a e1bc 4ae9 b33c 8aa7 233d f0d3 35bd
00000160: bf38 4dbd 42fc 1cbc cc88 c4b9 bfe3 593b
00000170: c8f9 5bbd a608 49bd f9e6 dfbc 4861 b03a
00000180: 1d57 5cbd 3545 1cbb 1906 0cbd 1c1d 18bd
00000190: cf54 953b 0fe8 2cbd d29b de3c 18e9 693d
000001a0: 2e7e 263a 861c 92bc 7cad 6abd d5ed 1dbc
000001b0: ca66 723d b0ee e1bb 8a41 46bd 766f 8dbd
000001c0: 788b 90bc 5361 963b e969 633d df9d 3ebd
000001d0: de8f 94bc a222 57bb c937 b93c fa23 223d
000001e0: 8954 183b 3569 2b3d 4476 17bc 5cd4 893c
000001f0: 1f9a debc bd0f 273c 19ee 533d bace d43c
00000200: c84a a23c 1445 99bb 9193 753d 665d 823d
00000210: b254 35bd 75aa 73bd b0e2 55bc c31c dbbc
00000220: 3394 1b3d 92d3 6e3c d0c7 8ebd 9c36 223d
00000230: 9c64 e03c 650c d3bc 164e a5bc 9a80 87bd
00000240: 0d8a f3bc 2307 423d 1a31 593c 9ed5 293d
00000250: 9cd2 ae3c a969 dabc 9255 c23b 6969 e8bc
00000260: 1120 f1bc 81ef 20bd 4ba7 cc3a 9e24 553d
00000270: 8c63 3dbc e0f6 4b3c 7075 99bc d5bf d7bc
00000280: bd31 7abc 82b9 c2bb 8eec 03bd 2fb0 debc
00000290: 1372 73bc 99c7 7c3d a333 ca3c 3d3d d7bc
000002a0: 51e9 1a3d 024c 25bd be7b 26bd cc09 1a3d
000002b0: 6a91 483c fce8 5c3c d28f d33b 445b bcbc
000002c0: d861 2abd 80e8 3d3d 7009 f4bc 1142 ce3c
000002d0: 4c47 e13c 0178 28bd 5855 12bc 8c02 4bbd
000002e0: 32eb 09bd b097 0dbd d47f 80bc f84e 0c3d
000002f0: 0984 7bbc af28 7bbd 57b9 063d 20fb 1c3d
00000300: 3f95 573d 6480 abbb 87ef bebc 3a2b 11bd
00000310: 36c0 15bd f77a 3dbd c973 61bd c149 473d
00000320: ab8a 013d b1d2 eebc 8d9d 82bd f164 d83c
00000330: 47f8 53bb 3fe4 2a3d 1b7e 963c 8366 763b
00000340: 15a8 2abd f4c2 0a3d c647 463d 3b54 103d
00000350: 1147 2cbd 7855 2ebd 765d 6c3d 928a ed3c
00000360: 2708 7fbc 9d6d 27bd 1351 ccbb 704d b33c
00000370: 0734 e33b d66f f63b 1c73 64bc d0c8 85ba
00000380: 0527 e63c 3f4c c83c 8c3b f73a 6d55 5b3d
00000390: 5e60 113d edc7 4a3b 7a38 b7bc 0fc9 073d
000003a0: d1b7 f63c 28d2 29bd b92d 54bd 030c 67bc
000003b0: 8a05 01bd cc89 2b3c f821 4d3d 31dd 59bb
000003c0: 2dc0 433c ff66 1cbd 77a8 093d 11e8 243d
000003d0: f357 fabc 7a9a 40bd 7d95 283c ce97 883c
000003e0: 4ef1 eebc 0443 083d cd92 723c 1a3c 3b3d
000003f0: 12cd 19bc ae41 663c 6812 083c 5069 233b

conv_ensemble_2.0.bias f4 [32]
0.024805728 -0.027963972 0.037217185 0.027068915 0.008512381 0.019848429 -0.05136388 -0.03096247
-0.01711752 -0.0032425558 -0.04331172 -0.056962024 0.034779187 0.05448253 -0.019302502 0.052757863
0.019376589 0.007219081 0.023345502 0.0092340335 0.034891672 -0.005322034 -0.013459184 -0.025835589
0.06464347 -0.0090464 -0.0045840484 -0.025044741 0.034447 0.05099628 0.013152202 0.025467051
00000000: 6235 cb3c b314 e5bc 0c71 183d a1bf dd3c
00000010: 8477 0b3c 2c99 a23c ef62 52bd 02a5 fdbc
00000020: 0b3a 8cbc 0f81 54bb a167 31bd 0351 69bd
00000030: 9f74 0e3d 1329 5f3d 4820 9ebc a118 583d
00000040: a7bb 9e3c 0a8e ec3b 113f bf3c 584a 173c
00000050: 92ea 0e3d 7564 aebb e983 5cbc 28a5 d3bc
00000060: cc63 843d 5a37 14bc c935 96bb a12a cdbc
00000070: 4c18 0d3d 7ae1 503d 557c 573c 47a0 d03c

fully_connected_layer.weight f4 [10, 1568]
0.039314516 0.018485708 -0.041469824 -0.004730263 0.016837157 -0.02924089 -0.012502838 -0.0030033528
-0.009291774 -0.023864338 -0.039474018 0.03711054 0.014034081 -0.014771681 0.035385516 0.052326277
-0.027218888 -0.0059686517 0.031585492 0.0023978378 -0.018345583 0.00206549 -0.011474352 0.014999628
-0.04933921 -0.059989914 -0.029491099 0.016126245 -0.01942862 -0.011941099 0.018892884 -0.050265785
-0.046149734 -0.021092037 -0.016232416 0.0072801127 0.0073772282 0.029512826 -0.01909133 0.008389278
-0.02903638 0.015252251 -0.004285494 0.036521498 0.008081499 -0.023934301 0.038705748 -0.03536626
0.03205615 0.042320553 -0.021536022 -0.031281084 0.0042471574 0.0344268 -0.031897057 -0.0198102
0.006303587 0.019801807 0.010494141 0.025916066 0.04711435 0.017378418 -0.015328742 0.00406566
0.0027880676 0.018559169 -0.028159898 0.031930875 -0.025865652 -0.042179406 -0.046111852 -0.0108238235
-0.0054608644 -0.014166355 -0.035808306 0.014589199 -0.004861675 -0.018376466 0.013855169 0.008137014
-0.044610403 -0.052344814 -0.012394689 0.015200164 -0.003812133 -0.011002904 0.01238907 0.0012544944
-0.0064644534 -0.013812895 0.04132652 -0.029330073 0.0063865334 -0.0050033 -0.02604001 -0.013998529
-0.0005651611 -0.0040365644 0.022523431 -0.026173297 -0.00838439 0.047039516 0.03659508 0.045638554
-0.022422334 0.06956473 0.029976206 0.012481948 -0.00992422 0.013103947 0.053131316 0.0073241666
0.05933347 0.024373323 0.044116586 0.004964209 0.030395398 0.05700766 0.014107648 -0.03892968
-0.023351055 0.005580179 -0.01603752 -0.036820408 -0.012195969 -0.009386554 0.0014639 0.00430014
0.0017164747 -0.03059852 -0.044836707 -0.025902146 0.0012199591 -0.023422383 0.00876339 -0.021600587
-0.024107166 -0.03445957 -0.015210093 0.0073680948 -0.010481342 -0.0030484663 -0.015652407 0.0083531365
0.023487229 -0.035397664 0.015197162 -0.01197877 -0.00058263604 -0.022086343 -0.01125286 -0.004798161
-0.0038792267 0.018831028 -0.0031541726 -0.019960582 0.024636118 0.03844313 -0.007887051 -0.01359482
0.014228007 0.027387608 -0.016203158 0.0032626712 -0.00606655 0.02077211 -0.027035473 0.0017914339
-0.0038893446 0.013464754 0.010168376 0.01804357 -0.011801951 0.03339629 -0.018503938 0.022284422
-0.02945651 0.021131538 0.015915474 0.018237904 0.033878285 0.008092708 0.007877014 -0.03843444
-0.02155651 -0.010248554 -0.013085541 0.00031824 0.009473207 0.0028442421 0.011909398 -0.010457173
0.010547015 0.0003901453 -0.0110688 0.00031415437 0.0018446625 -0.011948584 -0.007627686 0.009507047
0.032219958 -0.0462408 0.007444162 0.015478137 0.009866056 0.0061312355 0.020593815 0.0021046246
-0.017328778 0.014347511 0.03079931 0.0065381243 -0.0076062083 -0.0018247701 -0.012574803 0.005128439
0.00564292 0.0053526144 -0.027781123 0.016917456 0.012678902 -0.0077988217 0.02135153 0.0015261465
-0.00025557593 -0.003633411 0.008974455 0.012917294 0.00510515 0.015131621 0.0050840583 -0.010166157
-0.019202221 -0.0055620256 -0.011334657 -0.0037124695 0.014653994 0.0042624716 -0.02957021 -0.004016907
0.008124225 -0.008773262 0.042350445 -0.020295339 0.031619925 0.03688505 0.011328874 0.010671511
-0.011650725 0.03966957 0.0003947451 -0.0043569747 0.039580837 0.013525798 0.019812956 -0.025668386
00000000: 4208 213d 576f 973c 43dc 29bd 5200 9bbb
00000010: 14ee 893c 978a efbc b4d8 4cbc e6d3 44bb
00000020: 863c 18bc 257f c3bc 82af 21bd 3901 183d
00000030: 34ef 653c ec04 72bc 67f0 103d 1454 563d
00000040: 25fa debc ae94 c3bb ca5f 013d 0b25 1d3b
00000050: 7a49 96bc 2c5d 073b ecfe 3bbc 00c1 753c
00000060: e917 4abd fcb7 75bd 5197 f1bc 301b 843c
00000070: c528 9fbc 99a4 43bc 40c5 9a3c 7fe3 4dbd
00000080: 8107 3dbd 35c9 acbc d8f9 84bc 038e ee3b
00000090: adbc f13b e2c4 f13c 6c65 9cbc 2f73 093c
000000a0: b4dd edbc 94e4 793c 546d 8cbb 9197 153d
000000b0: 4368 043c de11 c4bc eb89 1e3d 36dc 10bd
000000c0: 4f4d 033d 5158 2d3d 506c b0bc 9820 00bd
000000d0: bd2b 8b3b 1e03 0d3d 7da6 02bd 0049 a2bc
000000e0: 528e ce3b 6637 a23c 9eef 2b3c ee4d d43c
000000f0: fafa 403d 2f5d 8e3c 6725 7bbc 3a39 853b
00000100: 03b8 363b 6609 983c 96af e6bc f3c9 023d
00000110: 34e4 d3bc 50c4 2cbd c8df 3cbd 6856 31bc
00000120: 0df1 b2bb 001a 68bc bbab 12bd 8907 6f3c
00000130: b04e 9fbb 3e8a 96bc ca00 633c 1c51 053c
00000140: 66b9 36bd 8467 56bd 1813 4bbc 1c0a 793c
00000150: fbd4 79bb 8645 34bc 87fb 4a3c d96d a43a
00000160: c4d3 d3bb 7b4f 62bc ff45 293d 9f45 f0bc
00000170: 2046 d13b b9f2 a3bb dc51 d5bc 165a 65bc
00000180: 5227 14ba 2845 84bb 0f83 b83c 6269 d6bc
00000190: ae5e 09bc 82ac 403d b9e4 153d 7eef 3a3d
000001a0: 0baf b7bc f477 8e3d a990 f53c 1681 4c3c
000001b0: 3299 22bc f0b1 563c 39a0 593d 90ff ef3b
000001c0: a707 733d 90aa c73c 98b3 343d ceaa a23b
000001d0: c5ff f83c dd80 693d c423 673c ba74 1fbd
000001e0: b64a bfbc efd9 b63b 1e61 83bc ffd0 16bd
000001f0: 9ad1 47bc 10ca 19bc 55e0 bf3a 30e8 8c3b
00000200: 55fb e03a bfa9 fabc b2a6 37bd bd30 d4bc
00000210: 09e7 9f3a 4ce0 bfbc 5294 0f3c b7f3 b0bc
00000220: 647c c5bc 7a25 0dbd c133 79bc 0f70 f13b
00000230: efb9 2bbc c7c8 47bb 7a39 80bc 98db 083c
00000240: 4a68 c03c 24fd 10bd 84fd 783c 9a42 44bc
00000250: 0bbc 18ba 6bee b4bc ea5d 38bc e439 9dbb
00000260: a03a 7ebb 8743 9a3c 3cb6 4ebb 6084 a3bc
00000270: afd1 c93c 8b76 1d3d b138 01bc cfbc 5ebc
00000280: 961c 693c fa5b e03c 7cbc 84bc 8ad2 553b
00000290: e9c9 c6bb 462a aa3c 7f79 ddbc 8cce ea3a
000002a0: 60e4 7ebb 469b 5c3c 4399 263c 1cd0 933c
000002b0: f85c 41bc 8cca 083d 9295 97bc d28d b63c
000002c0: c74e f1bc 0c1c ad3c 2b61 823c a867 953c
000002d0: f5c3 0a3d 4797 043c 970e 013c 6e6d 1dbd
000002e0: 4797 b0bc 8de9 27bc bd64 56bc 73d9 a639
000002f0: 8335 1b3c 7766 3a3b a31f 433c 9054 2bbc
00000300: 63cd 2c3c 6a8c cc39 ea59 35bc 16b5 a439
00000310: 9ac8 f13a fec3 43bc abf1 f9bb 72c3 1b3c
00000320: 13f9 033d fe66 3dbd 28ee f33b 0398 7d3c
00000330: 3da5 213c 88e8 c83b 5cb4 a83c beed 093b
00000340: 15f5 8dbc d311 6b3c d64e fc3c c33d d63b
00000350: 803d f9bb 202d efba 8c06 4ebc 770c a83b
00000360: 3ee8 b83b fc64 af3b 3d95 e3bc 7a96 8a3c
00000370: 2bbb 4f3c 428d ffbb 67e9 ae3c fb08 c83a
00000380: d2fe 85b9 851e 6ebb 9809 133c 0fa3 533c
00000390: 1a49 a73b 9eea 773c 2c98 a63b f48f 26bc
000003a0: fa4d 9dbc a741 b6bb ffb4 39bc e74c 73bb
000003b0: 4e17 703c 34ac 8b3b 3a3d f2bc 42a0 83bb
000003c0: 781b 053c babd 0fbc a977 2d3d 6942 a6bc
000003d0: e583 013d c714 173d be9c 393c 90d7 2e3c
000003e0: afe2 3ebc 8f7c 223d caf5 ce39 f4c4 8ebb
000003f0: 841f 223d 4f9b 5d3c c84e a23c 8246 d2bc

fully_connected_layer.bias f4 [10]
-0.016678082 0.0047004744 0.039858326 0.009406631 0.036316484 -0.050338417 0.008272049 -0.0045950348
-0.03785991 0.014847508
00000000: 79a0 88bc 7006 9a3b 7c42 233d 451e 1a3c
00000010: 98c0 143d a82f 4ebd 7d87 073c f291 96bb
00000020: fe12 1bbd f642 733c
