Homework/3_CNN/models/CovNetNoBatchNormSameSize_ex2.pt (torch, 117847 bytes, 6 tensors)

conv_ensemble_1.0.weight f4 [16, 1, 5, 5]
-0.16642608 4.996563e-05 -0.10072441 -0.1465553 0.08059366 -0.112474844 -0.21280819 -0.20245184
0.23802163 0.08116544 -0.070323616 -0.02791995 0.018496145 0.21675783 0.0850598 0.15055193
-0.15245932 -0.018411897 0.16770592 0.18770584 -0.18190888 -0.1155097 -0.082466334 0.28200063
0.108701624 0.043962058 -0.0604999 0.043783773 -0.20545457 -0.30616444 0.27061304 0.09107579
0.09301616 -0.35332713 -0.28677052 0.22686629 0.09167953 0.15811425 -0.33483967 -0.24164276
0.31828007 0.085356034 0.07369402 -0.049203984 -0.077454306 0.24006909 0.04895948 -0.059105158
-0.23310684 -0.17056061 -0.31937724 0.24190259 0.16930328 -0.108927794 0.16076255 -0.24958795
0.12391818 0.22232594 0.022982068 -0.086345635 -0.14949001 0.06413111 -0.057016656 -0.22916551
0.012374976 -0.2964717 0.34039146 -0.033812903 0.12539244 0.2201053 -0.27195522 0.2451459
0.18365818 -0.19243881 0.0107868 -0.19466406 0.09593253 0.17332219 0.17814454 0.2447427
0.11303305 0.08816509 0.019374166 -0.06863511 0.13328028 0.025330856 0.26790974 -0.13334681
-0.032398246 -0.14695895 -0.031484354 0.14925143 -0.079065725 -0.25122538 -0.1158512 -0.045440044
-0.04233162 -0.13984783 -0.1896914 -0.11594576 -0.036698103 -0.22730955 0.16792269 0.12930067
-0.13850072 0.14888236 -0.10713656 0.025555465 -0.01143189 0.036349256 0.077439964 -0.16917229
0.027054302 0.2815663 0.13426855 -0.02691692 -0.36098325 -0.3483429 0.21491821 0.30207843
0.06784934 -0.2391549 -0.3471679 0.07640563 0.1703096 -0.14725609 -0.14306651 -0.27722108
-0.1723356 0.20974039 -0.1548558 -0.33923793 -0.3863132 0.00771981 -0.08613011 0.16603722
-0.07820149 -0.20639181 -0.26464567 -0.063362844 -0.10989555 -0.12454012 -0.15357843 0.0028957308
0.28853077 0.013708409 0.10318134 -0.20290463 -0.068666354 0.22604437 0.22012603 0.24139534
-0.12922242 -0.013675451 -0.055695925 0.1830989 0.2798213 0.1649626 0.094295144 -0.006682275
-0.14597428 0.024282798 0.03349604 0.18019468 -0.19638258 -0.25386325 -0.19584237 -0.12723061
-0.16335976 -0.13602324 -0.076788545 -0.09367561 -0.2335549 -0.22328186 -0.2850323 -0.060640536
-0.20519614 -0.07589264 -0.0044861524 -0.12040702 -0.14827147 -0.13170138 0.014721457 0.009192975
0.17274876 -0.122128636 0.13488764 0.19483052 0.18460031 -0.07156024 0.18252647 0.300782
0.24185807 -0.09221415 0.19667505 0.07867327 -0.037702464 0.05998753 -0.24217321 0.023555035
0.15823266 -0.070467584 0.05714803 0.08973637 -0.12762766 -0.032649986 0.22903924 -0.031078104
0.050884448 0.15694445 -0.0979155 0.006950412 -0.3055528 0.0027594452 0.048139546 -0.25302708
-0.049350884 -0.30770653 0.25616905 0.2756598 -0.0202827 -0.0017870179 -0.033555567 -0.10837609
0.104366325 -0.06771535 -0.14993547 0.15250812 -0.08719461 0.09728904 -0.023500364 -0.018602548
-0.2072806 -0.11440226 -0.08692388 -0.21907507 -0.17692985 -0.29213858 -0.020701872 0.05140973
-0.0504229 -0.31588468 -0.33964887 -0.28882173 -0.079774745 -0.070052445 0.15415135 -0.06281067
-0.17985432 0.20196289 0.050609164 0.08831793 0.21353497 0.07757688 7.719442e-05 0.14605112
00000000: 996b 2abe 3092 5138 9948 cebd 9812 16be
00000010: 4a0e a53d 3659 e6bd 64ea 59be 894f 4fbe
00000020: f1bb 733e 113a a63d d405 90bd 61b8 e4bc
00000030: 3a85 973c c4f5 5d3e d533 ae3d 492a 1a3e
00000040: 4c1e 1cbe 8cd4 96bc 1abb 2b3e f635 403e
00000050: 5246 3abe 5990 ecbd 1ce4 a8bd 6362 903e
00000060: f59e de3d 8f11 343d bece 77bd 9d56 333d
00000070: af62 52be 96c1 9cbe cb8d 8a3e f285 ba3d
00000080: 427f be3d 4be7 b4be 96d3 92be a34f 683e
00000090: 7ac2 bb3d b4e8 213e 1b70 abbe 3371 77be
000000a0: 9bf5 a23e 25cf ae3d e4ec 963d 1e8a 49bd
000000b0: 5da0 9ebd acd4 753e bc89 483d 4018 72bd
000000c0: 8fb3 6ebe 71a7 2ebe 6a85 a3be 50b5 773e
000000d0: d75d 2d3e 8915 dfbd f09e 243e fc93 7fbe
000000e0: d1c8 fd3d 69a9 633e e444 bc3c fbd5 b0bd
000000f0: e913 19be 2c57 833d 4c8a 69bd 5daa 6abe
00000100: 69c0 4a3c 23cb 97be ca47 ae3e 667f 0abd
00000110: e066 003e 4963 613e b73d 8bbe 8707 7b3e
00000120: e410 3c3e ae0e 45be 1ebb 303c 0456 47be
00000130: 4678 c43d 5f7b 313e 866b 363e d59d 7a3e
00000140: df7d e73d e68f b43d 92b6 9e3c 9190 8cbd
00000150: a07a 083e a882 cf3c 772b 893e 118c 08be
00000160: 06b4 04bd 687c 16be bdf5 00bd 5ed5 183e
00000170: 36ed a1bd 9da0 80be 6543 edbd 571f 3abd
00000180: ec63 2dbd 4534 0fbe 763e 42be f874 edbd
00000190: c050 16bd d6c3 68be edf3 2b3e 6567 043e
000001a0: 22d3 0dbe 9e74 183e 6a6a dbbd b259 d13c
000001b0: d24c 3bbc f5e2 143d d898 9e3d 803b 2dbe
000001c0: fca0 dd3c 7529 903e b27d 093e df80 dcbc
000001d0: ccd2 b8be 005a b2be 8513 5c3e 06aa 9a3e
000001e0: 98f4 8a3d 06e5 74be febf b1be 8e7a 9c3d
000001f0: a465 2e3e 4dca 16be 0780 12be ecef 8dbe
00000200: be78 30be 2fc6 563e 8592 1ebe 98b0 adbe
00000210: d8ca c5be 76f6 fc3b fc64 b0bd a905 2a3e
00000220: 1a28 a0bd 6058 53be a37f 87be 61c4 81bd
00000230: eb10 e1bd e40e ffbd aa43 1dbe 4dc6 3d3b
00000240: 4eba 933e 3c99 603c bd50 d33d 3bc6 4fbe
00000250: f2a0 8cbd 2d78 673e b868 613e 5730 773e
00000260: e252 04be 000f 60bc 6921 64bd 477e 3b3e
00000270: bd44 8f3e f5eb 283e d01d c13d fcf6 dabb
00000280: 487a 15be b8ec c63c 2533 093d f484 383e
00000290: 8418 49be 5dfa 81be e78a 48be be48 02be
000002a0: c847 27be ad49 0bbe 5043 9dbd 00d9 bfbd
000002b0: 0429 6fbe 00a4 64be c1ef 91be 3662 78bd
000002c0: f01e 52be 9a6d 9bbd 9300 93bb f597 f6bd
000002d0: 7ad4 17be badc 06be 4432 713c 229e 163c
000002e0: 0de5 303e 941e fabd fc1f 0a3e a781 473e
000002f0: dd07 3d3e 2d8e 92bd 38e8 3a3e 1900 9a3e
00000300: a4a9 773e c6da bcbd 2f65 493e 741f a13d
00000310: e66d 1abd 7cb5 753d 41fc 77be 7df6 c03c
00000320: be07 223e 4f51 90bd 0d14 6a3d b4c7 b73d
00000330: d3b0 02be febb 05bd 4389 6a3e 8297 febc
00000340: 366c 503d 0cb6 203e ec87 c8bd 48c0 e33b
00000350: 6b71 9cbe cfd7 343b f92d 453d c48c 81be
00000360: 2724 4abd b68b 9dbe 9728 833e 4823 8d3e
00000370: e827 a6bc 5f3a eaba 9071 09bd 49f4 ddbd
00000380: 03be d53d 58ae 8abd af88 19be 172b 1c3e
00000390: 1693 b2bd 7a3f c73d d683 c0bc 5f64 98bc
000003a0: 5e41 54be bb4b eabd 2605 b2bd 3755 60be
000003b0: 192d 35be 3093 95be f996 a9bc 0293 523d
000003c0: 3e88 4ebd a3bb a1be 75e6 adbe 71e0 93be
000003d0: f160 a3bd a877 8fbd dad9 1d3e e1a2 80bd
000003e0: bb2b 38be 5ccf 4e3e 8e4b 4f3d 08e0 b43d
000003f0: e9a8 5a3e a1e0 9e3d 70e3 a138 6d8e 153e

conv_ensemble_1.0.bias f4 [16]
0.06406027 0.17360869 0.1179149 0.044090953 0.17254218 0.16454329 0.07239651 -0.013763956
0.11590557 -0.03667826 0.033067252 -0.14488336 0.2528616 0.15302277 0.017832879 0.4615457
00000000: 0832 833d 7ac6 313e 5e7d f13d b798 343d
00000010: e6ae 303e 097e 283e 9f44 943d 3782 61bc
00000020: e65f ed3d f13b 16bd 8771 073d 4e5c 14be
00000030: 1377 813e 00b2 1c3e 4216 923c b84f ec3e

conv_ensemble_2.0.weight f4 [32, 16, 5, 5]
-0.011349306 -0.030311242 0.027828075 0.063311644 0.028125428 -0.050566345 -0.016314134 -0.04999853
-0.031238947 0.018362973 -0.06538082 -0.031492613 -0.027702656 0.021733832 -0.00043068943 -0.0205489
0.05103647 -0.083142735 0.0697729 0.03547013 0.032421965 -0.020598287 -0.028849637 0.004963176
0.047111157 -0.05193393 0.011360971 -0.05185683 0.02989174 -0.04420884 -0.05156826 -0.05844695
-0.06500328 -0.010697789 -0.007365782 0.054843783 -0.05801812 -0.015558663 -0.009627204 0.012975455
0.057215262 -0.060328968 -0.0010166572 -0.053405266 -0.008639271 0.045025066 -0.04400421 0.07075257
-0.07247469 0.01363921 -0.00035725316 0.056393214 -0.049211852 0.018668935 -0.006274525 -0.042234268
-0.018425895 0.050834958 -0.04036754 0.036458123 -0.0042576906 -0.04786955 0.0632602 0.020504657
0.016627567 0.021426702 0.04141616 -0.008892725 0.020539086 0.078012064 0.005870025 -0.004864457
0.013720428 -0.04657978 -0.017250534 -0.06758667 -0.015430084 -0.03193924 -0.01572432 -0.059700407
-0.015175183 0.0040366817 0.0027137753 -0.0530354 -0.08509088 0.005849859 0.039289646 0.021834625
-0.037286147 -0.012692981 -0.052105807 -0.07272364 -0.009314448 -0.020836873 -0.03306904 -0.001209205
0.05316048 0.010285269 0.03014157 0.0071702534 -0.0072277216 -0.007659266 0.03625199 0.051289126
-0.030332979 -0.021808699 -0.035283413 0.0067577297 -0.03214447 0.006918267 -0.018634474 0.029985907
-0.045457605 0.06801854 0.009327439 -0.011097398 0.021869173 -0.07047481 0.07303049 0.021735633
0.06969101 0.048842277 -0.01284683 0.028657645 0.05021672 0.056922227 0.04377002 0.01805112
0.0024005957 -0.033060458 -0.04318746 -0.0037430308 -0.0062098466 -0.030677764 -0.019395085 0.09363948
0.003100184 -0.039645847 -0.04998113 0.002717969 0.04676155 0.014986621 0.023779437 0.017619802
-0.019908171 0.039548587 0.03491581 -0.048802476 -0.023748377 -0.021531476 -0.046949804 0.024525953
0.019902332 -0.039803278 -0.073601305 0.012201709 0.023936806 0.007911839 -0.04724654 -0.008758089
0.030161783 0.018758928 -0.018560983 -0.03306991 -0.018136745 0.017446708 -0.02294335 -0.00676887
-0.044856664 -0.0680336 -0.04048565 0.019191967 0.065925956 -0.0016425193 -0.043827508 -0.045865957
0.034128565 0.0566547 0.023423003 0.03273047 0.028681887 0.001980985 0.005261156 -0.048753224
-0.0018241237 0.0054150615 0.009597096 -0.00091485743 -0.007342828 0.008380467 0.04382118 0.015950788
-0.015384834 0.031357292 0.006553926 0.051710162 0.03307466 0.005081004 -0.057136327 -0.05705154
-0.044649437 -0.010617494 -0.017746054 -0.00849668 -0.04500392 0.042660873 -0.025550745 -0.030763658
0.0064661177 -0.016060406 0.0333885 0.020269485 0.018338397 0.007255608 -0.01116618 0.02203134
-0.024324184 0.02798841 0.07414584 0.05243098 0.019525032 -0.04818139 -0.042501938 0.026513789
-0.029086353 -0.043330353 -0.063643485 0.015722357 -0.012771619 -0.0044134585 0.063061215 -0.038421046
-0.050858315 -0.029603366 -0.02724259 0.059763774 0.024182573 -0.06534277 0.036161035 -0.060246687
0.040032703 0.054310083 0.016842041 -0.016557012 -0.057312366 0.04461296 -0.010480735 0.020301789
-0.050518107 -0.049644917 0.019494193 -0.045104094 0.0036032496 0.047984164 0.032088708 -0.028931014
00000000: 71f2 39bc 484f f8bc b4f7 e33c 89a9 813d
00000010: 4c67 e63c a81e 4fbd 38a5 85bc 42cb 4cbd
00000020: d2e8 ffbc f26d 963c 61e6 85bd 66fe 00bd
00000030: aef0 e2bc 260b b23c 28ce e1b9 2b56 a8bc
00000040: 9e0b 513d bd46 aabd 18e5 8e3d 2149 113d
00000050: e5cc 043d bdbd a8bc 1356 ecbc 23a2 a23b
00000060: a1f7 403d acb8 54bd 5e23 3a3c d467 54bd
00000070: 86df f43c 5414 35bd 3d39 53bd 1266 6fbd
00000080: 7120 85bd c745 2fbc a85c f1bb e0a3 603d
00000090: 68a4 6dbd c3e9 7ebc 6cbb 1dbc 0197 543c
000000a0: 8d5a 6a3d 821b 77bd 5b41 85ba 7bbf 5abd
000000b0: bb8b 0dbc 346c 383d c23d 34bd b9e6 903d
000000c0: 9c6d 94bd fe76 5f3c b54d bbb9 92fc 663d
000000d0: 5e92 49bd 98ef 983c 889a cdbb d7fd 2cbd
000000e0: e7f1 96bc 5138 503d 6f58 25bd 1d55 153d
000000f0: 1984 8bbb dc12 44bd 908e 813d 62f9 a73c
00000100: 8936 883c 0d87 af3c fea3 293d cbb2 11bc
00000110: 9641 a83c cac4 9f3d 5759 c03b 0666 9fbb
00000120: a5cb 603c 70ca 3ebd fe50 8dbc e16a 8abd
00000130: 77ce 7cbc b8d2 02bd 4ad0 80bc 6a88 74bd
00000140: 55a1 78bc 2446 843b 98d9 313b a63b 59bd
00000150: 2144 aebd 2db0 bf3b 2eee 203d 87de b23c
00000160: 5cb9 18bd 39f6 4fbc e66c 55bd 22f0 94bd
00000170: a09b 18bc 17b2 aabc 6773 07bd 307e 9eba
00000180: cebe 593d 8b83 283c 74eb f63c 72f4 ea3b
00000190: 86d6 ecbb 94fa fabb f77c 143d 8c14 523d
000001a0: de7c f8bc 28a8 b2bc 5785 10bd f26f dd3b
000001b0: eba9 03bd a1b2 e23b 53a7 98bc 01a5 f53c
000001c0: c131 3abd 4e4d 8b3d 1dd2 183c dcd1 35bc
000001d0: fb26 b33c 1955 90bd 0291 953d ed0e b23c
000001e0: 29ba 8e3d d70e 483d 837b 52bc 70c3 ea3c
000001f0: 0cb0 4d3d 4827 693d 3148 333d f1df 933c
00000200: 5053 1d3b 676a 07bd 56e5 30bd a34d 75bb
00000210: f87b cbbb ef4f fbbc 71e2 9ebc 0ec6 bf3d
00000220: 752c 4b3b af63 22bd 03b9 4cbd f41f 323b
00000230: 0a89 3f3d 728a 753c 18cd c23c 6757 903c
00000240: 7616 a3bc b3fd 213d e103 0f3d 1be5 47bd
00000250: f58b c2bc c762 b0bc 704e 40bd a7ea c83c
00000260: 370a a33c c308 23bd 48bc 96bd ade9 473c
00000270: 1f17 c43c a8a0 013c 9785 41bd 167e 0fbc
00000280: d815 f73c 53ac 993c 340d 98bc 5074 07bd
00000290: 8393 94bc 66ec 8e3c b1f3 bbbc 66cd ddbb
000002a0: 9fbb 37bd 3355 8bbd 48d4 25bd 7938 9d3c
000002b0: 3004 873d cd49 d7ba 7984 33bd f1dd 3bbd
000002c0: 65ca 0b3d c20e 683d 99e1 bf3c 6310 063d
000002d0: 47f6 ea3c 6ad3 013b c665 ac3b 76b1 47bd
000002e0: 6f17 efba d470 b13b 233d 1d3c 0bd3 6fba
000002f0: 1b9c f0bb 3a4e 093c d67d 333d 3aab 823c
00000300: ac10 7cbc 8170 003d 51c2 d63b 09ce 533d
00000310: 4b79 073d 8d7e a63b c807 6abd e0ae 69bd
00000320: 54e2 36bd fff4 2dbc 2c60 91bc a935 0bbc
00000330: 0856 38bd 2bbd 2e3d cc4f d1bc 1104 fcbc
00000340: bae1 d33b 1d91 83bc 61c2 083d 310c a63c
00000350: 683a 963c 74c0 ed3b 5af2 36bc 127b b43c
00000360: 8343 c7bc f347 e53c c6d9 973d dec1 563d
00000370: f6f2 9f3c d959 45bd 8316 2ebd 7233 d93c
00000380: 8146 eebc 2b7b 31bd 8457 82bd 2ccc 803c
00000390: 0d40 51bc c69e 90bb 3d26 813d 635f 1dbd
000003a0: cf50 50bd c282 f2bc da2b dfbc dcca 743d
000003b0: 881a c63c 6ed2 85bd 981d 143d 3bc5 76bd
000003c0: 55f9 233d 4074 5e3d 52f8 893c 92a2 87bc
000003d0: 5fc0 6abd 14bc 363d 64b7 2bbc f04f a63c
000003e0: 13ec 4ebd 7858 4bbd 49b2 9f3c 12bf 38bd
000003f0: 7f24 6c3b 0b8b 443d 736f 033d bc00 edbc

conv_ensemble_2.0.bias f4 [32]
-0.032495998 0.06364567 -0.015689885 0.031281628 -0.048171088 0.0042264047 0.0045212936 0.0018111059
-0.0024743858 0.008953393 0.032766614 -0.02334013 -0.029962517 -0.029124131 0.049235456 0.05298472
0.09137201 -0.023587773 -0.0028042495 -0.061222583 -0.0045407065 0.043529935 -0.000650833 0.014963238
0.019355824 0.026410155 -0.06191308 -0.0047038095 0.05078783 -0.019507475 -0.015610163 -0.07111659
00000000: 861a 05bd a958 823d 1388 80bc 2a21 003d
00000010: 0c4f 45bd a77d 8a3b 5c27 943b a162 ed3a
00000020: 4e29 22bb 41b1 123c 4936 063d cd33 bfbc
00000030: f473 f5bc bb95 eebc 1eab 493d 8106 593d
00000040: 4021 bb3d 253b c1bc 80c7 37bb 88c4 7abd
00000050: 35ca 94bb 724c 323d aa9c 2aba 5e28 753c
00000060: 1b90 9e3c 1c5a d83c 9298 7dbd 6a22 9abb
00000070: e606 503d 24ce 9fbc c5c1 7fbc 93a5 91bd

fully_connected_layer.weight f4 [10, 1568]
0.07090084 0.017288124 -0.008217513 -0.01534289 0.031939562 -0.021664804 -0.025800185 0.05199878
0.023575485 -0.02816595 0.02660107 0.038319014 0.02725467 0.026874583 0.041040346 0.026904805
-0.0773859 0.035528358 0.07327897 -0.016066274 -0.013572795 -0.033701733 0.042251777 -0.031670276
-0.038280275 -0.07734141 -0.043978002 0.028429987 -0.01489556 0.04453791 -0.04317264 -0.04137927
0.02012583 -0.06011154 -0.004248986 -0.020215914 0.032050304 0.011899214 -0.06627833 0.003955036
-0.0633284 -0.030585155 -0.017955542 0.05328514 0.013446312 -0.03990346 -0.041702427 -0.057162564
-0.007968341 0.008310302 -0.014378979 -0.016214784 -0.055834882 0.05059892 -0.0012986679 -0.0365579
0.013659586 0.041978806 -0.043055035 0.08507489 0.036337305 0.089325 -0.03343474 0.037054356
0.054099325 0.014446927 -0.0018927463 0.10486017 0.082542524 -0.03407199 -0.0151486 0.011210043
0.030521173 -0.06740274 0.029358948 0.094071515 -0.06536839 -0.051049694 0.0036775756 0.0022686063
-0.03443266 0.016188046 0.02928215 -0.09363192 -0.069429696 0.00029543726 -0.00023450906 -0.02684977
-0.008444163 -0.026968159 0.0054547777 -0.0957751 0.052092537 0.018907547 -0.014784585 0.0007534301
-0.048593946 -0.05345136 0.0026921623 -0.007827262 -0.061460417 0.06319214 0.029101115 -0.032828443
-0.026511403 -0.028233493 -0.08590774 -0.076050274 0.013065426 -0.028898895 -0.030271024 0.0028772654
-0.08114532 -0.054864082 -0.05161194 -0.0017562062 -0.046996903 -0.09191744 -0.008586923 -0.065617144
-0.059110247 -0.04324225 -0.006868009 0.072439246 -0.051872026 -0.011561272 0.0647563 0.045149863
-0.001620045 0.044476412 0.12583174 0.08159758 -0.0018302555 0.06481922 0.0058000297 -0.0010127524
0.07054057 0.013643804 0.124947414 0.015632657 0.0490842 -0.03614571 -0.04596785 0.045434818
0.01878425 0.09151948 -0.020163797 -0.010842057 0.024549702 0.051120337 -0.036310095 -0.074810445
-0.06756239 0.0073285396 0.0072872257 0.03535751 -0.024688374 0.02961644 0.06256679 0.047547672
0.0065077916 0.00034346912 0.0066669607 -0.026654774 -0.018021878 0.07888273 -0.004155682 0.08867164
-0.02652532 0.089200966 -0.022845002 -0.008184179 -0.03487508 0.008652143 0.027474051 0.01995912
-0.001602988 -0.024652563 -0.09879443 -0.048062302 0.03374121 0.058268216 0.024577672 -0.00021036505
-0.032263987 -0.070209324 -0.07465158 0.0071042296 -0.025891341 0.012125195 0.040310428 -0.07321725
-0.044441555 -0.03400948 -0.020769488 -0.0278792 -0.018605813 -0.013571563 -0.06833335 0.021705829
0.021045035 0.03814198 -0.024130365 0.01073968 -0.0023160577 0.0267231 -0.0026353453 -0.0054448117
0.027112287 0.012617156 0.021755489 0.02446615 -0.01124955 -0.027740732 -0.01562452 0.039796855
0.053204585 0.030866079 0.044873394 -0.0059065036 -0.018439608 0.012118119 0.019259632 0.05261027
0.01606613 -0.01775671 0.011008149 0.020113597 0.020032315 0.014290007 -0.053970803 0.008227739
-0.01429066 0.02119206 -0.026391724 -0.012763493 -0.008504841 -0.010160681 -0.003318302 -0.03900496
0.045124903 -0.020664284 -0.012896998 -0.020714393 -0.0068862457 0.06069374 0.0054212273 0.03333144
-0.006521185 -0.012317203 0.0067117517 -0.0005326029 0.0077896933 -0.008878352 -0.023660073 0.009782296
00000000: 7634 913d d39f 8d3c bfa2 06bc bf60 7bbc
00000010: 0fd3 023d 637a b1bc e95a d3bc acfc 543d
00000020: 6021 c13c 47bc e6bc 7dea d93c 66f4 1c3d
00000030: 3045 df3c 1628 dc3c ec19 283d 7767 dc3c
00000040: 807c 9ebd 2f86 113d 4913 963d 6b9d 83bc
00000050: 6e60 5ebc d40a 0abd 3310 2d3d b1b8 01bd
00000060: c7cb 1cbd 2c65 9ebd 4722 34bd 01e6 e83c
00000070: 820c 74bc 626d 363d cbd5 30bd 4f7d 29bd
00000080: edde a43c 8537 76bd 143b 8bbb d89b a5bc
00000090: 2e47 033d ecf4 423c efbc 87bd 3f99 813b
000000a0: 52b2 81bd b88d fabc 8017 93bc 8541 5a3d
000000b0: ec4d 5c3c cf71 23bd 2ad0 2abd 4b23 6abd
000000c0: a58d 02bc ef27 083c cf95 6bbc ded4 84bc
000000d0: 1eb3 64bd d040 4f3d 1038 aaba bdbd 15bd
000000e0: 75cc 5f3c f8f1 2b3d 7a5a 30bd be3b ae3d
000000f0: 6dd6 143d 07f0 b63d def2 08bd 4fc6 173d
00000100: 4197 5d3d ceb2 6c3c 0716 f8ba eec0 d63d
00000110: 0e0c a93d 128f 0bbd d531 78bc 54aa 373c
00000120: 8a07 fa3c 730a 8abd 2d82 f03c 91a8 c03d
00000130: dddf 85bd 7c19 51bd 7b03 713b e6ac 143b
00000140: 4309 0dbd cb9c 843c 1fe1 ef3c 18c2 bfbd
00000150: 2831 8ebd ebe4 9a39 8ce6 75b9 0df4 dbbc
00000160: 6359 0abc 54ec dcbc febd b23b bc25 c4bd
00000170: fc5e 553d 00e4 9a3c 0b3b 72bc d781 453a
00000180: 720a 47bd d0ef 5abd fd6e 303b eb3d 00bc
00000190: ebbd 7bbd e16a 813d 7665 ee3c 1e77 06bd
000001a0: 712e d9bc ed49 e7bc 66f0 afbd 3fc0 9bbd
000001b0: 5e10 563c 60bd ecbc f0fa f7bc 8190 3c3b
000001c0: 842f a6bd 29b9 60bd 0b67 53bd 8030 e6ba
000001d0: d37f 40bd 363f bcbd 2ab0 0cbc 4862 86bd
000001e0: 961d 72bd c91e 31bd 090d e1bb 075b 943d
000001f0: c377 54bd 7d6b 3dbc f39e 843d 10ef 383d
00000200: b157 d4ba e62c 363d 09da 003e a21c a73d
00000210: 2fe5 efba f0bf 843d 2d0e be3b 55be 84ba
00000220: 9377 903d 438a 5f3c 6ee4 ff3d 0f10 803c
00000230: 840c 493d 860d 14bd c948 3cbd dc19 3a3d
00000240: 6de1 993c 916e bb3d 8c2e a5bc e2a2 31bc
00000250: 751c c93c 8f63 513d e5b9 14bd 3836 99bd
00000260: 265e 8abd 3f24 f03b aec9 ee3b 09d3 103d
00000270: 463f cabc 2d9e f23c 0423 803d 59c1 423d
00000280: 503f d53b a513 b439 8576 da3b 1d5b dabc
00000290: 9ea2 93bc 458d a13d 632c 88bb 7a99 b53d
000002a0: a14b d9bc ffae b63d 7125 bbbc ef16 06bc
000002b0: 2cd9 0ebd b8c1 0d3c 4311 e13c 4f81 a33c
000002c0: 5a1b d2ba 2cf4 c9bc bc54 cabd fadc 44bd
000002d0: 3934 0a3d a7aa 6e3d 1d57 c93c 7095 5cb9
000002e0: 3e27 04bd e8c9 8fbd ede2 98bd 99ca e83b
000002f0: 141a d4bc c1a8 463c 8c1c 253d edf2 95bd
00000300: 5908 36bd 864d 0bbd c624 aabc ec62 e4bc
00000310: 386b 98bc 435b 5ebc 5bf2 8bbd 6cd0 b13c
00000320: a366 ac3c c43a 1c3d 0bad c5bc 7cf5 2f3c
00000330: 00c9 17bb 67ea da3c c2b5 2cbb 646a b2bb
00000340: 961a de3c 30b8 4e3c 9138 b23c 3c6d c83c
00000350: 0850 38bc 8840 e3bc fdfd 7fbc 0702 233d
00000360: 0ded 593d dcda fc3c 2acd 373d 588b c1bb
00000370: a90e 97bc 138b 463c 60c6 9d3c de7d 573d
00000380: 1e9d 833c 8576 91bc 865b 343c 45c5 a43c
00000390: cf1a a43c a220 6a3c 7d10 5dbd a3cd 063c
000003a0: 5f23 6abc f99a ad3c 7533 d8bc f81d 51bc
000003b0: e357 0bbc fc78 26bc df77 59bb aac3 1fbd
000003c0: e4d4 383d 2548 a9bc ee4d 53bc 3bb1 a9bc
000003d0: 04a6 e1bb 009a 783d 8da4 b13b 8c86 083d
000003e0: aaaf d5bb 18ce 49bc 41ee db3b 609e 0bba
000003f0: af40 ff3b 8276 11bc c5d2 c1bc ec45 203c

fully_connected_layer.bias f4 [10]
-0.015267319 -0.038634922 0.017949024 0.04938781 -0.013445462 -0.05756256 0.06443458 -0.010167618
-0.009443542 -0.041402236
00000000: c723 7abc a73f 1ebd d509 933c df4a 4a3d
00000010: 5b4a 5cbc b8c6 6bbd 47f6 833d 1596 26bc
00000020: 16b9 1abc 6495 29bd
