Homework/3_CNN/models/CovNetBatchNorm.pt (torch, 121333 bytes, 14 tensors)

conv_ensemble_1.0.weight f4 [16, 1, 5, 5]
-0.07277338 0.08535487 0.14780815 -0.1314695 0.058025546 0.18085931 0.05799619 -0.04672766
0.07281778 0.11841494 -0.10959018 0.10768159 -0.019202486 -0.11045468 -0.091484696 0.12064716
0.19585513 0.048310764 -0.04495291 -0.19096524 -0.106143266 0.000941037 0.05080932 -0.09996025
-0.15394059 0.02966484 -0.093407966 -0.04046504 -0.04297001 0.10663199 -0.016796079 0.11710307
-0.036766734 -0.17520563 0.1846809 0.016996596 -0.03855937 0.041863993 -0.119707905 0.0008147825
-0.062225427 0.14396292 0.064618334 -0.12534015 -0.1487968 -0.20981687 0.23768492 -0.039044596
-0.011339608 -0.07145695 -0.112381384 0.1363866 0.17767814 -0.15286277 -0.090814255 -0.123660296
-0.13609548 -0.08272788 -0.0669188 0.06713408 0.07985642 -0.16056842 -0.07861493 -0.11066439
0.18595919 0.16780739 -0.13058028 -0.076784864 0.14861678 0.046804387 0.0063154707 0.028383063
-0.043483958 -0.15768342 0.10111359 0.098130226 0.16730733 -0.10919622 -0.1491734 -0.04153527
-0.2113744 -0.03676719 0.1898963 0.066205405 -0.010933124 -0.11322321 0.15881549 -0.009767966
-0.03821851 0.008400998 0.21854022 -0.11841753 -0.17042416 0.10673719 -0.01899967 0.0112652425
-0.090561464 -0.060159836 0.15605769 -0.095713414 0.021003721 0.15661876 0.09555179 -0.21815288
0.06371814 -0.1686072 0.14979684 -0.08303077 0.036774833 -0.15595555 0.0130576575 -0.16007398
0.13422501 0.18707536 -0.14162408 0.11194798 -0.06919216 -0.056401882 0.1051666 0.076349266
0.13026847 -0.16576533 -0.015986416 -0.030264596 0.0936528 -0.119040124 -0.022614036 -0.18247476
-0.07943785 0.071378455 0.06656236 0.11292624 -0.080815345 -0.082466476 -0.030126166 -0.05173621
-0.19905865 -0.12772523 -0.05319094 0.09291237 -0.065902606 0.0060035125 -0.050610233 -0.093382314
-0.045454565 0.15939689 -0.15034442 -0.058437034 0.06858347 -0.044975422 -0.103413984 0.13444667
0.21979998 -0.004969636 0.114504874 0.0027579104 -0.042038683 -0.032088265 0.102252126 -0.08603563
-0.19040015 0.03615609 0.03624885 -0.06393635 0.020536738 0.017220045 -0.1300814 -0.049047265
0.017081294 -0.0035422612 0.061001923 0.1918772 -0.16061446 -0.1826388 -0.1450625 0.032228485
-0.18750994 0.19418335 -0.13994429 0.041648082 0.16400453 0.04683896 -0.032540597 -0.094318405
0.062157013 -0.16698623 0.0070641185 -0.13673453 0.095811166 -0.2204064 0.23117454 -0.02210678
-0.010279725 -0.098191485 0.066451475 -0.017177586 -0.16132785 -0.0087585095 -0.011633543 0.18951035
0.16972443 -0.0062381644 -0.1127603 0.04797791 0.11929234 0.08668194 -0.045113407 -0.038550563
0.0011295568 0.025848443 -0.12128311 -0.13737038 0.12362936 0.15804255 0.16612993 -0.049131412
-0.09535906 -0.083565734 -0.1907865 -0.21215126 -0.17203131 -0.01564796 -0.08285602 -0.029845536
-0.07622066 0.12900019 -0.13066542 0.17589962 -0.03759018 -0.053775646 -0.12792455 -0.018659553
0.033627793 0.08143255 -0.21437114 0.15905373 -0.1736539 -0.15582083 0.044013888 -0.018537821
0.10068121 0.15082614 0.025458593 -0.02760821 -0.1169335 0.12187748 0.11106894 0.08526206
-0.18411763 -0.13328588 -0.013438674 0.06158603 -0.021361578 0.13024575 -0.11424436 0.01134322
00000000: 360a 95bd 89ce ae3d 055b 173e f19f 06be
00000010: 32ac 6d3d 2f33 393e 6a8d 6d3d 8165 3fbd
00000020: 7d21 953d 8883 f23d d170 e0bd 2a88 dc3d
00000030: 884e 9dbc 1036 e2bd 545c bbbd dc15 f73d
00000040: 3f8e 483e 82e1 453d 8b20 38bd 648c 43be
00000050: a461 d9bd edaf 763a 6f1d 503d f6b7 ccbd
00000060: 9aa2 1dbe ae03 f33c ad4c bfbd abbe 25bd
00000070: 5201 30bd df61 da3d ee97 89bc bcd3 ef3d
00000080: b798 16bd 1b69 33be fd1c 3d3e 723c 8b3c
00000090: 6ef0 1dbd 9479 2b3d 6b29 f5bd 2197 553a
000000a0: 17e0 7ebd 046b 133e 9e56 843d 2b59 00be
000000b0: 305e 18be 3cda 56be ad63 733e 3aed 1fbd
000000c0: c3c9 39bc 0558 92bd 3628 e6bd eea8 0b3e
000000d0: 42f1 353e 0f88 1cbe d3fc b9bd 9c41 fdbd
000000e0: 9d5c 0bbe 3c6d a9bd b90c 89bd 987d 893d
000000f0: c38b a33d 0c6c 24be dd00 a1bd 03a4 e2bd
00000100: 166c 3e3e b3d5 2b3e d6b6 05be 6241 9dbd
00000110: ff2e 183e f5b5 3f3d 02f2 ce3b 9983 e83c
00000120: 3c1c 32bd c377 21be a414 cf3d 80f8 c83d
00000130: 9d52 2b3e 45a2 dfbd e9c0 18be e320 2abd
00000140: 8872 58be 3199 16bd 2d74 423e b396 873d
00000150: d920 33bc 92e1 e7bd 87a0 223e d209 20bc
00000160: 038b 1cbd 57a4 093c 02c9 5f3e e484 f2bd
00000170: ac83 2ebe 0799 da3d 32a5 9bbc da91 383c
00000180: 4a78 b9bd 296a 76bd 96cd 1f3e 6505 c4bd
00000190: ff0f ac3c ab60 203e a8b0 c33d 7863 5fbe
000001a0: a87e 823d 5ea7 2cbe 5864 193e 090c aabd
000001b0: 35a1 163d d0b2 1fbe c9ef 553c 6fea 23be
000001c0: 4872 093e af90 3f3e e705 11be fc44 e53d
000001d0: 9fb4 8dbd a905 67bd 9661 d73d 015d 9c3d
000001e0: 1965 053e 63be 29be f2f5 82bc 75ed f7bc
000001f0: 0acd bf3d 4fcb f3bd 1241 b9bc aada 3abe
00000200: 50b0 a2bd de2e 923d d951 883d df45 e73d
00000210: 8482 a5bd 2fe4 a8bd 26cb f6bc 59e9 53bd
00000220: 08d6 4bbe 67ca 02be bede 59bd d748 be3d
00000230: f2f7 86bd 1db9 c43b ad4c 4fbd 3a3f bfbd
00000240: 912e 3abd f038 233e e3f3 19be ac5b 6fbd
00000250: 7e75 8c3d 2638 38bd b6ca d3bd 63ac 093e
00000260: 3f13 613e 54d8 a2bb 8881 ea3d 0fbe 343b
00000270: c130 2cbd fc6e 03bd 9069 d13d 7333 b0bd
00000280: 42f8 42be 6918 143d ad79 143d 10f1 82bd
00000290: a93c a83c 0d11 8d3c 0f34 05be c9e5 48bd
000002a0: 12ee 8b3c 4825 68bb 27dd 793d 757b 443e
000002b0: 1e78 24be aa05 3bbe 448b 14be 0402 043d
000002c0: 9b02 40be 00d8 463e 8e4d 0fbe 2e97 2a3d
000002d0: cef0 273e 36da 3f3d 4a49 05bd 022a c1bd
000002e0: 5a98 7e3d 70fe 2abe 1f7a e73b 2304 0cbe
000002f0: a538 c43d 37b2 61be 05b9 6c3e 4719 b5bc
00000300: 4b6c 28bc 9e18 c9bd b617 883d 02b8 8cbc
00000310: 2133 25be da7f 0fbc 9e9a 3ebc 000f 423e
00000320: 3ecc 2d3e 8469 ccbb dfee e6bd 7c84 443d
00000330: 8b4f f43d 4d86 b13d d6c8 38bd 32e7 1dbd
00000340: a30d 943a 1dc0 d33c 4763 f8bd d2aa 0cbe
00000350: 6431 fd3d e8d5 213e f71d 2a3e 053e 49bd
00000360: 9c4b c3bd 8324 abbd 895d 43be 2e3e 59be
00000370: fa28 30be 2730 80bc 6bb0 a9bd a07e f4bc
00000380: 9419 9cbd a018 043e 28cd 05be 081f 343e
00000390: 29f8 19bd da43 5cbd a7fe 02be ebdb 98bc
000003a0: 4cbd 093d 1cc6 a63d 1c84 5bbe fbde 223e
000003b0: 54d2 31be 7f8f 1fbe e847 343d a1dc 97bc
000003c0: f331 ce3d 2b72 1a3e 8a8e d03c 9d2a e2bc
000003d0: d57a efbd e69a f93d 1d78 e33d e09d ae3d
000003e0: 5589 3cbe 187c 08be e22d 5cbc a241 7c3d
000003f0: 7afe aebc 245f 053e f2f8 e9bd ead8 393c

conv_ensemble_1.0.bias f4 [16]
-0.11915226 0.020169828 -0.0383857 -0.01808438 0.002421285 0.00416633 0.09922781 0.15586483
-0.07707368 0.12318662 -0.14440885 0.014575974 -0.1250865 0.06233509 -0.11825759 -0.11522807
00000000: 1a06 f4bd 323b a53c 533a 1dbd b225 94bc
00000010: 6cae 1e3b b685 883b f337 cb3d 089b 1f3e
00000020: ced8 9dbd 4449 fc3d eadf 13be 11d0 6e3c
00000030: ad16 00be 1453 7f3d 0931 f2bd b2fc ebbd

conv_ensemble_1.3.weight f4 [16]
1.006328 1.0116146 0.9883973 1.0578825 1.0279278 0.96551514 1.0064769 1.0178946
0.98629034 1.0050479 0.998577 0.98530585 0.9656488 1.0002923 0.9873741 0.97598225
00000000: 5bcf 803f 967c 813f 9b07 7d3f b268 873f
00000010: 2393 833f 002c 773f 3cd4 803f 5f4a 823f
00000020: 867d 7c3f 69a5 803f bea2 7f3f 013d 7c3f
00000030: c234 773f 9409 803f 8dc4 7c3f f9d9 793f

conv_ensemble_1.3.bias f4 [16]
0.050666835 0.025300287 0.01747587 0.026751647 0.037566386 -0.027610661 0.009058747 0.01114108
0.003337848 0.01793862 0.04010265 0.031673364 0.0060424497 0.027284568 0.017583806 0.002611436
00000000: 0788 4f3d 8c42 cf3c 8e29 8f3c 4526 db3c
00000010: 36df 193d c12f e2bc 246b 143c 1489 363c
00000020: ccbf 5a3b 03f4 923c ad42 243d eebb 013d
00000030: beff c53b e383 df3c ea0b 903c a024 2b3b

conv_ensemble_1.3.running_mean f4 [16]
0.19402167 0.24489449 0.23902425 0.14327985 0.16311711 0.4135275 0.29767218 0.33188236
0.27986962 0.37249458 0.09437544 0.2652591 0.5486415 0.31739956 0.25504956 0.19797404
00000000: 9ead 463e 9fc5 7a3e c6c2 743e f4b7 123e
00000010: 2c08 273e e0b9 d33e 7d68 983e 7cec a93e
00000020: 124b 8f3e 9cb7 be3e e947 c13d 0ad0 873e
00000030: c573 0c3f 3282 a23e db95 823e b5b9 4a3e

conv_ensemble_1.3.running_var f4 [16]
0.13374999 0.06694602 0.08071379 0.044376176 0.06461425 0.18296383 0.08780377 0.05552714
0.12752147 0.14116357 0.03891304 0.15435004 0.4200628 0.16183303 0.1308895 0.06422189
00000000: c2f5 083e ff1a 893d 464d a53d cbc3 353d
00000010: 7a54 843d df5a 3b3e 77d2 b33d 6d70 633d
00000020: fd94 023e 2f8d 103e 4863 1f3d f00d 1e3e
00000030: 7912 d73e 8fb7 253e e607 063e c486 833d

conv_ensemble_2.0.weight f4 [32, 16, 5, 5]
0.019470068 0.028873187 -0.03009097 -0.016463865 -0.035574976 -0.03233958 -0.046897538 -0.03700146
0.038235486 0.032187548 0.007842638 -0.015258399 0.022913992 -0.016569825 -0.0401494 0.026486557
4.6156696e-05 0.0052098585 -0.057097085 -0.0455202 0.04058568 0.0048788534 -0.031991217 -0.009253036
-0.044870283 -0.0037234665 -0.014152354 0.026555276 -0.027915861 -0.0013276027 0.04967792 -0.036406692
-0.008496203 0.050682433 0.040265996 0.019203074 -0.022102693 -0.031025128 0.050302465 0.020690648
-0.0006527711 0.0028591084 0.026344426 0.014000088 0.008575786 0.048896868 -0.017657354 -0.0064631486
0.011924606 0.03440082 0.038328696 0.050431363 0.0035060258 -0.0037844281 0.032815382 -0.0012847631
0.0017745121 -0.022684114 0.00076526334 0.005141541 0.0023603064 -0.06676813 0.035872944 -0.0013712839
0.0031509737 0.029103175 -0.034774072 0.005683096 0.021241372 0.036038026 -0.023825292 -0.025160087
-0.026587684 -0.038371973 0.03627704 -0.04373804 -0.030952243 -0.03373614 0.0324496 -0.06920313
0.010390598 0.012910258 -0.03162891 0.021027941 -0.03460869 -0.0124710575 -0.043679688 0.043630354
0.00018853911 0.030032443 -0.003927049 0.006666586 -0.010636131 0.072738566 0.01819407 0.03153364
0.030634578 -0.008678584 0.0028683972 -0.036436945 0.003108545 -0.046446316 -0.014823538 -0.023833603
0.036898114 -0.03911854 0.02486874 -0.025742754 0.00819028 0.012054054 -0.05306615 0.01098458
-0.046303295 0.03588416 0.02511438 -0.051578727 -0.027783187 0.037487783 -0.009786295 -0.016267203
0.021742199 0.037452497 0.010476121 0.027077138 -0.02114323 -0.040971458 -0.023331199 0.048304893
-0.0076788743 -0.030455926 0.012415925 0.025974732 0.011800076 -0.01689871 -0.0028066568 -0.010070612
0.0006826473 -0.026246801 -0.030449752 -0.04506079 -0.041147 -0.038281783 0.030940762 -0.019306913
-0.0050819796 0.033722673 -0.027990937 0.010247636 0.04167982 0.043967165 0.0071110907 -0.025605889
-0.002668418 0.0068180226 -0.047346685 -0.007206772 0.0062983334 -0.042557172 -0.037699413 -0.031801797
0.0071197064 -0.06542329 0.028214829 0.048187274 -0.07233373 0.03076657 -0.03914679 0.031000324
0.039964616 0.03295733 -0.055119984 -0.044090673 0.033842433 -0.020883685 0.0328423 -0.053246632
-0.040654913 -0.025955217 -0.0007953079 0.0030061442 0.022606213 0.034000978 -0.0056439238 -0.038144775
-0.04179563 -0.0013150783 -0.0032177614 0.012461899 -0.04097266 0.021867527 0.052696764 0.014874139
-0.00081199413 0.00074583356 -0.011531861 0.03352371 -0.048788358 -0.019557536 -0.0140079865 0.022684054
-0.029479407 -0.0045624617 0.04907071 0.022322638 0.041488677 -0.0013589195 -0.03075122 -0.038239367
-0.039490994 -0.010280556 -0.060891032 -0.05599605 -0.0093528945 0.0008233574 0.0065583196 -0.032316975
0.01948893 0.014419059 -0.001784243 -0.012109646 0.023813214 -0.029264227 0.0041760933 -0.012783737
0.016573902 0.008113755 -0.0052643553 0.0013976882 -0.0567337 -0.027538761 -0.051740345 0.004734003
-0.015697623 0.023063425 0.052235663 0.017150177 -0.013773849 0.010150402 0.0146093955 0.0088206725
-0.05663976 -0.030973304 0.033931658 0.047985516 -0.041882813 -0.023124458 -0.014712767 -0.025231803
-0.030219663 -0.025787888 0.010625434 -0.01166571 -0.038073562 -0.0067791007 0.05574291 -0.03003548
00000000: b17f 9f3c 7687 ec3c 5781 f6bc 3adf 86bc
00000010: 11b7 11bd 8276 04bd a217 40bd d88e 17bd
00000020: d09c 1c3d 17d7 033d 687e 003c 5dfe 79bc
00000030: 20b6 bb3c 71bd 87bc b273 24bd 56fa d83c
00000040: 6098 4138 76b7 aa3b a2de 69bd 6473 3abd
00000050: 2c3d 263d cade 9f3b 3909 03bd 0c9a 17bc
00000060: e7c9 37bd 6705 74bb 46df 67bc 738a d93c
00000070: ceaf e4bc f402 aeba 137b 4b3d 2f1f 15bd
00000080: a933 0bbc 6298 4f3d f5ed 243d c44f 9d3c
00000090: b510 b5bc 6928 febc f509 4e3d 6f7f a93c
000000a0: ba1e 2bba e15f 3b3b 44d0 d73c a060 653c
000000b0: 7481 0c3c 1548 483d 28a6 90bc d2c8 d3bb
000000c0: 6c5f 433c e0e7 0c3d 8dfe 1c3d 1e91 4e3d
000000d0: 5ac5 653b 2b04 78bb 6c69 063d 7f65 a8ba
000000e0: bf96 e83a 09d4 b9bc f49b 483a 5f7a a83b
000000f0: 5faf 1a3b bbbd 88bd 82ef 123d a7bc b3ba
00000100: 9180 4e3b c869 ee3c 426f 0ebd 4439 ba3b
00000110: 6302 ae3c 9c9c 133d 422d c3bc 871c cebc
00000120: 6ace d9bc ee2b 1dbd 3c97 143d a926 33bd
00000130: 8f8f fdbc e82e 0abd dfe9 043d 5fba 8dbd
00000140: 543d 2a3c 8c85 533c 518d 01bd ca42 ac3c
00000150: d7c1 0dbd 6853 4cbc 79e9 32bd beb5 323d
00000160: 95b2 4539 9906 f63c 7aae 80bb 6073 da3b
00000170: 2b43 2ebc f5f7 943d bb0b 953c 6b29 013d
00000180: 5ef5 fa3c 9f30 0ebc b8fb 3b3b e83e 15bd
00000190: bbb8 4b3b 7e3e 3ebd 6dde 72bc b03e c3bc
000001a0: 7a22 173d c33a 20bd 87b9 cb3c 78e2 d2bc
000001b0: 8630 063c 5e7e 453c e45b 59bd abf8 333c
000001c0: 86a8 3dbd 45fb 123d acbc cd3c 3744 53bd
000001d0: 9199 e3bc ca8c 193d b256 20bc cc42 85bc
000001e0: b21c b23c ca67 193d 09a4 2b3c e0d0 dd3c
000001f0: 9134 adbc b0d1 27bd 1221 bfbc 5adb 453d
00000200: 119f fbbb b57e f9bc 2a6c 4b3c f6c8 d43c
00000210: 1b55 413c 2a6f 8abc e3ef 37bb 35ff 24bc
00000220: aff3 323a 8803 d7bc c271 f9bc aa91 38bd
00000230: c289 28bd 5ccd 1cbd 7b77 fd3c 8829 9ebc
00000240: bc86 a6bb c920 0a3d 404d e5bc b3e5 273c
00000250: 75b8 2a3d ea16 343d 2704 e93b 71c3 d1bc
00000260: a0e0 2ebb b869 df3b 99ee 41bd c926 ecbb
00000270: 4062 ce3b 6e50 2ebd b36a 1abd 9a42 02bd
00000280: 6d4c e93b a5fc 85bd c922 e73c 0560 453d
00000290: b523 94bd 2c0a fc3c 6258 20bd 64f4 fd3c
000002a0: f0b1 233d 44fe 063d 7ec5 61bd 6c98 34bd
000002b0: 5d9e 0a3d 4314 abbc a685 063d 2419 5abd
000002c0: c485 26bd 09a0 d4bc 367c 50ba bb02 453b
000002d0: aa30 b93c 9c44 0b3d aaf0 b8bb b23d 1cbd
000002e0: e531 2bbd b55e acba 14e1 52bb fe2c 4c3c
000002f0: f3d2 27bd 8723 b33c 90d8 573d a9b2 733c
00000300: 01dc 54ba 0b84 433a 21f0 3cbc 2850 093d
00000310: 4dd6 47bd 2037 a0bc c181 65bc e9d3 b93c
00000320: cc7e f1bc b480 95bb 5efe 483d f7dd b63c
00000330: 08f0 293d c61d b2ba fce9 fbbc e2a0 1cbd
00000340: 4fc1 21bd c76f 28bc e068 79bd 1d5c 65bd
00000350: e23c 19bc 94d6 573a 2ce7 d63b ce5e 04bd
00000360: 40a7 9f3c eb3d 6c3c 43dd e9ba 8967 46bc
00000370: ee13 c33c 88bb efbc 9cd7 883b e172 51bc
00000380: fec5 873c 8eef 043c 9d80 acbb a232 b73a
00000390: 9961 68bd f898 e1bc afed 53bd b21f 9b3b
000003a0: 4d98 80bc 82ef bc3c 10f5 553d 877e 8c3c
000003b0: b6ab 61bc df4d 263c 3f5c 6f3c 9584 103c
000003c0: 18ff 67bd babb fdbc ecfb 0a3d 768c 443d
000003d0: 508d 2bbd 816f bdbc d10d 71bc edb2 cebc
000003e0: 3a8f f7bc 1f41 d3bc 4d16 2e3c 8921 3fbc
000003f0: 06f3 1bbd 3823 debb ad52 643d f80c f6bc

conv_ensemble_2.0.bias f4 [32]
-0.05075521 -0.052882306 0.0042585335 -0.008266355 -0.06446065 0.018859673 0.007203502 0.03818466
-0.025415063 0.020474717 -0.043137167 -0.0124714915 0.020295994 -0.01684237 -0.022004917 -0.0620068
0.020257317 -0.051268425 -0.049445253 0.0017267948 -0.00036734474 -0.028440718 -0.047668077 -0.053473435
-0.026474433 -0.040634815 -0.023648778 -0.01870093 0.015049579 0.0044475007 0.0041666273 -0.0001626034
00000000: b2e4 4fbd 1e9b 58bd 2b8b 8b3b 9b6f 07bc
00000010: f203 84bd 9a7f 9a3c 5b0b ec3b 8567 1c3d
00000020: 4033 d0bc 98ba a73c 99b0 30bd 3a55 4cbc
00000030: c943 a63c 03f9 89bc a843 b4bc d8fa 7dbd
00000040: acf2 a53c d7fe 51bd 1b87 4abd 9e55 e23a
00000050: 2d98 c0b9 82fc e8bc 9a3f 43bd f606 5bbd
00000060: e9e0 d8bc b170 26bd 15bb c1bc b132 99bc
00000070: 8292 763c 57bc 913b 3488 883b 8580 2ab9

conv_ensemble_2.3.weight f4 [32]
1.0679039 1.0723937 1.0455284 1.0696752 1.0720874 1.0633076 1.058916 1.0655218
1.0801094 1.0517926 1.0671623 1.0621417 1.0897399 1.0832229 1.0758722 1.0553172
1.0965905 1.1019765 1.0719558 1.0788795 1.0651175 1.0887607 1.0771048 1.0773869
1.0689542 1.0701609 1.0977656 1.0424312 1.0833763 1.0511485 1.0607201 1.0912281
00000000: 13b1 883f 3244 893f e0d3 853f 1eeb 883f
00000010: 293a 893f 771a 883f 8f8a 873f 0563 883f
00000020: 0641 8a3f 24a1 863f c698 883f 42f4 873f
00000030: 997c 8b3f 0ca7 8a3f 2eb6 893f a214 873f
00000040: 145d 8c3f 910d 8d3f d935 893f b918 8a3f
00000050: c555 883f 835c 8b3f 92de 893f d0e7 893f
00000060: 7ed3 883f 08fb 883f 9583 8c3f 636e 853f
00000070: 13ac 8a3f 098c 863f adc5 873f 5dad 8b3f

conv_ensemble_2.3.bias f4 [32]
-0.0029006617 -0.003182497 0.008188203 0.006111705 -0.0030170528 0.00079597224 -0.00715996 0.0022918591
-0.008375741 -0.003143528 0.0034945672 -0.00817766 0.010540781 -0.00038363697 -0.005180355 0.001192749
0.011018691 -0.003913845 0.0049197758 0.00069620967 -0.004089357 0.0044938354 -0.00032570102 0.006578935
-0.0032102636 -0.011644611 -0.0007228742 -0.005363225 -0.0056746756 -0.0041682967 -0.0032896427 0.0028019685
00000000: 0719 3ebb 7191 50bb d027 063c b344 c83b
00000010: bfb9 45bb cba8 503a 199e eabb 0433 163b
00000020: 673a 09bc a603 4ebb 1c05 653b 98fb 05bc
00000030: 3db3 2c3c e222 c9b9 f8bf a9bb 0456 9c3a
00000040: bd87 343c b63f 80bb 1236 a13b d781 363a
00000050: 0300 86bb 0641 933b dac2 aab9 1b94 d73b
00000060: 4963 52bb 0ac9 3ebc 447f 3dba febd afbb
00000070: a1f2 b9bb 3596 88bb 0c97 57bb 3ba1 373b

conv_ensemble_2.3.running_mean f4 [32]
0.3506773 0.32669356 0.35667452 0.3293795 0.31262514 0.32209516 0.4187102 0.4484176
0.37003985 0.33947372 0.3597827 0.32351628 0.39645043 0.33134592 0.36202383 0.3367987
0.3241431 0.35744762 0.26963666 0.35104895 0.3760135 0.2977173 0.33587277 0.26660952
0.32418612 0.3138101 0.29947048 0.33330527 0.38739854 0.3391275 0.3400775 0.3806025
00000000: fa8b b33e 6144 a73e 0b9e b63e 6ea4 a83e
00000010: 6710 a03e a8e9 a43e 2f61 d63e fe96 e53e
00000020: dd75 bd3e 80cf ad3e 7035 b83e eda3 a53e
00000030: 8dfb ca3e 2ca6 a93e 305b b93e e170 ac3e
00000040: 16f6 a53e 6003 b73e d10d 8a3e b0bc b33e
00000050: d784 c03e 676e 983e 84f7 ab3e 0b81 883e
00000060: b9fb a53e b8ab a03e 3254 993e fda6 aa3e
00000070: 1a59 c63e 1fa2 ad3e a31e ae3e 55de c23e

conv_ensemble_2.3.running_var f4 [32]
0.11920838 0.092332415 0.105311275 0.1042112 0.07871993 0.06579001 0.13465817 0.14209732
0.10215417 0.073854394 0.12977898 0.09453993 0.10990348 0.07590661 0.09875411 0.11620308
0.060916208 0.09414091 0.06958924 0.06871941 0.103972025 0.07488197 0.08573311 0.06912963
0.08409024 0.07573269 0.069490105 0.12313829 0.09473374 0.09569595 0.11008594 0.11000741
00000000: 8623 f43d c718 bd3d 70ad d73d ae6c d53d
00000010: ea37 a13d eabc 863d d5e3 093e f681 113e
00000020: 3536 d13d f940 973d c8e4 043e 279e c13d
00000030: 1315 e13d ed74 9b3d 983f ca3d e1fb ed3d
00000040: 4683 793d f3cc c03d ce84 8e3d c3bc 8c3d
00000050: 49ef d43d b85b 993d d794 af3d d693 8d3d
00000060: 8137 ac3d be19 9b3d d450 8e3d ee2f fc3d
00000070: c303 c23d 3dfc c33d bd74 e13d 914b e13d

fully_connected_layer.weight f4 [10, 1568]
-0.0013268581 -0.013224138 0.048122413 -0.033890035 -0.0097247735 0.009324781 0.011534813 0.059057105
-0.010873792 -0.031778138 -0.051734947 0.0018324172 0.015975732 0.018714417 0.04629222 -0.01609662
-0.036068495 -0.058160793 0.006947456 0.03180527 -0.027619602 -0.0008015119 0.0003172622 -0.010426582
-0.016815068 0.0065638567 -0.022231404 -0.009160166 -0.011422964 -0.0029754527 -0.009400485 -0.025802098
-0.007160409 -0.0064221285 -0.016556548 -0.00047942597 -0.03465171 0.012267725 -0.01701019 0.05273909
-0.020668263 0.0055532944 -0.010438008 -0.0016439714 -0.027827429 -0.002889374 -0.014224286 -0.015851753
0.014258818 -0.006179729 0.0061374716 -0.013356879 0.04173371 0.052699275 -0.03263453 -0.009233469
0.05113968 -0.020070128 -0.011760319 -0.006924305 0.01625859 0.0024918215 -0.0008919422 -0.026918145
0.0020353391 -0.00613677 0.023570614 0.016196905 0.014246765 0.034158945 -0.0014979978 -0.005157089
-0.008012652 0.03297133 -0.0030832097 -0.029274564 0.0072751315 0.005473162 0.0074892743 -0.002823385
0.0055298065 -0.060628694 -0.014474154 -0.013873724 -0.010421043 0.027986264 -0.036216527 0.040907674
-0.010702389 -0.041188557 -0.016576502 0.0015603388 0.042171173 -0.019691458 -0.007884881 0.015916979
0.0103271715 -0.027543232 0.029663874 0.011101632 0.0030734334 0.030679721 0.037293613 0.028099624
0.04420024 -0.0042955712 -0.02488624 -4.7838985e-05 -0.03215827 0.004199954 0.07834565 0.018970074
0.0038930299 0.0054656635 -0.011715242 0.014876602 -0.017389402 -0.0046522473 -0.0071630427 0.01198431
-0.030661322 -0.00077847997 0.0047651697 0.007874233 -0.052827153 -0.01943101 -0.0093663065 0.030042365
0.024173643 -0.0020743082 -0.00026812183 -0.0010179015 0.0040111807 -0.036255218 -0.012713674 -0.024376221
-0.02147877 -0.040146023 -0.012211476 -0.014552978 -0.008094164 0.008001515 0.01738901 0.010487655
0.009392611 -0.031637345 -0.0060102334 0.0053767795 0.020482294 -0.026447002 0.018149221 -0.019527923
0.015693938 -0.013533496 0.0009344106 0.009439696 0.0390124 -0.022684598 -0.038839333 -0.002826077
-5.6680132e-05 -0.02199422 0.03277441 0.034776684 -0.010555338 0.013480418 -0.010884014 0.009218236
0.0069356305 0.028829664 -0.00975537 0.008063047 0.02152404 0.009531501 -0.018769933 0.0026434301
0.020645821 0.006345001 0.031106705 0.013167309 0.010614717 -0.006784123 0.012400253 -0.008574734
-0.0073864125 -0.05375539 0.0143646095 -0.024210496 -0.038375672 0.012308547 -0.026272837 -0.013592632
0.009013372 0.030376863 0.009625085 -0.010375914 -0.017564522 0.023797847 0.011403423 -0.030021464
-0.000288288 0.010876479 0.012293358 -0.077114664 -0.016665963 -0.030372567 -0.04936448 -0.033713806
-0.0061899326 -0.026738456 0.007940369 -0.021386163 0.021425558 0.03131997 0.045005076 0.019682132
-0.007723312 0.008869909 -0.0038566906 -0.021765063 0.024309192 0.046005532 -0.004111083 0.018178983
-0.01622936 0.0075087566 0.015373682 0.03431856 0.0056248214 -0.027459381 0.014828725 -0.01830175
0.027853426 0.012438559 0.030194324 0.03412262 -0.03712993 0.031410612 -0.021990605 0.015802126
0.030348707 0.047813974 0.034815863 0.011662601 0.023348447 0.021848481 0.016988415 -0.03624001
-0.0073167337 0.026286481 -0.027392086 -0.003150876 0.02340794 -0.0062202136 0.0036925974 -0.009366176
00000000: f8e9 adba 0eaa 58bc 021c 453d 47d0 0abd
00000010: a854 1fbc f7c6 183c 83fc 3c3c dde5 713d
00000020: fd27 32bc cb29 02bd 06e8 53bd b82d f03a
00000030: 8adf 823c fa4e 993c e99c 3d3d 0fdd 83bc
00000040: 8fbc 13bd 033a 6ebd 7ca7 e33b 3e46 023d
00000050: 8142 e2bc 8e1c 52ba 3656 a639 41d4 2abc
00000060: c1bf 89bc 9f15 d73b a21e b6bc 8514 16bc
00000070: 6227 3bbc d0ff 42bb 7e04 1abc ec5e d3bc
00000080: dda1 eabb b870 d2bb 99a1 87bc 775b fbb9
00000090: f4ee 0dbd 91fe 483c f458 8bbc f204 583d
000000a0: 7d50 a9bc 69f8 b53b 2e04 2bbc 877a d7ba
000000b0: 59f6 e3bc a75b 3dbb fb0c 69bc 89db 81bc
000000c0: d19d 693c 537f cabb d81c c93b d0d6 5abc
000000d0: f7f0 2a3d 32db 573d c9ab 05bd fa47 17bc
000000e0: d777 513d 1c6a a4bc 5aae 40bc 48e5 e2bb
000000f0: bc30 853c d44d 233b 3ad1 69ba 7183 dcbc
00000100: 5363 053b f516 c9bb 2917 c13c 5faf 843c
00000110: 436b 693c 40ea 0b3d 7758 c4ba ccfc a8bb
00000120: 8047 03bc f20c 073d ad0f 4abb 36d1 efbc
00000130: 3a64 ee3b 3658 b33b 9668 f53b 8a08 39bb
00000140: 6133 b53b cb55 78bd 0125 6dbc 9e4e 63bc
00000150: 06bd 2abc 7343 e53c c857 14bd ce8e 273d
00000160: 1359 2fbc 55b5 28bd 72cb 87bc 4884 cc3a
00000170: aebb 2c3d fb4f a1bc 972f 01bc 5364 823c
00000180: 4c33 293c 58a2 e1bc a701 f33c 9fe3 353c
00000190: a86b 493b 0a54 fb3c 30c1 183d 2f31 e63c
000001a0: 500b 353d ddc1 8cbb 3ade cbbc b8a6 48b8
000001b0: 64b8 03bd c59f 893b af73 a03d 2167 9b3c
000001c0: 3422 7f3b 4f19 b33b 49f1 3fbc febc 733c
000001d0: 3874 8ebc e171 98bb f5b7 eabb d759 443c
000001e0: 742d fbbc e812 4cba 2425 9c3b ed02 013c
000001f0: 4961 58bd c82d 9fbc 2375 19bc 681b f63c
00000200: ce07 c63c 1ef1 07bb b492 8cb9 1b6b 85ba
00000210: 3970 833b 5a80 14bd 044d 50bc a4b0 c7bc
00000220: 3ff4 afbc 2870 24bd a512 48bc 9d6f 6ebc
00000230: 629d 04bc c918 033c 6673 8e3c 6ad4 2b3c
00000240: 77e3 193c 2996 01bd 7ef1 c4bb b22f b03b
00000250: 7cca a73c 62a7 d8bc adad 943c 06f9 9fbc
00000260: 9390 803c 99bb 5dbc 3cf3 743a f4a8 1a3c
00000270: 77cb 1f3d 0dd5 b9bc fe15 1fbd b435 39bb
00000280: d4bb 6db8 392d b4bc 763e 063d ff71 0e3d
00000290: 4cf0 2cbc f9dc 5c3c dd52 32bc 1608 173c
000002a0: 4944 e33b 302c ec3c fdd4 1fbc df1a 043c
000002b0: 2f53 b03c 032a 1c3c 67c3 99bc 663d 2d3b
000002c0: 6d21 a93c bae9 cf3b 7dd3 fe3c b2bb 573c
000002d0: 5ae9 2d3c 594d debb 6e2a 4b3c 0b7d 0cbc
000002e0: b809 f2bb 9d2e 5cbd 8a59 6b3c 1755 c6bc
000002f0: cf2f 1dbd caa9 493c 223a d7bc a1b3 5ebc
00000300: d2ac 133c e6d8 f83c 88b2 1d3c bdff 29bc
00000310: 79e3 8fbc b4f3 c23c 6cd5 3a3c 93ef f5bc
00000320: 5c25 97b9 4233 323c 156a 493c 4bee 9dbd
00000330: 0f87 88bc e4cf f8bc 6932 4abd 7d17 0abd
00000340: ebd4 cabb 9b0a dbbc 5218 023c 0932 afbc
00000350: a784 af3c 5e49 003d 3e57 383d 6c3c a13c
00000360: d613 fdbb 1853 113c 88c0 7cbb a54c b2bc
00000370: 1224 c73c 4c70 3c3d 44b6 86bb 17ec 943c
00000380: 6ff3 84bc 040c f63b e5e1 7b3c 9e91 0c3d
00000390: 6c50 b83b 7ff2 e0bc 2ef4 723c 8ded 95bc
000003a0: de2c e43c 19cb 4b3c 165a f73c 29c4 0b3d
000003b0: 8e15 18bd 6aa8 003d a425 b4bc 7673 813c
000003c0: da9d f83c 96d8 433d 149b 0e3d 7e14 3f3c
000003d0: 3e45 bf3c 96fb b23c 4a2b 8b3c 6870 14bd
000003e0: 36c1 efbb bf56 d73c 5e65 e0bc ed7e 4ebb
000003f0: 02c2 bf3c efd2 cbbb 81ff 713b 9774 19bc

fully_connected_layer.bias f4 [10]
-0.011289949 -0.0061415983 0.026232716 0.017426489 0.003243528 -0.012436756 0.011831319 -0.032289166
0.00926713 -0.0028339967
00000000: 7af9 38bc 763f c9bb fee5 d63c ffc1 8e3c
00000010: 5f91 543b 89c3 4bbc 26d8 413c a541 04bd
00000020: 29d5 173c 93ba 39bb
