Homework/2_Auto_Diff/models/model_parms_case_4.pt (torch, 117911 bytes, 6 tensors)

conv_ensemble_1.0.weight f4 [16, 1, 5, 5]
-0.020080531 0.037390742 0.117973305 -0.059635874 -0.017377669 -0.03335366 0.105119064 -0.0032579566
0.009749876 -0.018656477 -0.16352196 -0.005254749 0.5814559 -0.3121978 -0.15525468 -0.47057417
-0.13491626 0.9915697 -0.07540578 -0.38225847 -0.22110161 -0.19369072 0.46090433 -0.044518724
-0.0058683055 -0.23713243 0.2255068 0.0183083 0.3372211 0.15172915 -0.0042795474 0.33552253
0.57953316 0.46541688 0.11346388 0.13529731 0.25887206 0.017451031 -0.21431649 -0.21828544
0.3767469 -0.33462268 -0.4365492 -0.56017 0.02758863 -0.0046914984 -0.33107775 -0.57344097
-0.16770972 0.14749101 -0.07279654 0.15448497 0.16805613 0.06808428 -0.058203466 -0.05906017
0.20018643 -0.1359919 0.16750905 0.3569026 0.08147135 0.14711036 -0.020479249 -0.40604523
0.47501397 -0.17978442 0.12676774 0.37338045 -0.09819048 0.008572883 -0.14019054 -0.38114235
0.12170246 0.104622535 -0.0012317261 -0.0045719715 0.19331785 0.2195813 0.23479113 0.08023456
-0.28368312 -0.19979703 -0.006173711 0.02924481 -0.0393371 -0.07030463 -0.2842359 -0.15344091
0.09236938 0.22223058 -0.1614506 -0.5073796 -0.56566167 -0.19677772 0.06056662 0.1823417
-0.2683869 -0.26502568 -0.06858345 0.17250332 -0.078122124 -0.0050549554 -0.031655975 -0.02084861
0.20674759 -0.19103019 -0.11781969 0.10059639 -0.008454908 0.13664058 -0.3396259 -0.1199509
-0.107057 -0.19835484 0.44695377 -0.3270254 -0.041744087 0.032857005 -0.055869002 0.30821988
0.12198195 0.08130121 0.22202161 -0.011944752 0.2599294 -0.06741436 0.28197545 -0.102812216
0.0045317677 0.22559497 -0.39362746 -0.013076762 -0.32451847 -0.2406748 -0.07973278 0.065232106
-0.05403197 -0.3753958 0.07235517 0.38491073 0.5585729 0.21033068 -0.2556904 0.18784039
-0.10346577 0.28361222 -0.1747083 -0.46567863 0.3630659 0.20134051 0.1770745 0.16555288
0.31302148 0.43378636 0.47367254 -0.0002008311 -0.10577076 0.033959985 0.0211584 0.26988718
0.1047153 -0.35681906 -0.45521888 -0.6096893 -0.8026868 -0.043501507 -0.015045265 -0.006018264
-0.067332886 -0.12991169 0.10266632 0.19116068 0.099192925 0.030623158 0.09677854 -0.2968037
0.22291905 0.09113766 -0.08785092 0.23966801 -0.14410138 0.20116082 -0.13373986 -0.11556751
0.03521507 -0.020108435 0.25755787 -0.32633755 -0.11319908 -0.14108631 0.18849884 0.092168905
-0.13783918 -0.19534698 0.0017229696 0.42146057 0.08250684 -0.18374407 -0.09174892 -0.17761475
0.036243077 -0.21693262 -0.17931646 -0.30987203 -0.8498063 0.12912303 -0.21334085 -0.05489749
0.08023048 0.016001107 0.14142483 -0.1287471 0.045823887 0.15211272 0.060626023 0.24469683
0.01427279 -0.06485408 0.14212923 0.21551435 0.13301162 0.29697332 0.12972265 -0.070671566
0.0902122 -0.07590873 0.2473035 -0.051623225 -0.028526954 -0.21739833 0.09673564 0.14045072
-0.06276914 -0.0004178502 -0.11294843 0.09310741 0.16785908 0.23750877 -0.05717561 0.040067
0.16852243 0.16298454 0.05599564 0.14550392 0.112987064 0.037635215 0.084086046 0.33007935
0.3644917 0.28149787 0.30803448 0.101201676 0.072848566 0.029271333 -0.6022949 0.1990579
00000000: ed7f a4bc 0927 193d fd9b f13d bf44 74bd
00000010: 9d5b 8ebc d99d 08bd aa48 d73d 7183 55bb
00000020: f2bd 1f3c 78d5 98bc 4d72 27be 0830 acbb
00000030: 4bda 143f 64d8 9fbe 15fb 1ebe 19ef f0be
00000040: 7d27 0abe 83d7 7d3f 586e 9abd 62b7 c3be
00000050: 7668 62be dc56 46be a7fb eb3e 4459 36bd
00000060: ea4a c0bb d8d2 72be 41eb 663e 4afb 953c
00000070: 3ea8 ac3e e35e 1b3e 723b 8cbb 9cc9 ab3e
00000080: 495c 143f 1f4b ee3e c05f e83d 618b 0a3e
00000090: e18a 843e 77f5 8e3c c875 5bbe 3886 5fbe
000000a0: f8e4 c03e aa53 abbe 6083 dfbe 4d67 0fbf
000000b0: 8d01 e23c 24bb 99bb 0683 a9be 07cd 12bf
000000c0: 19bc 2bbe e207 173e 5a16 95bd 4f31 1e3e
000000d0: e816 2c3e c56f 8b3d c266 6ebd 14e9 71bd
000000e0: acfd 4c3e 7641 0bbe 7e87 2b3e f0bb b63e
000000f0: 73da a63d 19a4 163e 19c4 a7bc 29e5 cfbe
00000100: 0835 f33e 6819 38be 67cf 013e b92b bf3e
00000110: 1718 c9bd 4775 0c3c 1c8e 0fbe 1725 c3be
00000120: 243f f93d 5744 d63d df71 a1ba 7ad0 95bb
00000130: 1df5 453e ecd9 603e 166d 703e 0452 a43d
00000140: ea3e 91be 9897 4cbe d74c cabb d092 ef3c
00000150: f01f 21bd e0fb 8fbd 5e87 91be 9d1f 1dbe
00000160: 282c bd3d 6a90 633e 4e53 25be a1e3 01bf
00000170: 34cf 10bf 1980 49be b414 783d c8b7 3a3e
00000180: 026a 89be 72b1 87be 7b75 8cbd b6a4 303e
00000190: 7efe 9fbd 0aa4 a5bb b2a9 01bd b4ca aabc
000001a0: a4b5 533e 6b9d 43be 734b f1bd 7b05 ce3d
000001b0: 7486 0abc 82eb 0b3e 72e3 adbe d1a8 f5bd
000001c0: b340 dbbd 881d 4bbe 20d7 e43e e06f a7be
000001d0: d9fb 2abd 1195 063d e5d6 64bd ffce 9d3e
000001e0: acd1 f93d 4081 a63d a259 633e ecb3 43bc
000001f0: 7715 853e 8a10 8abd 165f 903e 368f d2bd
00000200: 397f 943b 5e02 673e 8a89 c9be ea3f 56bc
00000210: 4927 a6be 7473 76be f14a a3bd 6998 853d
00000220: a150 5dbd e133 c0be f32e 943d 0513 c53e
00000230: a2fe 0e3f ed60 573e dae9 82be 3b59 403e
00000240: dde5 d3bd 9f35 913e bce6 32be 6e6d eebe
00000250: c6e3 b93e 352c 4e3e 0553 353e b286 293e
00000260: 5a44 a03e 3f19 de3e 3585 f23e 3096 52b9
00000270: 579e d8bd a019 0b3d 6254 ad3c a72e 8a3e
00000280: fa74 d63d fdb0 b6be 7312 e9be 9914 1cbf
00000290: e27c 4dbf a32e 32bd 6a80 76bc dc34 c5bb
000002a0: d3e5 89bd 9207 05be b842 d23d a0bf 433e
000002b0: a925 cb3d 6bdd fa3c d433 c63d a8f6 97be
000002c0: e444 643e 62a6 ba3d 2feb b3bd 886b 753e
000002d0: 508f 13be 1afd 4d3e 1af3 08be a9ae ecbd
000002e0: ad3d 103d 72ba a4bc a0de 833e b715 a7be
000002f0: ebd4 e7bd ee78 10be d705 413e 0dc3 bc3d
00000300: b725 0dbe 0a09 48be 44d5 e13a aec9 d73e
00000310: 59f9 a83d 6827 3cbe dce6 bbbd a4e0 35be
00000320: 9f73 143d 9623 5ebe bc9e 37be 8ca7 9ebe
00000330: e88c 59bf d438 043e 0676 5abe 31dc 60bd
00000340: e14f a43d c114 833c acd1 103e 48d6 03be
00000350: d4b1 3b3d 70c3 1b3e fe52 783d ce91 7a3e
00000360: 6cd8 693c 37d2 84bd 538a 113e cbaf 5c3e
00000370: 3334 083e e30c 983e 04d6 043e 41bc 90bd
00000380: 2dc1 b83d 0976 9bbd 213d 7d3e e072 53bd
00000390: 5cb1 e9bc ab9d 5ebe 561d c63d 50d2 0f3e
000003a0: 1b8d 80bd e812 dbb9 8251 e7bd 19af be3d
000003b0: 40e3 2b3e 8035 733e f930 6abd 4b1d 243d
000003c0: 2591 2c3e 6be5 263e af5b 653d fbfe 143e
000003d0: c365 e73d 6227 1a3d 4e35 ac3d 2900 a93e
000003e0: a89e ba3e 7d20 903e b2b6 9d3e d342 cf3d
000003f0: a131 953d 6fca ef3c 0030 1abf d6d5 4b3e

conv_ensemble_1.0.bias f4 [16]
-0.25317118 -0.7808274 -0.2629845 -1.0320603 -0.4861751 -0.5032759 -0.2732148 -0.3656111
-0.119612426 -1.0655504 -0.5304551 -1.3104125 -0.22684006 -0.7149759 -0.5460752 -0.44915137
00000000: a79f 81be 4ee4 47bf e8a5 86be 8d1a 84bf
00000010: f1eb f8be b0d6 00bf cfe2 8bbe 6131 bbbe
00000020: 5cf7 f4bd f563 88bf e8cb 07bf 99bb a7bf
00000030: c348 68be a908 37bf 96cb 0bbf 2bf7 e5be

conv_ensemble_2.0.weight f4 [32, 16, 5, 5]
-0.3122267 -0.18463309 -0.1662653 -0.16726834 -0.15297812 -0.2882357 -0.12679674 -0.23469837
-0.12227618 -0.08067776 -0.15775768 -0.0007828933 -0.17510994 -0.28626373 -0.24054283 -0.053202797
-0.08361868 -0.21465833 -0.30349815 -0.2855956 -0.07572846 0.020356951 -0.102288246 -0.22737983
-0.27238134 -0.14288558 -0.14958718 -0.11446361 -0.1319398 -0.17868407 -0.094020635 -0.117316425
-0.08703216 -0.1096933 -0.14010163 -0.05949698 -0.15566953 -0.1306616 -0.12267565 0.17766358
0.16765703 -0.028586756 0.012758228 0.046688307 0.22656849 0.27325085 -0.026815094 -0.12969355
-0.18383843 -0.09534708 -0.23024745 -0.18551531 -0.20808476 -0.1541694 -0.12602545 -0.16467658
-0.017663043 -0.0053912792 -0.040171333 0.006410984 -0.16688368 -0.060809053 -0.054923285 0.010115265
0.017963536 0.006434613 -0.052972503 -0.09277154 -0.047974102 -0.025689216 0.1897958 0.08181971
0.004335301 -0.08130005 -0.041012086 -0.20741153 -0.19497749 -0.10042296 0.10550597 0.0071116006
-0.050071735 0.05645323 0.050508887 0.047664784 -0.01928436 -0.24779604 0.02858076 0.2147376
0.13185492 0.002894026 -0.16822147 -0.18326636 -0.03886407 0.15511069 0.17907135 0.12431446
-0.18411368 -0.24058391 0.025408488 0.15969647 -0.034767892 -0.090303615 -0.0583065 0.029641246
-0.01046724 -0.1259541 -0.04335697 0.0023130546 0.13202313 0.13291085 -0.09381008 -0.20184207
-0.07857223 0.15104233 0.042965256 -0.12069441 -0.14910738 -0.04534437 0.036201295 -0.11942101
0.022624787 -0.113011844 -0.12320415 -0.07614133 -0.25182596 -0.11712947 -0.08219589 -0.005572358
-0.068686776 -0.17781556 -0.028832423 0.018459363 0.02571479 0.011205085 -0.15397392 -0.10850971
0.024081588 0.0468661 -0.051102072 -0.1256964 -0.06374148 -0.021965107 0.08183062 -0.021657974
-0.12163083 -0.01205846 -0.020684041 0.050928302 -0.077435605 -0.10120593 -0.10105058 -0.026045779
-0.0067731035 -0.032242257 -0.121717215 0.1211966 0.07296288 -0.07348244 -0.08014587 -0.15581998
-0.07065689 -0.0072879028 -0.0117749 -0.12976275 -0.12371205 -0.10463887 -0.08057017 0.03900578
0.097904705 0.21643054 0.17964754 -0.19880442 -0.07408803 -0.0128130065 0.07832496 -0.0914167
-0.0033863755 0.13925022 0.027425693 -0.049456432 0.08975867 0.053296138 0.0624921 -0.08366902
-0.123805076 0.04984366 0.1342887 0.09890292 -0.05702195 -0.13012698 0.033424247 0.042167086
0.06563659 0.011835795 0.010223426 -0.066896684 -0.18556704 -0.026850127 0.06856479 0.008331966
-0.13835254 -0.10389895 -0.17343168 -0.21199012 -0.15427588 -0.01867571 -0.0063244225 -0.0443479
0.011401394 0.055034634 0.055211782 0.074117035 0.016413387 -0.110305265 -0.097137794 0.07880652
0.21480814 0.28836137 0.14466098 -0.05813515 -0.07432665 0.071254104 0.20333174 -0.031215787
-0.23165837 -0.07512676 -0.04865697 -0.09328109 -0.10958966 -0.09295947 0.015123993 -0.0240458
-0.03602642 0.019410934 -0.034042098 0.0024358013 -0.04582166 -0.05057366 -0.046548948 -0.01095138
-0.025619702 -0.08455076 -0.014290485 -0.029033998 -0.08073746 0.15910496 0.1655195 -0.013039324
-0.03286113 -0.017888825 -0.009032046 0.14106013 0.06493908 -0.0135422675 -0.041063048 0.10569716
00000000: 2edc 9fbe 7510 3dbe 7341 2abe 6448 2bbe
00000010: 4ca6 1cbe a193 93be 01d7 01be c554 70be
00000020: ef6b fabd 623a a5bd 3b8b 21be 143b 4dba
00000030: 0550 33be 2991 92be dc50 76be 2deb 59bd
00000040: 4540 abbd 65cf 5bbe 1c64 9bbe 9639 92be
00000050: 8617 9bbd 9fc3 a63c 807c d1bd 42d6 68be
00000060: 9175 8bbe 9950 12be 622d 19be e66b eabd
00000070: 3a1b 07be f5f8 36be e48d c0bd 9843 f0bd
00000080: eb3d b2bd e2a6 e0bd cd76 0fbe 1bb3 73bd
00000090: d567 1fbe 28cc 05be 5f3d fbbd 71ed 353e
000000a0: 49ae 2b3e c62e eabc e307 513c 3d3c 3f3d
000000b0: 9201 683e 89e7 8b3e 54ab dbbc 63ce 04be
000000c0: 2440 3cbe 5445 c3bd fdc5 6bbe baf7 3dbe
000000d0: 2c14 55be 95de 1dbe d10c 01be faa0 28be
000000e0: 16b2 90bc 54a9 b0bb b28a 24bd 3b13 d23b
000000f0: 8ee3 2abe ea12 79bd 3df7 60bd 7fba 253c
00000100: 4428 933c 72d9 d23b b2f9 58bd 01ff bdbd
00000110: 7e80 44bd 3172 d2bc d559 423e 1891 a73d
00000120: 240f 8e3b a480 a6bd 4afc 27bd b063 54be
00000130: 2ea8 47be 8eaa cdbd 8413 d83d 6e08 e93b
00000140: 0518 4dbd 813b 673d 68e2 4e3d 263c 433d
00000150: 3cfa 9dbc 3fbe 7dbe 3322 ea3c 2ce4 5b3e
00000160: fa04 073e b3a9 3d3b 4042 2cbe 2daa 3bbe
00000170: ee2f 1fbd 56d5 1e3e 7b5e 373e 9498 fe3d
00000180: 4c88 3cbe a15b 76be 7625 d03c 7987 233e
00000190: c768 0ebd 1af1 b8bd ccd2 6ebd 33d2 f23c
000001a0: c97e 2bbc 1dfa 00be 1497 31bd 9e96 173b
000001b0: 1231 073e c819 083e 801f c0bd b0af 4ebe
000001c0: 7aea a0bd d7aa 1a3e 56fc 2f3d a12e f7bd
000001d0: 9baf 18be 05bb 39bd cf47 143d 0193 f4bd
000001e0: 9e57 b93c c172 e7bd 7552 fcbd fcef 9bbd
000001f0: 55ef 80be 93e1 efbd 5256 a8bd 5498 b6bb
00000200: a7ab 8cbd 4815 36be f931 ecbc 1738 973c
00000210: d3a7 d23c 8895 373c 57ab 1dbe 573a debd
00000220: c046 c53c abf6 3f3d 6850 51bd 8fb6 00be
00000230: e58a 82bd 2bf0 b3bc d096 a73d 106c b1bc
00000240: 9619 f9bd d990 45bc 9471 a9bc 329a 503d
00000250: 8f96 9ebd 0e45 cfbd 9bf3 cebd f55d d5bc
00000260: e9f0 ddbb 7510 04bd e046 f9bd ec35 f83d
00000270: 906d 953d f67d 96bd 8523 a4bd 468f 1fbe
00000280: 8fb4 90bd 5ccf eebb 83eb 40bc 87e0 04be
00000290: be5c fdbd e74c d6bd f901 a5bd 86c4 1f3d
000002a0: 4382 c83d f89f 5d3e 86f5 373e 6393 4bbe
000002b0: 77bb 97bd a5ed 51bc d668 a03d ae38 bbbd
000002c0: f4ed 5dbb 9c97 0e3e d9ab e03c d492 4abd
000002d0: 65d3 b73d 0d4d 5a3d b7f7 7f3d aa5a abbd
000002e0: 848d fdbd de28 4c3d fa82 093e 9d8d ca3d
000002f0: d98f 69bd 0240 05be dde7 083d 65b7 2c3d
00000300: 7a6c 863d ecea 413c 2880 273c 2101 89bd
00000310: 4905 3ebe ccf4 dbbc b26b 8c3d cc82 083c
00000320: 4aac 0dbe f9c8 d4bd 1398 31be f013 59be
00000330: 7ffa 1dbe cdfd 98bc 1a3d cfbb 25a6 35bd
00000340: eacc 3a3c ff6b 613d c025 623d acca 973d
00000350: 5e75 863c bae7 e1bd 2ef0 c6bd 5065 a13d
00000360: aaf6 5b3e 1aa4 933e 0222 143e 1f1f 6ebd
00000370: 9238 98bd aced 913d 3236 503e 40b8 ffbc
00000380: da37 6dbe 0fdc 99bd 884c 47bd 280a bfbd
00000390: 8b70 e0bd 8961 bebd a0ca 773c b3fb c4bc
000003a0: 7090 13bd ae03 9f3c ba6f 0bbd f7a1 1f3b
000003b0: 7eaf 3bbd 5326 4fbd 1caa 3ebd 6b6d 33bc
000003c0: 69e0 d1bc f328 adbd a322 6abc b5d8 edbc
000003d0: ae59 a5bd 69ec 223e f27d 293e e4a2 55bc
000003e0: 6499 06bd 968b 92bc 26fb 13bc 1172 103e
000003f0: c8fe 843d 63e0 5dbc ba31 28bd c177 d83d

conv_ensemble_2.0.bias f4 [32]
0.25151792 -0.3309003 0.25238302 0.11490091 -0.05073141 0.45140988 0.651994 0.022012288
0.58252853 -0.30880567 -0.076824814 -0.23500425 -0.21050328 -0.41399083 0.3433481 -0.6525316
-0.37634137 0.017423537 0.16116886 -0.07609689 0.547044 0.07634056 0.4014263 -0.41754174
-0.5955243 0.09818017 0.112090826 -0.4680907 -0.59492654 0.22191502 -0.2819699 -0.33927527
00000000: f5c6 803e c46b a9be 5938 813e 2b51 eb3d
00000010: bdcb 4fbd 321f e73e 14e9 263f 1d53 b43c
00000020: 9720 153f c71b 9ebe 5456 9dbd f4a4 70be
00000030: 2c8e 57be 9bf6 d3be 52cb af3e 500c 27bf
00000040: d1af c0be cebb 8e3c 7309 253e b0d8 9bbd
00000050: 130b 0c3f 7158 9c3d bf87 cd3e 08c8 d5be
00000060: 4874 18bf af12 c93d e08f e53d 96a9 efbe
00000070: 1b4d 18bf b13d 633e 5c5e 90be 7db5 adbe

fully_connected_layer.weight f4 [10, 1568]
-0.11384259 -0.028996844 0.08335364 0.028698713 -0.23999226 -0.26065058 -0.09048416 -0.2517684
-0.24509701 -0.0046650534 0.3077138 0.0647608 -0.018391145 -0.12556887 -0.067080125 -0.06709157
0.31346995 0.040337387 0.011673979 0.27443865 0.06252722 -0.009644658 -0.09703352 0.047289077
0.13897361 0.1104453 0.29288647 0.11137402 -0.010566605 0.024538957 -0.06814877 -0.064443484
0.21022809 0.026433771 0.16304274 0.12734435 0.14365605 -0.061275583 -0.1644905 0.08377118
-0.016258888 0.08508131 -0.051405206 -0.072751366 0.15636945 0.018695865 0.08860353 -0.012546686
0.009890647 -0.02504081 -0.038534764 -0.05572199 0.03439741 0.06594316 -0.0074043702 0.049729247
0.14646123 0.12997045 0.112260714 0.25438106 0.02039197 -0.053317472 0.04249016 0.15738106
0.18412127 0.10576009 0.16609713 -0.010620405 -0.019323044 -0.03637325 -0.027362501 0.1283133
-0.11045961 -0.12811105 -0.062014833 0.13097239 0.035732113 -0.21510877 -0.06621448 -0.037469488
-0.113994904 -0.037652753 0.19557771 0.03350366 -0.2431811 -0.06355653 0.015019558 0.06471495
0.11257992 -0.056130495 0.042620935 -0.12900536 -0.0343904 -0.042557057 -0.008367523 -0.08339359
-0.029672563 0.05557141 0.07389678 0.034692634 -0.15131797 0.027581654 0.07029015 -0.046108466
-0.24200973 0.033953957 -0.08436194 -0.2825058 -0.09900733 -0.14755604 -0.02820479 -0.16232717
-0.19862267 -0.018671554 -0.14289051 0.19058894 -0.04508989 0.03443895 0.23464125 -0.0393382
0.015763309 -0.029923396 0.11969615 0.045763288 0.030434402 0.2892506 0.12718655 0.07709948
0.02520992 0.01140146 0.0035836177 -0.015274809 0.1847007 0.16909571 0.061659098 0.022264287
-0.07325754 -0.057494525 -0.047613934 -0.013943042 0.124576926 0.117815994 -0.09664157 -0.086162016
-0.17638375 -0.103212506 -0.040498883 0.03667369 -0.1285651 -0.038104843 -0.14831345 -0.079288214
-0.030770008 0.025280561 0.09466909 -0.027947612 0.00926293 -0.14930214 0.037107944 0.024759654
0.14044394 -0.02839991 0.09046594 -0.08588213 -0.117199525 -0.13622965 0.063951455 0.23663357
0.06946792 0.029021427 0.0067232563 -0.107811764 0.031309146 -0.030746188 0.060334697 -0.0055364133
0.073639676 -0.07256888 -0.06777051 -0.10972887 -0.17418386 0.01147889 -0.038699947 0.30459237
0.1645101 0.15507652 0.030914716 -0.13641118 0.07063837 0.03216598 0.19022338 0.16547713
-0.08026889 -0.04560498 -0.11394456 -0.033013936 0.024416486 0.06547363 0.09402045 0.20486863
0.046017945 0.06738908 -0.042732086 0.21078491 0.17049198 0.22826304 0.101650506 -0.19798101
-0.09694576 -0.09876867 0.09891811 0.16929986 0.08990342 -0.043267094 -0.14295064 -0.05530847
0.0982562 0.09867447 0.013411028 0.2195137 0.1047809 -0.123467006 -0.057459302 0.0652323
-0.04539104 0.026694769 0.17248921 -0.026221184 -0.053221658 0.04067352 0.0014723041 -0.08698891
-0.14645685 -0.120356925 -0.10140861 -0.12519324 0.053456936 0.023637151 0.019018963 0.092706725
-0.1052717 -0.11843529 -0.16747354 0.11300278 0.15315308 0.07138655 0.10281809 -0.15537423
0.003374152 0.093875185 0.0017091298 0.10942602 0.17824236 0.089264795 -0.14422071 0.017009865
00000000: 4e26 e9bd ca8a edbc 50b5 aa3d 9019 eb3c
00000010: 88c0 75be fe73 85be c24f b9bd cae7 80be
00000020: b6fa 7abe 4edd 98bb aa8c 9d3e 4fa1 843d
00000030: 07a9 96bc 2095 00be 4e61 89bd 4e67 89bd
00000040: 227f a03e d138 253d 3844 3f3c 3983 8c3e
00000050: 450e 803d a104 1ebc 83b9 c6bd 31b2 413d
00000060: 194f 0e3e 2531 e23d 37f5 953e 1018 e43d
00000070: 8e1f 2dbc ec05 c93c 9591 8bbd f2fa 83bd
00000080: 0846 573e a38b d83c adf4 263e 8f66 023e
00000090: 921a 133e 1bfc 7abd 3370 28be 3990 ab3d
000000a0: 5c31 85bc 1c3f ae3d 448e 52bd abfe 94bd
000000b0: 501f 203e 1228 993c c475 b53d 9e90 4dbc
000000c0: 610c 223c 6322 cdbc a1d6 1dbd be3c 64bd
000000d0: 4ce4 0c3d 350d 873d 5ca0 f2bb e5b0 4b3d
000000e0: eff9 153e f916 053e f2e8 e53d 3c3e 823e
000000f0: 100d a73c 6c63 5abd 290a 2e3d 8028 213e
00000100: 498a 3c3e bf98 d83d 5e15 2a3e 3501 2ebc
00000110: 5c4b 9ebc 1efc 14bd 5327 e0bc 9064 033e
00000120: a638 e2bd 8b2f 03be 4403 7ebd a01d 063e
00000130: d65b 123d 7945 5cbe 759b 87bd 9b79 19bd
00000140: 2976 e9bd c639 1abd 8645 483e 223b 093d
00000150: 7704 79be ed29 82bd 9814 763c 4689 843d
00000160: 4d90 e63d 17e9 65bd 4a93 2e3d fb19 04be
00000170: f3dc 0cbd 4f50 2ebd ef17 09bc 42ca aabd
00000180: e013 f3bc d99e 633d 3257 973d dd19 0e3d
00000190: 19f3 1abe ecf2 e13c 48f4 8f3d 3bdc 3cbd
000001a0: 66d1 77be 4e13 0b3d f4c5 acbd 9aa4 90be
000001b0: 5bc4 cabd ee18 17be bb0d e7bc 1839 26be
000001c0: be63 4bbe 16f5 98bc e451 12be bf29 433e
000001d0: 2db0 38bd db0f 0d3d cc45 703e 1821 21bd
000001e0: 0e22 813c e921 f5bc 4123 f53d 4972 3b3d
000001f0: 9151 f93c a818 943e 313d 023e 55e6 9d3d
00000200: 0985 ce3c 30cd 3a3c 21db 6a3b 3143 7abc
00000210: 2e22 3d3e 6d27 2d3e 408e 7c3d 9863 b63c
00000220: 0d08 96bd 617f 6bbd d406 43bd 5b71 64bc
00000230: 3022 ff3d 8349 f13d 04ec c5bd b675 b0bd
00000240: f19d 34be 1461 d3bd 28e2 25bd 2737 163d
00000250: 92a6 03be d313 1cbd 7bdf 17be dc61 a2bd
00000260: 6211 fcbc 2e19 cf3c dee1 c13d 64f2 e4bc
00000270: 8bc3 173c a9e2 18be 80fe 173d c2d4 ca3c
00000280: 89d0 0f3e eea6 e8bc 3546 b93d f8e2 afbd
00000290: 4e06 f0bd c97f 0bbe fbf8 823d 1250 723e
000002a0: 3245 8e3d 58be ed3c c34e dc3b 6acc dcbd
000002b0: 053e 003d 6edf fbbc 8421 773d cd6a b5bb
000002c0: 66d0 963d fe9e 94bd 44cb 8abd 88b9 e0bd
000002d0: 415d 32be f411 3c3c d683 1ebd 88f3 9b3e
000002e0: 5675 283e 61cc 1e3e dc40 fd3c 5faf 0bbe
000002f0: daaa 903d 7ac0 033d ebc9 423e d672 293e
00000300: 0464 a4bd 4acc 3abd c45b e9bd 9f39 07bd
00000310: 1505 c83c 0a17 863d cb8d c03d 15c9 513e
00000320: 507d 3c3d 4903 8a3d d707 2fbd 00d8 573e
00000330: 7395 2e3e c9bd 693e 242e d03d 89bb 4abe
00000340: 808b c6bd 3a47 cabd 9495 ca3d f15c 2d3e
00000350: 491f b83d d638 31bd a761 12be 228b 62bd
00000360: 8c3a c93d d715 ca3d eeb9 5b3c 33c8 603e
00000370: 5e97 d63d 45dc fcbd 725a 6bbd 8398 853d
00000380: f5eb 39bd fdae da3c 03a1 303e cfcd d6bc
00000390: f4fe 59bd 4799 263d 54fa c03a 3e27 b2bd
000003a0: c9f8 15be b17d f6bd 51af cfbd a832 00be
000003b0: a9f5 5a3d b3a2 c13c a8cd 9b3c 06dd bd3d
000003c0: b098 d7bd 348e f2bd 2f7e 2bbe 006e e73d
000003d0: 29d4 1c3e 1d33 923d 4a92 d23d 6c1a 1fbe
000003e0: e020 5d3b a241 c03d e104 e03a c01a e03d
000003f0: 2a85 363e 76d0 b63d 98ae 13be 4658 8b3c

fully_connected_layer.bias f4 [10]
-0.40231884 -0.13205804 0.2497692 0.19699368 0.32991624 -0.45366848 0.67871296 0.041345894
-0.36258578 -0.1330752
00000000: bcfc cdbe 393a 07be 7fc3 7f3e b6b8 493e
00000010: c8ea a83e 3c47 e8be 22c0 2d3f 505a 293d
00000020: d8a4 b9be dd44 08be
