Homework/2_Auto_Diff/models/model_parms_case_1.pt (torch, 117911 bytes, 6 tensors)

conv_ensemble_1.0.weight f4 [16, 1, 5, 5]
-0.37432277 0.32427514 -0.0665725 0.06350377 0.0016228568 0.20028491 0.2003543 -0.12141581
-0.22827193 -0.3705789 0.06524294 0.16244897 0.14228569 -0.2730089 -0.08115028 0.12100614
0.20568654 0.048061207 0.4256468 0.3877639 0.021825815 0.10024261 0.05371123 0.14237936
0.20612235 -0.19176447 0.31483263 0.35205823 -0.5224083 0.362874 -0.2313422 0.35063836
0.21845633 -0.36247692 -0.3726435 0.25216067 0.347248 -0.14103279 -0.7655239 0.03101377
0.32821065 0.11631784 -0.2941366 -0.40339866 0.2681764 0.41994286 0.05451626 -0.21998107
0.005068175 0.21015893 0.17577885 -0.3477951 0.07366567 0.4924908 -0.2917394 -0.008970077
0.31219813 0.39951423 0.4291385 -0.26282528 0.11298445 0.40975985 0.56304455 -0.24782293
-0.16853666 -0.05874229 0.29502138 0.03714634 -0.47508767 -0.367639 -0.29855222 -0.13758795
-0.36379638 -0.24066702 -0.15951416 -0.017065745 -0.40935123 0.48767602 0.06523317 -0.04402303
-0.12390783 -0.31227684 0.0028954926 0.03361843 -0.21130425 0.18289985 -0.32318068 -0.14802918
0.16468033 0.420607 0.14316787 -0.43942547 -0.20732167 0.096249364 0.3600223 -0.22189298
-0.30471203 0.20331103 0.07346159 0.29564545 0.13476828 -0.15520251 -0.14017956 0.0067059393
0.41296607 -0.3000601 -0.3353439 -0.083536 0.18426333 0.43470454 -0.090117335 -0.27651024
-0.3726991 -0.40949443 -0.2588488 -0.08724205 -0.16798022 -0.097318284 -0.3524167 -0.016560087
0.25376022 0.119418 -0.1788568 -0.24525635 -0.41991994 -0.18512249 -0.20412274 -0.14049368
0.10064982 -0.1396881 -0.42859286 -0.4257267 -0.16747478 0.102411054 -0.22370674 -0.4839975
-0.24654114 -0.38408527 -0.22968118 0.02265104 -0.024518255 -0.15158385 -0.102131054 -0.16058953
0.32384142 0.14817464 0.015722854 0.21402797 0.32004064 0.07438213 0.25421363 -0.3594788
-0.30850154 -0.45414475 -0.22708777 0.35173762 -0.06596368 0.049397666 -0.40535668 -0.42158833
0.11519378 -0.068488955 -0.13273102 -0.09776193 -0.336718 0.18899526 -0.10850588 -0.039612677
0.12169858 0.12598087 0.27668145 0.132581 0.12110918 0.15195414 -0.09774868 -0.20924333
0.16600381 0.19883712 0.20553704 0.104180254 0.1905649 -0.09763993 -0.07904444 0.07476369
0.027392043 0.3419149 0.11343891 0.1665599 0.09407785 0.091820344 0.14699225 0.121364824
0.28431988 0.42222846 -0.082171716 -0.22003132 -0.118715614 -0.15610957 0.33537674 0.098927535
-0.170593 0.14431016 0.6885119 -0.23008564 0.38154498 0.16999517 0.035159115 0.29402602
-0.31061825 0.21765362 0.32754385 0.1572543 -0.35584164 -0.48187107 0.13178779 0.2641503
-0.2887303 -0.06492185 -0.5454909 -0.06713861 -0.119976155 0.046523627 -0.020074198 -0.46372473
0.31510448 -0.45782456 0.21999116 -0.2486484 -0.23208517 -0.32364622 0.17073877 0.50108343
-0.100999296 -0.21435754 -0.22849526 -0.16984926 0.1345251 -0.04191674 -0.10402068 -0.26875255
0.2973053 0.12605458 0.19307232 0.028716527 -0.03727519 0.38243237 -0.14269939 0.22809009
0.28712445 0.116164885 0.13649142 0.22984007 -0.07667317 0.18787563 -0.08293896 -0.017313782
00000000: 3ca7 bfbe 6407 a63e 2a57 88bd 440e 823d
00000010: 0ab6 d43a 7d17 4d3e ad29 4d3e daa8 f8bd
00000020: 1ec0 69be 85bc bdbe 179e 853d 0659 263e
00000030: 57b3 113e d3c7 8bbe 1e32 a6bd 11d2 f73d
00000040: 7e9f 523e d4db 443d 61ee d93e fd88 c63e
00000050: 0dcc b23c ff4b cd3d 4f00 5c3d e5cb 113e
00000060: bd11 533e e85d 44be be31 a13e fa40 b43e
00000070: 8dbc 05bf 9fca b93e f8e4 6cbe df86 b33e
00000080: 04b3 5f3e 9396 b9be 21cb bebe 341b 813e
00000090: 7dca b13e e66a 10be 60f9 43bf 9710 fe3c
000000a0: 3a0b a83e 0c38 ee3d 1399 96be 458a cebe
000000b0: 6b4e 893e c002 d73e 714c 5f3d b842 61be
000000c0: ef12 a63b e733 573e 5fff 333e 3312 b2be
000000d0: 07de 963d c127 fc3e de5e 95be 3bf7 12bc
000000e0: 6fd8 9f3e 218d cc3e 0bb8 db3e 0991 86be
000000f0: 6464 e73d 0bcc d13e b023 103f 4bc5 7dbe
00000100: e094 2cbe c19b 70bd 0b0d 973e c326 183d
00000110: b13e f3be 2e3b bcbe d6db 98be dbe3 0cbe
00000120: 8543 babe 6a71 76be ae57 23be 76cd 8bbc
00000130: 7c96 d1be acb0 f93e f898 853d 7e51 34bd
00000140: 63c3 fdbd c0e2 9fbe 4ec2 3d3b 7bb3 093d
00000150: 2460 58be 194a 3b3e f077 a5be f694 17be
00000160: f6a1 283e cd59 d73e 999a 123e 60fc e0be
00000170: 224c 54be 631e c53d d854 b83e ea37 63be
00000180: 3703 9cbe c430 503e 0873 963d d75e 973e
00000190: b200 0a3e 68ed 1ebe 3b8b 0fbe 7fbd db3b
000001a0: 4a70 d33e 7aa1 99be 32b2 abbe ec14 abbd
000001b0: 87af 3c3e 9891 de3e 708f b8bd c092 8dbe
000001c0: 6bd2 bebe 41a9 d1be d487 84be f6ab b2bd
000001d0: 0203 2cbe cf4e c7bd f66f b4be 05a9 87bc
000001e0: dcec 813e 6d91 f43d 3d26 37be 7b24 7bbe
000001f0: bfff d6be c090 3dbe 8d05 51be 93dd 0fbe
00000200: 7e21 ce3d 660a 0fbe 8670 dbbe daf8 d9be
00000210: 827e 2bbe e3bc d13d 6113 65be 85ce f7be
00000220: 4875 7cbe d3a6 c4be 8b31 6bbe ad8e b93c
00000230: 82da c8bc cc38 1bbe 162a d1bd 9571 24be
00000240: 8bce a53e 18bb 173e 37cd 803c 262a 5b3e
00000250: 5edc a33e a855 983d 4a28 823e 9b0d b8be
00000260: eaf3 9dbe a985 e8be b289 68be f416 b43e
00000270: f717 87bd 3555 4a3d e98a cfbe 6dda d7be
00000280: b7ea eb3d f043 8cbd a4ea 07be 6837 c8bd
00000290: 4d66 acbe f987 413e 5538 debd e740 22bd
000002a0: 1b3d f93d 2101 013e 31a9 8d3e 50c3 073e
000002b0: 1708 f83d de99 1b3e 7630 c8bd e243 56be
000002c0: e7fc 293e f59b 4b3e 4d78 523e 755c d53d
000002d0: 7223 433e 72f7 c7bd 0de2 a1bd b51d 993d
000002e0: 4765 e03c 780f af3e a952 e83d ae8e 2a3e
000002f0: e3ab c03d 4e0c bc3d 2385 163e 1f8e f83d
00000300: 6092 913e 542e d83e a549 a8bd e44f 61be
00000310: 2c21 f3bd 30db 1fbe 80b6 ab3e 859a ca3d
00000320: eeaf 2ebe 0bc6 133e 5142 303f 929b 6bbe
00000330: dd59 c33e 3713 2e3e 0103 103d 948a 963e
00000340: 5b09 9fbe 97e0 5e3e d4b3 a73e 4507 213e
00000350: e030 b6be ceb7 f6be 61f3 063e b53e 873e
00000360: 75d4 93be bff5 84bd 4ba5 0bbf f87f 89bd
00000370: 0fb6 f5bd 8f8f 3e3d a572 a4bc 546d edbe
00000380: 6055 a13e fb67 eabe 5d45 613e b09d 7ebe
00000390: bca7 6dbe f5b4 a5be 25d6 2e3e 0147 003f
000003a0: b8d8 cebd 8b80 5bbe a9fa 69be f7ec 2dbe
000003b0: f3c0 093e e3b0 2bbd cb08 d5bd ef99 89be
000003c0: 6638 983e 7414 013e c0b4 453e ec3e eb3c
000003d0: dfad 18bd 2dce c33e ca1f 12be 7390 693e
000003e0: fa01 933e dbe7 ed3d 68c4 0b3e 325b 6b3e
000003f0: d306 9dbd 7862 403e e7db a9bd a2d5 8dbc

conv_ensemble_1.0.bias f4 [16]
-0.41324914 -0.19052625 0.058931384 0.07458958 -0.18462272 -0.27458733 -0.28760493 -0.5204956
0.1272452 0.124057576 -0.06547121 -0.038496695 0.14962107 0.10051396 0.019164864 0.044503603
00000000: 6495 d3be 5019 43be 0962 713d 6cc2 983d
00000010: bd0d 3dbe b696 8cbe f440 93be 333f 05bf
00000020: 914c 023e e611 fe3d c515 86bd b6ae 1dbd
00000030: 4436 193e 43da cd3d a2ff 9c3c 6949 363d

conv_ensemble_2.0.weight f4 [32, 16, 5, 5]
0.24348506 -0.06604518 -0.00723795 -0.02140595 -0.08964515 -0.08875922 -0.015386529 0.1468702
-0.060899004 -0.23675556 -0.02798475 -0.02509439 0.09478164 0.05735796 0.008694768 -0.21089184
-0.049543966 0.014461198 0.0399672 0.141351 -0.06735114 -0.08372541 -0.05007542 0.004322508
0.089919224 0.0033636773 -0.069341585 -0.16193794 0.10342631 0.052349452 0.044707455 -0.10645799
0.016592085 0.027529936 0.022116302 -0.118282825 -0.120938376 -0.14029267 -0.13097082 0.09642629
-0.12729995 0.0068453485 -0.17509049 -0.16197821 0.054271314 0.17984103 -0.12227333 -0.18057801
-0.0990958 0.0541614 0.0367183 -0.114948064 -0.057937402 0.088176385 -0.13827996 0.03395326
0.026406864 0.05113539 -0.1581505 0.032400668 -0.028741568 -0.09189912 -0.18636732 -0.104840055
0.02433303 0.28336644 0.077575095 -0.03554975 -0.04264315 0.01753384 0.254193 0.054341376
-0.03760432 0.065407544 -0.11125627 -0.074569225 -0.17224102 -0.06296676 -0.10574546 -0.02110826
-0.060987104 0.065613955 -0.13745613 -0.16394375 -0.049297825 -0.0338653 0.02799911 -0.16962144
-0.09444298 -0.15014721 -0.09745928 0.095206186 -0.06531314 -0.08623842 -0.0845601 -0.19026405
0.060243513 0.021733157 -0.08704192 -0.0075438498 -0.1457227 -0.16014251 -0.039292354 0.24968709
0.25274637 0.013861856 -0.20319934 -0.21552326 -0.016939918 0.17831178 0.014665645 -0.11931239
-0.1400251 -0.19254047 -0.030053113 0.062301505 0.13840477 -0.01727423 0.047537137 0.14719614
0.037694275 0.17178527 0.12626804 0.07715865 0.15808408 0.035818875 -0.07378674 -0.12650752
-0.028457392 0.2379849 -0.11678994 -0.12273773 -0.07730588 -0.006666549 0.008520836 0.016683653
-0.027810305 -0.21478212 -0.06321989 -0.057776216 -0.0045649176 0.03585183 -0.009903613 -0.043259334
-0.026438162 -0.0040377835 -0.02414938 0.114001386 -0.006154982 -0.025176646 -0.0980677 -0.016852722
0.22333433 0.14097166 0.22649853 -0.104166664 -0.060262527 0.06452223 0.06930793 0.09567438
-0.054308485 -0.051218633 -0.116483144 -0.112306595 0.119270705 -0.101024635 0.00035235862 -0.07800827
-0.12832452 0.07973979 -0.09476378 0.002888887 0.056598324 0.035919145 0.1018923 0.09987842
-0.056364153 -0.1315641 -0.22124875 -0.036827803 -0.046397265 -0.1168114 0.068619154 -0.14553238
-0.116212375 0.039508086 -0.07082932 -0.03020274 -0.05184898 -0.08198682 -0.08612384 0.020748463
0.10469194 0.089635745 0.07301306 -0.12833123 -0.10659227 0.024430636 0.14317925 0.12250972
-0.06528083 -0.13861762 -0.09646382 -0.059661154 -0.050207358 0.085695654 -0.047114085 0.012231945
-0.037213013 -0.12438657 0.027586095 -0.018798808 -0.18699446 -0.15066984 -0.0007259016 -0.017598325
0.17241344 -0.0404349 -0.16469418 -0.12570626 0.0773814 0.12132978 -0.13077372 -0.03600865
-0.04460366 0.11459455 0.040953197 0.04366597 0.07830236 0.015111045 -0.15699178 0.108368576
0.3248741 0.09381738 -0.05650604 -0.23788275 -0.06074573 0.06655546 0.007300311 0.17187904
-0.19308724 -0.19484086 -0.12464706 -0.015104909 0.15407556 -0.08511685 -0.11054526 -0.10974913
0.058044624 0.14729182 0.12180941 0.022446034 0.094424345 0.052965485 -0.146616 0.126557
00000000: 2654 793e b242 87bd 532c edbb 885b afbc
00000010: e097 b7bd 65c7 b5bd c817 7cbc 2465 163e
00000020: 3c71 79bd 0d70 72be 4640 e5bc c092 cdbc
00000030: e01c c23d 2ef0 6a3d 8074 0e3c 08f4 57be
00000040: 9dee 4abd a9ee 6c3c a6b4 233d 51be 103e
00000050: 65ef 89bd 3a78 abbd e21b 4dbd d3a3 8d3b
00000060: 9227 b83d 2471 5c3b f602 8ebd 0fd3 25be
00000070: 2cd1 d33d 616c 563d 2a1f 373d a606 dabd
00000080: 20ec 873c 7686 e13c 3f2d b53c 443e f2bd
00000090: 8aae f7bd e2a8 0fbe 371d 06be 267b c53d
000000a0: eb5a 02be f24e e03b ec4a 33be 9edd 25be
000000b0: 994b 5e3d 3f28 383e 716a fabd 71e9 38be
000000c0: bdf2 cabd 58d8 5d3d ee65 163d e469 ebbd
000000d0: c54f 6dbd d295 b43d 4399 0dbe 9312 0b3d
000000e0: 3553 d83c 5873 513d 34f2 21be 90b6 043d
000000f0: 7073 ebbc 9b35 bcbd 13d7 3ebe 62b6 d6bd
00000100: 1056 c73c 6815 913e b1df 9e3d 9d9c 11bd
00000110: 95aa 2ebd 21a3 8f3c 9625 823e 1095 5e3d
00000120: fd06 1abd 64f4 853d 54da e3bd c0b7 98bd
00000130: f35f 30be b7f4 80bd 1391 d8bd 3beb acbc
00000140: 9dcd 79bd 9c60 863d 4dc1 0cbe dfe0 27be
00000150: 84ec 49bd 57b6 0abd 645e e53c 3eb1 2dbe
00000160: 526b c1bd 31c0 19be bb98 c7bd 76fb c23d
00000170: e5c2 85bd c59d b0bd d92d adbd 94d4 42be
00000180: e7c1 763d bc09 b23c 0943 b2bd 6632 f7bb
00000190: 5538 15be 66fc 23be 05f1 20bd f9ad 7f3e
000001a0: f967 813e d71c 633c 7d13 50be 21b2 5cbe
000001b0: 95c5 8abc 5d97 363e 2c48 703c 0e5a f4bd
000001c0: bd62 0fbe 5429 45be f231 f6bc dd2f 7f3d
000001d0: fbb9 0d3e b082 8dbc 4db6 423d 96ba 163e
000001e0: 5065 1a3d 7ae8 2f3e 694c 013e 5b05 9e3d
000001f0: cbe0 213e d0b6 123d 811d 97bd 308b 01be
00000200: 7a1f e9bc 50b2 733e 902f efbd eb5d fbbd
00000210: 8c52 9ebd 1173 dabb fa9a 0b3c 28ac 883c
00000220: 70d2 e3bc d8ef 5bbe 6e79 81bd c1a6 6cbd
00000230: 4e95 95bb 5ed9 123d c342 22bc b330 31bd
00000240: d894 d8bc 624f 84bb ecd4 c5bc 8f79 e93d
00000250: bbaf c9bb 413f cebc b8d7 c8bd b80e 8abc
00000260: c1b1 643e e05a 103e 3bef 673e 5555 d5bd
00000270: d7d5 76bd 3b24 843d 51f1 8d3d eef0 c33d
00000280: 9372 5ebd a1ca 51bd b78e eebd 0001 e6bd
00000290: 3344 f43d 01e6 cebd c6bc b839 cdc2 9fbd
000002a0: 8167 03be 9d4e a33d 8313 c2bd 7b53 3d3b
000002b0: a5d3 673d f41f 133d e9ac d03d 0f8d cc3d
000002c0: 19de 66bd bdb8 06be 088f 62be c0d8 16bd
000002d0: 0f0b 3ebd d13a efbd 3388 8c3d 7106 15be
000002e0: c100 eebd 3bd3 213d f60e 91bd bd6b f7bc
000002f0: 995f 54bd b5e8 a7bd b261 b0bd aef8 a93c
00000300: ba68 d63d f292 b73d df87 953d 4369 03be
00000310: 0c4d dabd c222 c83c 959d 123e 60e6 fa3d
00000320: f5b1 85bd c7f1 0dbe d38e c5bd 415f 74bd
00000330: 3ba6 4dbd 3481 af3d b3fa 40bd 7f68 483c
00000340: ac6c 18bd 63be febd 3cfc e13c f5ff 99bc
00000350: 7a7b 3fbe 3249 1abe 6f4a 3eba 5d2a 90bc
00000360: 268d 303e 119f 25bd 97a5 28be 24b9 00be
00000370: 247a 9e3d bf7b f83d 8ce9 05be ce7d 13bd
00000380: 54b2 36bd 8cb0 ea3d 8abe 273d 17db 323d
00000390: fd5c a03d 5194 773c 74c2 20be 58f0 dd3d
000003a0: e655 a63e 5423 c03d e172 67bd 8997 73be
000003b0: 84d0 78bd 3b4e 883d 7237 ef3b 0f01 303e
000003c0: a9b8 45be 5d84 47be f546 ffbd 957a 77bc
000003d0: fcc5 1d3e be51 aebd 8e65 e2bd 27c4 e0bd
000003e0: 33c0 6d3d abd3 163e 3677 f93d bfe0 b73c
000003f0: 8d61 c13d 56f2 583d 8122 16be 2998 013e

conv_ensemble_2.0.bias f4 [32]
-0.07948783 0.010982723 -0.051869363 0.051759187 0.051757023 -0.034421366 0.027357126 -0.061772756
-0.0015283837 -0.04691251 0.070346564 -0.01786385 0.017209183 -0.0063924612 -0.09223233 -0.08272664
-0.010956384 -0.06538628 -0.07760111 -0.019545706 -0.039648846 -0.04280586 -0.008092657 0.0029503943
-0.07505188 -0.0022439472 -0.075591125 -0.15241265 -0.16800725 -0.02818184 0.0030798367 -0.0519742
00000000: 84ca a2bd e1f0 333c f874 54bd 7101 543d
00000010: 2cff 533d 6bfd 0cbd 0d1c e03c 6e05 7dbd
00000020: 0c54 c8ba 5527 40bd dc11 903d 3557 92bc
00000030: 46fa 8c3c da77 d1bb 4ee4 bcbd 966c a9bd
00000040: 6882 33bc 3ee9 85bd 55ed 9ebd 511e a0bc
00000050: d466 22bd 3355 2fbd 1097 04bc 675b 413b
00000060: cdb4 99bd 300f 13bb 85cf 9abd 1012 1cbe
00000070: 180a 2cbe 9add e6bc 16d7 493b e6e2 54bd

fully_connected_layer.weight f4 [10, 1568]
-0.075340144 0.109502696 0.027714483 0.11129987 -0.005881211 0.014148331 -0.11586271 0.054856446
0.0027911991 0.1272856 -0.24239431 0.30016348 0.17810364 0.047193535 0.08497518 0.039165854
0.22036597 -0.04949845 -0.045859855 0.04923373 -0.04134966 0.036776062 0.01985749 0.077087276
0.04053019 -0.07122652 -0.06882145 -0.08520537 -0.025576562 -0.03287856 0.03409836 -0.0873472
-0.05565825 0.11508875 -0.13514605 -0.036538973 -0.19348025 0.06581458 0.048798546 -0.05822919
0.13713343 -0.097169764 -0.06653958 -0.007848266 0.0085098995 0.05482092 -0.028652664 0.21883382
-0.07470139 0.02916587 0.21273969 -0.109049074 0.019525979 -0.09551863 -0.009732401 0.15508197
0.008573709 -0.01803952 0.116954274 -0.18331969 -0.15795863 -0.14742263 -0.04609509 -0.040248998
-0.0046536494 -0.09517157 -0.165406 -0.10326879 0.093800105 0.03541453 0.080822654 -0.023217544
-0.019671028 -5.2222953e-05 0.071205206 -0.007859509 0.018067902 0.1165255 -0.10407843 0.20704983
0.10629946 0.13076887 -0.07337207 0.09643015 0.0327985 -0.11984378 0.061665554 0.023063531
-0.012540657 0.03026793 0.008793475 0.0035194526 -0.14804977 -0.13866991 -0.0016335323 -0.071210176
0.16860867 -0.08457852 0.031512722 0.1238334 -0.09238903 0.15797311 0.112639494 -0.017727302
0.119515926 -0.10216446 0.038922384 -0.047671396 -0.122726984 -0.06306804 -0.10024539 -0.035985753
-0.0014117389 -0.058887333 -0.05239122 0.04127171 0.01625638 -0.021964382 -0.009895359 0.077426575
-0.07824413 0.020366065 0.030305894 -0.057380855 -0.041786276 -0.028428711 -0.05362203 0.005770873
-0.009278883 0.005346726 0.09887908 -0.050675165 0.0073551624 -0.130476 0.124592826 -0.07336096
-0.039809916 0.037269574 -0.010101064 0.20496741 -0.103051096 -0.0044605252 -0.0017702738 -0.05518641
0.024122685 0.12495012 0.044089273 0.012932351 -0.037844867 0.024919389 0.064220436 0.048951413
-0.031560373 -0.01459907 -0.06729358 -0.05069113 -0.005999023 0.11238281 -0.012910105 0.029850643
0.049008243 0.15449567 0.014039411 0.010824266 0.075161144 0.05203534 0.023065686 -0.026005892
0.11727438 -0.13658956 -0.0023227194 -0.017148076 0.028004715 0.010598249 -0.025641691 0.016892707
-0.029960977 -0.01861224 -0.018399395 -0.0059846784 -0.015409975 -0.0037899045 0.05329565 -0.028637396
0.011396211 0.040077087 0.0023444712 -0.0011296914 0.009365915 -0.07671697 -0.011350274 0.0032003368
-0.008557546 -0.008318129 -0.1326942 -0.067448765 0.006625256 -0.03999695 -0.020636307 0.07111792
-0.02065453 0.008354349 -0.123961985 -0.11203069 -0.19208232 -0.07588943 -0.052827332 0.0067751952
-0.13247514 -0.09300042 0.1656069 0.0086173 -0.050293427 -0.039704137 0.006217319 0.026527386
0.06345748 0.17126769 0.096998565 -0.05272385 0.1388047 -0.07457573 0.09922648 0.20743516
-0.064928256 0.0128945075 0.14630465 0.17997067 -0.015971394 0.093624115 -0.070002146 0.07413529
-0.028664887 0.16350661 0.008928087 0.112319194 0.062313516 0.0018081336 0.07440022 0.06793618
-0.15898389 -0.120952055 -0.058459528 0.022785416 -0.10785753 -0.11401395 -0.021760857 -0.048787795
-0.03009746 -0.045454293 -0.0056350394 -0.0028805272 0.017973455 -0.123243615 -0.03271256 0.05810649
00000000: ef4b 9abd f342 e03d 7c09 e33c 30f1 e33d
00000010: 2cb7 c0bb 67ce 673c 6e49 edbd 27b1 603d
00000020: 8dec 363b 2857 023e 3736 78be 07af 993e
00000030: cd60 363e 024e 413d 7807 ae3d 606c 203d
00000040: 9ea7 613e e3be 4abd 8bd7 3bbd 4fa9 493d
00000050: 435e 29bd 7fa2 163d 2dac a23c efdf 9d3d
00000060: fc02 263d 36df 91bd 43f2 8cbd 2780 aebd
00000070: f085 d1bc abab 06bd b9aa 0b3d 17e3 b2bd
00000080: e8f9 63bd a7b3 eb3d ba63 0abe e4a9 15bd
00000090: b01f 46be cbc9 863d fce0 473d bb81 6ebd
000000a0: b56c 0c3e f100 c7bd e745 88bd 0396 00bc
000000b0: 1b6d 0b3c e78b 603d feb8 eabc f915 603e
000000c0: 0bfd 98bd 43ed ee3c 6fd8 593e 1f55 dfbd
000000d0: f2f4 9f3c 469f c3bd a674 1fbc cfcd 1e3e
000000e0: be78 0c3c 9ec7 93bc b985 ef3d 28b8 3bbe
000000f0: e8bf 21be f5f5 16be 35ce 3cbd 22dc 24bd
00000100: a47d 98bb 50e9 c2bd 3160 29be 967e d3bd
00000110: 451a c03d d40e 113d 5986 a53d b832 bebc
00000120: 2325 a1bc f809 5bb8 09d4 913d 2cc5 00bc
00000130: 2303 943c eca4 ee3d 1227 d5bd df04 543e
00000140: 88b3 d93d 46e8 053e 1944 96bd 2c7d c53d
00000150: b857 063d a870 f5bd 0595 7c3d bbef bc3c
00000160: 5477 4dbc 73f4 f73c 8212 103c 9ea6 663b
00000170: 5c9a 17be 7cff 0dbe 401c d6ba a4d6 91bd
00000180: c0a7 2c3e 8137 adbd 7c13 013d 5e9c fd3d
00000190: 7636 bdbd b4c3 213e 89af e63d d938 91bc
000001a0: c4c4 f43d 9a3b d1bd 146d 1f3d 1543 43bd
000001b0: 4958 fbbd d129 81bd 744d cdbd cc65 13bd
000001c0: 190a b9ba d833 71bd 2d98 56bd 860c 293d
000001d0: 1a2c 853c a6ee b3bc 2520 22bc d391 9e3d
000001e0: 753e a0bd bcd6 a63c 1144 f83c 3008 6bbd
000001f0: 1628 2bbd 54e3 e8bc c6a2 5bbd 9719 bd3b
00000200: 7506 18bc 9733 af3b 1d81 ca3d c390 4fbd
00000210: 9303 f13b 809b 05be 862a ff3d 453e 96bd
00000220: b90f 23bd fba7 183d ef7e 25bc fae2 513e
00000230: 740c d3bd 9929 92bb 8808 e8ba 250b 62bd
00000240: f09c c53c d9e5 ff3d f496 343d 36e2 533c
00000250: 3803 1bbd bf23 cc3c 0186 833d 4781 483d
00000260: 7345 01bd f030 6fbc 37d1 89bd 81a1 4fbd
00000270: 7493 c4bb f528 e63d e884 53bc 5689 f43c
00000280: debc 483d 1d34 1e3e 8f05 663c 4358 313c
00000290: 16ee 993d 0223 553d 40f4 bc3c 4f0a d5bc
000002a0: 8d2d f03d 22de 0bbe c438 18bb 1f7a 8cbc
000002b0: 256a e53c 47a4 2d3c 860e d2bc 9362 8a3c
000002c0: b970 f5bc b278 98bc 54ba 96bc 1f1b c4bb
000002d0: 1f7a 7cbc 0c60 78bb 8a4c 5a3d f998 eabc
000002e0: 2cb7 3a3c df27 243d b3a5 193b 2712 94ba
000002f0: 7f73 193c c91d 9dbd 80f6 39bc bebc 513b
00000300: f334 0cbc c348 08bc fde0 07be 9422 8abd
00000310: ad18 d93b d8d3 23bd 790d a9bc 46a6 913d
00000320: b033 a9bc aee0 083c c8df fdbd 5970 e5bd
00000330: 3ab1 44be eb6b 9bbd 7961 58bd 7502 de3b
00000340: 90a7 07be 0177 bebd db94 293e 932f 0d3c
00000350: 7b00 4ebd cea0 22bd a7ba cb3b f64f d93c
00000360: fff5 813d cc60 2f3e 2fa7 c63d f7f4 57bd
00000370: d222 0e3e 29bb 98bd 4137 cb3d e269 543e
00000380: 1bf9 84bd 7c43 533c e3d0 153e 3b4a 383e
00000390: 71d6 82bc 00be bf3d 495d 8fbd 3ed4 973d
000003a0: a0d2 eabc 476e 273e 1c47 123c 9b07 e63d
000003b0: 753c 7f3d e5fe ec3a 245f 983d 2022 8b3d
000003c0: accc 22be b6b5 f7bd 4273 6fbd 7ba8 ba3c
000003d0: 69e4 dcbd 2580 e9bd d343 b2bc b6d5 47bd
000003e0: f38e f6bc 482e 3abd 23a6 b8bb 3ac7 3cbb
000003f0: 113d 933c 2667 fcbd 9bfd 05bd 1201 6e3d

fully_connected_layer.bias f4 [10]
0.017783144 -0.043699164 0.11886219 -0.011565371 0.019251578 -0.09382088 0.12242476 0.01628963
-0.04319473 -0.065596886
00000000: f5ad 913c e5fd 32bd 056e f33d af7c 3dbc
00000010: 7cb5 9d3c 2925 c0bd d5b9 fa3d d571 853c
00000020: f5ec 30bd a957 86bd
