Homework/2_Auto_Diff/models/model_parms_case_2.pt (torch, 117911 bytes, 6 tensors)

conv_ensemble_1.0.weight f4 [16, 1, 5, 5]
0	0x3e14ad40	0.14519215
1	0x3b5f25fe	0.0034049745
2	0x3eae1ff3	0.3400875
3	0x3e66dfef	0.22546361
4	0xbdb384d6	-0.08765571
5	0x3e822c40	0.25424385
6	0xbc49c4b7	-0.012314967
7	0x3e5c701a	0.21527138
8	0x3e8dc1c5	0.27686897
9	0xbe1c05da	-0.15236607
10	0x3e91cbbf	0.28475758
11	0xbd3efad9	-0.046625946
12	0x3e17f8a0	0.14840937
13	0x3e067c98	0.13133466
14	0xbe5230eb	-0.20526473
15	0x3db47cff	0.088129036
16	0xbc236c4f	-0.009974553
17	0x3d91af9d	0.07113574
18	0x3d6b1ad0	0.057398617
19	0xbe143d76	-0.1447657
20	0xbe5aaa9b	-0.21354143
21	0x3deac1b5	0.11462728
22	0xbdf527ec	-0.11970505
23	0xbe2d3a8a	-0.16916862
24	0xbe919ef0	-0.28441572
25	0xbe8e3b51	-0.2777963
26	0x3cbb9ec8	0.022902861
27	0x3e6c8339	0.23096932
28	0x3f0a3f1e	0.5400256
29	0x3edd96b6	0.43279046
30	0xbe9e55e5	-0.30924907
31	0xbe5f44b5	-0.21803553
32	0x3d0679ba	0.03283093
33	0x3ece5bb6	0.40304345
34	0x3e471d6f	0.19444822
35	0xbe8d8eaf	-0.2764792
36	0x3ccc1808	0.024913803
37	0x3ec61a89	0.3869212
38	0xbd346553	-0.044041943
39	0xbefff353	-0.4999033
40	0x3b4022a6	0.0029317527
41	0x3e143504	0.14473349
42	0xbe438d82	-0.1909695
43	0xbef20ad9	-0.472739
44	0xbf4f5c58	-0.8100028
45	0x3eeb781e	0.4599008
46	0x3ea25027	0.31701776
47	0xbe2c32e2	-0.16816285
48	0xbeca8199	-0.39552
49	0xbe0a541f	-0.13508652
50	0x3efc9bcb	0.4933761
51	0x3ee37e72	0.44432408
52	0x3e781471	0.24226548
53	0x3dc699c5	0.09697298
54	0x3d2c3d53	0.04205067
55	0x3e3b698a	0.18301979
56	0xbd163462	-0.03667105
57	0xbe459054	-0.19293338
58	0xbe1afa65	-0.1513458
59	0xbd3a3806	-0.045463584
60	0xbce04959	-0.027378725
61	0xbe7e7d1d	-0.24852414
62	0xbe5e952a	-0.21736589
63	0x3d1623d2	0.036655255
64	0x3d8c4687	0.068493895
65	0xbeadc112	-0.33936363
66	0xbe4c050d	-0.19923802
67	0xbdd1f339	-0.10251469
68	0xbe00503f	-0.12530611
69	0x3ca39b1e	0.019971427
70	0xbea373e3	-0.31924352
71	0xbea924c8	-0.33035874
72	0xbd9889b2	-0.07448138
73	0xbcbb20a6	-0.022842716
74	0x3e0a6c26	0.13517818
75	0xbf2f3205	-0.684357
76	0xbf11a069	-0.5688539
77	0xbe8387fd	-0.25689688
78	0xbd599153	-0.053117108
79	0x3e16c560	0.1472373
80	0xbe0d3525	-0.13789804
81	0xbeeb7053	-0.45984134
82	0xbe9b414e	-0.3032326
83	0xbe1965ea	-0.14980283
84	0xbe2336f8	-0.15938938
85	0x3ea259e9	0.3170922
86	0xbe80a0e9	-0.25122765
87	0x3d1394ba	0.03603051
88	0x3e7536da	0.23946705
89	0x3ccb9633	0.024851894
90	0x3e2a57d8	0.16635072
91	0x3c9ef0af	0.019401876
92	0x3e18c722	0.14919713
93	0xbc1f0779	-0.009706371
94	0x3df89d2b	0.121393524
95	0xbcebcf7b	-0.028785458
96	0x3ea36fd2	0.3192125
97	0x3ecd8cfd	0.40146628
98	0x3c490180	0.012268424
99	0x3ee6740b	0.4501041
100	0xbde9130d	-0.11380587
101	0xbe7a0802	-0.24417117
102	0x3ecfa832	0.4055801
103	0x3bc508d9	0.0060130176
104	0x3d2441cc	0.04010181
105	0x3d679a28	0.0565435
106	0x3e2fb9d4	0.17160732
107	0x3f1f9110	0.6233072
108	0xbe48d55a	-0.19612637
109	0xbe97b277	-0.29628345
110	0xbb419b94	-0.0029542195
111	0x3e636cb4	0.22209436
112	0x3e9df737	0.30852672
113	0xbf670abf	-0.9025077
114	0x3debff57	0.115233116
115	0x3dc11331	0.094274886
116	0x3d9b93e4	0.07596567
117	0xbd619cac	-0.055081055
118	0xbf3332cb	-0.6999938
119	0x3eacf09f	0.3377733
120	0x3dd9389d	0.10606501
121	0x3e37d750	0.17953229
122	0xbebde068	-0.3708527
123	0xbe6b7177	-0.22992502
124	0x3f057c2c	0.52142596
125	0xbdac4f7f	-0.084136
126	0x3db5f9a0	0.08885503
127	0x3e81525f	0.25258157
128	0xbdfd757f	-0.12375926
129	0xbd248475	-0.040165383
130	0xbe92ab4b	-0.2864631
131	0xbea2f491	-0.31827214
132	0x3ec065a6	0.37577552
133	0x3dc9d673	0.09855356
134	0xbe6ba74c	-0.23013037
135	0x3e8bc0cb	0.27295527
136	0xbf676778	-0.90392256
137	0xbdd5913c	-0.10428092
138	0x3f737579	0.95101124
139	0xbea7bc85	-0.32761016
140	0x3e5d34dd	0.21602197
141	0xbf494ea2	-0.7863561
142	0xbe171c10	-0.14756799
143	0x3f0d04de	0.5508555
144	0x3b7a5b44	0.0038201371
145	0x3e0262f4	0.1273306
146	0x3e040dd5	0.12895902
147	0xbe4f82b5	-0.20264705
148	0x3e02afbc	0.1276235
149	0xbc8f7a44	-0.017514355
150	0x3e3ccc18	0.1843723
151	0xbea851fb	-0.32875046
152	0xbea800c7	-0.32813093
153	0xbdbe11bc	-0.09280726
154	0x3e8405f9	0.25785807
155	0x3edb83aa	0.4287389
156	0x3e9c16be	0.304861
157	0x3e569e19	0.20958747
158	0x3dbf3ad6	0.09337394
159	0x3e80d39d	0.25161448
160	0x3d6ecc4a	0.058300294
161	0xbe7d1202	-0.247139
162	0xbf0fb0d3	-0.5612919
163	0xbf03ff3d	-0.5156134
164	0xbc710b5d	-0.014712182
165	0xbd2524d7	-0.040318336
166	0x3e891db4	0.26780474
167	0x3d6aa560	0.05728662
168	0xbed1f267	-0.4100525
169	0xbe37af55	-0.17937978
170	0x3d20ae3a	0.039228655
171	0x3e748d85	0.2388211
172	0x3c76236f	0.015023096
173	0xbe2e2f15	-0.17010148
174	0xbe200d64	-0.15630108
175	0x3db513cd	0.08841667
176	0xbd3092cd	-0.04310875
177	0xbe620fe0	-0.22076368
178	0xbe67432d	-0.2258422
179	0x3e6af548	0.2294513
180	0xbf1231e8	-0.571074
181	0xbe7411d3	-0.23834924
182	0x3e88c314	0.26711333
183	0xbe00ba6b	-0.12571113
184	0x3dbb71c5	0.09152559
185	0xbde3e3c9	-0.11127431
186	0x3f059c1b	0.52191323
187	0x3f1fb444	0.6238444
188	0x3d045c38	0.03231451
189	0x3e8f4a22	0.27986246
190	0x3f11f12f	0.5700864
191	0xbe80bec2	-0.25145537
192	0xbf329e59	-0.6977287
193	0xbda693a6	-0.081336305
194	0x3cb70cc7	0.02234496
195	0x3da80631	0.08204306
196	0xbe0f9f81	-0.1402569
197	0x3e809423	0.2511302
198	0x3e8995e3	0.26872167
199	0xbefa30ea	-0.48865443
200	0x3ea36b8f	0.31917998
201	0xbd5f45af	-0.054509815
202	0xbe8d3681	-0.27580646
203	0xbdba9fa4	-0.0911248
204	0x3e835116	0.256478
205	0xbe944163	-0.28956136
206	0xbe243d19	-0.16038932
207	0xbea51cd9	-0.32248572
208	0x3d01a424	0.031650677
209	0x3ef875ac	0.48527277
210	0xbd892d50	-0.06698096
211	0xbe571f7e	-0.21008107
212	0xbea5e862	-0.32403857
213	0x3d0146d7	0.0315617
214	0x3ef8fe0b	0.4863132
215	0x3ddde85b	0.10835334
216	0x3c5439ab	0.012953202
217	0x3d8f43a8	0.06995326
218	0xbd316932	-0.043313213
219	0xbd0207a8	-0.031745583
220	0x3b9726f8	0.0046127997
221	0xbcc51422	-0.024057452
222	0x3d1c0f8b	0.03810076
223	0x3d34a415	0.044101793
224	0x3e08dfa3	0.1336656
225	0xbe5e9445	-0.21736248
226	0x3dae28fc	0.08503911
227	0x3e801040	0.25012398
228	0x3e256b64	0.16154248
229	0x3e77fed4	0.24218303
230	0xbf039573	-0.51399916
231	0xbe9edfbe	-0.31030077
232	0x3d85d0ba	0.06533952
233	0x3e4a5083	0.19757275
234	0x3eadcafc	0.33943927
235	0xbf0337df	-0.5125713
236	0xbe5d78d7	-0.21628128
237	0x3d09ea5f	0.03367078
238	0x3e915028	0.28381467
239	0x3e7a7727	0.24459516
240	0xbe3451bb	-0.17609303
241	0xbe5a7ed0	-0.21337438
242	0xbd40bd00	-0.047055244
243	0x3d91e20d	0.07123194
244	0x3d282b5a	0.04105697
245	0x3e0df07f	0.13861273
246	0xbe93c63f	-0.28862187
247	0xbe974132	-0.29541928
248	0xbe9430be	-0.28943437
249	0xbebc0852	-0.36725098
250	0x3d88e566	0.06684379
251	0x3dd822da	0.105535224
252	0x3ecb5a76	0.39717454
253	0x3e982b3b	0.29720482
254	0x3dc5705e	0.09640573
255	0xbd88d130	-0.06680524

conv_ensemble_1.0.bias f4 [16]
0	0xbe4da7a9	-0.20083489
1	0xbf7a081f	-0.9766864
2	0xbf13d2a8	-0.5774331
3	0xbf8c1f0f	-1.0946978
4	0xbebb8804	-0.3662721
5	0xbe75660e	-0.23964712
6	0xbf65411a	-0.8955246
7	0xbd282c87	-0.04105809
8	0xbea7ee5c	-0.3279904
9	0xbfad6c31	-1.3548642
10	0xbeb918d8	-0.36151767
11	0xbf0ab112	-0.5417644
12	0xbe785d94	-0.24254447
13	0xbfe90d30	-1.820715
14	0xbeb87b05	-0.36031356
15	0xbe93de45	-0.28880516

conv_ensemble_2.0.weight f4 [32, 16, 5, 5]
0	0x3d522b88	0.051311046
1	0x3e31d640	0.17366886
2	0x3dddabba	0.1082377
3	0x3bc87bef	0.0061182897
4	0x3d84df5f	0.06487917
5	0x3deac5b8	0.11463493
6	0x3d84f3aa	0.06491788
7	0x3d053f39	0.032530997
8	0xbcb39c09	-0.02192499
9	0xbd8966c0	-0.06709051
10	0x3e14e46a	0.14540258
11	0xbd44c4cc	-0.048039243
12	0x3cabe660	0.020983875
13	0xbdbe77ac	-0.09300169
14	0xbe8fb1af	-0.2806525
15	0x3d20af57	0.039229717
16	0x3dd8d6e8	0.10587865
17	0xbd416bef	-0.047222074
18	0xbe38fcfd	-0.18065257
19	0xbe7e01e9	-0.24805416
20	0x3de3a606	0.11115651
21	0x3cceb92f	0.025234787
22	0xbd96b12a	-0.0735801
23	0xbea3cef5	-0.31993833
24	0xbe5fa71d	-0.21841092
25	0xbbbbbb6c	-0.0057291295
26	0xbe05fcde	-0.13084742
27	0xbdf0a714	-0.117506176
28	0x3c4503c4	0.012024824
29	0x3e0bc0a0	0.136477
30	0xbe07b4bf	-0.13252543
31	0xbe3a2248	-0.1817714
32	0xbe5c115c	-0.21490997
33	0xbe3a9337	-0.1822022
34	0x3d869b5e	0.06572603
35	0xbda672f0	-0.08127391
36	0xbd46f584	-0.048573986
37	0xbd47ea4d	-0.04880743
38	0x3c9992a7	0.018746687
39	0x3dff9943	0.12480404
40	0xbdea0154	-0.114260346
41	0x3d8657c2	0.06559707
42	0xbdc65220	-0.09683633
43	0xbc821adb	-0.015881946
44	0x3e21e4ab	0.15809886
45	0x3d36affd	0.04460143
46	0x3e4d1f1c	0.20031399
47	0xbeb9e0ff	-0.3630447
48	0x3bb210c4	0.0054341275
49	0x3e7ded07	0.2479745
50	0xbd91dab8	-0.071217954
51	0xbb5cb2cb	-0.0033675905
52	0x3d271c02	0.040798195
53	0xbc50a2bd	-0.012734112
54	0x3d9ff9dd	0.078113295
55	0x3cb2dcc6	0.021833789
56	0xbd59cd24	-0.053174153
57	0xbdc25a70	-0.09489906
58	0xbdff4356	-0.12464015
59	0xbd99d9ca	-0.07512243
60	0xbdc7e48d	-0.097603895
61	0xbd3b57cc	-0.045738026
62	0xbde16267	-0.11005097
63	0x3c188c18	0.009310745
64	0xbdc01cc3	-0.09380486
65	0x3cef4a17	0.029210133
66	0xbd041f24	-0.03225626
67	0x3c33ab27	0.010966099
68	0x3d9aa324	0.07550648
69	0xbdcb8ae9	-0.099386044
70	0xbcfda196	-0.03096084
71	0x3e007daf	0.12547944
72	0x3d06121f	0.032732125
73	0x3a955a32	0.0011394678
74	0xbe3525bf	-0.1769018
75	0x3d84c6e4	0.06483248
76	0x3d242789	0.040076766
77	0xbd1b6edb	-0.037947517
78	0xbd253eca	-0.040343083
79	0xbde8ffa5	-0.11376885
80	0xbd671cd5	-0.05642398
81	0x3dbbc407	0.091682486
82	0xbc28dd37	-0.010306648
83	0x3b865162	0.004099057
84	0x3cb37a7d	0.021908993
85	0xbe41463c	-0.18874449
86	0x3e00a868	0.12564242
87	0x3da29a91	0.079396375
88	0xbdbd8348	-0.092535555
89	0x3b04ccdb	0.0020263705
90	0x3c9b9bd1	0.018995197
91	0x3e394753	0.18093614
92	0xbe1f0b93	-0.15531759
93	0xbe35fe49	-0.17772783
94	0xbd563213	-0.05229385
95	0x3e16a106	0.14709863
96	0x3df70f41	0.12063456
97	0xbdd091a4	-0.10184029
98	0xbe61bf29	-0.22045578
99	0xbdfa5033	-0.12222328
100	0xbe1f747f	-0.15571783
101	0x3a02066c	0.00049600634
102	0xbe4138ae	-0.18869278
103	0x3e0b1467	0.13582002
104	0xbd6f1618	-0.05837068
105	0xbdfddb1a	-0.12395306
106	0xbe1e80dc	-0.15478843
107	0xbdbbe346	-0.09174208
108	0xbd5e82b6	-0.054323874
109	0xbda379c0	-0.07982206
110	0xbdff3a3b	-0.124622785
111	0xbdc3bed2	-0.095578805
112	0x3ddf5eec	0.10906777
113	0xbd967454	-0.073464066
114	0xbe19fe7a	-0.15038481
115	0x3c82a32f	0.015946953
116	0x3d51a005	0.051177997
117	0x3ecdf847	0.40228483
118	0x3dd15409	0.102211066
119	0xbd569597	-0.052388754
120	0x3e743c5b	0.23851149
121	0xbda6a098	-0.081360996
122	0x3e5da6c5	0.21645649
123	0x3e02eb3d	0.12785049
124	0xbd1956d4	-0.03743632
125	0xbbfc6bbb	-0.007703272
126	0x3c1dc6b4	0.009629894
127	0xbd0eba14	-0.034845427
128	0xbdee987a	-0.11650176
129	0xbe030e2d	-0.12798376
130	0xbe107d30	-0.14110255
131	0xbe45a02c	-0.19299382
132	0xbe18368a	-0.14864555
133	0xbd86d51e	-0.06583618
134	0x3b4c28fd	0.003115236
135	0xbdd8ed0f	-0.1059209
136	0xbe746aee	-0.23868915
137	0xbe386240	-0.1800623
138	0x3e29e3e8	0.16590846
139	0xbda08e2b	-0.078396164
140	0xbdb81170	-0.08987701
141	0xbdd9620b	-0.10614403
142	0xbd4655a5	-0.04842152
143	0x3ef632b9	0.48085573
144	0x3d1ac64a	0.03778676
145	0x3d93767a	0.07200332
146	0xbd2f3fee	-0.042785577
147	0x3cc4d2ee	0.02402636
148	0x3ec4f31b	0.38466725
149	0x3cf89397	0.030343814
150	0x3db8d187	0.09024339
151	0x3e0e644a	0.13905445
152	0xbe009aef	-0.12559102
153	0x3d154d45	0.036450643
154	0x3c63df73	0.013908255
155	0x3ce39759	0.02778213
156	0x3d36e431	0.044651214
157	0xbde2e80c	-0.11079416
158	0xbdd9a34a	-0.10626848
159	0xbd973c27	-0.0738452
160	0x3cf080c3	0.029358273
161	0xbd48a0a7	-0.048981335
162	0x3d51c2d7	0.051211204
163	0xbc981deb	-0.018568953
164	0xbce81dd6	-0.02833454
165	0x3d84aba3	0.064780496
166	0x39751bf8	0.0002337544
167	0x3dbf0254	0.09326616
168	0x3d7ecef0	0.06220907
169	0x3cd1d9fc	0.025616638
170	0xbd5532ed	-0.05205052
171	0xbd3a05b2	-0.045415588
172	0x3e17e296	0.1483253
173	0x3d9a441f	0.07532524
174	0x3e052932	0.13003996
175	0x3ca07495	0.01958684
176	0xbd9ebcd0	-0.07750857
177	0xbdf7deac	-0.12103018
178	0xbdea4b59	-0.11440153
179	0xbca7805d	-0.02044695
180	0xbd92dffb	-0.07171627
181	0xbd0ccb3c	-0.034373507
182	0xbd0080fc	-0.03137301
183	0xbe303387	-0.17207156
184	0xbdc86007	-0.09783941
185	0xbcc2da11	-0.023785623
186	0xbd6e7024	-0.058212414
187	0xbd265e78	-0.040617436
188	0xbd39dbd5	-0.045375664
189	0xbd914ecf	-0.0709511
190	0x3c001f05	0.007819896
191	0x3d6cac7b	0.057781678
192	0x3e529104	0.20563132
193	0x3d7f65fe	0.062353127
194	0x3e02ba8f	0.12766479
195	0xbdfe7ae9	-0.12425787
196	0x3cc3f78a	0.023921747
197	0x3dadd5e1	0.0848806
198	0xbcc26196	-0.023728173
199	0x3e0bd40b	0.13655107
200	0x3cb09544	0.02155555
201	0x3cb09081	0.02155328
202	0x3d9dffaa	0.0771478
203	0x3d207ba4	0.039180413
204	0x3cd58f23	0.02606923
205	0xbd113ccb	-0.035458367
206	0xbd222227	-0.03958335
207	0xbcac124e	-0.021004822
208	0xbde8e314	-0.11371437
209	0xbd2021ad	-0.039094616
210	0xbdeb05eb	-0.11475738
211	0xbd94bd12	-0.07262625
212	0xbd898b31	-0.06716002
213	0xbe0b8692	-0.13625553
214	0xbe0bd116	-0.13653979
215	0xbd3d07cc	-0.046150014
216	0x3c5ccc9b	0.013476516
217	0x3cc86972	0.024464343
218	0xbcb70724	-0.022342272
219	0x3dcf000c	0.10107431
220	0x3db75ef2	0.08953656
221	0xbda5ab25	-0.08089284
222	0x3cbe7c38	0.023252591
223	0x3d40dfb6	0.047088347
224	0xbd14e220	-0.036348462
225	0x3e96d452	0.29458863
226	0x3e2dba07	0.16965495
227	0xbd739e92	-0.059477396
228	0xbd561324	-0.052264348
229	0xbd0454cf	-0.032307442
230	0x3e0c65c0	0.1371069
231	0x3dd3955c	0.103312224
232	0xbde4b4c2	-0.11167289
233	0xbe35ec16	-0.17765841
234	0xbe00b170	-0.12567687
235	0x3d1eb083	0.038742553
236	0x3e0d3e57	0.13793312
237	0xbe63b63e	-0.22237489
238	0xbe74e803	-0.2391663
239	0xbe1df98e	-0.15427229
240	0x3d3d9a42	0.04628969
241	0x3e513890	0.20431733
242	0xbe585350	-0.21125531
243	0xbdc79370	-0.09744918
244	0xbcaa0239	-0.020753013
245	0x3debf65d	0.115215994
246	0x3e3017a4	0.17196518
247	0xbe8b5cf4	-0.27219355
248	0xbdf0337f	-0.11728572
249	0x3deb3a93	0.114857815
250	0x3e1ab106	0.15106592
251	0x39e57eb5	0.00043772688
252	0xbe29bb98	-0.16575468
253	0xbe016825	-0.12637384
254	0xbd7e76ee	-0.06212514
255	0xbc85027b	-0.016236534

conv_ensemble_2.0.bias f4 [32]
0	0xbdaef5b1	-0.08542956
1	0xbde4bf73	-0.111693285
2	0xbea9d989	-0.3317378
3	0xbe4d9222	-0.20075276
4	0xbdfea041	-0.1243291
5	0xbdf82e9a	-0.121182635
6	0x3ea5ceea	0.32384425
7	0x3e310bb0	0.17289615
8	0x3e3b190f	0.18271278
9	0x3ebf88e7	0.37409136
10	0xbe68ac16	-0.22721896
11	0xbdd2aa1c	-0.10286352
12	0xbeb536b6	-0.35393304
13	0xbd51a985	-0.051187057
14	0xbde831d0	-0.11337626
15	0x3ceab529	0.028650837
16	0x3edad543	0.4274083
17	0x3e2bc3d5	0.16773923
18	0x3d918210	0.071048856
19	0x3ea49bcb	0.3215011
20	0x3e1bc1ce	0.1521065
21	0x3f07ec20	0.53094673
22	0xbe121c5c	-0.1426863
23	0x3dd16c05	0.10225681
24	0xbe816b29	-0.2527707
25	0xbf06187b	-0.52381104
26	0x3e8c0caa	0.27353412
27	0x3c0c3396	0.008557221
28	0x3f118d3d	0.5685614
29	0xbea07626	-0.3134014
30	0x3e369c8e	0.17833158
31	0x3c9c000a	0.019042987

fully_connected_layer.weight f4 [10, 1568]
0	0x3d1d0070	0.038330495
1	0x3dc85b15	0.097829975
2	0x3e5c044f	0.21486019
3	0x3e9ef6f3	0.31047782
4	0x3dc1f152	0.09469856
5	0xbe15f37e	-0.14643666
6	0xbd17db3d	-0.037074316
7	0xbd62540a	-0.055255927
8	0xbb9465f8	-0.004528757
9	0x3cbe3196	0.023217004
10	0x3e02c3fc	0.12770075
11	0x3e3f2c3f	0.18669222
12	0x3bbf3f9a	0.0058364393
13	0x3d431ee6	0.04763689
14	0x3e2e70b2	0.17035177
15	0x3e4a1590	0.19734788
16	0xbd5a395a	-0.05327735
17	0xbd8957e3	-0.06706216
18	0xbcc851b1	-0.024453016
19	0x3d4d7bbf	0.05016684
20	0x3e722c06	0.23649606
21	0xbd09abe3	-0.03361119
22	0x3e2fdb9e	0.17173621
23	0x3e39ecab	0.18156688
24	0xbe55adf2	-0.20867136
25	0xbcd8931b	-0.026437333
26	0x3c6a6584	0.01430643
27	0x3d58e032	0.052948184
28	0x3df0eba3	0.11763694
29	0xbdfe4fe0	-0.12417579
30	0xbd6fe897	-0.058571424
31	0xbda2b98f	-0.07945549
32	0xbe25fb71	-0.16209199
33	0xbe08ff39	-0.1337861
34	0xbcc6c69c	-0.024264626
35	0x3c1c4db3	0.009540009
36	0xbe0ce0c7	-0.13757621
37	0xbd306da9	-0.04307333
38	0x3d9435e5	0.07236842
39	0xbe23e884	-0.16006666
40	0xbd67c02d	-0.056579757
41	0xbdef6d26	-0.1169074
42	0xbd030533	-0.03198738
43	0x3d5819ad	0.05275886
44	0x3b9c61b6	0.0047723902
45	0x3ba86674	0.0051391665
46	0x3c431f56	0.011909327
47	0xbde03f95	-0.10949627
48	0x3c9acb6b	0.018895825
49	0xbba9000c	-0.0051574763
50	0xbc0cbecc	-0.008590411
51	0xbd91d3a7	-0.071204476
52	0xbe003f72	-0.12524202
53	0xbe740d1e	-0.23833129
54	0x3d1cfcbe	0.03832697
55	0xbc1bfa43	-0.009520116
56	0xbd9357b0	-0.071944594
57	0xbe03b6da	-0.12862721
58	0xbde39617	-0.11112612
59	0xbdc0172c	-0.0937942
60	0xbc895fd4	-0.016769327
61	0x3d18cfa8	0.03730741
62	0xbb1e4cbf	-0.002415463
63	0x3df21aa8	0.118214905
64	0xbe29f347	-0.16596709
65	0xbe6cddde	-0.2313151
66	0xbd086b59	-0.0333055
67	0x3b727e56	0.0037001572
68	0xbd18d614	-0.037313536
69	0xbca547cb	-0.020175835
70	0x3de3d2f0	0.111242175
71	0xbd25a5c4	-0.04044129
72	0x3ca5f182	0.020256761
73	0x3ddcbe6c	0.107785076
74	0xbcf58d05	-0.02997447
75	0xbdfc0632	-0.12305869
76	0xbc93d878	-0.018047556
77	0x3cdf2bb0	0.027242512
78	0x3d50db2e	0.050990276
79	0x3c7051d0	0.014667943
80	0x3b994cde	0.0046783527
81	0xbd70645e	-0.058689468
82	0x3ae18c8c	0.0017208024
83	0xbcc47ad1	-0.023984345
84	0x3caf75e6	0.021418523
85	0x3e211bfd	0.15733333
86	0x3e0fb600	0.14034271
87	0x3e048dce	0.12944719
88	0x3dc3b408	0.095558226
89	0x3e02c3c8	0.12769997
90	0x3b047b1e	0.0020214985
91	0xbd92c70a	-0.0716687
92	0xbdcb4676	-0.09925549
93	0x3bc04084	0.005867066
94	0x3d813ff0	0.06311023
95	0x3d6dec46	0.058086656
96	0x3cb1d524	0.021708079
97	0x3c0737fb	0.008253093
98	0xbd9a6a69	-0.075398274
99	0x3dc74cf5	0.09731475
100	0xbe06b8c6	-0.13156423
101	0xbde2ea74	-0.11079875
102	0xbd10475a	-0.035224296
103	0x3d917086	0.0710154
104	0xbde5b81a	-0.11216755
105	0xbd5b147d	-0.053486336
106	0xbd1b6ad0	-0.03794366
107	0x3d98c63f	0.074596874
108	0x3c3ac131	0.0113985995
109	0xbdca3648	-0.098736346
110	0xbcb7dde1	-0.022444667
111	0x3cc8ba87	0.024503006
112	0xbd3f078b	-0.046638053
113	0xbdf2cbc2	-0.1185527
114	0xbc491c70	-0.012274846
115	0xbc53537e	-0.012898324
116	0x3d9847dc	0.07435581
117	0xbb03f406	-0.0020134463
118	0x3d39d984	0.045373455
119	0xbc8aa1e0	-0.016922891
120	0xbe14cbec	-0.14530915
121	0x3bd3daef	0.006465308
122	0x3d12bd63	0.035825144
123	0x3beb7aa5	0.007186251
124	0xbdc70753	-0.09718194
125	0xbd496547	-0.04916885
126	0x3bb0ee2e	0.005399487
127	0xbe6ab7ff	-0.22921751
128	0x39c78ab8	0.0003805959
129	0x3d3d249d	0.046177495
130	0x3ded75e5	0.11594752
131	0x3de53a48	0.11192757
132	0x3e3096b2	0.17244986
133	0xbd0c829d	-0.03430425
134	0x3da56432	0.08075751
135	0x3d8353dd	0.0641248
136	0x3d73e8f7	0.059548344
137	0x3e0dd59c	0.13851017
138	0x3e3b6ecd	0.18303986
139	0x3e05d1eb	0.13068359
140	0x3bd9f9bc	0.006652085
141	0x3d9d9ebb	0.07696291
142	0xbe09071b	-0.13381617
143	0xbe1ab2ee	-0.15107319
144	0x3e70c89e	0.2351403
145	0x3df09fef	0.11749255
146	0xbd1a81e4	-0.03772153
147	0x3cea6a8e	0.028615262
148	0xbca7e380	-0.020494223
149	0xba31d261	-0.0006783363
150	0x3d824377	0.06360524
151	0x3dfcc134	0.12341538
152	0x3dd438f2	0.10362424
153	0xbd9b2aa2	-0.07576491
154	0xbdfb8d29	-0.122827835
155	0xbd434904	-0.047677055
156	0xbe0bd0b5	-0.13653834
157	0x3df46b69	0.11934549
158	0x3d48d296	0.049028955
159	0x3d0e9863	0.034813296
160	0x3cf2380b	0.029567739
161	0x3cf7c886	0.030246984
162	0x3e323ba1	0.17405559
163	0xbcfead2b	-0.031088432
164	0xbc7ef665	-0.015561675
165	0xbdf2608d	-0.11834822
166	0x3d1d0027	0.038330223
167	0x3e3e397b	0.18576615
168	0x3e1ee157	0.15515648
169	0x3e52e45f	0.20594929
170	0xbd704c3d	-0.058666456
171	0xbe4f0f9b	-0.20220797
172	0xbd39206c	-0.045196936
173	0xbc577c5a	-0.013152206
174	0xbbdfecac	-0.0068336334
175	0x3cbb112d	0.022835338
176	0x3dd6c616	0.10487001
177	0xbcec8aa1	-0.028874697
178	0xbe16c793	-0.14724569
179	0x3cd0735a	0.025445629
180	0xbe32e2d0	-0.17469335
181	0xbd6f007e	-0.05835008
182	0x3a853bf7	0.0010164966
183	0xbdafc95d	-0.08583329
184	0x3d17dac0	0.03707385
185	0x3b4d4031	0.0031318779
186	0xbdf467c7	-0.119338565
187	0xbe484a83	-0.19559674
188	0xba8969b1	-0.0010483769
189	0xbc6e970d	-0.0145623805
190	0x3d3e08f5	0.04639526
191	0xbd5636da	-0.052298404
192	0x3b6889cd	0.0035482526
193	0xbdcad741	-0.09904338
194	0xbdf683fa	-0.12036891
195	0xbdda8cb0	-0.10671365
196	0x3d76d3d4	0.06026061
197	0x3cd80f13	0.026374375
198	0x3d03cd8d	0.03217845
199	0xbc6f0f15	-0.014590998
200	0xbd140f27	-0.036147263
201	0xbca49e0c	-0.020094894
202	0x3b10a551	0.0022071193
203	0xbb041f0d	-0.002016011
204	0x3cef2c87	0.029196037
205	0x3e607cda	0.21922627
206	0x3d92e1ea	0.07171996
207	0x3c9d28cd	0.019184494
208	0x3c654c70	0.013995275
209	0x3ca6c93e	0.020359632
210	0xbd7cf5a8	-0.061757714
211	0xbd1df5f3	-0.038564634
212	0xbd010603	-0.031499874
213	0x3c02679b	0.007959272
214	0xbdaa3633	-0.08311119
215	0xbca0b0e1	-0.019615592
216	0xbbd05ee3	-0.0063589676
217	0xbda706b2	-0.08155574
218	0xbdd8742e	-0.105690345
219	0xbcf8738a	-0.03032853
220	0x3d746025	0.059662003
221	0x3da4b0f7	0.08041566
222	0xbb322a1c	-0.0027185744
223	0x3d068f8a	0.032851733
224	0xbd8e4845	-0.06947378
225	0xbd63b367	-0.055591013
226	0xbca8b8d3	-0.020595944
227	0x3e1abad8	0.15110338
228	0x3e1bdf20	0.15221834
229	0xbcf0e3d8	-0.02940552
230	0x3ce6ff97	0.028198047
231	0xbd8d6798	-0.069045246
232	0xbdea5ca9	-0.11443455
233	0xbdccbb8f	-0.099967115
234	0xbca8051d	-0.02051025
235	0x3da67e07	0.081295066
236	0xbd4abde0	-0.049497485
237	0xbd9d01f6	-0.0766639
238	0x3df79a0c	0.12089929
239	0xbdb976e7	-0.09055882
240	0xbdc492fe	-0.09598349
241	0x3a3252ac	0.000680248
242	0xbd863b88	-0.065543234
243	0xbd2efced	-0.042721678
244	0x3bec7b40	0.007216841
245	0x3e25019c	0.16113895
246	0x3d481d10	0.04885584
247	0xbe729d5e	-0.23692843
248	0xbe3e3b10	-0.18577218
249	0xbdcb12c7	-0.09915691
250	0x3de9ec53	0.114220284
251	0x3e2882c2	0.1645613
252	0x3dfdb675	0.123883165
253	0x3d2ac83f	0.041694876
254	0x3e0df1ff	0.13861845
255	0xbe36544d	-0.17805596

fully_connected_layer.bias f4 [10]
0	0xbe475580	-0.1946621
1	0xbea1ba9a	-0.31587678
2	0x3e8e574b	0.27800974
3	0x3dea0892	0.11427416
4	0x3d8d57fe	0.06901549
5	0xbecbf412	-0.39834648
6	0x3f614b86	0.88005865
7	0x3d5b109f	0.053482648
8	0xbea02f03	-0.31285867
9	0xbe0fe36e	-0.14051601
