Homework/2_Auto_Diff/models/model_parms_case_4.pt (torch, 117911 bytes, 6 tensors)

conv_ensemble_1.0.weight f4 [16, 1, 5, 5]
000000 e8 be 9a bc 10 18 33 be 50 cc 59 be ac 55 0d be
       -0.01888986 -0.17489648 -0.21269345 -0.13802212
000010 2a 23 3d be 8b 23 1b be c3 40 b0 be dd 85 bc be
       -0.18470445 -0.15150277 -0.3442441 -0.3682088
000020 fb cf 79 be 24 e8 3e bd c2 7e 87 3d 40 bd 53 be
       -0.24395745 -0.046608105 0.06615974 -0.20677662
000030 bb 9e 0f bf 3b 91 bd be 54 5d b7 3c 36 fd 82 3e
       -0.5610158 -0.37024865 0.02238337 0.2558381
000040 c6 cc e6 3d cd 1b 0b 3b 37 fe 00 be 10 b5 7f 3e
       0.11269526 0.0021226287 -0.12596975 0.24971414
000050 7b c1 9e 3d 57 ef 54 3e f9 44 99 3d 2d f2 f4 bd
       0.07751747 0.20794426 0.074838586 -0.11960254
000060 bf da 7b 3e d1 82 d4 3b 39 ad 7d 3e 22 38 ae be
       0.24595164 0.006485321 0.2477311 -0.340272
000070 99 3e 2c be f3 4c 00 bf af d2 5a bd 13 b1 b5 3e
       -0.16820754 -0.50117415 -0.05342358 0.3548666
000080 ae 52 88 3e 47 d1 42 be e2 d8 41 be 65 12 b8 3c
       0.2662558 -0.19025145 -0.1893039 0.022469709
000090 23 13 b2 3d 36 03 a2 3e c3 b2 c5 3e 23 4c 53 3c
       0.08695056 0.31643075 0.38612947 0.01289657
0000a0 dd c7 32 be 11 02 f4 bd 8d be d0 bc d0 a3 0e 3f
       -0.17459054 -0.11914457 -0.025481487 0.5571871
0000b0 a1 c9 c3 3e 68 6d 85 bd 9f 77 4f bd f0 cc 1e bf
       0.38239768 -0.06515008 -0.05065119 -0.6203146
0000c0 fe e6 dd be c9 ff 90 3e d4 1b ec bd cb 84 1f bf
       -0.43340296 0.2832015 -0.11528745 -0.62312
0000d0 ab 97 a4 be f2 bb bb be 70 b5 88 be 44 e3 40 3e
       -0.32146963 -0.36666828 -0.26700926 0.18836695
0000e0 26 5e ec 3d 56 fc af 3d 7f 1f ff 3d da 04 43 3d
       0.11541395 0.08593051 0.12457179 0.04761205
0000f0 fe 87 fb 3d 40 8d 81 3e d0 cb 2e be 5c 44 06 3c
       0.12281798 0.25303078 -0.17069936 0.008195009
000100 54 cf 6a be 9d 41 31 3d ad 06 82 bd a5 77 93 be
       -0.22930652 0.043275464 -0.063489296 -0.2880222
000110 f4 06 18 3c cc d3 12 bc f5 48 5b 3d 83 79 c2 3e
       0.0092790015 -0.008961629 0.053536374 0.3798333
000120 57 69 de 3e 73 ff 08 3e a2 bd 14 3f 7c ac 99 3c
       0.43439743 0.13378696 0.58101857 0.018759005
000130 e5 c6 ad 3e 37 9d 38 3e 23 fc b6 be b2 4a 0d 3c
       0.33940807 0.18028723 -0.3573924 0.008623766
000140 23 bd 54 3d 58 e3 db 3e f8 df f9 bd f0 77 5c be
       0.051938187 0.42946887 -0.12200922 -0.21530128
000150 7e 28 d7 bc 0b 61 51 3e 79 2b f2 3e ac 43 cd be
       -0.026264425 0.20447175 0.47298792 -0.40090692
000160 23 ad 1b bf 94 c1 3d 3e 02 05 ce 3e 8f 8e 37 3d
       -0.6081106 0.18530875 0.40238196 0.04481369
000170 fa cd 0e bf 20 5d cf be ed 6b c9 3e 1b c9 0a 3d
       -0.55783045 -0.40500736 0.39340153 0.033883195
000180 0f fb 93 3d 94 8c 0a be ed a3 ff bd ba e6 c7 3e
       0.0722562 -0.13530189 -0.12482438 0.39043218
000190 7f 0c ff bd 4e 84 e5 3c 7e 6c d8 3e 97 0e 21 be
       -0.12453555 0.02801719 0.42270273 -0.15728222
0001a0 24 01 a8 bb b6 a2 99 be 73 0a 9c be de 6c 93 be
       -0.005127089 -0.3000695 -0.30476722 -0.28793997
0001b0 0e 64 98 be ea 61 cc bd a2 ac 04 3e 35 5e 16 3e
       -0.29763836 -0.09979613 0.12956479 0.14684375
0001c0 93 5e 34 3e 6d 81 60 3c 7d 81 12 3d c8 9d 73 3e
       0.17614202 0.0137027325 0.03576802 0.23790658
0001d0 70 5c 70 3e 55 0f 43 3e 42 f8 b2 be 09 91 bf 3e
       0.23472762 0.19048817 -0.3495503 0.3741534
0001e0 f9 4e ae bd aa 4b c0 bc 25 fa ba 3e 55 56 21 be
       -0.085111566 -0.02347358 0.3651897 -0.1575559
0001f0 3f fb 43 3e a7 3e 17 3c 3c 89 81 bd d1 cb 34 3e
       0.19138812 0.009231246 -0.063250035 0.17655875
000200 ea de ff 3e bf cc 0b 3f 00 57 e5 3b 81 5a e8 3d
       0.49974757 0.5460929 0.0069988966 0.11345387
000210 f5 8a 18 3f ab 06 bf 3e 1b 36 62 3e c2 8b e7 3d
       0.5958703 0.37309775 0.22090952 0.113059536
000220 5a 42 f8 bc b8 9c 99 bd 65 a5 ed bd b7 00 13 be
       -0.030305076 -0.07500595 -0.11603812 -0.14355741
000230 e1 b5 49 bc 12 7d 29 be f1 2c ac be 3c 3c 4f be
       -0.01231143 -0.16551617 -0.33628038 -0.20237821
000240 47 b4 48 be a9 a9 25 3e b8 e8 9e bd ed 56 08 bf
       -0.1960002 0.16178001 -0.07759231 -0.5325764
000250 e6 c2 d6 be 8f 56 00 be e8 1f d4 3e f8 8f 91 be
       -0.4194557 -0.1253302 0.41430593 -0.28430152
000260 c5 a1 2a bf 63 e9 3e 3e b0 b5 86 3e 80 eb 4b 3e
       -0.6665309 0.18643717 0.26310492 0.19914055
000270 14 f7 35 bf cf 25 be bd a8 5e 1c 3f 17 94 ca bb
       -0.71080136 -0.09284555 0.61081934 -0.0061822045
000280 09 b7 c8 be 65 d6 52 be 7f d3 13 3f f7 b8 7d 3e
       -0.39202145 -0.20589598 0.5774459 0.2477759
000290 7f 57 92 be c6 d7 80 3c 39 e3 4a 3e 35 6b 37 3f
       -0.2858238 0.015727889 0.19813241 0.7164796
0002a0 ed df 14 bf 54 02 b9 be 9e ed 7f 3d c3 4b b3 bc
       -0.58154184 -0.3613459 0.06248247 -0.021886712
0002b0 56 93 3f be 99 49 b3 be f7 77 b0 3e 56 8e 29 3e
       -0.18708548 -0.35017088 0.34466526 0.16558203
0002c0 51 3d f3 3e a0 b7 84 3c 3c 71 d7 bd 60 79 c0 39
       0.47507718 0.01620084 -0.105196446 0.00036711525
0002d0 32 f9 89 ba 3e 68 8a be 97 4f 41 be c0 8d b4 bd
       -0.0010526536 -0.27032655 -0.18878017 -0.08816099
0002e0 17 dc 2b be 6b a0 0c bf 5a 48 df be 3e ad 54 bc
       -0.16783176 -0.5493228 -0.43609887 -0.012980757
0002f0 f5 85 50 3e 43 0c c9 be d8 7b a1 bd 2c 5d eb ba
       0.203636 -0.39267167 -0.078849494 -0.0017956845
000300 f9 15 fe bd 45 d5 f0 3d ce 08 47 3e c7 f3 fd 3e
       -0.12406535 0.11759428 0.19436952 0.4960005
000310 ef 42 f2 3e 36 c8 d0 bc 8d 2e 44 3e 66 7b 5c 3e
       0.4731669 -0.025486093 0.19158383 0.21531448
000320 a2 a4 c1 bd de a0 58 be 64 d7 18 bd 52 59 00 3e
       -0.09455229 -0.21155116 -0.037314788 0.12534073
000330 5a 12 2d bd eb 19 50 3e 3b 8f cb bd af 9d 6e be
       -0.04225383 0.20322387 -0.099394284 -0.23302339
000340 78 75 f7 bd 33 11 6a be 71 ca 1e 3f 38 d7 bd bc
       -0.12082952 -0.22858123 0.6202765 -0.023173913
000350 a2 86 9e bd 8a da cd be 7a 1e 2c bf b7 a7 a8 3e
       -0.07740523 -0.40205795 -0.67234004 0.32940456
000360 75 2b f1 3c 4e eb 25 3e 96 c7 1d bb 1b a6 93 be
       0.029439667 0.16203043 -0.0024075261 -0.28837666
000370 27 5d 26 3e f5 4a 95 3e 1d 7d 50 3e e3 3c 59 bd
       0.16246472 0.2915875 0.20360227 -0.05303658
000380 99 23 12 be ff ca e3 3e e9 d6 2a be 61 49 01 be
       -0.14271392 0.4449081 -0.16683544 -0.12625648
000390 d7 05 51 3d 4b ab a2 be 44 cb 73 3e 9a fe 49 3d
       0.05103096 -0.3177131 0.23808008 0.049315073
0003a0 9d 8a 71 3e 60 4a 71 39 50 5b b8 be 38 af 32 3e
       0.23588033 0.00023011258 -0.36007166 0.17449653
0003b0 4d 0f b7 3e 92 11 5d 3e 5c 7e 47 3e 73 e7 a7 bd
       0.3575386 0.21588734 0.19481796 -0.08198442
0003c0 7a 35 bc 3e 13 56 b2 3d 80 c3 8a 3e e8 80 2d 3e
       0.3675955 0.087078236 0.2710228 0.16943705
0003d0 19 96 6d 3d 28 57 83 3e be 6c 04 3e fd 1d 8f 3e
       0.058004472 0.25652432 0.12932107 0.27952567
0003e0 6a f7 c5 3d 54 4e c9 bc 38 ee f0 bd ec 6d 67 bd
       0.09666331 -0.024573483 -0.117641866 -0.056501314
0003f0 36 ac 10 3e 04 cf a2 3e bd 31 21 3e e4 79 06 be
       0.14128193 0.31798565 0.1574163 -0.13132435

conv_ensemble_1.0.bias f4 [16]
000000 a6 66 2b bf f0 3e 44 be 00 dd 00 bf 7e 30 11 bf
       -0.66953504 -0.19164634 -0.5033722 -0.5671462
000010 06 d1 46 be b2 7d 40 bf 84 b5 07 be 32 ec 3d be
       -0.19415674 -0.75191796 -0.13252836 -0.18547133
000020 96 e0 07 bf 74 e1 be bf 96 33 f3 be 3f 6f 06 bf
       -0.53077066 -1.4912553 -0.47500294 -0.525135
000030 1a 75 c3 be e5 1e 82 be 41 94 53 bf 3f d8 99 be
       -0.3817528 -0.25414196 -0.8264809 -0.30047795

conv_ensemble_2.0.weight f4 [32, 16, 5, 5]
000000 8f c2 a6 3d b1 fe 98 bd 8b 0f 86 3d e3 36 5f 3c
       0.08142578 -0.074704535 0.06545933 0.013623926
000010 a8 ee 83 3d 89 d8 13 be 8c 74 d9 bd e3 ce 91 bd
       0.064420044 -0.1443807 -0.10617933 -0.07119539
000020 44 cf d5 bd 30 c1 12 bc 36 1e 6d be 6d bc 49 be
       -0.104399234 -0.008957192 -0.23156056 -0.19700785
000030 ff d1 82 be b9 c2 25 be 81 5a c5 3d 51 11 f8 bd
       -0.2555084 -0.16187562 0.09636403 -0.12112678
000040 19 22 09 be 13 0f 24 be a3 27 86 bd 9c e8 9e 3d
       -0.13391913 -0.16021375 -0.06550529 0.077592105
000050 d9 d4 7a bd ba 40 86 bd 16 df 40 bc a9 79 89 3c
       -0.061238144 -0.06555314 -0.011771938 0.016781645
000060 9c 19 56 bc 73 4f 92 bc 98 b3 80 3a a0 0b 71 bd
       -0.013067629 -0.01786015 0.0009819148 -0.058848977
000070 0b 6a b9 bd 05 86 d9 3c 91 0a 1d be dd 7a 0c be
       -0.09053429 0.026553163 -0.15336062 -0.13718744
000080 fd b1 51 bd 34 d1 03 be 04 ec 7e bc 72 aa e4 bd
       -0.051195133 -0.12872773 -0.0155592 -0.11165322
000090 39 e7 d9 bd a0 18 54 be 02 f0 4b be 8d 20 fb bd
       -0.10639805 -0.20712519 -0.19915774 -0.12262068
0000a0 ef 49 7a 3b 0a c7 a5 bd 33 04 11 3d 75 19 bf bc
       0.003819104 -0.08094604 0.035404395 -0.023327569
0000b0 8d a4 00 3e c8 d4 00 3e ac 2b 97 3c 2e 22 ad bd
       0.12562771 0.1258117 0.018453442 -0.08453785
0000c0 23 e6 56 bc b2 ed ab bd ac 0e 28 3d a8 2e c4 3d
       -0.013116392 -0.08394946 0.041029617 0.095792115
0000d0 40 4f 0a bc 8b 31 da 3d 35 2f 51 bd 1d 47 d8 3d
       -0.008441746 0.10653981 -0.05107041 0.10560439
0000e0 06 5e 4e 3d 85 91 01 bd 4c 32 a6 bc 99 04 91 bd
       0.050382636 -0.03163292 -0.020287655 -0.07080955
0000f0 47 64 0a be fb 59 40 be e0 a9 49 be f9 fb 9a bd
       -0.13514815 -0.18784325 -0.19693708 -0.07567591
000100 c2 f7 b9 bd be 59 53 be 65 f0 86 be d0 08 5b be
       -0.09080459 -0.20639703 -0.2635528 -0.2139008
000110 1c 93 9a bd 6d d3 94 3d 5b 67 90 bb 1a 0e 48 be
       -0.0754759 0.07266889 -0.004406852 -0.1953663
000120 5e 84 11 be ef 88 61 ba c5 a3 1b bd 98 5b e6 bd
       -0.1421065 -0.00086034735 -0.03799798 -0.11247939
000130 97 68 ff bd 4b 71 71 be 6e 54 3d bd 72 9f ac 3d
       -0.12471121 -0.23578374 -0.046223097 0.08428849
000140 f6 9c 79 3d 29 25 4c be 8f 5f 0a be 61 15 c8 bc
       0.060940705 -0.1993605 -0.13513015 -0.024424257
000150 f0 6a bc 3c 6a 4e 22 bd d7 91 54 bd 26 aa 36 3d
       0.02300021 -0.039625563 -0.051896896 0.04459586
000160 ae 8c 8d 3d 90 b0 04 3e e7 5b ab bc b9 6a 85 3e
       0.06911598 0.12957978 -0.020917846 0.26057985
000170 bc 72 a8 3e 52 60 68 3d a1 42 13 3e 2e f4 90 3d
       0.32900035 0.056732483 0.14380886 0.070778236
000180 2d 35 6d 3e 9e 57 15 bc 95 33 50 bd 0d 1e 25 be
       0.23164816 -0.009115128 -0.050830442 -0.16124745
000190 7c 7d c8 3c 42 27 46 3e 92 97 4c 3d 1e fb 5c bd
       0.024473898 0.19350913 0.049949236 -0.05395042
0001a0 e2 5c 1a bd bb 5f db 3d fc 13 77 3d e8 8b d7 bd
       -0.037686236 0.107116185 0.060321793 -0.10524732
0001b0 41 8c c8 bd f3 4a c8 3d f6 02 6e 3c 6f e2 b4 bd
       -0.09792376 0.097799204 0.014527073 -0.08832251
0001c0 dd f7 c3 bd 5d 1c b5 bd 02 76 ab 3c f2 14 79 3c
       -0.095687605 -0.088433005 0.020930294 0.015202748
0001d0 2e 80 10 bd 3e 53 2f be 5c df b1 bd de 9f a5 bd
       -0.03527849 -0.17121598 -0.086851805 -0.08087133
0001e0 94 32 1b 3d 9c 31 71 bd 69 08 6f bd c7 60 5c bd
       0.037890032 -0.0588852 -0.05835763 -0.05380323
0001f0 90 1d 5c bd dd d2 17 3e f2 f2 d0 bd 02 6b 38 be
       -0.05373913 0.14826532 -0.10202588 -0.1800957
000200 69 79 a3 bd d2 aa 26 be 64 87 08 bd b4 6e b2 bd
       -0.079821415 -0.162761 -0.033332244 -0.08712521
000210 5a 64 48 be 07 99 58 bd 4f a5 14 be 94 e1 a5 bd
       -0.19569531 -0.052880313 -0.14516185 -0.08099666
000220 8c e3 f1 bd 98 d2 24 be 1f fb 21 3c 93 32 17 3c
       -0.11810979 -0.1609596 0.009886532 0.009228366
000230 9f 97 fd bd 3a 1b 83 3c 20 2a c0 bd 77 5c 7f bd
       -0.12382435 0.016004194 -0.09383035 -0.06234404
000240 37 15 02 3d 56 6e 82 3d 76 4e 5b be 4e 12 43 bd
       0.031758513 0.06368701 -0.21416649 -0.04762488
000250 33 d3 03 bc ea 5c 44 3e e7 27 73 3d e2 72 aa bd
       -0.008045959 0.19176069 0.059364226 -0.083226934
000260 69 e7 c1 bd 8b cd aa bc 52 19 1f bd 58 15 ee 3c
       -0.09467966 -0.020849964 -0.038842507 0.029062912
000270 cd 80 fa 3d 52 44 c7 bd 7a 02 f9 bd 0c 2e a0 bc
       0.12231598 -0.09729828 -0.121586755 -0.019553207
000280 23 0c b5 bd 61 db 41 3e e6 91 0a 3d 5e a1 05 be
       -0.088402055 0.18931343 0.033830546 -0.13049838
000290 2b cb 77 bb 61 c0 78 3d a8 41 c8 3e b7 d0 06 3e
       -0.0037810307 0.06073034 0.39112592 0.13165556
0002a0 f0 c4 90 3d ec 9e ea 3d 10 23 33 3e 80 d5 ee 3d
       0.07068813 0.11456093 0.17493844 0.11661816
0002b0 a7 16 86 3e a3 99 58 3e 55 e7 5d 3e 34 98 26 3e
       0.26189157 0.21152358 0.21670277 0.16268998
0002c0 48 c1 7b 3d f1 fe 37 3d 17 94 82 bd e7 b1 40 3d
       0.061463624 0.044920865 -0.06375902 0.04704466
0002d0 c5 24 7c 3d 4f e8 4c 3b 98 0f ed bb 81 0a 1f bd
       0.061558504 0.0031266396 -0.007234525 -0.038828377
0002e0 3a 2e 5a 3b ee 14 9a bc 37 2b aa bd a9 f4 28 be
       0.0033291713 -0.018808808 -0.08309024 -0.1649958
0002f0 21 dd 12 be ee ff d8 bc 6a bb e5 3c dc ff c6 bd
       -0.14342166 -0.026489224 0.028043468 -0.0971677
000300 4c 01 27 bd 0f 5a fd bd f3 de c3 3b df 21 4f bc
       -0.04077272 -0.12370693 0.0059775054 -0.012642353
000310 4d 76 3e 3d d5 7b 49 3d 40 ab 98 3b ec f3 0c 3d
       0.04649954 0.04919036 0.0046590865 0.03441231
000320 f3 0e 8e bc e9 4d 8e bd db b4 88 be d4 88 50 bd
       -0.017341113 -0.06948454 -0.26700482 -0.05091174
000330 be 5a c8 3c 13 9d 8c bc 7d b3 e4 bd 04 c7 2d be
       0.024457332 -0.017164743 -0.11167047 -0.1697045
000340 87 0c a2 bc 9b ab 80 bd 3e 75 63 bd 33 fb 9d bd
       -0.019781364 -0.06282731 -0.055531733 -0.07713928
000350 fc 63 87 be 6d e4 07 3e 2d 5f f8 3c 6e 14 bb 3d
       -0.2644347 0.13270731 0.03031882 0.09134756
000360 a6 28 95 3c ab a3 4b be 81 84 9b 3d a2 2c c1 3d
       0.01820786 -0.19886653 0.075936325 0.09432341
000370 eb 34 d1 3d 2c 8b cf bd 26 8a aa be 3a e5 7c bd
       0.102151714 -0.10133967 -0.33308524 -0.061742045
000380 3e 7f ba 3a f1 a7 13 be b6 4a 83 bd d5 2f f1 bd
       0.0014228595 -0.14419533 -0.06410734 -0.11776701
000390 3b 78 49 bd 68 34 3d bc 44 35 bb bd fa 99 6d 3d
       -0.049186926 -0.011548139 -0.09141019 0.05800817
0003a0 35 28 b8 bd 29 e7 02 be 11 0c f1 bd 60 2a d0 bd
       -0.08992044 -0.12783493 -0.117698796 -0.101643324
0003b0 94 28 2b 3d c4 78 56 be 76 39 b8 bd 0b 1b 21 be
       0.041786745 -0.20944506 -0.08995335 -0.15732972
0003c0 be e6 27 3d 6c 21 4d 3d 40 44 20 be a3 40 14 be
       0.040991537 0.0500807 -0.15651035 -0.14477782
0003d0 a6 a0 24 be 67 04 fa 3c a5 56 fd bd 58 7f a5 bd
       -0.16076908 0.030519677 -0.12370042 -0.080809295
0003e0 b6 36 17 be be aa bc be 7f 87 9c bd cc 78 45 bd
       -0.14766964 -0.36849016 -0.07643031 -0.048210904
0003f0 e4 6a 31 3d 59 62 ff 3c 16 d0 15 3e 4e bd 2c be
       0.04331483 0.031174826 0.1463016 -0.16869089

conv_ensemble_2.0.bias f4 [32]
000000 0d 68 b8 3d 30 06 ff bd 04 59 ae 3d 9e 1a 03 bf
       0.09004221 -0.12452352 0.08513072 -0.5121249
000010 7b 4f 42 be f3 2b 98 3e bf 67 3d be d7 99 9a 3e
       -0.18975632 0.2972103 -0.18496607 0.30195495
000020 44 c9 b7 bc fa 0b 80 3c ca a5 e1 bb 84 c8 f8 3e
       -0.022434838 0.01563071 -0.0068862187 0.4859048
000030 c0 1a f5 be 32 ae 80 be 5e 06 53 3e 9f d9 ff 3e
       -0.4787197 -0.251329 0.20607898 0.4997072
000040 5c 18 fb 3c e5 07 8f be e9 02 0c be 14 c2 dd 3e
       0.030651264 -0.2793571 -0.13672985 0.43312132
000050 ff da 8c be 7a 93 2b 3e 1e 58 82 bd 50 ae 89 be
       -0.2751083 0.16755477 -0.06364463 -0.26890802
000060 6c fa 0f bf e1 e3 ad 3e 13 f2 49 3e a9 b3 53 be
       -0.5624149 0.3396292 0.1972125 -0.20674004
000070 6e 7d 4f bd 47 58 d7 3e 62 d2 ba 3e 0d eb 47 3d
       -0.05065673 0.42059538 0.36488634 0.048808146

fully_connected_layer.weight f4 [10, 1568]
000000 77 36 2d bd f0 03 f9 3d 31 d3 e9 3c 96 50 96 3d
       -0.04228827 0.12158954 0.028543087 0.07339589
000010 da f8 2f 3e 10 dc b7 3c 89 bc fa 3c bc 74 ca 3c
       0.17184773 0.022443801 0.030607479 0.024713866
000020 b9 d9 95 bd 7d 68 e3 bd 88 48 42 be 23 90 5c 3b
       -0.07316918 -0.11103914 -0.18972981 0.0033655248
000030 64 1f 0d 3d 9f a8 a0 3c fc 82 47 3e 7b d6 b6 3d
       0.034453765 0.019611655 0.1948356 0.08927628
000040 a5 fe a7 3e 69 da dd bb fb 3a db 3a 28 05 da 3d
       0.32811466 -0.0067704213 0.0016725952 0.10645515
000050 d8 e5 6c 3d 9d a0 d7 bd 03 4c 32 3e 06 5a cb 3e
       0.057836384 -0.105286814 0.17411809 0.3971712
000060 53 b0 05 3e fb 7e 86 bd f5 1c 7a 3c be 77 f5 bc
       0.13055544 -0.06567188 0.015265693 -0.029964324
000070 1b 56 0c bb 81 7b c0 bd 58 3a 51 3e fb 48 54 3e
       -0.0021413628 -0.093985565 0.20432413 0.20730965
000080 61 20 9c bc c1 c5 e6 bd 24 b7 71 be 8f e5 d0 bd
       -0.019058408 -0.11268187 -0.23605019 -0.10200035
000090 75 2a 4c be b0 73 07 3d dc 7f 1d 3e a0 e9 95 bc
       -0.19938071 0.033069313 0.15380806 -0.018299878
0000a0 7f c5 58 bd 73 2a 50 bd 79 bc ad bd fa 43 81 bd
       -0.052922722 -0.050821733 -0.08483214 -0.063117936
0000b0 fa 6e 4c bd f3 8f 19 3c 25 12 35 bd a3 cf 17 bd
       -0.049910523 0.009372699 -0.044206757 -0.037063252
0000c0 46 7a 4e bd 7e fb 6b 3e a2 79 ff 3d 94 90 74 3c
       -0.050409578 0.23045155 0.124743715 0.014927048
0000d0 89 41 b8 3d 4b b9 71 3d ea 4b a7 3b c1 51 44 bc
       0.08996875 0.0590146 0.005105485 -0.011982382
0000e0 d1 b0 89 3d 39 c4 4b bd 6b 3b 36 3c d9 78 4e 3e
       0.06723178 -0.04974768 0.011122565 0.20163287
0000f0 ed 9a 25 3e 15 eb a9 3b ae 9b ca bd 7b 0f 77 3d
       0.16172381 0.0051854947 -0.09892975 0.060317498
000100 60 04 d0 3c f1 f1 0e be 49 cc 2b 3d f0 e9 c1 bd
       0.025392711 -0.13959481 0.04194287 -0.09468448
000110 43 b1 09 3e 14 51 a8 3b d9 ea a4 3c 0b 05 dc 3c
       0.13446526 0.0051366184 0.020131515 0.026857873
000120 aa b1 7e be 4b fa 44 be 8f a9 39 be 76 f0 34 3c
       -0.24872461 -0.19236104 -0.18131088 0.0110436585
000130 bf 6a d4 bd 1f d1 99 bd 11 19 ad 3d 34 d9 31 3e
       -0.10371923 -0.0751059 0.08452047 0.17368013
000140 87 58 c7 3d cc 4c 17 3e 6c a4 b3 3b cd 55 60 be
       0.09733682 0.1477539 0.005482247 -0.2190773
000150 9f 38 b1 bd ba f5 37 bc 6a fe 33 bc d2 57 0f 3e
       -0.08653378 -0.011228019 -0.01098595 0.13998345
000160 d3 d6 9f bc 50 34 31 bd 2f 41 1c be 58 9e c7 bd
       -0.019511616 -0.04326278 -0.1525924 -0.097469985
000170 c1 b1 2b 3d ea f8 98 3e 36 47 39 3e 60 a9 a7 bd
       0.041917566 0.29877406 0.18093571 -0.081866026
000180 95 93 88 3c 43 90 52 bc b2 be 5b bd 7e 16 70 bd
       0.016671935 -0.0128517775 -0.053648658 -0.0586152
000190 86 6b b0 bd b8 78 90 bd cf 5a 16 be f5 c9 af 3a
       -0.086142585 -0.07054275 -0.14683078 0.0013411628
0001a0 c6 5d 81 3d 53 4f 24 bd 86 33 7d 3d 3d 6c 07 3e
       0.06316714 -0.040114712 0.061816715 0.13224883
0001b0 e6 fc 71 3d 84 0e e8 bd 9b 2f bc bb e0 39 d9 bd
       0.059079073 -0.11330894 -0.0057429797 -0.10606742
0001c0 8a 99 a5 3d c3 22 8e 3d e4 ff f0 3d 84 ef 39 3d
       0.08085926 0.06940224 0.11767557 0.045394436
0001d0 eb 6e 1f be 1b b0 25 bd 89 4f 36 be 95 ba 0c 3e
       -0.15569656 -0.04045115 -0.17803778 0.1374305
0001e0 3e 0a 58 3d 60 a2 08 bd 30 f4 79 3d 6f 07 5d 3d
       0.052744143 -0.033357978 0.06102389 0.053962167
0001f0 06 b6 01 be c9 68 10 be 89 c2 12 bd fa ec 05 3d
       -0.12667093 -0.14102472 -0.035830054 0.0326967
000200 9a 16 84 3d 6a fb f7 3d c5 a7 5c 3c e9 ce c3 bd
       0.064496234 0.121085 0.013467734 -0.09560949
000210 01 dd c9 bd 53 d1 75 3c fa 0a 8f 3d 66 e7 c2 3d
       -0.09856606 0.01500352 0.069845155 0.09516792
000220 1b 7c 31 3c 6a b5 7c 3b 25 32 20 be a2 05 84 bd
       0.010832812 0.003856028 -0.15644129 -0.06446387
000230 56 3a 2d 3c d7 e5 04 3c 4a ac bc bd b5 ce 80 bb
       0.01057299 0.008111439 -0.09212549 -0.0039308914
000240 d7 39 0d bd 60 0e 16 be d8 ce 8e 3d 9d a6 36 3d
       -0.03447899 -0.14653921 0.06973046 0.04459249
000250 1f 6f e7 3d 75 a5 a6 3d 85 fe a3 3e 7d a1 31 3e
       0.113004915 0.08137027 0.3203012 0.17346759
000260 59 81 8f 3d b5 c6 b0 3d 7f 20 42 3c c3 ad 78 bd
       0.07007093 0.0863165 0.011848568 -0.060712587
000270 47 6c 8d 3c bd 05 f0 bd 41 cb 1b bc 1a 13 95 3c
       0.017263545 -0.117198445 -0.009508909 0.018197585
000280 5b 2e 99 3d 37 1f 2d 3d 62 aa 38 be f8 85 34 3d
       0.07479545 0.042266097 -0.18033746 0.044073075
000290 70 ce 60 3b 73 f2 23 3b df e4 66 bc d0 95 32 3c
       0.0034302734 0.0025016337 -0.014092653 0.010899976
0002a0 09 f8 3e 3e 22 5b 85 3c b0 f7 85 bd 13 61 b2 bd
       0.18649305 0.016278807 -0.06541383 -0.08709922
0002b0 52 24 7a 3d a0 90 e6 3d 5d 40 4c bd e0 8d 0a 3e
       0.061069794 0.11258054 -0.04986607 0.13530684
0002c0 aa d0 1b be c1 a1 c5 bc 2e 87 f3 3d d7 cc fa 3c
       -0.15216318 -0.024124982 0.11891018 0.030615253
0002d0 84 13 da 3a 1e da 6b bc cf 6d f3 bc f7 e9 22 be
       0.0016637896 -0.014395265 -0.029715447 -0.15909563
0002e0 e3 64 12 bc a7 ed 37 bc df d4 77 bd ca 12 ae bd
       -0.008935186 -0.011226094 -0.060505744 -0.084996775
0002f0 a3 ec 2e 3e f9 1a 99 3d d6 84 2b be 46 8d 93 be
       0.17082457 0.07475848 -0.16749892 -0.2881872
000300 46 d3 86 be a3 b1 1b be 8a dc 93 bd bc 84 07 3d
       -0.26333064 -0.15204482 -0.07219799 0.03308557
000310 5a 8a 95 bd 85 d9 09 3e 18 69 95 3e 99 c3 23 3d
       -0.07301779 0.13461883 0.29181743 0.03998146
000320 63 ef 92 bd a8 05 a8 bd 38 84 17 bd 54 ca b7 bd
       -0.07174566 -0.08204204 -0.036991328 -0.08974138
000330 01 ec e2 bc cd dd f3 3d 97 7c 1a be ce f5 06 be
       -0.027700426 0.119075395 -0.1508659 -0.13179705
000340 e9 f6 0c 3d 08 f5 33 bd fa d7 e6 3b a6 8a 91 bd
       0.03441516 -0.043934852 0.0070447894 -0.07106523
000350 6c a8 f3 bc c8 69 8b bd 5a 4d 5b bd c4 2f 39 3d
       -0.029743396 -0.068072855 -0.053540565 0.04521157
000360 30 fb 88 3c 05 26 37 3e 3a fc e8 3c 6f d7 f1 bc
       0.016721338 0.17885597 0.028440583 -0.029521672
000370 20 a2 d1 bd c5 7c 48 bb ed 16 77 3d 7e f0 4e 39
       -0.10236001 -0.0030591947 0.060324598 0.00019735281
000380 88 9f d1 b8 21 e0 78 bd 7c c7 31 3c 98 f3 9b 3d
       -9.9956116e-05 -0.06076062 0.010850783 0.07614821
000390 c7 fa f5 3c b4 d7 ee 3d ef a7 1e 3e 07 43 95 bd
       0.030026807 0.11662236 0.15493749 -0.07288175
0003a0 38 3a 0b 3e ef 6c 8f bc 29 5a c5 3d cb 3e c4 3d
       0.13596427 -0.017507998 0.09636337 0.09582289
0003b0 e8 73 ae 3d e7 98 b7 3d 51 85 ed bd d8 93 f8 3d
       0.08518201 0.08964711 -0.11597694 0.12137574
0003c0 39 21 98 bd 20 35 3c bd 77 59 b1 3d e0 56 17 3e
       -0.07428212 -0.0459491 0.08659642 0.14779234
0003d0 0b 23 1c 3e 05 7f a0 3d d8 dc 57 bc 8d 9e 86 3d
       0.15247743 0.07836727 -0.013175212 0.0657321
0003e0 21 26 1c be 1f 2c e1 bd 84 b4 42 3d d4 31 c8 bd
       -0.1524892 -0.109947436 0.047535434 -0.09775129
0003f0 0b 3a 12 3e e1 a7 b4 bc 1d de 46 be 88 8f 0e be
       0.14279954 -0.022052707 -0.19420667 -0.1392194

fully_connected_layer.bias f4 [10]
000000 02 40 89 be b9 fb 86 be f8 87 bb 3e 26 44 bf 3c
       -0.26806647 -0.26363924 0.36627173 0.023347925
000010 37 36 85 3e 22 40 f4 be 57 d4 58 3f 98 c7 02 bc
       0.26017925 -0.4770518 0.84699005 -0.007982157
000020 f7 ef 7a be 3f 8c 1b be
       -0.24505602 -0.15190218
