Homework/2_Auto_Diff/models/model_parms_case_3.pt (torch, 117911 bytes, 6 tensors)

conv_ensemble_1.0.weight f4 [16, 1, 5, 5]
000000 72 ab 5e be 82 1b 2f 3f eb 7e 8e be 1e 3f 56 bb
       -0.21745089 0.6840135 -0.27831206 -0.003269143
000010 4f 2b b4 bc 27 a2 e5 bd 35 d8 04 3f 68 b0 aa bd
       -0.021993307 -0.11212569 0.51892406 -0.08334428
000020 ec e3 7e be 62 8c a7 be 0d 2b a0 3d 8e 5f 45 3c
       -0.24891633 -0.3272429 0.07820711 0.012046708
000030 6c a9 ec 3d 2a 2f cd 3e 39 b7 a3 be b7 c5 06 3e
       0.11555752 0.40075046 -0.31975725 0.1316136
000040 1e cd d0 be f3 44 8f be ae fd b8 bd f4 0e 67 3e
       -0.40781492 -0.27982292 -0.090327606 0.22564298
000050 ac 6e e1 3e ca 8c f0 bd ee af 53 bd 10 fe 0f be
       0.44029748 -0.117456034 -0.05168145 -0.14061761
000060 53 8f f1 3d 9f ed 9f be 44 15 96 3e 33 cb 56 3e
       0.11794915 -0.31235978 0.293131 0.20975952
000070 1e 40 1b bd e8 cc 90 3d 9a 08 ab bb e3 f8 cc 3d
       -0.037902944 0.07070333 -0.0052195312 0.10008409
000080 24 a1 d5 3a ae 00 8f 3e 5c 15 98 bb 3e e4 ae 3e
       0.0016298634 0.27930206 -0.004641218 0.3415851
000090 e9 64 e5 3b bd 3f e6 3d 3a 4e cf 3e 38 6b 36 3d
       0.007000555 0.11242626 0.4048937 0.044535846
0000a0 47 13 59 be 1c 06 a8 3d 80 12 19 3e 42 28 bf 3b
       -0.2119876 0.0820429 0.14948463 0.0058336565
0000b0 2c c8 7d 3d 3c 99 95 be b5 70 ed bd eb 56 2f 3e
       0.061958477 -0.2921847 -0.11593763 0.17123
0000c0 60 51 c9 bd e8 b7 8e bd f3 66 ed bb 83 91 9a be
       -0.09829974 -0.06968671 -0.0072449385 -0.30189142
0000d0 eb 7a 13 bf f0 78 be be ff 55 02 bf b8 32 38 3e
       -0.5760943 -0.37201643 -0.5091247 0.17988098
0000e0 1b 96 b7 3e db 0e 4e be 94 1b 3a 3e e7 88 40 3e
       0.3585671 -0.20122854 0.18174583 0.18802224
0000f0 84 5c 1c 3d 74 c6 0d 3f fb a1 92 3e 86 3f 53 be
       0.038174167 0.5538094 0.28639206 -0.20629701
000100 67 ed 12 3f 1a 90 27 3e 81 6b 7a 3e 30 89 92 be
       0.573935 0.16363564 0.24455072 -0.2862029
000110 9a 61 46 3d 22 75 03 3f 8c 68 4b be 8a e1 c1 be
       0.048432924 0.51350605 -0.198641 -0.37867385
000120 06 ac bb be 2a 23 60 be c4 e6 fa 3e 62 cd 0a 3c
       -0.3665468 -0.21888414 0.49004185 0.008471819
000130 c6 53 89 3e 70 c1 60 be 60 68 bc be ac 46 a5 3e
       0.26821727 -0.2194879 -0.36798382 0.3228048
000140 9e 97 48 be 78 23 97 3e 40 3b 50 be a1 d0 86 be
       -0.19589087 0.29519248 -0.20335102 -0.26331046
000150 4d 30 e5 3e 41 52 80 be 99 48 b7 3d 33 9a 84 be
       0.44763413 -0.25062755 0.08949394 -0.25898895
000160 78 3c 08 bf 7d 0c ae be bf 4a dc 3d cc 9c d7 3e
       -0.5321727 -0.33993903 0.10756444 0.42111814
000170 2e 66 e1 3b c6 cc b1 be 17 2e 27 be 2f a6 92 3e
       0.006878636 -0.34726542 -0.16326176 0.28642413
000180 d3 9c 01 3f 19 60 ed 3e e8 d4 9b be 5d bd 78 be
       0.5062992 0.4636238 -0.30435872 -0.24290986
000190 54 57 2c 3e 90 bc a3 3d 14 aa 23 3c c7 ff d8 3e
       0.16830188 0.0799495 0.00998928 0.42382643
0001a0 55 81 b1 be 9d b6 8a 3e 60 6b 7f 3e 2f 65 76 3e
       -0.34668985 0.27092448 0.24943304 0.24062036
0001b0 87 ca 55 3e 4e 56 fb be 68 29 07 3d c5 46 f3 bd
       0.2087804 -0.49089283 0.032998472 -0.118787326
0001c0 a1 ad d0 3e e4 37 ea 3d 62 dd d3 be ed a8 8b be
       0.40757468 0.114364415 -0.4137984 -0.27277318
0001d0 f8 98 49 3c bd 65 01 3f 02 cf be bc 7c 1b 40 be
       0.012304537 0.50545865 -0.023292068 -0.18760484
0001e0 7b f8 2a be 09 7d a1 bb 1b b8 a7 3e b5 b3 a8 be
       -0.1669635 -0.0049282354 0.3275765 -0.32949606
0001f0 15 d2 c4 be 13 6b 8e be 67 c2 f0 be 80 fa 41 3d
       -0.3844153 -0.27816066 -0.47023317 0.047358036
000200 95 94 da be ba 91 d8 be d5 0c 3e 3e de b2 09 be
       -0.42691484 -0.4229868 0.18559583 -0.13447139
000210 45 22 cc 3e 07 19 9f be d4 2f ad 3e 51 bc 4c 3c
       0.39869896 -0.31073782 0.33825552 0.01249607
000220 75 17 24 bf d7 73 16 3f ce e7 c6 3e 55 e8 7c be
       -0.6409829 0.5877051 0.38848728 -0.24698003
000230 92 10 8d 3e fe 5b 8c be 7d 7d 95 3e ef d9 e7 3e
       0.27551705 -0.27413934 0.29197302 0.45283458
000240 35 0f 6a bd d3 78 9a 3d e9 23 3e be 75 8a 9e 3d
       -0.05714341 0.07542577 -0.18568386 0.07741252
000250 fe 00 93 3e f4 97 ac bd 08 d0 15 3d fd 79 ce 3e
       0.28711694 -0.0842742 0.036575347 0.40327445
000260 36 30 be ba ad 25 8f be 1e 16 b9 be e3 73 0d 3f
       -0.0014510218 -0.27958432 -0.36149687 0.55254954
000270 dc 20 b2 3e 2a 12 c4 3e 2f 7f 90 3e a5 3d d2 bc
       0.34790695 0.38295108 0.28222033 -0.02566416
000280 33 fe b8 be bd 9b 71 be a8 48 8d be 49 c7 cf be
       -0.3613144 -0.23594566 -0.27594495 -0.4058173
000290 de c8 9d be 1d dc a6 bd 21 33 a1 be 0e 7e b2 be
       -0.30817312 -0.08147452 -0.3148432 -0.34861797
0002a0 c3 3f a9 be a5 ca 93 be 75 77 2e bc b6 b1 77 3c
       -0.3305646 -0.28865543 -0.010648598 0.015118053
0002b0 50 d9 7d 3e a5 b6 e0 3e 0e 2e 97 bd d9 5d a6 bd
       0.2478993 0.43889347 -0.07381831 -0.08123369
0002c0 32 af f5 bd 2d 1c 3d be 20 fe dd 3e 54 ac 1c bd
       -0.119963065 -0.1846778 0.43357944 -0.038250282
0002d0 17 50 21 3d 75 cb 17 be 0b 9f 9d be 23 ab b2 3e
       0.03938302 -0.14823706 -0.30785403 0.34896192
0002e0 68 75 38 3d fb 24 ba 3e 8f 99 c5 3e f8 31 8c 3e
       0.045033842 0.3635634 0.38593718 0.27381873
0002f0 f5 55 a6 3e 80 b9 f5 3e eb 70 71 bd 7c a5 e3 3e
       0.32487455 0.47993088 -0.058945578 0.44462192
000300 75 ea 98 3e 62 1c 01 bf 4f 05 d7 3d fd a4 69 be
       0.29866377 -0.50433934 0.104990594 -0.22816844
000310 9d 02 00 bf a9 86 f4 be 15 29 0d bf c3 af 99 be
       -0.5000399 -0.47758988 -0.5514081 -0.30016908
000320 15 67 39 be f4 fd 62 be 8a 79 8a be 0c 22 8f be
       -0.18105729 -0.22167188 -0.27045852 -0.27955663
000330 02 b9 58 3e 3b 11 e1 be b3 d6 5a be 81 d9 1f be
       0.21164325 -0.43958458 -0.21370964 -0.15610315
000340 bc 3f 08 be b6 b1 f8 bd 9e b4 a6 be c2 fb da be
       -0.13305563 -0.12143271 -0.32559675 -0.427702
000350 99 50 07 bf 60 95 cc be 8b a9 b4 3d 14 31 b0 bd
       -0.5285736 -0.39957714 0.088214 -0.08603111
000360 88 6c 65 3e 4a 56 81 3e 2c 3e 78 3e ea b2 aa 3e
       0.22404683 0.25261146 0.24242467 0.33339626
000370 f6 76 02 bc bb 79 d3 3d ba 3d 81 3e bc 58 68 3e
       -0.007962933 0.103259526 0.25242406 0.226901
000380 21 9e 58 3e 72 83 8b be 6b 12 73 3e 55 2c 2d be
       0.21154071 -0.27248722 0.23737495 -0.16911443
000390 2f 90 b0 bc 9c 04 9f 3e 7b 66 e2 3c 79 98 aa 3e
       -0.021553127 0.31058204 0.027636757 0.33319452
0003a0 40 3d c5 3d 05 ef 94 bd 17 e6 3d 3e 04 13 db be
       0.09630823 -0.07272152 0.18544804 -0.42787945
0003b0 0b 6b 8c 3e a3 6b f4 3c d7 e1 52 be 4c 63 2c be
       0.27425417 0.029836481 -0.20593964 -0.16834754
0003c0 af 05 0d 3d 62 1f 47 be a0 f2 77 3e 69 c4 03 bf
       0.03442925 -0.19445565 0.24213648 -0.51471573
0003d0 b6 3c 1a 3e 41 49 01 bf 5c 7e c4 3e de 94 f3 3e
       0.15062222 -0.505024 0.38377655 0.47574514
0003e0 96 fa 64 be c2 b3 aa 3c fa 84 14 3e 63 1c a9 3e
       -0.22361216 0.020837668 0.14503852 0.3302947
0003f0 e0 09 6b 3d bd bf 41 3f 82 e0 2a 3f d7 1c f0 3c
       0.057382464 0.75683194 0.6674882 0.029310627

conv_ensemble_1.0.bias f4 [16]
000000 9c 42 d4 3d 79 98 ed bd 21 6b 42 3d 76 b5 3e be
       0.10364267 -0.116013475 0.047465447 -0.1862391
000010 85 1f b3 be 72 b2 20 be 7e 73 4d 3d d4 31 26 3d
       -0.34984985 -0.15693071 0.05015897 0.040574864
000020 99 f0 0a be d2 85 9f 3d 1e 97 8e 3d 7e 0c 03 be
       -0.13568343 0.07789196 0.06962417 -0.12797734
000030 6c 81 e5 3c 91 40 92 3d ca d5 e9 bd 44 66 ee be
       0.028015815 0.07141221 -0.1141773 -0.46562397

conv_ensemble_2.0.weight f4 [32, 16, 5, 5]
000000 b5 72 c4 3d 9a 66 df 3c 45 71 cf 3d ae 90 3f 3d
       0.09592191 0.027270604 0.10129026 0.046768837
000010 7b 43 27 bb df ec 1d 3c 92 1a 83 3e 7d 94 c2 bd
       -0.00255224 0.009638994 0.2560621 -0.09500978
000020 b2 8e a7 3d 33 d9 97 bd 6d 0b 4c 3d 33 20 84 3c
       0.08181514 -0.07414474 0.049815584 0.016128635
000030 8a 83 90 3b e4 34 42 3c 2f 68 bd 3c 24 68 8c 3d
       0.004410212 0.01185343 0.023120968 0.06855801
000040 3c 20 03 3d b3 c9 ee 3b 93 0d 35 3d 74 fe 7b bd
       0.032013163 0.007287228 0.0442024 -0.061521962
000050 3c 0a 8d 3d 73 39 18 ba e9 a4 21 bd a2 cd b0 3c
       0.06886718 -0.00058069004 -0.03946391 0.021582428
000060 84 80 74 bc 90 63 4d bd 11 62 fe bb b1 06 1e 3d
       -0.014923219 -0.05014378 -0.0077631553 0.0385806
000070 b2 3e 02 be 0a 56 b6 bd 69 4f 46 3d b3 c9 ca bc
       -0.12719229 -0.089031294 0.048415575 -0.02475438
000080 2f a1 8b bc d4 78 79 3b 8f 33 ba bd bf 1e 07 be
       -0.017044632 0.0038066404 -0.09091865 -0.13195322
000090 95 92 b5 3c ac 15 57 bd cc cb 6b bb b2 11 1d bd
       0.022164622 -0.052510902 -0.0035979627 -0.038346954
0000a0 b0 1a 2b bd eb 5a 0f 3d 5c 1d 6b 3c f9 e3 0b 3d
       -0.041773498 0.034998816 0.014350262 0.03415296
0000b0 2e 57 94 bd 82 ca 8c bc 74 d5 51 3c 9c 18 61 3d
       -0.07243191 -0.017186407 0.012807239 0.05495511
0000c0 75 16 72 3d ef 18 b8 3d fc 66 c4 3d 6b a7 8d 3d
       0.059103448 0.08989131 0.09589955 0.06916698
0000d0 f5 da 4e bd 45 22 98 bd 26 0d 2f bd 89 fa ae bc
       -0.050501782 -0.074284114 -0.04273715 -0.021359699
0000e0 40 07 29 3d 9d 21 74 3d 61 c1 23 3e b0 a4 02 3e
       0.04126668 0.05960237 0.15991737 0.12758136
0000f0 4e 01 05 be 04 7f dc bd 6e 92 9b 3d 2f 9e 5a 3b
       -0.12988779 -0.10766414 0.075962886 0.0033358445
000100 bd e1 1b bd b4 57 4d 3c 2c 2c af bc e9 f2 4d 3c
       -0.038057078 0.012533117 -0.021383367 0.012570121
000110 83 a2 ec 3c 4f 5e 73 3d d4 dc 6f ba 2b 9c 75 bd
       0.028886085 0.05941611 -0.00091500324 -0.059963387
000120 64 1f 85 bd d2 a1 d0 3d fb 3c a4 bd a6 e1 c7 bd
       -0.06500128 0.10187115 -0.080194436 -0.09759836
000130 c6 41 f5 ba 7c 6f 86 bb 52 e9 18 3e 58 ee fe bc
       -0.0018711619 -0.0041026454 0.14932755 -0.03111951
000140 cc 28 5b 3c ba 38 45 bd c4 e1 29 3d 99 47 cf 3c
       0.013376426 -0.0481498 0.041475073 0.025302695
000150 87 aa d2 bd 77 29 20 3e 1e 34 bf bc 55 13 a6 bd
       -0.10286432 0.15640818 -0.023340281 -0.08109156
000160 eb 61 f6 bd 90 ed e1 bd 32 92 d1 bc 0b 79 a6 3d
       -0.12030395 -0.110316396 -0.025582407 0.08128556
000170 8f ae 84 bd 7d 7c f4 bc 53 d3 e1 3c 5f c8 8e 3d
       -0.06478607 -0.029844517 0.027566588 0.069718115
000180 f1 e3 91 3d 83 08 4c bd 6e e1 af bd 31 ff 66 3d
       0.071235545 -0.049812805 -0.08587919 0.056395713
000190 4e 73 9e bb cd 23 0b bd 63 5c 46 bc d0 8b bc 3c
       -0.0048355227 -0.03396969 -0.012106988 0.023015887
0001a0 28 b2 05 be 9b 52 a2 bd dc d8 9b 3c f9 26 43 3c
       -0.13056242 -0.07925912 0.019024305 0.011911147
0001b0 d1 13 51 bd f3 c5 90 3c 85 29 83 bd 05 6e 09 be
       -0.05104429 0.017672515 -0.064044036 -0.13420875
0001c0 7c d4 92 bd 48 27 37 bd 3e 3a dd 3d 22 ce 33 3d
       -0.071694344 -0.044715196 0.108021244 0.043897755
0001d0 7f 00 0a bd 7b f9 8e bd 0b 77 a5 3c d0 f8 86 3d
       -0.03369188 -0.069811784 0.020198366 0.06590426
0001e0 d3 79 7f bc 53 1c 9d bd 08 e4 ce bd cf c6 ae 3c
       -0.01559301 -0.07671418 -0.10102087 0.021335034
0001f0 3f 5f c4 3d d8 3e 30 3d 15 02 81 3d de 58 c3 3c
       0.09588479 0.043028682 0.06299225 0.023846086
000200 02 b8 61 3d 7c 27 90 3d e1 7e 99 bd 7e f4 5b bd
       0.055107124 0.07038781 -0.07494903 -0.053699963
000210 a0 ff 8a 3d 8e 8a d7 3d 86 9f ca 3d d9 50 47 bc
       0.06787038 0.10524474 0.09893708 -0.012165272
000220 86 54 90 3d 7c 34 76 bd fd b3 21 bd 0f 8b 47 bd
       0.070473716 -0.060108647 -0.03947829 -0.0487166
000230 2f c6 ed 3b 7b a3 b0 bd 7f e9 0e bd d1 92 5e bb
       0.0072562913 -0.086249314 -0.034890648 -0.003396202
000240 08 54 89 3b eb ea fb 3c 09 8d a7 bc 29 5c 6f bc
       0.0041909255 0.030751666 -0.020452993 -0.014609375
000250 1b 5e 3c 3d 9b 56 78 3d 4d ea d6 bd f3 e3 f0 bd
       0.045988183 0.06062947 -0.10493908 -0.11762228
000260 a3 f1 de bc 7d ca 2b 3d f6 46 4d bc f3 f9 f1 3d
       -0.02721483 0.041941155 -0.012529125 0.11815252
000270 30 d7 0e 3e 18 13 b8 3c 02 46 4d 3c f1 09 60 bd
       0.13949275 0.022470042 0.012528898 -0.05469698
000280 8b 2a 5d bd 67 0a 13 3d 75 7c 0c bd ed 77 98 bc
       -0.05399565 0.035898592 -0.03429838 -0.018611873
000290 71 62 a9 bd 63 ac 57 3d 4a 6b 2c bd 07 50 46 bd
       -0.08270729 0.052654635 -0.042094506 -0.048416164
0002a0 43 7d 09 3d 89 34 2c 3d 12 86 89 bc 20 17 89 bd
       0.033566725 0.04204229 -0.016787563 -0.06693864
0002b0 13 fa 80 bd ca 28 9d bc d2 85 33 bd fb 8f 2a 3c
       -0.06297698 -0.019184489 -0.043828793 0.010410304
0002c0 60 91 d5 3d bf de f6 bb a0 65 2c 3c 0c 4f 1b bc
       0.10428119 -0.0075338776 0.010522276 -0.009479295
0002d0 57 58 0b 3e 3a 91 3b 3d 84 84 e9 3d 3e 43 a5 3c
       0.13607918 0.045792796 0.114022285 0.020173665
0002e0 89 3a 41 bd ab 1c c1 3d c4 a4 2f bb 47 b9 a8 bd
       -0.047174964 0.09429296 -0.0026801089 -0.08238464
0002f0 25 07 5b bc 7f 4b 04 3c d7 4d c1 bd 5d 00 32 bc
       -0.013368403 0.00807464 -0.09438675 -0.010864344
000300 a9 b5 9f bd 12 00 24 3d d8 a9 68 bb 20 d1 96 3d
       -0.07798321 0.04003913 -0.0035501625 0.07364106
000310 9a e0 a9 3d 7f fa 09 3c 5b c6 e5 bc cf eb 57 bd
       0.082947925 0.008421539 -0.028048685 -0.05271512
000320 73 1f 01 bd ff ec f4 3a 2e a3 0e bd 4d a1 97 3d
       -0.031524133 0.0018686353 -0.03482359 0.074038126
000330 cf 85 3f 3e d2 67 4d be 07 df a4 bd a6 8d 77 3d
       0.18703388 -0.20059136 -0.080503516 0.06043782
000340 f4 8b 89 3d 6e 8f a0 3d fa af 08 3e 3f 55 06 bd
       0.06716147 0.07839857 0.1334838 -0.03279614
000350 98 b8 73 bd f8 ef cb bc b5 4b b9 3c e8 bb 98 bd
       -0.059502214 -0.0248947 0.022619108 -0.07457715
000360 1e 28 13 bb 2a d1 a0 bd 8f a7 38 bd 57 99 39 3d
       -0.0022454332 -0.07852395 -0.04508167 0.045312252
000370 d6 be af 3b 51 d7 e3 3c 5e 33 81 bc d6 c0 f2 3b
       0.0053633256 0.027812632 -0.015771564 0.0074082417
000380 41 56 e7 3c d6 83 df bd a3 40 36 3d 52 70 23 ba
       0.028239371 -0.109138176 0.044495236 -0.00062346936
000390 23 0d 03 3d 77 fa 6e bd 4a da b1 3d ea e3 c3 3d
       0.03199495 -0.05834433 0.086842135 0.095649555
0003a0 82 46 8e bd a9 bd 9f bd 49 26 59 bd 4a 8f 89 3d
       -0.06947042 -0.07799847 -0.053015027 0.06716783
0003b0 d3 96 17 3d 3f ee 84 3c 1d 96 ef 3c 1b f6 61 bd
       0.03700907 0.016226886 0.029246384 -0.055166345
0003c0 a6 32 a7 bc 96 ae 17 3d f0 c5 1b bd f2 a6 90 bd
       -0.020409893 0.037031732 -0.038030565 -0.07063092
0003d0 cf 59 f5 3c 58 33 f6 bc e6 8b e6 bc a4 6e 9c bd
       0.02995005 -0.03005378 -0.02814288 -0.076382905
0003e0 29 b3 b8 bc 15 6a 8e 3d e8 71 03 3d 2a df bc bd
       -0.022546368 0.06953827 0.03209105 -0.09222253
0003f0 1a a3 9c 3c 50 dc 81 3d c5 83 40 3d f6 79 31 3e
       0.019120742 0.063408494 0.047000665 0.1733168

conv_ensemble_2.0.bias f4 [32]
000000 4c 2b a3 bc 6c ad d1 bd 42 0b bf bd 53 31 ac 3d
       -0.019918106 -0.10238156 -0.09328319 0.08407845
000010 8c cc e8 bd 73 5b 55 bd d8 d2 8f bd e1 78 4e bb
       -0.11367139 -0.052089166 -0.07022637 -0.0031505155
000020 92 51 ad bd c1 8b 70 bc 97 44 b3 3c 62 82 8c 3d
       -0.08462824 -0.014681757 0.021883292 0.06860806
000030 b7 ea 6c 3d 91 18 14 3d 75 72 8c 3d 30 e4 a6 bd
       0.05784103 0.03615624 0.068577684 -0.08148992
000040 25 fb 97 bd 01 7c d5 bc ce fb 3e bb ad 64 a4 bd
       -0.07420949 -0.026060106 -0.0029141787 -0.08027015
000050 31 dc f2 bd 7d 5d 19 3c 56 c4 84 bd df bf ce 3d
       -0.118584044 0.009360668 -0.064827606 0.1009519
000060 b6 df 62 bd 5f ea 91 bc 1c ba 2b bd 00 b5 c8 bd
       -0.05538913 -0.017811952 -0.041925535 -0.09800148
000070 91 15 4a bd a9 55 02 3d e4 b2 19 bd 88 7b 95 3d
       -0.049336974 0.031819973 -0.03752412 0.07298952

fully_connected_layer.weight f4 [10, 1568]
000000 fd 68 b8 bc 54 a5 7e 3d 56 8a 33 bc 91 a2 05 3d
       -0.022511 0.062169388 -0.010958275 0.03262574
000010 86 c8 23 be 16 41 4f 3c b1 f8 1b bc c4 23 a0 bc
       -0.15994462 0.012649795 -0.009519742 -0.019548304
000020 56 9f da bb 7f aa 15 bc 4c 60 1e 3d 26 a0 45 3e
       -0.0066718264 -0.009134888 0.038666055 0.19299373
000030 95 7f 83 3d c5 a9 a2 3d 2f 31 42 bd 76 32 33 be
       0.06420819 0.07942537 -0.047410186 -0.17499718
000040 01 0d 97 3b c5 14 5a bc 98 58 54 3d 98 f4 5f bd
       0.0046097045 -0.013310616 0.051842302 -0.054676622
000050 e6 b8 6a 3c ff d2 23 bd 85 7d f2 bc 5c 2a 34 3d
       0.01432631 -0.039996143 -0.029600868 0.04398571
000060 e7 8d c1 3c 9d d1 95 bc 6d 0a c8 bd ba 57 e8 3d
       0.023627235 -0.018288428 -0.097676136 0.113448575
000070 85 e3 0c bd 84 e8 79 bd c3 b4 7c 3d 79 f0 05 3d
       -0.034396667 -0.06101276 0.061695825 0.032700036
000080 e6 f1 90 3c 57 f3 1d bb fb 18 54 bd b6 d7 a8 3d
       0.017693471 -0.002410134 -0.051781636 0.082442686
000090 09 09 89 bc 19 2a f7 3c ac f1 ad bc 09 e4 2c bb
       -0.016727941 0.03017144 -0.021233402 -0.0026381037
0000a0 ea 7a 96 bd 2c 31 2d ba 82 49 8b 3d fb e2 23 3d
       -0.07347663 -0.00066067534 0.0680113 0.040011387
0000b0 2b 39 78 3d a5 d0 90 3d eb 22 ae bd f1 02 9d bd
       0.060601395 0.07071046 -0.08502754 -0.07666577
0000c0 d0 d7 c1 bd 28 35 e6 bb 65 7e ed 3c 11 9a 9f bc
       -0.09464991 -0.0070253797 0.028990934 -0.019482644
0000d0 65 cf 11 3c 88 7b 1d be f2 73 be 3d 20 6a 89 bc
       0.008899544 -0.15379155 0.092994586 -0.016774237
0000e0 25 da 0f 3c 1e 00 a7 bd 32 79 00 bb 25 95 9a 3d
       0.008780037 -0.08154319 -0.0019603488 0.07547978
0000f0 bf 92 2e bc de 54 0a 3e f9 8f 1c 3d 08 b5 3d 3d
       -0.010655104 0.13508937 0.03822324 0.046315223
000100 76 c8 93 bd b3 50 86 3d f6 82 ae bc fb 27 d5 bd
       -0.07215969 0.06558361 -0.021302681 -0.10408016
000110 f0 a0 c5 bd 03 04 af bc b1 3a 34 bd ef 98 8d bd
       -0.09649837 -0.021364218 -0.044001285 -0.069139354
000120 10 e5 54 3d cd fe 8a 3d 75 ed de bd e6 e5 19 3d
       0.051976264 0.06786881 -0.10885135 0.037572764
000130 db 52 07 bc 30 8e aa bd 6b 86 ea bb b3 2d 73 bd
       -0.0082595 -0.08327901 -0.007157137 -0.059369754
000140 4e b9 b9 3c 05 94 3f 3d d4 3f 29 3d 41 d5 90 bd
       0.022671368 0.04677202 0.041320637 -0.07071925
000150 d4 06 30 bd a0 9e 47 bb 3a 7c 72 bc 17 5d 6f 3c
       -0.04297526 -0.0030459538 -0.014800126 0.014609597
000160 f4 cf 54 3d 77 9c 38 3d b8 1a 67 bb bc 50 2b bd
       0.051956132 0.04507109 -0.0035263728 -0.04182504
000170 cd 5f 27 bc 2f d8 41 bd 2f 32 8f 3c f7 81 3d bc
       -0.010215712 -0.04732531 0.017479984 -0.011566631
000180 31 12 9c 3d af b4 71 3c bb e2 e0 3c e8 4f 85 bd
       0.07620657 0.014752551 0.027451864 -0.065093815
000190 4e 19 4f be dc 3c 12 39 68 ab 18 3d 93 9f 51 bd
       -0.20224497 0.00013946317 0.03727284 -0.051177572
0001a0 3e 77 d3 3c 33 01 09 bd 71 dc a5 bd 5a 55 5e bd
       0.025813695 -0.03344841 -0.080986865 -0.054280616
0001b0 2a c3 86 bd e4 dc aa bd ec cd e5 bc ba bb 5a 3c
       -0.06580193 -0.08342913 -0.028052293 0.013350422
0001c0 62 c5 f4 3d 70 5d b6 3d cb 00 f5 bd b1 e9 7e 3d
       0.1195171 0.089045405 -0.11963042 0.062234584
0001d0 da b8 30 3e 9b b7 e9 bc 18 bf f2 3c 6c 18 8d 3e
       0.17258015 -0.028529933 0.029632136 0.27557695
0001e0 b0 41 6c 3d 1d 7e 5a 3d d0 ef 8e bb 6e 26 3c 3d
       0.057679832 0.053342927 -0.004362084 0.045935087
0001f0 2d 72 5d bb 5f 39 38 bd 7e 28 dc 3d e8 1f de bc
       -0.0033789978 -0.04497659 0.10749911 -0.027114823
000200 9b a1 61 3d 2e 91 12 be c2 f0 3e bd 56 eb b5 bd
       0.05508576 -0.14313194 -0.046616323 -0.088827774
000210 3a da 94 3b c8 aa 94 bd fe 95 58 3d 97 c8 26 3d
       0.004542616 -0.072591364 0.05287742 0.04071864
000220 87 2b 3a be 55 65 85 3c 28 d4 65 be 85 05 48 3d
       -0.18180667 0.01628367 -0.22444212 0.04883339
000230 cf ce 2e be 11 9f 02 3e a2 f6 b8 bd 9a 33 ad bd
       -0.17071079 0.12755992 -0.090314165 -0.08457108
000240 02 8b fa bc c7 00 0a be 7a 1a 70 3c a3 2b 51 3c
       -0.030583862 -0.13476859 0.01465475 0.012766751
000250 0a 26 52 bc f8 8b 44 3c ab 44 09 3c f4 c1 2d 3d
       -0.012826452 0.011996262 0.008378188 0.042421296
000260 c8 ee 3f bd 44 1a 94 bc df fe 58 bd 23 0f 94 bc
       -0.04685858 -0.01807893 -0.05297744 -0.018073624
000270 2f 97 93 3d 57 7b 2e bb c8 81 e8 3d 06 a9 4d bd
       0.0720657 -0.002662381 0.11352879 -0.05021002
000280 6d 0e 19 bd f5 bf 29 bc 17 fa 85 bc 2a 1f 4c bd
       -0.037367273 -0.0103607075 -0.016354604 -0.049834408
000290 52 41 ab bb 86 1f 12 3c 8b 85 56 bd c7 c7 a9 bd
       -0.0052262926 0.008918649 -0.05237345 -0.08290058
0002a0 2b 78 28 3b bf 3e 11 3e 86 8e 21 3d 90 74 df bc
       0.0025706391 0.14184092 0.03944256 -0.027277261
0002b0 bd d8 33 bc 7a 64 77 3e 14 2c 87 3c f6 96 2b 3d
       -0.010976967 0.24159423 0.01650051 0.041892014
0002c0 ec e4 b8 3d 75 44 2e 3c 2a 21 1d 3d 7c 9a 41 3d
       0.090280384 0.010636439 0.038361706 0.04726647
0002d0 30 75 3b 3d 6b 91 ea 3b 2b 48 46 3d 45 9f 02 3e
       0.045766056 0.0071584485 0.04840867 0.12756069
0002e0 7e b0 f6 3b 6a d7 89 3d 75 28 34 3d 99 36 b8 3c
       0.0075283637 0.0673054 0.043983895 0.022486972
0002f0 c0 8f 82 bd dd 9c b7 3d 95 61 0e bd 5b e4 e0 bc
       -0.063750744 0.08965466 -0.03476103 -0.027452638
000300 72 0f 76 3b 0a b0 61 3c 00 05 f1 bb 4e 99 90 3c
       0.0037545827 0.013774881 -0.0073553324 0.017651226
000310 18 7f 5c bc de a3 3b be eb 30 ef 3d a6 06 a0 bc
       -0.013458036 -0.18324229 0.11679252 -0.01953442
000320 d4 a5 79 bd 23 51 d6 bd ae 8c 74 bd 6f a2 d2 bc
       -0.06094916 -0.10464694 -0.059704475 -0.02571222
000330 3a 05 0b 3e 32 7c b9 bd a5 94 bc bc 81 47 0f 3e
       0.13576213 -0.090568915 -0.023020098 0.1399212
000340 f2 96 5b 3d f7 9b e2 bc 2e f2 65 3d 95 68 3b bd
       0.05361075 -0.02766226 0.056139164 -0.045754034
000350 ff 7e 61 3d 0e 0f 7b 3d 7c ce a8 3d 70 fd 11 3e
       0.055052754 0.061293654 0.08242509 0.14256835
000360 48 b8 3b 3d 96 d6 c4 3b 9c ac 85 3d c4 ac c5 bd
       0.04583004 0.006007026 0.06527063 -0.09652093
000370 f3 99 a2 bb 50 a9 e1 3c 2e 0e a7 3d 63 d5 1f bd
       -0.0049622 0.027546555 0.081570014 -0.03902186
000380 fe 47 1e 3d f9 2a 29 3b a0 8c 00 bc 48 95 cc 3d
       0.038642876 0.0025812967 -0.007846028 0.09989411
000390 8d ce 84 3d 3f 90 87 bd 2f b4 1d bd 29 58 9d 3b
       0.06484709 -0.0661931 -0.038501915 0.0048017693
0003a0 a1 34 d2 3b a3 e3 6a 3d af 60 b5 bc 30 b8 06 be
       0.0064149653 0.057345998 -0.022140829 -0.131562
0003b0 22 09 84 bd cf 93 5a bb 95 d4 09 bd 1e 4c eb bd
       -0.064470544 -0.003335226 -0.03365 -0.114891276
0003c0 e9 99 83 3d 14 5a 58 3c 69 fd 61 3d 73 2b 32 bd
       0.064258404 0.01320507 0.05517331 -0.043498468
0003d0 4c ca 37 bc 65 80 8d 3d 60 dd 59 bd af 96 93 39
       -0.011217665 0.06909255 -0.053189635 0.00028150293
0003e0 c9 9d 6f 3d 66 34 76 3c 9e 0e 47 bd 82 58 f4 ba
       0.058500085 0.015027141 -0.048597924 -0.00186421
0003f0 44 83 6a bd b6 96 1a be 41 3a ac bb 77 27 f0 3d
       -0.05725409 -0.15096554 -0.005255968 0.11726277

fully_connected_layer.bias f4 [10]
000000 4f 27 6b bc 6c 30 1e bd 62 bf 91 3d 96 ef ca 3b
       -0.014352634 -0.038620397 0.071165815 0.0061931117
000010 f5 da 47 bd 5d 9b 07 be fb d1 0b 3e 23 f1 1c 3d
       -0.048792798 -0.1324286 0.1365432 0.038315903
000020 95 53 1c bc 4b 55 df bc
       -0.009541412 -0.02726235
