3_CNN/models/CovNetNoBatchNorm.pt (torch, 117911 bytes, 6 tensors)

conv_ensemble_1.0.weight f4 [16, 1, 5, 5]
000000 5d 9f f5 3c 82 fc 3a be a6 0f 65 bd b1 8a 7a 3e
       0.029983217 -0.18260387 -0.055923127 0.24466969
000010 a2 d7 e6 3d 58 4a 58 3d 94 0f a3 be b4 c0 89 be
       0.112715974 0.052805275 -0.31847823 -0.26904833
000020 6c 51 9a 3e c9 ec a1 3b 70 1d 5c be 78 da 52 be
       0.30140245 0.004941557 -0.21495605 -0.20591152
000030 0b 19 24 be 82 ad 15 3e 82 9d 47 3d 02 15 07 3e
       -0.16025178 0.14616969 0.048734196 0.13191608
000040 1c 0e 06 bc 1c c9 a9 be 15 9e a9 3e b4 5c 46 3e
       -0.008182075 -0.33161247 0.3312842 0.19371301
000050 96 a7 f4 3d 01 00 0f be d0 a9 1d 38 e9 60 8c 3e
       0.11946027 -0.13964845 3.7589867e-05 0.27417687
000060 f1 6c 4e bd 90 2c 0d 3e 5e ad 65 3e 9a ba 36 be
       -0.050396863 0.1378653 0.22429416 -0.1784462
000070 3f 2b 25 3d 42 d3 60 3e ca d7 ef bd 7f 1b 54 3e
       0.040324446 0.21955588 -0.1171108 0.20713614
000080 d0 c2 bd be b2 25 8a bd 30 86 7a 3e 37 08 fa 3d
       -0.37062693 -0.06745471 0.24465251 0.12208598
000090 c9 d6 f5 3d 39 65 6b be af 40 82 be b1 c6 7a 3e
       0.12003858 -0.22987832 -0.25439975 0.24489857
0000a0 fc 0b 21 be 98 c4 7b 3e 76 cb 3e be 6d e8 27 be
       -0.15727228 0.24586713 -0.18632302 -0.16397257
0000b0 53 2f e8 3b 74 79 86 bd 17 fd f8 3d be 06 67 be
       0.0070857196 -0.06566134 0.12157648 -0.22561166
0000c0 63 0c 92 bc 8a 24 c5 3d 0a 34 4f be f4 93 47 3d
       -0.017828172 0.0962611 -0.20234695 0.048725083
0000d0 28 6a 19 3e 63 7d 0e 3e e0 b4 0e be 6c 0f 29 be
       0.14981902 0.13915019 -0.13936186 -0.16509789
0000e0 13 17 96 bd 45 b0 27 be 0c 2d f7 3d 43 9e 1c 3e
       -0.0732862 -0.16375835 0.12069139 0.15294747
0000f0 3f a2 46 3e b2 7e 6e 3d a5 b1 1a 3e d8 c9 93 3e
       0.1939783 0.058226295 0.15106829 0.28864932
000100 37 2a 6c 3e f7 a8 28 be 2f 16 28 be c1 13 33 3e
       0.23062979 -0.16470705 -0.16414712 0.17488004
000110 58 af 2c be cb 07 90 be 60 d2 94 bd 5f 6b 6b 3c
       -0.16863763 -0.28130946 -0.07266688 0.014368861
000120 d4 42 e0 bd f3 a2 4d be c8 34 d0 bd 18 98 e0 3d
       -0.109502465 -0.20081691 -0.10166317 0.109665096
000130 7d 4f 27 be 62 43 4d 3c fd d6 8d 3e da 93 46 3e
       -0.16338916 0.012528272 0.27703086 0.19392338
000140 a8 4a 0a be a5 6f 0b 3e 7b 7c 90 3e 9f 20 01 3e
       -0.13505042 0.13616808 0.2821997 0.126101
000150 de c1 56 bd 2e a6 4e be 7c 65 74 3e d8 ae cb 3c
       -0.05243098 -0.2018058 0.23866838 0.024863645
000160 6c 4a 15 be f5 43 30 3d 97 bd d2 bd dd 6d 08 3e
       -0.14579171 0.04303356 -0.10290068 0.1332316
000170 82 7b 5e be 8e 2b 61 be 15 29 8f 3d f2 95 b4 3d
       -0.21726802 -0.21989271 0.06990258 0.08817662
000180 0f 9c 15 be 2b 1c c2 bd 98 70 85 be dc 8a df 3d
       -0.14610313 -0.09478029 -0.26062465 0.10915157
000190 5c c1 88 3c 65 6c 72 be 31 05 98 be 18 a7 98 be
       0.016693763 -0.23674162 -0.2969146 -0.29814982
0001a0 37 d5 f6 bd 55 79 0f be 6d 13 ce 3d 66 cd 2f be
       -0.12052386 -0.14011128 0.10062299 -0.17168197
0001b0 b0 56 28 3e 8b 5a 2f 3e 14 14 9e bd bf 49 94 3e
       0.16439319 0.17124383 -0.07718673 0.28962514
0001c0 1d ab af 3e 5f 54 f6 3d 30 47 88 3e 82 0f 43 3e
       0.34310237 0.12027811 0.26616812 0.19048885
0001d0 38 6f 97 3e e6 c6 8d bd 10 4e 11 be 0b 59 87 bd
       0.2957704 -0.069227025 -0.14189935 -0.066087805
0001e0 94 17 23 be 5e 94 61 3d 50 53 77 be 9f a2 3f 3e
       -0.15926963 0.055073135 -0.24152875 0.18714379
0001f0 5a a1 90 be e9 79 86 3d 69 42 8f 3d 7d 9f 00 3e
       -0.282481 0.06566221 0.069950886 0.1256084
000200 bc 54 2c 3e 02 2c e0 3b ad de 0c bc f6 a0 19 3c
       0.16829199 0.0068411836 -0.008598012 0.009376755
000210 e2 c7 57 3e 09 4c aa bd fb 74 88 3d f8 03 d9 bd
       0.21072343 -0.08315284 0.06662937 -0.1059646
000220 8e 3d 07 3e 48 94 60 3e 5b 50 27 3e 1a bb 19 3e
       0.13207075 0.21931565 0.16339247 0.1501278
000230 43 36 3f 3e f3 01 d4 bb 3a da 5c be 84 d3 61 3e
       0.18673043 -0.006469959 -0.21567622 0.22053343
000240 81 10 fb bd da 85 16 be 5b 1e fb 3c 00 da 89 be
       -0.12259007 -0.14699498 0.030654123 -0.26924133
000250 c2 5c 35 bd 7b f5 3e 3d 71 ad 03 3e 4c 1f b4 bd
       -0.044277914 0.046620827 0.12859131 -0.08795032
000260 6a 88 27 3e 61 50 17 be 08 08 bd 3b 32 a8 e9 bb
       0.16360632 -0.14776756 0.0057687797 -0.007130646
000270 18 96 37 bc 59 7b a3 bd b3 a7 5c 3d 12 f3 30 3e
       -0.011205219 -0.07982511 0.053870868 0.17280224
000280 44 7a 81 be 50 48 9f be 6b 95 b5 be fe 2b a3 3c
       -0.25288594 -0.31109858 -0.3546556 0.019918438
000290 89 54 69 3b f3 9f 4e be c7 2e 98 be df 0f 7f be
       0.0035603365 -0.20178203 -0.29723188 -0.24908398
0002a0 0a 78 27 3c d2 b8 3f be 9b 97 a8 3c 64 a1 5e be
       0.010221491 -0.18722847 0.020580104 -0.21741253
0002b0 ef f4 8f bd 6d a4 1f be cf c8 d5 3c 3a 3a 35 3c
       -0.07029139 -0.15590067 0.02609673 0.011061246
0002c0 73 ce b0 be 98 92 8c bd f1 4c 0c be 31 63 89 3d
       -0.34532508 -0.06863898 -0.13701226 0.067083724
0002d0 fa 11 50 be 2d 9c e7 bd dd 47 c1 be 59 25 a0 be
       -0.20319358 -0.11309085 -0.3775014 -0.31278494
0002e0 cd d1 33 3e a9 91 d2 3d 42 db b9 bd 75 a2 8b 3c
       0.17560501 0.10281689 -0.09075023 0.017045239
0002f0 08 8b a1 be 11 be 60 be ee 90 3e 3e 7f 6e 72 bd
       -0.31551385 -0.21947505 0.18609974 -0.05918741
000300 6f 18 60 3e d7 a1 26 bd 94 48 dc bd 0e 32 77 3e
       0.2188432 -0.040681686 -0.10756031 0.24140188
000310 8d 5c de 3e a5 83 e8 3d 00 9d da 3d 89 b6 9f 3e
       0.43429986 0.11353234 0.106744766 0.3119395
000320 74 12 1e be bc 43 76 bd 64 ac 40 3e 39 cf 53 3e
       -0.15436727 -0.06012319 0.18815762 0.20684518
000330 9b 31 2e be 24 dd 17 be f3 04 ed 3b 14 48 91 3d
       -0.1701111 -0.14830452 0.007233256 0.07093826
000340 57 ab ec 3d a8 e3 9e bd 14 6d 40 3e 98 36 c0 bc
       0.11556118 -0.07758266 0.1879161 -0.023463532
000350 14 02 20 3e a3 18 59 3e b2 00 f0 bc 71 05 f8 3d
       0.15625793 0.21200804 -0.029297207 0.12110413
000360 44 72 3f 3e 78 a2 1e be ac 59 0e be c5 89 8d 3d
       0.18695933 -0.15491664 -0.13901395 0.06911043
000370 96 a6 03 3e 60 d5 50 bd cf 51 2a bc 54 50 f2 3d
       0.12856516 -0.05098474 -0.010395481 0.118317276
000380 2a 8d 41 3e ed de 9d bd d8 48 84 3d 8c 9f 33 3e
       0.18901506 -0.07708535 0.06459206 0.17541331
000390 6f c1 63 3e b8 39 fb 3c ef 13 a7 be 80 45 45 be
       0.22241758 0.03066717 -0.32632396 -0.19264793
0003a0 1d 0d 32 be 3f 39 08 3e ce b1 7f 3e 05 7a 4a be
       -0.17387815 0.13303088 0.24970171 -0.1977311
0003b0 c8 97 0f 3e d7 5a 95 bd 7d 7e fa 3d 08 11 0c 3e
       0.14022744 -0.07292717 0.12231157 0.13678372
0003c0 c7 e5 98 bc 17 2f e4 3d 8f af 6c be 55 7d 76 bc
       -0.018664254 0.11141794 -0.23113845 -0.01504453
0003d0 7b ee 44 3e be 08 32 3d 4d 34 83 bd 6e 78 f9 bd
       0.19231598 0.04346537 -0.0640646 -0.12181173
0003e0 c2 d8 1d be f0 f1 70 3e 53 0e 6d 3d 54 d3 41 3e
       -0.15414718 0.23529792 0.05787499 0.18928272
0003f0 1f e9 b9 3e c4 9c d6 3d dd 27 b6 bc ef 57 df bd
       0.3631067 0.104791194 -0.022235805 -0.10905444

conv_ensemble_1.0.bias f4 [16]
000000 af fc 2e 3e 41 94 00 bd 27 9f ca bc d7 fc 9d bd
       0.17088579 -0.031391386 -0.024734093 -0.07714241
000010 60 c4 06 3d 43 01 34 be b1 1c 2d 3d 6e f3 08 3d
       0.03290212 -0.17578606 0.04226369 0.033435278
000020 f3 a3 81 3e 12 b9 18 3e 01 e7 52 3e bb d0 7b 3e
       0.25320396 0.14914349 0.20595933 0.24591343
000030 ba e2 75 3e 61 50 7f 3e ad dd 02 3c e8 42 29 bd
       0.2401227 0.24933006 0.007987422 -0.041323572

conv_ensemble_2.0.weight f4 [32, 16, 5, 5]
000000 26 47 bb 3c e6 39 93 bc 37 d2 c8 bc 61 a0 12 bd
       0.022861075 -0.017971944 -0.0245143 -0.03579748
000010 74 ea 86 bb 97 d6 c1 3d 77 e6 8d bd 82 7c 14 bd
       -0.0041173045 0.09464758 -0.06928723 -0.036251552
000020 55 b5 84 bd 91 ac 85 bd aa 03 34 3c c0 7b a5 bd
       -0.06479899 -0.06527055 0.010987202 -0.08080244
000030 32 93 5e bd 74 85 3e bd 00 b0 f9 39 d8 da f3 3d
       -0.054339595 -0.04651399 0.0004762411 0.119069755
000040 35 3c b1 bd e3 2b 14 bd 56 a2 21 3d c6 66 9e 3d
       -0.08654062 -0.036174666 0.039461456 0.07734446
000050 1b b0 a7 3d 85 8b b3 bc 4b 11 b0 bd b5 84 37 bd
       0.08187886 -0.021917114 -0.08597048 -0.044804294
000060 89 29 eb 3c fb 67 a0 bc 67 e9 39 3d 78 76 1e bc
       0.028706329 -0.019580832 0.045388605 -0.0096718
000070 76 cb 13 bc 2e 39 db bc 0a 4a 76 3d cc 92 ff 3c
       -0.009020677 -0.026760664 0.060129203 0.031197928
000080 2c aa d1 bd c6 fe 6d bc 3b bc ea bc 89 5d 73 3d
       -0.10237536 -0.014526075 -0.028654208 0.059415374
000090 31 a9 af 3c b7 2a f8 bc 9a 3c b3 3b f8 cc 48 bd
       0.021442981 -0.030293806 0.0054698708 -0.0490236
0000a0 5d 3b e0 3b 54 4b 97 bc e4 4e 16 bc c6 df 2e 3c
       0.006843014 -0.018468536 -0.009174082 0.010673469
0000b0 44 11 25 3d b7 99 dc 3c 16 a6 8c bb 0a 7c e6 bc
       0.04029967 0.026928766 -0.00429226 -0.028135318
0000c0 ab 0b 10 bd a5 6a db 3c 7d 68 3e 3c ef f5 c3 3c
       -0.035167377 0.02678425 0.011621592 0.023920981
0000d0 18 26 c6 bc 32 dc 29 bd 92 94 c5 3c 26 d9 02 bd
       -0.024188086 -0.04146976 0.024118695 -0.03194537
0000e0 77 6d 33 bd de ec 42 bc 65 3f 4e 3b e4 59 0b bd
       -0.043805566 -0.011897294 0.0031470892 -0.034021273
0000f0 35 b5 fc 3c 52 ac 77 3d 8d ae 54 3d 22 a8 f7 bb
       0.030848125 0.06046707 0.051924277 -0.007557885
000100 48 3c 90 3c 5a 09 08 bd 12 57 cf 3c 50 38 85 bb
       0.01760687 -0.033212043 0.025310073 -0.004065551
000110 4b 2d 52 bd 17 ef 74 bc 80 f4 f6 ba d8 95 c0 3c
       -0.051312726 -0.014949582 -0.0018841177 0.023508951
000120 d4 9f 28 bc 4f b1 76 bd ec 46 ca bc e8 83 b7 bd
       -0.010292012 -0.06022769 -0.024692021 -0.08960706
000130 f2 af 32 3d 91 98 59 bd 95 5c b9 bc 76 d4 fa bc
       0.043624826 -0.053124014 -0.022627154 -0.030618887
000140 83 cf 7b bc 49 03 0b bd ea 97 7e bb fa ae 03 bd
       -0.015369299 -0.03393868 -0.0038847872 -0.032149293
000150 f4 bf 50 bd cd bf 6e bd 27 3d 76 bd c1 ca 11 3d
       -0.05096431 -0.058288384 -0.060116913 0.03559375
000160 c7 8f a0 3b 26 40 bb 3c 4c 08 62 bd 2d f4 9d bc
       0.004899952 0.022857737 -0.055183694 -0.019281471
000170 5e f1 20 3c fc d3 2d 3d c1 b0 c0 3b 0d 4d be bc
       0.009823171 0.042438492 0.0058804457 -0.0232301
000180 1c 0d 9d 3d 3d 9c 3a 3d fc f6 0d 3d 8e ad ff 3c
       0.07668516 0.045559157 0.03465937 0.031210687
000190 15 3f e4 3c 78 6e 7e 3d 5c d3 02 bd 2f 06 fc 3b
       0.027862111 0.06211707 -0.03193985 0.007691167
0001a0 3f 92 b0 bc bd 47 67 3d 0f 60 82 bb 66 b8 06 bd
       -0.02155411 0.0564649 -0.0039787362 -0.0328907
0001b0 a8 e1 25 bb b2 f6 2f bd d1 19 9e 3d 03 17 89 bc
       -0.0025311504 -0.042959876 0.07719768 -0.016734606
0001c0 cc 39 c2 bc c2 6a 20 bd 3d 91 87 bc 91 e1 51 bd
       -0.0237092 -0.039164312 -0.016548747 -0.051240508
0001d0 c0 b1 80 bc 7b 41 31 bc 78 6e f2 bc 99 56 91 ba
       -0.015709758 -0.010818834 -0.029593691 -0.001108843
0001e0 37 76 ba bc 1a 4a 27 3d f9 b7 b3 bc 70 52 60 bc
       -0.022761447 0.040842153 -0.021938311 -0.01369153
0001f0 2f a8 85 bc 11 04 87 bd 34 9c e0 3c 00 7b 8f bb
       -0.016315548 -0.065925725 0.027418233 -0.0043786764
000200 a2 9a 5e bd 01 cb 9f bb 8d c3 80 bd e2 65 06 3d
       -0.054346688 -0.004876495 -0.06287298 0.032812007
000210 8b 43 58 3b b5 13 9f 3c 68 fe 1a 3c d1 b0 df 3c
       0.0032999243 0.019418577 0.009460069 0.027305992
000220 c0 11 86 bd bd 27 54 ba e0 2e ea 3c 3c e4 4d 3d
       -0.06546354 -0.00080930797 0.028586805 0.05026649
000230 01 df 94 bc 51 cf ec bc 5f 6f af 3c 4b 0c 54 bd
       -0.018172743 -0.02890745 0.02141541 -0.051769536
000240 ba c9 f5 bb 4a d1 01 bd 2c e3 dc 3c 81 ee 4b 3b
       -0.0075008543 -0.031693734 0.026963793 0.0031117501
000250 b9 44 a5 3c 9a e0 c6 3a 2b 34 89 3d 62 f8 e9 bb
       0.020174371 0.0015173138 0.066994034 -0.0071402052
000260 dd 26 d8 3b 9e 03 e8 3c 93 3d e0 3c e7 a2 49 3d
       0.0065964297 0.028322037 0.02737311 0.04922762
000270 ec 15 d6 bc bb e1 96 bc 34 75 c4 bc a4 26 c5 3c
       -0.0261335 -0.018418184 -0.023981668 0.024066277
000280 d4 7d 99 bc 1b df 1f bb 0c d6 79 bc 90 88 af 3a
       -0.018736757 -0.0024394456 -0.015248787 0.0013392139
000290 cb b3 b5 3c 69 2c cb bb 56 6d c8 bc 42 a0 8e bc
       0.022180459 -0.0062003625 -0.024466198 -0.017410401
0002a0 53 3f 16 3d d4 10 c5 bc 3b ea 24 bd 0c b5 29 bd
       0.036681484 -0.024055876 -0.040262442 -0.041432425
0002b0 c5 57 12 bd a9 ba 12 bb 1e 5c 38 bc 69 be 4f bc
       -0.035728235 -0.002238909 -0.011252431 -0.012679675
0002c0 95 67 83 3d a8 d4 72 bc eb 2e fe bc bf 6a 4b bc
       0.06416241 -0.014821209 -0.031028232 -0.012415587
0002d0 d9 b8 29 ba 20 db 7c 3d e2 32 0e bd 18 37 1b 3d
       -0.0006474383 0.06173241 -0.034716494 0.03789434
0002e0 1d d6 b2 bc 5f 0f 36 bd 8c 45 a8 3c 3b 71 74 3d
       -0.021830613 -0.044448253 0.020540975 0.059678297
0002f0 d4 2f dd 3c 13 13 a3 bb f7 15 52 bd dd e8 24 3d
       0.027000345 -0.004976639 -0.05129048 0.04026114
000300 29 d6 54 3c 82 47 4a 3d 02 fe ea 3c 43 cb ff bb
       0.012990513 0.0493846 0.028685573 -0.007806213
000310 61 d4 19 3c cd 7e 45 3b 45 d3 47 bd 48 08 3f bc
       0.009389014 0.0030135394 -0.048785467 -0.011659689
000320 fc 12 09 bc 7e 09 00 bd 45 f6 28 3d 58 99 86 b8
       -0.008366343 -0.031259052 0.041250486 -6.4181804e-05
000330 e3 32 25 3b 91 fe f0 3c 71 db 31 bc 04 ce 5c 3d
       0.0025207333 0.029418262 -0.010855542 0.05390741
000340 74 d6 aa bd e8 23 86 3c a6 bc 36 3c 6e 2c 5e 3c
       -0.08341685 0.016374543 0.011153376 0.013560398
000350 b9 4e 3b bc 70 37 94 3c c3 fe c6 3a 22 ca 8f 3d
       -0.011432343 0.01809284 0.0015182126 0.07020976
000360 82 31 4f bd d9 6d dd bc 34 0c 02 bd b0 21 45 3d
       -0.050584324 -0.027029919 -0.03174992 0.04812783
000370 5e 66 36 3d 51 79 87 3c 44 a2 4a 3d 55 cb 3b bd
       0.04453122 0.01653734 0.049471155 -0.04584821
000380 fc 21 39 bd cd e2 86 bc b1 3f 1f 3c 1c 96 0e bd
       -0.045198426 -0.016465569 0.009719775 -0.034811124
000390 d6 96 44 bd 88 b7 a8 bd f4 78 0d bd 67 d9 2b bd
       -0.04799541 -0.08238131 -0.034539178 -0.041955378
0003a0 57 58 5a bd 4f a2 5c bd 89 f4 33 bb 9c 67 56 3d
       -0.053306904 -0.053865727 -0.0027458987 0.052344903
0003b0 04 ba 4c 3c 30 da 82 bd b4 e0 a0 3a 4e fb 52 3d
       0.012495521 -0.06389272 0.0012273998 0.051509194
0003c0 31 63 c9 3c d8 64 e0 bc 34 fe 52 3b 6e 99 21 bd
       0.024583431 -0.027391836 0.0032194974 -0.039452963
0003d0 99 13 90 3c a2 31 9a 3b f7 ee dc bc e1 7d 8b bb
       0.01758747 0.0047056237 -0.026969416 -0.0042569493
0003e0 96 e1 1f bd 6c 45 30 3d 05 7d 95 3b fb 37 11 3c
       -0.039033495 0.043034956 0.0045620226 0.008863444
0003f0 36 61 5e 3c 5d b8 5f bd ea ce 8f 3b f0 95 af bc
       0.013572982 -0.054619182 0.0043886798 -0.0214338

conv_ensemble_2.0.bias f4 [32]
000000 b5 4e 4d 3d a4 54 15 bc c7 b6 05 bd 51 4c 57 bc
       0.05012389 -0.009114418 -0.032645013 -0.013140754
000010 0f 5e 15 3d 4f 81 b0 bc 65 45 9b 3c aa f8 0b bd
       0.036466654 -0.021546034 0.018953988 -0.03417269
000020 97 f8 45 bc 31 51 cf 3c f4 8b 34 bd 0d 10 ee 3c
       -0.012083194 0.02530727 -0.044078782 0.029060388
000030 96 87 fb bc a4 23 5b bd d9 fc fd bd 63 e8 e0 bc
       -0.0307043 -0.053500786 -0.124017425 -0.02745456
000040 e9 24 7c 3c 63 d3 04 bd 28 68 42 bd 37 f5 6e bd
       0.015389659 -0.032428157 -0.047462612 -0.058339324
000050 40 b2 51 3d f6 5e 63 3c 77 ef 2b 3c 4c 9e e4 bb
       0.051195383 0.013877621 0.010494105 -0.0069768783
000060 5d f8 57 bd 5e 3e 49 bd 8a ee e1 3b cd dd 53 3c
       -0.052727092 -0.049131744 0.006894891 0.012931299
000070 31 d2 00 3d 68 d8 d6 ba e8 55 80 3a cb 16 2e 3c
       0.031450454 -0.0016391398 0.0009791227 0.010625551

fully_connected_layer.weight f4 [10, 1568]
000000 d1 27 5e 3d 98 6b fc 3c db 63 1b 3d ff 84 2d 3d
       0.05423719 0.030813023 0.037937026 0.042363163
000010 6e b5 31 bd f8 99 aa 3b f7 bb 01 3d eb 2e 11 3c
       -0.043385915 0.005206343 0.031673398 0.008861284
000020 83 09 07 bc 8d 7f c5 3d 77 0f e7 3c 0b 25 81 bc
       -0.008242014 0.09643469 0.028205616 -0.015764734
000030 be bc 0e bd b8 b2 ac 3c 3a 90 2c bc a6 58 c1 bc
       -0.034847967 0.021081313 -0.010532433 -0.023601841
000040 fd 29 d5 3c 8c 61 12 bb 15 6c 33 3c 49 a9 6d bd
       0.026020998 -0.0022335974 0.010951062 -0.05802277
000050 e9 64 15 3c e2 d7 a8 3c 95 1c 8a bc c6 c7 fc bc
       0.009118297 0.020610753 -0.016859332 -0.030856978
000060 3e 12 96 3c 42 4d 22 3d f7 d8 ba bd 0a 0e 27 3c
       0.018319245 0.03962446 -0.09123414 0.010196218
000070 91 18 79 3d 1c 9c f2 3c d6 c2 1b bb 27 b2 d5 3c
       0.060814444 0.029615454 -0.0023767254 0.026085926
000080 e4 5d 4a bc df b7 b0 bc 85 e2 0b 3b 34 c7 59 3d
       -0.012351487 -0.021572052 0.0021344733 0.05316849
000090 c2 95 5e bd 39 3e f1 3d cc ff e2 3c 12 70 42 bd
       -0.05434204 0.11779446 0.027709864 -0.04747016
0000a0 3e 8d b0 3c 56 7f 41 bd b6 9b 4e 3d d3 4c 2a bd
       0.021551725 -0.047240578 0.050441466 -0.04157717
0000b0 ec fa 2d 3d 36 dc 84 bc 88 b6 14 bd 28 6d 6f bc
       0.042475626 -0.016218286 -0.036306888 -0.014613427
0000c0 74 c7 13 bd c3 3d a6 bc be 56 7e bc dc 6a 47 3d
       -0.036078885 -0.020293122 -0.015523611 0.048685893
0000d0 85 7a 41 3d cf a4 01 bb 66 d4 b5 3d 76 97 3e bd
       0.047235984 -0.0019782071 0.088784024 -0.046531163
0000e0 e1 5e 63 3d 23 77 3f 3c 3a 2d 05 3d 31 0b 41 bd
       0.055510405 0.011686119 0.032513835 -0.047129814
0000f0 45 bb 1d 3d 01 29 03 3e 95 b3 0b bd f7 b3 20 3e
       0.038508672 0.1280861 -0.03410681 0.15693651
000100 c1 28 39 3d 17 c9 71 3d 5d 51 40 3d 46 4f 83 bc
       0.04520488 0.059029665 0.046952594 -0.016029011
000110 ff 0c d8 3d ab ba b4 3c 8d dc 8f bc 1c 92 a7 bd
       0.10549354 0.022061666 -0.017561221 -0.08182165
000120 18 ae 07 3d 38 8a 21 bd 47 ed c5 bc d3 d7 d7 3c
       0.033125013 -0.039438456 -0.024160994 0.02634803
000130 be e9 31 bd 1a dd 6f bb 3d d0 a5 bc be 56 78 bc
       -0.043435805 -0.0036600293 -0.020240897 -0.0151574
000140 9a 0d 82 bd db 2f c6 bc 5b 12 2b bc 39 c2 a9 bd
       -0.063502505 -0.024192741 -0.010441388 -0.08288998
000150 cc 84 2b bd 0e 3e 11 3d f4 f3 78 bd d2 da 28 bd
       -0.04187469 0.03545957 -0.060779527 -0.04122431
000160 19 f9 c7 bc 97 ae bb bc 8c c1 7a bd 64 25 e0 bb
       -0.024410771 -0.0229104 -0.061219737 -0.006840395
000170 41 a6 9e 3d 66 6e 3a bd c9 5a a6 bd ef b2 16 3d
       0.07746554 -0.04551544 -0.08122785 0.036791738
000180 9d 1c d2 bd 77 6f 48 bc 1c 5c 77 bc b6 ad c9 bc
       -0.10259364 -0.012233607 -0.015097644 -0.024618965
000190 91 74 18 3d 24 f7 0c bd 34 22 95 bb c8 8d f7 bb
       0.03722054 -0.03441538 -0.0045511965 -0.0075547434
0001a0 b4 7d 0f bc 24 7f 38 3c 19 52 c5 3c 79 57 24 3c
       -0.008757997 0.011260781 0.024086999 0.010030621
0001b0 be 42 ca 3b f4 b6 8b 3b 5d ed 4a 3d 01 25 9c bc
       0.006172507 0.004263753 0.049542774 -0.019060614
0001c0 89 cd 96 3b d3 a3 36 bd d6 80 1d 3d 46 0d 49 bb
       0.0046021384 -0.04458983 0.038452946 -0.0030678078
0001d0 56 69 f1 3b 7f f7 f8 bb 62 db 31 bb 02 11 f5 3a
       0.0073672934 -0.007597863 -0.002713882 0.0018697085
0001e0 b1 6e 23 bd 7b 0d 7b bb 8e a3 17 3c 96 11 8c 3b
       -0.039900485 -0.0038307596 0.009255303 0.0042745573
0001f0 6d c4 e8 3c 98 11 bd 3c 25 e2 d2 ba 7f 7c 82 bc
       0.028413976 0.023079678 -0.0016089125 -0.015928505
000200 8c 30 d9 bc 05 5c b5 bc 67 02 dc 3b 38 90 63 bc
       -0.026512407 -0.022138605 0.0067141536 -0.013889365
000210 7a 4e a5 bc 5f 6a 94 bc 3e d1 35 bc 38 5b bb bb
       -0.020179022 -0.018117128 -0.0110972505 -0.005717661
000220 b1 d1 84 bb 5c ed ad 3c 86 f8 8b bc 52 6d 71 bc
       -0.0040533175 0.021231346 -0.017086279 -0.014735537
000230 03 a8 b5 bc 8b ab b1 3c 82 ff ef 3a 05 da 63 3c
       -0.02217484 0.021688243 0.00183104 0.01390696
000240 a6 30 2b 3b 94 23 ea bc 34 46 a9 3c d1 43 b9 3c
       0.0026121526 -0.028581418 0.020663358 0.022615345
000250 01 4f dd 3c f1 5b 88 bd e8 4f 4c bd 15 3e ee bc
       0.027015211 -0.066581614 -0.049880892 -0.029082337
000260 f3 ca d2 bb 67 94 bc bc a7 60 b2 3d 09 50 e4 bc
       -0.006432885 -0.023019983 0.08709841 -0.027870195
000270 5c d7 e8 3c 65 cb 81 3d 54 f9 f2 3c f4 18 38 bc
       0.028423004 0.063376226 0.029659905 -0.011236418
000280 6b 62 dc bb fd 82 98 3d cd 3b 6e 3d b9 fe 78 bb
       -0.0067255995 0.07446859 0.0581625 -0.0037993623
000290 4e 46 48 3d a2 7a 67 3d d8 5a 7e 3d 76 cb b5 3c
       0.048895173 0.056513436 0.062098354 0.022191744
0002a0 c1 33 d4 3d 0b 13 89 3d a4 1f 14 bc f7 22 87 3c
       0.10361434 0.06693085 -0.009040747 0.016496165
0002b0 8b 72 84 3c ed 14 c4 3d cd 48 89 3d f6 e5 1b bd
       0.0161679 0.09574304 0.06703339 -0.038061105
0002c0 77 8f 8d bd 64 95 3d bd 7e bd c0 3c fb 83 9f 3c
       -0.06912129 -0.046285048 0.023527857 0.019472113
0002d0 b6 8a 0d 3d 9d c2 20 3c 29 25 ae bd cb 3a 6a bd
       0.034556113 0.009812024 -0.085031815 -0.057184976
0002e0 f9 f7 38 bd 3e 66 d5 3c 84 16 a3 bb b8 33 b0 bc
       -0.04515836 0.02604973 -0.0049770493 -0.021509036
0002f0 80 5f 94 bd cd 32 c9 bc 18 54 ae bc e2 4f 21 bd
       -0.07244778 -0.024560357 -0.021280333 -0.039382823
000300 08 dd 81 bd 4b 11 3c bc 4d 00 6a bd a1 29 c0 3b
       -0.063409865 -0.011478732 -0.057129193 0.0058643376
000310 82 b4 3d bc a7 46 b3 ba fd 08 0e bd ed 1a f3 bc
       -0.011578681 -0.0013677672 -0.03467654 -0.029675925
000320 8d 5f a2 bc 71 8b 02 bc 65 54 39 3c 88 fe 52 3c
       -0.019820953 -0.007967816 0.011311625 0.012878068
000330 bb c0 5c 3d a8 b8 0d 3d e1 8a 05 3d e0 43 9a 3b
       0.05389474 0.03459993 0.03260315 0.0047077984
000340 fa 9d 42 3d 6b 32 56 3b 71 3b 24 3c 64 93 60 bc
       0.04751394 0.003268386 0.010023938 -0.013707016
000350 f8 1c 94 b9 76 4a a2 bc f5 36 c3 3c c3 36 8b 3d
       -0.00028250343 -0.019810896 0.023829916 0.06797554
000360 53 8d 4b 3c d3 36 3f 3d a2 27 ac 3c b7 bf 69 3d
       0.012423831 0.046683144 0.021014992 0.0570676
000370 df c7 59 3c 0c b6 a1 3c 3e b9 5e 3c 78 70 d7 3c
       0.013292282 0.019740127 0.01359397 0.026298746
000380 16 9d 5e bd 9b 65 6f 3b a1 01 76 bc 9a ca 5f 3c
       -0.054349028 0.0036529067 -0.015015037 0.013659144
000390 e4 40 4c 3c df 42 f1 bc 61 92 03 3d ab 61 d9 bc
       0.012466643 -0.029450832 0.03212202 -0.02653583
0003a0 17 2b 27 bc 9e a7 6e 3c b1 d0 9b bc d5 68 22 bd
       -0.0102031445 0.01456633 -0.01902041 -0.039650757
0003b0 0b e8 bc bc 13 6e 52 3c 82 a4 55 bd 7e 93 5c 3c
       -0.023059865 0.012843627 -0.05215884 0.013462899
0003c0 c5 4f 62 bd 0c a9 1a bd 12 2b b9 bc fc 67 27 bd
       -0.055251855 -0.037758872 -0.022603545 -0.04087065
0003d0 39 4c 9d bc 47 05 9e 3c 96 6d 62 3b 48 22 43 3d
       -0.019201385 0.019289626 0.0034550182 0.047640115
0003e0 04 8c 11 3d 34 4d e3 bc e0 86 97 3c a6 66 88 3b
       0.03553392 -0.027746774 0.01849693 0.0041626273
0003f0 f7 bb 8c 3c 02 f8 31 bd c3 91 6a 3d 06 b0 0e 3d
       0.017179472 -0.04344941 0.057267915 0.034835838

fully_connected_layer.bias f4 [10]
000000 d9 2d 09 3c 31 35 5b bd e4 64 39 3a f6 72 4d 3d
       0.008372747 -0.053517524 0.0007072224 0.050158463
000010 43 5e 03 bc cf 6d 82 bd 44 2b 81 3d 27 16 db 3c
       -0.008018079 -0.063686006 0.063070804 0.026743961
000020 12 42 ba bc 54 45 22 bd
       -0.022736583 -0.039616898
