3_CNN/models/CovNetBatchNorm.pt (torch, 121333 bytes, 14 tensors)

conv_ensemble_1.0.weight f4 [16, 1, 5, 5]
000000 e0 72 81 be f5 73 d9 bd c4 9e 1f be 51 12 71 3e
       -0.25282955 -0.1061782 -0.15587908 0.23542143
000010 8b 94 48 3e 56 9f 8b 3d 36 26 a2 bd e7 83 e5 3d
       0.19587915 0.068175 -0.079174444 0.11206799
000020 f6 d9 23 bd 86 54 91 bd 2a e1 e5 bd 9e 09 22 be
       -0.040002786 -0.070962 -0.11224587 -0.15823981
000030 1c 5e 62 3e 1d 74 25 be a1 bb 05 3e eb 06 72 3e
       0.22106212 -0.16157575 0.13059856 0.23635451
000040 5e 40 40 ba a1 86 15 be ec d2 f0 bd da 6d 20 be
       -0.000733381 -0.14602138 -0.1175898 -0.15666905
000050 3b 5d 95 bd 5c 93 55 3e d4 a4 e3 3d 5c 14 c8 bd
       -0.07293173 0.20856994 0.11115423 -0.09769508
000060 41 3a 45 be c2 5b 0f 3e 22 1d ed bd 88 d1 6b 3e
       -0.19260503 0.13999847 -0.11577822 0.23029149
000070 1f 94 69 3d 87 5d 14 3e 3b 64 31 bd 0f 4a 60 be
       0.057026025 0.14488803 -0.043308478 -0.21903251
000080 a0 4a 40 be 96 a7 9d bc 20 50 2f 3e ad 1e e2 3d
       -0.18778467 -0.01924495 0.17120409 0.11041007
000090 c7 7d 81 be ad 6f 3f bd 7a 62 47 3e d5 a5 18 3d
       -0.25291273 -0.04673736 0.1947116 0.037267525
0000a0 49 ef 28 3e ed a9 86 3d f3 95 1f be f5 29 67 be
       0.1649753 0.065753795 -0.15584545 -0.22574599
0000b0 a3 2d aa bd 4d 2e 47 3e 11 da d0 bd e2 b3 4b 3e
       -0.08309486 0.19451256 -0.10197843 0.19892839
0000c0 c7 ff 53 3d 9e 91 26 be c4 5d 41 3e b8 c2 04 be
       0.0517576 -0.16266486 0.18883425 -0.12964904
0000d0 f5 16 19 3e 89 57 bb 3d db 64 a6 3d a8 d7 05 3e
       0.14950164 0.091475554 0.081247054 0.13070548
0000e0 ce f5 04 3d 47 60 3d bc a6 40 e9 bd 70 e0 0d be
       0.03246098 -0.011558599 -0.11389284 -0.13855147
0000f0 67 5a d5 bd ba 08 81 bd 8e d3 75 bc de f1 53 be
       -0.104176335 -0.063004926 -0.015004052 -0.20697734
000100 48 a8 1e be 8c ca 2b 3e 16 e6 03 3d 9b bd 17 be
       -0.15493882 0.16776484 0.03220185 -0.14818422
000110 c8 63 cb bd 24 6b 64 be 87 ca a8 bd fa bc 8e bd
       -0.09931141 -0.22306496 -0.08241754 -0.06969638
000120 5f cf 27 be b0 b1 ce bd ac 71 e3 bc 47 be eb bd
       -0.163877 -0.10092485 -0.027764164 -0.11510902
000130 a8 19 40 3e f8 db 4b 3d 02 0d 43 bd 4d 00 b0 3d
       0.18759787 0.049770325 -0.047619827 0.08593807
000140 dd 46 96 3d 27 a5 2a 3e 43 27 ab 3d 67 8d 84 be
       0.07337735 0.16664563 0.08357098 -0.2588913
000150 aa 37 0f bd 9c 29 3a be 98 37 ca 3d 6e 71 af 3d
       -0.034965195 -0.18179935 0.09873885 0.08566557
000160 a1 23 01 be e9 c6 7b 3e 07 38 c1 3d 5b 17 3b bd
       -0.12611248 0.24587597 0.094345145 -0.04567657
000170 0c f3 86 3d 84 2d ff bd 2e 7e 5d 3e 9d 9a 09 3e
       0.06589326 -0.12459853 0.21630165 0.13437887
000180 db c4 b3 bd cf a6 0b bd a2 a5 34 be 1d 72 44 be
       -0.087777816 -0.034094628 -0.17641309 -0.19184156
000190 bf 2e cc bd 46 75 13 bd 2a 1a 64 3d d2 2d 42 3c
       -0.099698536 -0.036000513 0.055689014 0.011851745
0001a0 80 c1 3d 3e 28 3a 3d 3e b7 00 54 bd 54 8c b8 3d
       0.18530846 0.18479216 -0.051758494 0.090111405
0001b0 6d c6 d3 3d 3a e5 10 be 5f f8 34 3e 9d 1f df 3c
       0.10340581 -0.14149943 0.17672871 0.027236754
0001c0 23 47 89 bd f4 57 01 be 85 f1 75 be 44 15 c8 bd
       -0.067030214 -0.12631208 -0.24017914 -0.09769681
0001d0 62 20 70 be 97 1e 70 bc 91 ef dd bd 95 3c 3f 3e
       -0.23449853 -0.014655731 -0.10836709 0.18675454
0001e0 ab dc b6 3c 7d b0 ed bd 3d c5 43 3e 11 88 83 3e
       0.02232202 -0.11605928 0.19118209 0.25689748
0001f0 eb 24 38 be 15 39 98 be 6f 3b 7b 3c 76 f0 17 3e
       -0.17982833 -0.2973105 0.015333994 0.14837822
000200 fe df 36 3e 88 99 33 be 60 cb 24 3e 60 4e 16 3e
       0.17858884 -0.17539036 0.16093206 0.14678335
000210 3b 45 b0 3d 70 54 48 be aa b9 ff bd 66 94 79 3b
       0.08606955 -0.1956346 -0.124865845 0.0038082837
000220 a1 bc 3e be 31 db ca bd f5 2d 66 3e 3e 34 f7 3d
       -0.18626644 -0.09905089 0.22478469 0.12070511
000230 cb c6 5f be cc e5 89 bb f3 57 10 3e 4d 0f 68 3d
       -0.21853177 -0.004208302 0.1409605 0.056655217
000240 26 52 e9 3c da 59 9a 3d bb 85 31 be 58 37 48 3e
       0.028481554 0.07536669 -0.1733617 0.19552362
000250 49 dc 18 be dd 3a cc bd aa c2 79 bd 31 38 ec 3d
       -0.14927782 -0.09972165 -0.06097666 0.11534155
000260 31 42 03 3e 39 d4 ea 3d 99 14 17 3e d7 52 bd 3c
       0.12818219 0.114662595 0.14753951 0.02311079
000270 ad 3f 51 be 23 98 81 be 1c fc 66 3d 20 86 0b 3b
       -0.20434447 -0.25311384 0.056392774 0.0021289662
000280 25 ed 4c be a4 4d 5a be 0f dd 0f 3e f9 29 18 be
       -0.20012338 -0.2131868 0.14049171 -0.14859761
000290 eb d8 65 be c2 0e 16 bc 59 c9 37 bd 9c 52 12 bd
       -0.22446029 -0.009158792 -0.044869754 -0.035723314
0002a0 ff e9 81 3d 75 fe 67 3d fa 46 07 bd e8 ca 79 3d
       0.06343459 0.056639154 -0.033026673 0.060984522
0002b0 fc 14 1a 3e 06 3b c5 3c f1 e4 05 3d 5d 9b 1b be
       0.15047067 0.024075996 0.03268904 -0.15195985
0002c0 2d b0 54 be 06 72 e2 3c 03 42 35 be 85 9e 39 bd
       -0.2077033 0.027642261 -0.17700963 -0.04531719
0002d0 15 f2 8f bd 3f 0b 21 be 3e 22 65 be 27 7b 39 3e
       -0.07028595 -0.15726946 -0.22376344 0.18113385
0002e0 64 69 2c bc 24 86 2d bd 16 34 29 3e 53 32 fa 3d
       -0.010523174 -0.042364255 0.16523775 0.1221663
0002f0 c6 c9 3a bd f1 33 1c be ba a7 80 3c 7d b7 1e be
       -0.045602582 -0.15254189 0.015704978 -0.15499683
000300 7c f9 14 bd 60 40 38 be 5d 7f cf bd 9d 9e 89 3d
       -0.03637074 -0.17993307 -0.101317145 0.06719706
000310 49 ce 9b 3d b9 3a 2a 3e 8e b6 c3 3a 28 89 d9 bb
       0.07607705 0.16623963 0.0014931725 -0.0066386648
000320 5c 51 55 be 1c a6 e0 3d 18 a8 49 3e 8e 37 3f 3b
       -0.20831817 0.10969183 0.19693029 0.00291774
000330 4f 51 27 bc d2 15 b3 bc 98 9b 70 bd c7 d2 12 bc
       -0.010212257 -0.02186099 -0.058742136 -0.008961386
000340 67 a6 45 3e 03 6b 9f 3d e9 32 a6 3d 66 23 32 be
       0.19301759 0.07784083 0.08115179 -0.17396316
000350 7f 41 b8 3d d6 a0 0c 3e 15 53 24 be 76 ed 6f 3e
       0.089968674 0.13733229 -0.16047318 0.23430428
000360 96 93 40 be ee 79 09 be 25 9f 92 3b 93 98 24 be
       -0.188063 -0.13425419 0.004474538 -0.16073827
000370 a5 ef 93 3d e2 b2 87 3d 6b 26 1f be 84 d1 2a bd
       0.07223443 0.06625916 -0.15541999 -0.041703716
000380 c3 db ac bc 8a 8f 24 3e d3 18 68 3e 79 4c a3 be
       -0.021100884 0.16070381 0.2266572 -0.31894282
000390 a1 78 cc 3c b1 81 58 3e d2 e1 93 3d 36 db 2b 3d
       0.024959864 0.21143223 0.07220806 0.041957103
0003a0 e4 04 9a be ad 58 67 bd 6e 8c b9 bd 94 2d 31 3e
       -0.30081856 -0.056481052 -0.09059988 0.17302543
0003b0 21 46 96 3b 80 54 8d be 44 ac 0d 3e b4 ec e8 bd
       0.0045859967 -0.2760353 0.13835245 -0.113732725
0003c0 41 d2 12 bd 90 01 0d be 14 a8 0d 3d d9 fd 2d 3e
       -0.035845045 -0.13770127 0.03458412 0.16991366
0003d0 3b 3a 86 3d 1a a4 f5 3d 40 07 5c bd ff 8f 0b be
       0.06554075 0.119941905 -0.05371785 -0.13629149
0003e0 bd 2a 12 3e f2 c7 b2 bd 7e 51 26 3d d9 d4 0b 3d
       0.14274116 -0.08729543 0.04060506 0.034138534
0003f0 0b 8e dc 3b 68 10 5a 3d 45 35 10 be 9b 7d 4d bc
       0.0067308 0.053238302 -0.1408282 -0.012542154

conv_ensemble_1.0.bias f4 [16]
000000 96 dd 19 be c0 9d 0d 3e df c8 b3 bd 5a 28 91 3d
       -0.15025935 0.13829708 -0.087785475 0.070877746
000010 b5 ba 37 3d 3f bc f7 3d 31 47 8a be 49 be b0 3c
       0.044855792 0.12096452 -0.2700744 0.02157511
000020 02 38 55 3e f8 ec 9e bd 60 23 f8 bc 89 5c 83 bd
       0.20822147 -0.07760042 -0.030290306 -0.06414134
000030 10 74 82 bd 37 d8 90 bc 37 26 3e 3d 47 4e 9a bc
       -0.063697934 -0.017681224 0.046423163 -0.018836154

conv_ensemble_1.3.weight f4 [16]
000000 c9 22 87 3f a3 bf 85 3f 02 cf 65 3f 98 ec 75 3f
       1.055749 1.0449108 0.89768994 0.9606414
000010 2a 46 82 3f 2a bb 7c 3f 55 93 7f 3f 91 d5 63 3f
       1.0177662 0.9872309 0.99834186 0.8899775
000020 9b 56 81 3f 3f 01 84 3f 4f da 88 3f 54 96 7f 3f
       1.0104555 1.031288 1.0691622 0.9983876
000030 bd 82 7f 3f 5d 77 78 3f b9 4c 72 3f 4d 51 89 3f
       0.99808866 0.97057134 0.9464832 1.0727936

conv_ensemble_1.3.bias f4 [16]
000000 c3 21 ff 3c 34 a0 ca 3d 2e 0d fb 3b 81 52 a4 3d
       0.031144029 0.098938376 0.0076614833 0.08023549
000010 60 e9 05 3d 7c 5f 19 3d 61 64 ad 3d 9a 1f c2 ba
       0.032693267 0.037444577 0.084664114 -0.0014810443
000020 dd 47 22 3d 10 79 a2 3d 6e 7a 97 3b ab 9a bc 3c
       0.039619315 0.07933247 0.004622749 0.02302297
000030 db d2 19 3d b2 cb f8 3d d2 ae 89 bc a6 ca c5 3d
       0.037554603 0.12148227 -0.016806994 0.09657793

conv_ensemble_1.3.running_mean f4 [16]
000000 ca 7e 23 3e 30 36 c9 3e 5b 2e df 3e 04 4b ac 3e
       0.15966335 0.39299154 0.43590054 0.33650982
000010 7c 9b 87 3e d8 09 b4 3e 5b cf 07 3e f4 62 cc 3e
       0.26485813 0.3516376 0.13262694 0.39919245
000020 5b 3e d5 3e 0b d9 83 3e 51 6e 66 3e 68 dd 45 3e
       0.41649136 0.25751528 0.2250302 0.19322741
000030 2d ad 3b 3e 89 5a b1 3e b0 df c5 3e fd a7 89 3e
       0.1832778 0.34639385 0.38647223 0.26885977

conv_ensemble_1.3.running_var f4 [16]
000000 a7 85 a7 3d 6e 14 23 3e 42 6c 86 3e 86 fc 2f 3e
       0.08179789 0.15925762 0.2625447 0.17186174
000010 1a cd bc 3d 4a cc 09 3e e1 4d 8b 3d 62 45 3c 3e
       0.092188075 0.13456836 0.068019636 0.18385842
000020 33 29 ec 3d 2f a7 2a 3e 8c 49 e5 3d 53 59 ce 3d
       0.115312956 0.16665338 0.111956686 0.10075631
000030 96 e1 a2 3d 15 a4 8d 3e dc 0e 24 3e 9b c0 00 3e
       0.07953183 0.27664247 0.16021293 0.12573473

conv_ensemble_2.0.weight f4 [32, 16, 5, 5]
000000 b1 cc 36 bd 05 45 53 bd 23 b8 15 bd 44 6f b3 bc
       -0.044628803 -0.051579494 -0.03655256 -0.021903642
000010 51 9f 04 bd 08 8a 86 3d bc 0e 4a 3d 5a f7 a3 bc
       -0.0323785 0.06569296 0.049330458 -0.020015407
000020 b9 1e 1b 3d c9 90 cc 3c f3 b3 9c 3d 88 b9 08 3d
       0.037871096 0.024971383 0.0765151 0.03338006
000030 fe aa 64 bd 59 b6 0a bc f4 6e aa 3d 58 84 56 bd
       -0.055827133 -0.008466327 0.08321944 -0.052372307
000040 dd 16 06 bc 51 9e fb 3c 10 25 f5 3c af 64 80 bd
       -0.008184162 0.03071514 0.0299249 -0.06269204
000050 2e cd 67 bd 39 39 23 3b 53 5f 2a bc ae 0d b1 bc
       -0.05659216 0.0024905934 -0.010398704 -0.021612968
000060 27 6f e0 3b df 20 b3 3c 33 de 8f 3c 02 cb ce bb
       0.006849188 0.02186626 0.017562008 -0.0063108215
000070 e0 39 05 3d 5d a4 d2 3c 33 5a 88 3b f4 57 0d 3d
       0.032525897 0.02571314 0.004161143 0.034507707
000080 f3 e8 45 bc 11 5d f1 bc 09 ae a2 3c 73 4b b8 bc
       -0.012079465 -0.029463323 0.019858377 -0.022496914
000090 95 44 87 bb 39 06 85 bd 81 b1 66 3d 9b 57 82 3d
       -0.0041280487 -0.064953275 0.056321625 0.06364366
0000a0 bc 25 98 3c fc 51 0d 3c 77 c5 79 3c 07 64 b6 bd
       0.01857268 0.008625504 0.015244833 -0.089057975
0000b0 69 6f fc bc 65 2c 1b 3d ac 44 e8 3a d1 64 65 bb
       -0.030814843 0.037884135 0.0017720661 -0.0035002718
0000c0 17 db 20 bc cd 89 df 3c 80 35 42 3c 38 a6 ed 3b
       -0.00981786 0.027287388 0.011853576 0.007252481
0000d0 8c 04 64 bd e4 90 06 bd 21 e9 6d 3c 3d 38 c7 bc
       -0.0556684 -0.032853022 0.014520914 -0.024318809
0000e0 32 ff 88 bc 07 a9 84 3d e6 f9 00 bd d9 1e 28 3c
       -0.01672325 0.06477552 -0.03148832 0.010261261
0000f0 2a 72 4d 3d de 27 55 3c fb 52 73 bd 5d c1 b9 bc
       0.050157703 0.013009993 -0.05940531 -0.02267521
000100 f1 fd 42 3d d9 29 81 bd 8d 7b 5d bd 79 c5 af bc
       0.04760546 -0.0630681 -0.054072905 -0.021456467
000110 e3 4a 1d 3b d1 98 20 bd 22 f8 8a 3b 0f 3c 21 bd
       0.0024000935 -0.039208237 0.0042410055 -0.039363917
000120 05 63 8e 3c b4 75 24 3d 3d 67 06 3c 22 c1 d4 bc
       0.0173812 0.040151313 0.008203325 -0.025971
000130 00 7b b0 39 55 69 f5 3b d8 b8 e1 bb 4b bb 15 3d
       0.00033660978 0.007489363 -0.00688849 0.03655557
000140 ec 1c 62 bc c3 23 b3 3c 55 9b 96 bd 86 76 43 3c
       -0.013800841 0.021867638 -0.07353846 0.011930114
000150 5e 33 a4 3b a0 e5 95 bb 18 cb d8 ba 8d 17 00 bc
       0.0050110063 -0.0045744926 -0.0016540019 -0.007818115
000160 c2 22 a4 bd 0b c8 91 3d 30 25 8d 3d 89 ac 22 3d
       -0.08014442 0.07118233 0.068918586 0.039715324
000170 2d 11 18 3c f5 32 e0 3c 2a 04 43 bd 90 d6 14 bd
       0.009281439 0.027368048 -0.047611393 -0.036337435
000180 24 36 29 3d e6 de b7 bd e8 bb ce 3b a0 cd 91 3c
       0.0413114 -0.089780614 0.0063090213 0.017798245
000190 31 a1 85 3d 0a 33 40 3b a1 c1 17 bb 1b 7c 80 bc
       0.065248854 0.0029327297 -0.0023156183 -0.015684178
0001a0 0b 25 10 3d 3a 45 52 3d 35 57 39 bc 17 e7 5d 39
       0.035191577 0.05133555 -0.011312296 0.0002116229
0001b0 aa e6 70 3d c1 4c 00 3d 33 ac 90 3c c6 7b a3 3d
       0.05881373 0.0313232 0.017660236 0.07982592
0001c0 9f 66 06 bd 49 4d c2 bc 90 f6 8a 3d 61 99 6f bc
       -0.03281271 -0.023718493 0.06785309 -0.014623971
0001d0 eb 15 1c bc 63 08 92 bd 1e 67 27 bd c2 62 0f 3d
       -0.00952671 -0.07130506 -0.040869825 0.035006292
0001e0 5b 58 1c bc 65 33 80 bd 36 6b 81 bc fb 7c 77 bd
       -0.00954255 -0.06259803 -0.015798192 -0.060421925
0001f0 39 ad f1 3c e7 a8 59 bc a0 85 83 3c 1a 4d a2 3d
       0.029501544 -0.013284898 0.016054928 0.07924862
000200 3d c5 0c bd c5 79 c5 3c 40 b6 f6 3c fc 6d 52 3c
       -0.03436779 0.024105916 0.0301162 0.012843605
000210 bf 0b 54 3b b0 42 92 bb c3 d8 05 bd b0 da 29 bd
       0.0032355634 -0.004463516 -0.032677423 -0.041468322
000220 a2 5a 6f bc 4a c4 4b bd 9f b7 36 3d 0d 55 ca 3c
       -0.014609011 -0.049747743 0.04460871 0.024698758
000230 58 95 c6 bc f1 2c 97 3d e0 31 78 3d ee 92 67 bd
       -0.024241135 0.07381619 0.06059444 -0.056536607
000240 25 16 a0 bd 3f cc d7 ba fe 6a 77 bd d8 ea 4c 3d
       -0.07816724 -0.0016464068 -0.06040477 0.050028652
000250 90 7b c4 bd 2a 85 a7 3d b4 e2 20 bd bb 85 2a bd
       -0.0959388 0.08179696 -0.0392787 -0.04163144
000260 ce 68 98 3c d8 6c c3 bc d3 e3 e7 bb 45 65 7e bd
       0.018604662 -0.023855612 -0.0070767193 -0.062108297
000270 54 7f 9d 3b b5 6d e4 ba 72 f5 41 bd 4a 87 40 ba
       0.0048064385 -0.0017427715 -0.047353216 -0.00073443784
000280 93 74 d4 bd 39 36 54 bd db 32 c1 3c 2a 31 2a 3c
       -0.10373797 -0.051809523 0.02358382 0.010387698
000290 61 b6 1b 3c 8b f8 35 bc fc 78 6e 3d f2 58 a3 3d
       0.009503932 -0.011106621 0.05822085 0.07975949
0002a0 5f 16 fa bc 3d 1e 1b bd 4a 4c fc bc b5 07 1f 3b
       -0.030528245 -0.037870634 -0.030798096 0.0024266068
0002b0 fa 7f 36 3c 8a 59 95 3d e0 f4 30 3c 94 01 3d 3b
       0.01113891 0.07292469 0.01080057 0.0028840052
0002c0 1a fa 1a 3d b8 3d 05 bd 27 d7 24 bd 3e 2d 50 3d
       0.03783617 -0.032529563 -0.040244248 0.050824396
0002d0 1c 09 d7 bc 50 fd 31 bd ce 22 53 bd 1e 85 03 bd
       -0.02624946 -0.04345447 -0.051546864 -0.032109372
0002e0 15 33 a3 3b 1d 15 27 3d 90 02 bd bc 1e a4 17 bd
       0.0049804547 0.04079162 -0.023072511 -0.03702175
0002f0 5f 2e 2b 3d 9d 2b db 3b dc 3c 8d 3d 13 9f fc 3b
       0.04179227 0.0066885487 0.06896374 0.007709393
000300 bd 26 80 bc b1 34 d8 3c 2a bd 2d 3d d4 07 6b bd
       -0.015643472 0.026392313 0.04241673 -0.057380512
000310 38 81 57 ba 46 2e 35 bc 54 4c 0d bc 39 1d 50 bc
       -0.0008220854 -0.011058396 -0.008624155 -0.01270228
000320 69 c0 80 3d 7b b7 b4 3c d3 71 11 bd 7c 48 28 bd
       0.06286699 0.022060147 -0.03550894 -0.04108475
000330 b1 19 59 bd 25 c9 7f 3d 47 4f 12 3c 8e 23 4e 3d
       -0.053003017 0.062447686 0.008930034 0.050326876
000340 39 8b fa 3a a8 ed 6b 3d fa 41 a2 bc 0b 1c 80 bc
       0.0019114978 0.057599694 -0.01980685 -0.015638372
000350 1e df cd bd 44 a3 21 3d bf 26 cb bc 82 aa 95 bd
       -0.10052322 0.039462343 -0.024798749 -0.073079124
000360 af 0a 24 3d e1 28 dc 3c ac d2 83 3d 03 8a bc bb
       0.04004925 0.026874961 0.06436667 -0.005753757
000370 8a 7c 04 3d b4 f7 59 3c 76 46 ac bc a4 2c c1 3c
       0.032345332 0.013303686 -0.021029692 0.023580857
000380 b6 07 97 3b f7 2f dc 3c cb 8f 63 bc 17 e4 55 bd
       0.0046090735 0.02687834 -0.013889263 -0.052219477
000390 8f 0b 4c bd fb 14 b5 bb fb 51 3c 3d 13 dc ed bc
       -0.04981571 -0.0055261827 0.04597662 -0.029035604
0003a0 82 08 25 bc b5 94 a2 bd 48 b8 16 ba c0 dc 26 3d
       -0.010072829 -0.0793852 -0.0005749506 0.040737867
0003b0 0b 0e e2 bc 24 2b 29 3c c6 55 b3 bc 26 40 89 3c
       -0.027594587 0.010325227 -0.021891486 0.016754221
0003c0 d3 17 d6 bb b3 56 3e 3d cf d3 91 3a 86 92 97 bd
       -0.006533602 0.0464694 0.0011125746 -0.07400994
0003d0 88 71 12 3d 0a 20 25 bd 5a 41 52 bd 5a 81 29 3c
       0.035752803 -0.040313758 -0.051331855 0.010345781
0003e0 55 a8 18 3b b3 71 9f bc 78 a5 07 bd 89 b9 3c 3d
       0.0023293693 -0.019463396 -0.033116788 0.046075378
0003f0 86 95 1d bc 88 1c 88 3d 3d 9c 1e 3d 36 39 0a bd
       -0.009618169 0.06646067 0.03872322 -0.033745967

conv_ensemble_2.0.bias f4 [32]
000000 bc 8d 06 3d 76 77 96 3c ad ad ea 3b cb 3d 41 bb
       0.032850012 0.01836751 0.007161817 -0.0029486294
000010 bd 39 2b bd 98 2e e2 3c 8d 6a 20 bd 0b 97 5c bb
       -0.04180311 0.027610108 -0.039164115 -0.0033659365
000020 96 bd 91 bd 61 db 41 bc 82 da 87 bd 56 a9 cd bc
       -0.07116239 -0.011832089 -0.06633474 -0.02510516
000030 3c b9 27 bd c5 74 5d bb 3c 0d 23 bb 85 08 8b bd
       -0.040948138 -0.0033791524 -0.0024879714 -0.06788734
000040 93 e5 fc 3a 37 09 ea 3b 35 83 90 bd f4 e4 17 bd
       0.0019294493 0.007142212 -0.07056276 -0.03708358
000050 0a 8d 92 bc d8 d3 5f bd cd 20 e1 bc 73 2d 85 3c
       -0.017889518 -0.05464539 -0.027481461 0.016257023
000060 22 60 26 3d bc 44 39 bd 9e 4d 8a 3a 60 9f fa 39
       0.040619023 -0.045231566 0.0010551696 0.0004780246
000070 7f 62 f3 3c 82 1c 63 bd d5 88 f0 bd 54 d8 4d bd
       0.029710053 -0.05544711 -0.11744849 -0.050255135

conv_ensemble_2.3.weight f4 [32]
000000 28 ce 89 3f 0b 2b 8b 3f 68 94 87 3f 51 09 89 3f
       1.0766039 1.0872511 1.0592165 1.0705968
000010 e0 60 8e 3f 3f 1a 86 3f a3 18 8c 3f 63 0d 88 3f
       1.1123314 1.047676 1.0945019 1.0629085
000020 7b 32 84 3f fc bf 88 3f ed f4 84 3f 10 39 85 3f
       1.0327905 1.0683589 1.0387245 1.0408039
000030 49 e8 82 3f 98 b4 82 3f 62 41 8c 3f b1 dd 85 3f
       1.0227138 1.0211363 1.0957453 1.045828
000040 cb 82 89 3f 93 47 8d 3f 8a da 86 3f 45 46 85 3f
       1.074304 1.1037468 1.0535443 1.041207
000050 a5 1c 87 3f b3 99 84 3f 0a d7 84 3f 7d 6a 85 3f
       1.0555617 1.0359405 1.0378125 1.0423123
000060 70 71 8d 3f d5 cf 8a 3f ff 3b 86 3f 32 9b 87 3f
       1.1050243 1.0844675 1.0487059 1.0594237
000070 84 31 87 3f e3 ba 8e 3f ec 88 8a 3f 2f a9 91 3f
       1.0561986 1.1150783 1.0823035 1.1379756

conv_ensemble_2.3.bias f4 [32]
000000 f6 85 e0 3b d8 6a 32 3a ef b3 49 3c 76 6a b1 3b
       0.006851907 0.0006806082 0.012310966 0.0054143025
000010 d4 d8 7a 3c 1d ae 69 3c cc 71 ed ba 47 25 ff bb
       0.015310485 0.014262703 -0.0018115579 -0.007786426
000020 06 cc 04 3c 9e a6 62 3c 96 4d 5f bb 27 a0 a4 3c
       0.008105284 0.01383367 -0.0034073344 0.020095898
000030 13 33 0c 3d c3 be 9e 3c b8 c7 04 bb 13 4a a8 3b
       0.034228396 0.019378072 -0.0020260643 0.0051357835
000040 8f 46 05 3c 7e 71 75 3b ae 5f 11 bc 02 69 92 3c
       0.008134498 0.003745168 -0.0088729095 0.017872337
000050 74 96 9b 3c 47 2c 92 3c 7f 79 1a 3c 76 33 b9 bb
       0.01899264 0.017843379 0.009428381 -0.0056518866
000060 2a 4d 35 3c b0 0d 04 bc 64 8b cb 3b e3 e7 99 bb
       0.011065761 -0.008059904 0.006211685 -0.0046968325
000070 f9 2f a9 3b a1 da 98 bb f6 a1 a8 3c 30 67 0a 3c
       0.0051631895 -0.0046647345 0.020585041 0.008447453

conv_ensemble_2.3.running_mean f4 [32]
000000 3a 03 2c 3f 9d 37 19 3f 1e 6a 31 3f 83 53 1d 3f
       0.67192423 0.59850484 0.69302547 0.61455554
000010 43 0c 11 3f cb aa 22 3f 9a d6 16 3f 93 e1 22 3f
       0.56659335 0.6354186 0.58921206 0.6362545
000020 77 1f 08 3f 6f 10 20 3f 54 d5 12 3f 54 bf 13 3f
       0.5317301 0.62525076 0.5735676 0.5771382
000030 f0 ae 13 3f c6 e7 1c 3f cd 0b 25 3f c8 2b 0c 3f
       0.5768881 0.6129116 0.6447113 0.54754305
000040 c2 2c 2c 3f 0d 14 38 3f 36 df 16 3f a6 7e 0d 3f
       0.67255795 0.71905595 0.5893434 0.55271375
000050 00 d7 0c 3f 7e 91 ff 3e 95 b8 13 3f a2 f8 0e 3f
       0.55015564 0.4991569 0.57703525 0.55848134
000060 2e bc 33 3f 1c ac 08 3f c3 d7 1d 3f c0 2a 23 3f
       0.70209014 0.5338762 0.6165735 0.63737106
000070 f1 17 3a 3f bd 05 15 3f ef 06 e8 3e a4 7b 17 3f
       0.7269278 0.5821188 0.4531779 0.59173036

conv_ensemble_2.3.running_var f4 [32]
000000 0c bb b7 3e f8 fe 7c 3e 40 13 90 3e d2 84 84 3e
       0.35884893 0.24706638 0.28139687 0.25882584
000010 fa 87 97 3e b9 0d a7 3e 14 31 72 3e fc 35 97 3e
       0.2959593 0.32627657 0.23651534 0.29533374
000020 9b 50 8a 3e 90 e8 86 3e fc 56 ad 3e c4 92 85 3e
       0.27014622 0.26349306 0.33855426 0.26088536
000030 4d 8f b9 3e 41 3b 93 3e fd 3d 8f 3e 62 b3 9f 3e
       0.36242142 0.28756145 0.2797698 0.31191546
000040 e7 21 a5 3e 45 7f 9c 3e 58 2e 83 3e 6e 38 b9 3e
       0.32252428 0.3056585 0.25621295 0.36175865
000050 89 4e 87 3e 13 a5 59 3e bb e0 92 3e 09 13 83 3e
       0.26427105 0.21254377 0.2868708 0.2560046
000060 94 9e a3 3e 41 3d 60 3e 86 05 7a 3e d5 46 91 3e
       0.31956923 0.21898367 0.2441617 0.28374353
000070 20 4f 9e 3e 6b 6b 87 3e 9c 9e 52 3e b7 ce 89 3e
       0.30919743 0.2644914 0.20568317 0.26915523

fully_connected_layer.weight f4 [10, 1568]
000000 b0 42 89 3c 0e 8b 2c bd b8 30 df bc 54 1e 7f 39
       0.016755432 -0.0421248 -0.02724491 0.00024329993
000010 3f 7f db 3d c1 e2 79 bc e8 97 12 3c 26 2d 6c 3d
       0.1071763 -0.015251816 0.00894735 0.057660244
000020 ca 26 41 bc 8e bf 04 3d cb 02 13 3d 60 7c 81 3c
       -0.011789033 0.032409243 0.035891335 0.015806377
000030 f3 22 c0 3c d6 32 87 3c c8 4c 0b bd 1e f0 a8 bd
       0.023454165 0.016503733 -0.03400877 -0.08248924
000040 94 00 5d bc 3d 81 d1 3c e8 93 71 3d cc 20 00 3c
       -0.013488907 0.02557432 0.058978945 0.007820319
000050 43 95 4c bc 94 24 2f 3c 88 aa 44 3d 36 3c 05 bb
       -0.012486759 0.010689873 0.048014194 -0.0020330078
000060 c2 8f 3d bc 65 36 77 3c d4 0d 3f 3a 6c ff ee bc
       -0.011569919 0.015088652 0.00072881323 -0.029174529
000070 ad 14 86 3b a1 26 4b bd 99 9e 0e bb 54 02 44 bc
       0.00409182 -0.049597386 -0.0021762012 -0.011963446
000080 f1 b1 bf bc f6 54 a1 bd 1e 73 73 3d 25 9b b1 bc
       -0.023400279 -0.07877533 0.059435956 -0.021680424
000090 b7 3c 16 bc c0 5a 37 bd ce 18 b3 bc aa ee 93 bd
       -0.009169749 -0.04476428 -0.021862414 -0.07223256
0000a0 da aa 56 bd e5 5e aa 3a 06 00 a9 bc d3 95 71 3d
       -0.05240903 0.0012998251 -0.020629894 0.058980774
0000b0 54 b7 1f bc 51 ba ec bc 77 92 05 bd 45 62 08 3b
       -0.009748299 -0.028897436 -0.032610383 0.0020810526
0000c0 27 3d 08 3b e3 06 c7 3d 8b ec 3b bd ea 00 1b 3e
       0.0020788403 0.097181104 -0.04587988 0.15137067
0000d0 e9 04 2e 3d 61 f2 91 bb b4 ce 71 bd 9b ae d2 bc
       0.04248515 -0.0044539426 -0.059035018 -0.025718024
0000e0 66 ba 55 bd 75 1b 8c bd bb 14 96 bd 9d 9f 0b 3d
       -0.052179717 -0.068411745 -0.07328173 0.034087766
0000f0 7c d1 83 3d ba 61 d6 3c e5 a7 15 bd 5b 75 6d 3d
       0.0643644 0.026169647 -0.03653707 0.057973247
000100 e2 4d 5e 3d 74 5e b4 bc 0d 0f 23 bd ca 16 99 bb
       0.054273494 -0.022017695 -0.039809275 -0.004671906
000110 c7 9b 91 3c 1d 83 10 3d 54 d7 42 bd 71 8a 47 3c
       0.017774476 0.03528129 -0.047568634 0.012179003
000120 02 80 42 bd 60 e8 0b 3a c6 37 4a bd c6 9c d4 3c
       -0.04748536 0.0005337056 -0.049369596 0.025953662
000130 3a b2 b3 3c 94 b4 13 bc 7a 6a 50 bd 39 61 86 3b
       0.021935571 -0.009015221 -0.050882794 0.0041009453
000140 6b cb 30 3d a5 99 4e bd 34 1d b9 bd ab 9a ee bc
       0.043162744 -0.050439496 -0.09038773 -0.029126486
000150 5a d8 57 bd 9c 70 86 bc d7 e0 2e 3d d3 46 7b bb
       -0.052696563 -0.016411118 0.042694893 -0.0038341775
000160 af 81 1f bd 4d c8 59 3b 63 ba aa bc 78 e5 0e 3c
       -0.038942035 0.003323096 -0.02084083 0.008721702
000170 98 d5 b9 3c 61 f3 80 3d 2d 28 6a 3d c9 55 38 bb
       0.022684857 0.06296421 0.05716722 -0.0028127304
000180 fd 87 de bb 87 4c d2 bc 9d a4 6a bc ff f5 76 bc
       -0.0067911134 -0.025671257 -0.014321473 -0.0150732985
000190 4c 7f a7 3d c0 41 33 3c 5f bb 50 bd a8 04 a5 3b
       0.08178577 0.010940969 -0.05095994 0.0050359555
0001a0 e2 45 2f bd 94 3b 05 bc 73 12 18 3d 3f 72 93 3d
       -0.042791255 -0.00813188 0.03712697 0.07199525
0001b0 46 d8 4a bd 0b 91 e7 bc a7 06 42 bc 8d a4 54 3d
       -0.04952266 -0.028267404 -0.011842406 0.05191474
0001c0 3d c6 07 bc 2c e6 3c 3b 7d de 34 3b ac a9 92 3c
       -0.00828701 0.0028823717 0.0027598434 0.017903171
0001d0 19 06 45 bd 8c 76 d3 3c 3a 5e c9 bb 9b 82 91 3d
       -0.04810152 0.025813363 -0.006145266 0.07104989
0001e0 7c 72 1f bd 08 90 65 bd 2d 78 9b 3c 54 01 f2 bc
       -0.03892754 -0.056045562 0.018978203 -0.029541649
0001f0 04 19 96 bd 0c df 03 3d 6b 32 86 3c 57 e1 24 3c
       -0.0732899 0.032195136 0.016381463 0.010063491
000200 ee dc 37 3d 61 75 df 3b 59 5c 8b 3c 59 9d e7 bc
       0.04488843 0.0068194126 0.017011808 -0.028273271
000210 d9 8e 71 3d 4f f7 0e bd 08 73 9c bb d9 01 6a 3c
       0.05897412 -0.03490382 -0.004774455 0.014282667
000220 5e fe 97 bc 31 38 18 3d d9 57 05 3c 12 ab 52 bc
       -0.018553909 0.037162963 0.00813862 -0.012858169
000230 06 3f be 3c 2e 6f 0e 3c 18 be 47 bd 14 80 9c 3c
       0.023223411 0.0086934995 -0.048765272 0.019104041
000240 3f 6b 91 3b 15 ce 5c 3c 24 48 df bc 40 aa 9c 3d
       0.0044378336 0.013476868 -0.027256079 0.0764966
000250 ef a9 64 bd 2f 16 9b bc 6e 9a 05 bc 64 49 b3 bc
       -0.055826124 -0.018931476 -0.008154495 -0.021885581
000260 10 bf 78 bd 50 19 35 3d cf b4 b2 3c 72 56 9a bb
       -0.060729086 0.044213593 0.021814732 -0.004710012
000270 68 85 d8 3c 22 b4 b0 3b a9 b0 e2 3a ba 8d 7b 3c
       0.0264308 0.0053925673 0.001729508 0.015353614
000280 59 fb 4c 3c 5f 29 18 3d 4e 6a b2 bc 77 9e ef 3c
       0.012511098 0.03714883 -0.021779206 0.029250367
000290 0f 80 25 bd 6f 74 33 3d f0 01 ca 3d 51 48 f0 bc
       -0.04040533 0.04381221 0.09863651 -0.029331358
0002a0 0b 0a 9d 3c 01 62 98 3d d0 63 eb bd f1 69 4a 3d
       0.019169828 0.07440568 -0.11493647 0.04941744
0002b0 fa b1 fe bc b9 76 00 bc 50 94 c3 3c 2b 21 36 bd
       -0.031090725 -0.007840806 0.023874432 -0.044465225
0002c0 f5 80 ad bc 73 09 2c 3d 07 e4 0d 3c 12 25 48 bd
       -0.021179656 0.0420012 0.008660323 -0.048863478
0002d0 0c f9 24 3c 33 60 17 bd 8b b8 31 3b 23 73 27 bd
       0.010069143 -0.036956977 0.0027118053 -0.040881287
0002e0 73 14 71 3a 71 c1 32 bd b7 2b aa 3c 72 0a 8c bc
       0.00091964676 -0.04364151 0.020772798 -0.017094824
0002f0 cd 10 72 bd 41 32 42 bc 00 ce af 3d fe 0b e5 bc
       -0.059098054 -0.011852802 0.08584213 -0.02795982
000300 c1 05 e0 3b 6b 22 44 bc 6f 29 b5 ba aa fd 8d b9
       0.0068366234 -0.0119710965 -0.0013821552 -0.0002708261
000310 02 ed dc 3c 22 e4 bb 3c 0e 52 f9 bb f6 77 97 3c
       0.026968483 0.02293593 -0.0076086586 0.018489819
000320 b9 bf 14 3d 28 5c be bb 38 1b 3b bc b5 e6 d9 3c
       0.036315653 -0.0058093257 -0.011420064 0.026599267
000330 a8 dd 3a 3d 66 5f f0 3c 84 26 b2 3c 60 ab a1 3c
       0.045621544 0.029342365 0.021746881 0.019735038
000340 0f a1 81 3d e4 a2 9e bc f7 3f 77 3d 51 73 8a 3c
       0.063295476 -0.019364782 0.060363736 0.01690069
000350 67 05 f9 3c 51 ed 10 3d 8e f4 a6 bd 19 1b c3 bc
       0.030398084 0.035382573 -0.08152114 -0.023816632
000360 00 0c 06 3d 6a 54 f9 bc 43 fa cb bb 4c c7 64 3d
       0.032726288 -0.03043576 -0.006224902 0.055854127
000370 ba c6 d9 3c 6b 62 70 3c e3 ac 1d bd 43 14 e7 bb
       0.026584018 0.014671902 -0.038494956 -0.007051976
000380 43 d6 e2 bc 7d 19 c8 bc c8 48 26 bd 02 87 9a 3d
       -0.027690059 -0.024426216 -0.040596753 0.07545282
000390 4a 4f 73 3c 4d 6d 21 3b 71 99 89 bd 56 81 03 bc
       0.014850447 0.0024631799 -0.0671872 -0.008026442
0003a0 39 c7 21 3d 1e 45 13 bd 69 ce 66 bd b2 e1 9a bd
       0.039496634 -0.035954587 -0.05634919 -0.07562579
0003b0 7a 33 15 3c 54 78 82 bc 39 b2 20 bd f1 b1 46 3d
       0.009106511 -0.015926518 -0.039232466 0.048509542
0003c0 5a 29 78 bd 33 17 df bc ce fc 7e bd 73 ab d5 bc
       -0.06058631 -0.027232742 -0.062252812 -0.02608273
0003d0 19 0f 8c bc 31 f3 11 3d d2 21 af bc 7e 8b 1c bc
       -0.017097043 0.035632316 -0.021378431 -0.009554742
0003e0 5d 0a 57 3d e4 ef a1 bd a1 e6 4c bd 24 0f de bb
       0.052500118 -0.07907084 -0.050024632 -0.0067767072
0003f0 79 18 0f 3d 4e bd 1a 3c bb fd 9c 3d c1 54 8a 3d
       0.03493545 0.009444548 0.07665583 0.06754447

fully_connected_layer.bias f4 [10]
000000 90 62 82 b7 ea a7 9d bc f3 1e a4 bb e6 ec 0a bd
       -1.5543104e-05 -0.019245107 -0.0050085722 -0.03391733
000010 11 08 14 3d 90 e0 22 bd 36 47 e5 3c 94 33 f1 bc
       0.036140505 -0.03976494 0.027988058 -0.02944354
000020 2b 2a 23 3c 92 0e 15 bc
       0.009958784 -0.009097712
