3_CNN/models/CovNetNoBatchNorm_ex2.pt (torch, 117911 bytes, 6 tensors)

conv_ensemble_1.0.weight f4 [16, 1, 5, 5]
00000000: 0054 e73d f1b0 2cbe d913 223e 83a3 283c
00000010: e092 45be 430c 02bb 18b1 83be 5ecd 8a3e
00000020: c258 553d 63fd 433e 5c3e 1f3e 6271 41be
00000030: 4dc1 08bd 25b0 213e f867 53be 6d33 133e
00000040: bf4b 97be 2bcd 57be e219 c93d f5f1 c83d
00000050: d238 12be f427 503d b213 5ebc ee09 363e
00000060: 7890 c93d 0be3 9dbe 9bc3 4b3e 59eb 8ebd
00000070: 1b2a 66be 4ed4 47be ac1d 57be 2ced 003e
00000080: f7ee a03e e57c f6bc 255f 47be c585 1a3e
00000090: a1d3 fb3c 22ca ce3d 4791 2a3e e9ab b43d
000000a0: 2a2e 92be a873 793b 593c 92be 26d0 903e
000000b0: 87e9 ac3e 548f 85be 801b 16be 8d60 873d
000000c0: ef49 4c3e 758a 7e3e 2ab1 49bd 21a1 9a3e
000000d0: 9be4 f5bd 09f5 21be 508d 843d 623e ffbd
000000e0: e6ee 793e bb81 2d3d 6771 ee3d 6656 ff3d
000000f0: a9f1 d93d f5f0 233e 81bb 28be 1953 46be
00000100: 70b7 173e d934 87bd 36de 8d3e 7bd1 01be
00000110: cb3e e3bd 099c 713d a969 1ebd d05d 413e
00000120: d162 9abe 1ae5 56be 93ea 633d 9fab cb3d
00000130: 4f97 aebd ba43 9b3d b645 503e 7bc3 953e
00000140: 091a 11be 1d68 84bd 40d9 91be 6454 63be
00000150: 6125 893d 27f7 6dbe 8b2d 50be 2b13 acbe
00000160: a179 6fbd 8e8d e2bd 271a 333d f7c0 d4bd
00000170: 3f08 a9bd 626b 923d d1a0 42be 183c c03d
00000180: 6f41 03be 69e8 0a3e 3d40 22be f38d 0dbe
00000190: 82c7 babe e1d0 0abe 1ef7 483e 2b07 6f3e
000001a0: e968 b7bd be39 e1be 36de 2abc 90c0 88bd
000001b0: fab9 cf3c a40a 3b3e 1124 a8be e427 6dbe
000001c0: 2800 1a3e b338 403e 3b04 76bd 0c6b 9fbe
000001d0: d8e8 64bd ca72 9e3e 879d 463e f1e9 9c3c
000001e0: dbaa 33be 1343 0b3e b173 efbd 2fa6 81bd
000001f0: b052 cd3d 9d67 7d3e 8f56 24bd 930d 97be
00000200: e9e5 87be d52b b1bd 6467 443e 09ff 63be
00000210: 6da2 d5bb 4bb3 16be b843 b5be 0e98 703b
00000220: 7efb 4f3e 4414 80be ff46 8fbe f6a7 e8bd
00000230: 1605 91be b7fc ddbc 7866 103e c12b 443e
00000240: c392 373e 1d5c 45be fffb 573e 484f a13e
00000250: 657f 6d3c aa6e 8d3e 740d 64bd 2005 393d
00000260: 578b f73d f048 89be d48c 23bb 8850 cbbd
00000270: c45c 823e 7960 f5bd 7d15 02bc 4b18 393d
00000280: 6bf9 72be c115 453e f2d2 363e 1c3f 5dbe
00000290: 316b f33d a23c 0dbe 64e4 ad3e 9682 843e
000002a0: 60e9 23be ecdc f4bc 8754 7fbe ced1 a73e
000002b0: 40eb f1bd c11d 02be 6d5e 2e3e 2168 c7bd
000002c0: 803a f0bc 8f48 8a3d 8819 1dbe 2d87 e03d
000002d0: b38d 353c 63d9 243e 1ebf 28bd 4b5e c6bc
000002e0: cdb0 87be 93bc 29be 1d68 d23c e0e0 d93c
000002f0: 9262 94bd 5036 a23c ec92 a6be d223 82be
00000300: 43ec 6a3e 0ff0 8e3e 4b01 0c3e 6e81 2d3e
00000310: 1960 183d d844 333e 40d3 50be fe99 7d3c
00000320: 669c 2d3e e509 34be 122b 083e 478e 98be
00000330: cee6 99be e621 6a3e 147d 1e3d 4da5 de3d
00000340: 6ac8 e6bd c344 78be e59e aabd 6a77 623e
00000350: 4f41 ba3d 31d0 f1bd 9989 a6bc 255e 1d3e
00000360: d7fd f13c 5cb2 663e 5a8e 80be a80a 85be
00000370: ca27 163d 20fa 313e c9c1 323d 37b1 d93d
00000380: 36cd 5c3c 0a36 70bc 4b71 1b3e f54a dd3d
00000390: 4aee 733e b6d9 0f3e faf2 93bd d9d4 75be
000003a0: 8373 4dbe 51c5 49be 6948 8cbe e7c0 26bd
000003b0: 4d7c 07be 94f9 28be 3567 5d3a ed1b 373b
000003c0: c3ac 65bd e57d 833b c75b 02bb 0368 9abc
000003d0: f0d7 63bd f093 313e 1dc9 203e dc43 8b3e
000003e0: ba42 2abe 1093 5a3e 08ad 1fbe 7bb4 43be
000003f0: 990c b8bd 4f77 59be eb41 f73d bc3a 67be
0.112953186 -0.16864373 0.15827884 0.0102928905 -0.1929431 -0.0019843734 -0.2572105 0.27109808
0.0520866 0.19139628 0.15551132 -0.18890908 -0.03338747 0.1578985 -0.2064513 0.14375086
-0.29549977 -0.21074359 0.0981939 0.09811775 -0.14279488 0.050819352 -0.0135545 0.17777225
0.09842008 -0.30837283 0.19898836 -0.06978483 -0.22477 -0.19514582 -0.21007413 0.12590474
0.31432316 -0.030088851 -0.19469889 0.15090092 0.030740561 0.100971475 0.16656981 0.08821852
-0.28550845 0.0038063321 -0.28561667 0.28283805 0.33771917 -0.26085913 -0.14658928 0.066102125
0.19950078 0.24857505 -0.049241222 0.30201057 -0.12006494 -0.1581613 0.06472266 -0.124630705
0.24407539 0.04236005 0.116427235 0.12467651 0.10641796 0.16009887 -0.16477777 -0.19367637
0.1481607 -0.06601877 0.27708596 -0.12677567 -0.11095961 0.058986697 -0.038674984 0.18883443
-0.30153516 -0.20985833 0.05564363 0.099448435 -0.085249536 0.07581277 0.20339093 0.29250702
-0.14170088 -0.064651705 -0.2848606 -0.22200161 0.066965826 -0.23238812 -0.20329873 -0.33608374
-0.058465604 -0.11062156 0.043726113 -0.103883676 -0.08253526 0.07149388 -0.19006659 0.09386462
-0.1281793 0.1356522 -0.15844817 -0.1382368 -0.36480337 -0.13556243 0.19625518 0.23342578
-0.08955557 -0.43989366 -0.010428956 -0.066773534 0.025357235 0.18265778 -0.32840016 -0.23159748
0.15039122 0.18771629 -0.06006263 -0.31136358 -0.05588612 0.30946952 0.1939603 0.01915452
-0.17545645 0.13599806 -0.11691988 -0.06330525 0.10025537 0.24746557 -0.04012161 -0.29502544
-0.26542595 -0.086509384 0.19180065 -0.22265257 -0.006519607 -0.14716832 -0.35403228 0.0036711725
0.2031078 -0.2501546 -0.27983853 -0.11360161 -0.28324193 -0.027098043 0.14101589 0.19157316
0.17927079 -0.1927342 0.21092223 0.315058 0.014495705 0.27623492 -0.055676892 0.045170903
0.12087124 -0.2681346 -0.0024955766 -0.099274695 0.254614 -0.11981291 -0.0079396935 0.045189183
-0.23727958 0.1924658 0.17853907 -0.21606106 0.118856795 -0.13792661 0.3396331 0.2588088
-0.16006994 -0.0298905 -0.24934588 0.32777256 -0.118124485 -0.12706663 0.17028208 -0.09736658
-0.02932477 0.06752121 -0.1534177 0.10963283 0.011081147 0.16098551 -0.04119789 -0.024214884
-0.26502076 -0.16575842 0.02568441 0.026596487 -0.07245363 0.019801289 -0.32533967 -0.25417954
0.22941689 0.27917525 0.13672368 0.16943905 0.03720102 0.1750673 -0.20393085 0.015478609
0.16954193 -0.175819 0.1329768 -0.2979605 -0.30058903 0.22864494 0.038693503 0.10871372
-0.11268695 -0.2424498 -0.08331088 0.22115865 0.09094488 -0.118072875 -0.020329284 0.15367945
0.029539986 0.22528976 -0.25108606 -0.25984693 0.03665904 0.17380571 0.04364184 0.10629504
0.0134766605 -0.014661321 0.15179937 0.108053125 0.23821369 0.14047894 -0.072240785 -0.24006976
-0.20063595 -0.19704176 -0.27398995 -0.04071131 -0.1323101 -0.16501456 0.000844586 0.002794023
-0.05607296 0.0040128105 -0.001989113 -0.018848425 -0.055625856 0.1734159 0.15701719 0.2720021
-0.16627017 0.21345162 -0.1559335 -0.19111817 -0.08986778 -0.21236919 0.1207312 -0.22580999

conv_ensemble_1.0.bias f4 [16]
00000000: ea22 80ba 0e71 933e 0184 d03d 21a3 123e
00000010: 0f15 7cbd db8b 0d3d 2bea 753e aec6 143d
00000020: bddd 8abd 75f0 ffbd c237 1b3e 5258 883e
00000030: c3c4 a13d 7a39 5cbc f9f0 68bd 61bf 343e
-0.000977603 0.2879719 0.10181428 0.14320041 -0.06154352 0.034557205 0.24015109 0.03632229
-0.067805745 -0.124970354 0.15157989 0.26629883 0.078988574 -0.013441438 -0.056870434 0.1765113

conv_ensemble_2.0.weight f4 [32, 16, 5, 5]
00000000: 4a56 e03c dc26 a9ba e12e 153d 313f f23c
00000010: f669 b7bb 20aa c13c 7f45 1b3d 8d14 59bc
00000020: 3dc9 aebb 4e55 a3bc 583e 333d f25d 953d
00000030: b2af 38bd 9f4d 043c a488 14bd c55f 2b3c
00000040: de35 0e3c fcae 093d 443e 553d d99d 1b3d
00000050: 4d8b 84bd 9cc5 25bd d829 e8bc 41ad 7f3d
00000060: 048d cd3b b8bf 8dbd a5ab 1ebd a998 44bc
00000070: 9810 393d 023f 0e3d db18 12bc f2e0 893c
00000080: 24f2 133d 9bd0 6fbc 1cfb 0abb e8e5 c53d
00000090: e495 513c 1f25 6e3d bd2e df3d 19f4 a33d
000000a0: 8933 8cbb 1e8b eabd c26f 503d 2ff7 803b
000000b0: 3cbd 923d 1afc 0cbd efe7 a8bc 5d4a fabc
000000c0: 11bb 26bd 8032 e43b 74dd e43c ba1b 9fbc
000000d0: e4b9 d93c ab4e a33d 8617 a2bd d55a e43c
000000e0: aecb 71bc 1f4d aa3c c459 44bc 680c 84bd
000000f0: b4e5 eebb c551 893c cc37 243d 3e2a 62bc
00000100: b6ec 483b e98c 1dbd 28e6 5dbd 02ab 733c
00000110: e3ef 6b3c b684 32bb 5478 d2bc 8ea2 81bd
00000120: 98c4 a2bd 6792 4bbd 67b0 833b 88fb 703c
00000130: 2de6 e63c f8b6 0d3d 4d58 b6bc f177 a73c
00000140: ee76 0dbd f651 e6bc fcf8 aeb9 fb9c 54bd
00000150: 7ec3 f43b 20d4 bd3c e862 dd3c 04b8 62bd
00000160: b172 d0bd c3d1 bcbd 690c 8f3a 8808 883b
00000170: d7ad 95bc 026b 81bd 6aee 53bd 86fe 603d
00000180: 0cb8 853d c25c c53d 82c4 0c3d fdfc 9abc
00000190: 01b6 d3bc af79 193c ff9d 123c 57cf 083c
000001a0: f328 d3bc 4811 cfbc 6d94 9e3c decc 9a3c
000001b0: c42b ee3c 8dd9 993c 4740 323d 80a4 abbb
000001c0: 9b4c 963a 72f4 9cbd 1b62 73bd 3d1b f63c
000001d0: 2429 183d 29df e5bc a03f 5cbd 2524 2cbc
000001e0: df5e 783d fa1d 0bbb 842f c13c f98c b83d
000001f0: 144b b83d 3122 853d c031 393d 6c90 fbbc
00000200: 104f 473d ab23 b63d 2452 fd3d 9a02 673d
00000210: 23c0 c23d 56c3 573c 1770 b33d f6c8 193d
00000220: 0235 023c 35b3 60bd ab8b 0d3d ad94 3c3c
00000230: 9843 07bd 70fa 84bd 3211 1d3c 626b 603d
00000240: d826 753d 088d 753d 1696 8d3d e3e0 053d
00000250: 042d 46bc 3af9 f63b 2246 753c c47e 44bd
00000260: 16ab 303d 1ad9 383d 1ca2 fbbb 8655 043c
00000270: e518 8dbd baa4 513d baaf 023b c0fc f83c
00000280: ff48 a0bc ea9f f0bc ca51 dd3c 124e ad3c
00000290: 059d 823b 05cf 7cbd d9ef d4bd e411 6ebd
000002a0: 0e6f 5abc 7982 4cbd be9a 5b3d fb83 97bd
000002b0: 8537 c7bd add2 e1bc ecb3 22bb e459 7ebd
000002c0: 5db5 e339 6198 39bc abfb 853c 2d85 4b3d
000002d0: 2d1d 1e3d cded 1c3d 5676 4b3d 7f81 093c
000002e0: a6af 813d da0e aa3d ca3a 893d 9e3b 9b3b
000002f0: 1a0c 5dbc 6235 233d cd35 2c3d 9d8b f13b
00000300: f20f 2f3d dd81 f43c 53d9 1a3d fad3 e33c
00000310: 9f78 cb3c 8b49 86bb 50f3 5b3d b42a 9b3c
00000320: e9a8 1f3d b6c3 a6bd 3a1a d6bc 0cfb 26bd
00000330: 0662 25bd ae9e 41bd a8ca bcbc ecfa 07bd
00000340: 8647 67bd 8d7b 7b3b a05b 1dbd 0a09 a2bc
00000350: 0b31 a23c bdc7 dd3c f2c2 86bd 01c4 acbc
00000360: 4991 60bd 96fb d03c bfcc 0a3d 47c5 8c3b
00000370: 52c8 963c 76f9 6d3c 7d40 963c df56 ffbc
00000380: 9cd5 0abd 2db0 b33c 2c8d 39bc 5811 3e3c
00000390: db0a 19bc 14f4 8c3d f51a ce3c c6c5 23bb
000003a0: ebea c63d d05b 8e3d 928b 143d e7e7 a2bb
000003b0: 8a0f 01bd fe7c 15bc 4f49 823c a095 193c
000003c0: b640 df3c 6d7b 163d 29cb 43bc 446a b2bc
000003d0: 9315 2e3d 23e8 383d 484e 933d 8b41 d03c
000003e0: ecf3 683d 932a 5f3c d7a0 3b3d 38ef 1c3c
000003f0: fe5f aabc b81c 813d 4727 7d3d f85d 213d
0.027384896 -0.0012905258 0.03642166 0.029571148 -0.0055973483 0.023640692 0.037908074 -0.013249529
-0.005334048 -0.019938137 0.043760628 0.07293309 -0.04508943 0.008075147 -0.036263123 0.010459845
0.008679835 0.033614144 0.052061334 0.037992332 -0.06471882 -0.040471658 -0.028340265 0.062421087
0.006272914 -0.06921333 -0.03873791 -0.011999288 0.04518184 0.034728058 -0.008917059 0.016830895
0.036119595 -0.014637138 -0.0021206802 0.09662992 0.012792084 0.05814087 0.108975865 0.08005542
-0.0042786044 -0.11452316 0.05088783 0.0039357166 0.07165 -0.03442011 -0.020618407 -0.030553037
-0.040705744 0.006964028 0.027937628 -0.0194224 0.026577897 0.07973989 -0.07914643 0.027875343
-0.014758034 0.020788727 -0.011984292 -0.06447679 -0.0072905663 0.016762624 0.040092275 -0.013804017
0.003065867 -0.03846446 -0.054174572 0.014872314 0.014400455 -0.0027239746 -0.025692143 -0.06329833
-0.079476535 -0.049700167 0.0040188315 0.014708407 0.028185928 0.03459832 -0.022258902 0.020442935
-0.03453725 -0.028115254 -0.00033373374 -0.05190752 0.0074695935 0.023172438 0.027024701 -0.055351272
-0.10178126 -0.092196964 0.0010913733 0.0041514076 -0.01827137 -0.06319238 -0.05174104 0.054930232
0.06529245 0.09636833 0.034367092 -0.018919462 -0.025843622 0.009367391 0.008948802 0.008350215
-0.025776362 -0.025276795 0.019357884 0.018896516 0.029073603 0.018780494 0.04351833 -0.005238116
0.0011466922 -0.07663812 -0.059419733 0.030042285 0.03714861 -0.028060513 -0.053771615 -0.010506664
0.06063735 -0.0021227584 0.023582228 0.090112634 0.08998695 0.06500662 0.04521346 -0.030708514
0.048659384 0.08893522 0.12369183 0.056398965 0.095093034 0.01316913 0.08761614 0.037545167
0.007947208 -0.054858405 0.034557026 0.011510056 -0.033023447 -0.0649308 0.009586619 0.05478991
0.059851497 0.05994895 0.06913392 0.03268517 -0.0120956935 0.0075370343 0.014970334 -0.047972456
0.04313191 0.04512892 -0.007679237 0.008077031 -0.06889514 0.051182486 0.0019941167 0.030393958
-0.019566057 -0.029373128 0.02701654 0.02115539 0.0039860033 -0.061720867 -0.1039731 -0.05812253
-0.013332142 -0.049929116 0.05361437 -0.0739822 -0.097273864 -0.027566278 -0.002482648 -0.062097445
0.0004343194 -0.011327834 0.016355356 0.049687553 0.038602043 0.038312722 0.0496734 0.008392691
0.063323304 0.08303614 0.06700666 0.0047373315 -0.013491655 0.03984583 0.042043496 0.0073713795
0.042739816 0.02984708 0.037804913 0.02781104 0.02483779 -0.0040981225 0.053698838 0.01894126
0.038979445 -0.08142798 -0.026135553 -0.04076676 -0.040376686 -0.04727047 -0.023045853 -0.033198282
-0.056464694 0.0038373203 -0.03841746 -0.0197797 0.019798776 0.027072782 -0.065801516 -0.021089556
-0.054826055 0.02551059 0.033886667 0.004295978 0.018406067 0.014524808 0.018341297 -0.031169353
-0.03389512 0.021934593 -0.011325162 0.011600815 -0.009340967 0.06882492 0.025159338 -0.0024989708
0.09712776 0.069511056 0.036265917 -0.0049714926 -0.03150896 -0.009124039 0.015904097 0.009374052
0.027252536 0.0367388 -0.011950293 -0.021779187 0.042501044 0.045143258 0.07192665 0.025421878
0.056873247 0.01362099 0.045807686 0.009578519 -0.020797726 0.06304306 0.061805036 0.039396256

conv_ensemble_2.0.bias f4 [32]
00000000: 21a2 43bc 7235 693b 7938 c3bd 1045 983c
00000010: 2ba4 213d bf1d 213d e290 3abb 4f1e 8d3d
00000020: 17e6 88bd b79f ca3c 442b 02be 7c56 8bbd
00000030: 7748 813b 8931 45bd 165f 8ebb bd3c 883d
00000040: 96df 753d 4741 f2bc fec3 893d fdd1 11bd
00000050: 4d06 923c 48a8 c7b7 2294 dabc 9753 bc3c
00000060: f2f9 1d3c f667 cbbc 657c a2bc 0c7e 55bc
00000070: 9040 f7bc 4d52 84bd 01bf cf3c a83a 103d
-0.01194051 0.0035584834 -0.09532256 0.018587619 0.039463203 0.03933501 -0.0028467705 0.068905465
-0.06684511 0.024734361 -0.12711817 -0.06803605 0.003945406 -0.048142944 -0.004344831 0.0665221
0.06002768 -0.029572142 0.06726836 -0.03560065 0.01782527 -2.380101e-05 -0.026681963 0.022989077
0.009642111 -0.024829846 -0.019834707 -0.01303054 -0.030182153 -0.0646101 0.025359632 0.03521219

fully_connected_layer.weight f4 [10, 1568]
00000000: 2ac5 28bd c1f6 843d da75 603d f192 ba3d
00000010: d996 803d fd51 3ebd 84bf 243b dfdc 9e3d
00000020: 8347 4abd 9a0b 3e3c 118f 953d 98ee f2bc
00000030: 8ee2 b13c 57ba 8b3c 128d b63d 5e64 4c3d
00000040: c357 793c fc25 063c 4b67 243c 20df 1d3d
00000050: 362a 4e3c e6d8 a7bc 5ace 34bd 3290 71bc
00000060: 54c4 153d 2a8e 29bd 735e 00bd fc37 acbb
00000070: e1aa 5bbd 1770 98bc d772 20bc 5337 92bc
00000080: 558b ecbb ba0e 57bd bb5c babc ce54 4fbd
00000090: e8d5 68bc be55 4a3c dd8e 67bd 51d6 a1bc
000000a0: 9762 6cbd 174a babc bec2 d53b 8468 3cbc
000000b0: e868 103d 2957 63bc c01a 3fbd 5bab 34bd
000000c0: d894 ecbb dd0c 1a3d ab1a 5abd 8b95 723d
000000d0: 7ff1 58bc 986b e23c c47a 1b3d 139c 643b
000000e0: 6f00 35bb 41c6 943c 41d2 733c ca48 a9bc
000000f0: f885 8bbc 33f7 e43c f538 213d 2877 9cbc
00000100: 2c91 8fbc 79b8 543d 3021 b83d 3d7f ca3c
00000110: a69a e23b 65a1 923c ad5e ff3b 182e fbbb
00000120: b2d5 0cbd fa95 973c 4dd7 bdbb 13c1 24bc
00000130: 5fbf 18bd 44ba ffbb eea5 adbb d8ff 6ebd
00000140: e6b8 8ebb 4b94 8c3c 9e45 c13c 0288 34bd
00000150: 43df ff3a 37be 2abd f25a b43b d22c 413b
00000160: 4ae4 ca3b f1d5 cf3c 9082 acbc 2358 8e3c
00000170: 4a4c 10bd 27ad a5bc ad4b d6bc 58c5 013b
00000180: b61d 883c 1861 65bc 2351 22bd b723 a4bc
00000190: 1aea c13b a896 8a3c 5525 94ba 08a0 09bd
000001a0: a9ff 34bc 5cc1 cabc fd70 3e3d 8252 113c
000001b0: 438c b03c 6407 013d dd9a c8bd 9f7a 6abd
000001c0: 10eb e1bc 14e2 32bd 1b02 35bc deb8 4bbc
000001d0: 09c0 10bd 42e5 043d 065c 9fbd f5c7 6f3d
000001e0: 707b 1f3d 1d73 1a3c e40b 2a3d 9ce4 983c
000001f0: b3dd ec3d eaa8 7a3b 3afb 813d b489 7e3d
00000200: d099 e4bc d776 843c 2f27 763d 5c56 fa3d
00000210: f0ff 373d 2e84 023d 8646 ab3b d9e5 07bd
00000220: 1455 8abc caa4 433d 3f0b dfbc 42d4 2e3d
00000230: 9493 013d 3d61 1a3b e42e a83b bfe6 15bc
00000240: db5d 413d 9152 d33c 59e7 8abc b0e6 76bc
00000250: 60f2 513d cc47 5d3d 4a42 30bd 1e82 c2bc
00000260: 0cd8 083d 6100 b43a d1dd 823c e722 1a3e
00000270: 9c71 2a3d 0c99 0cbd 9f41 9abb 360f 9cbb
00000280: f033 153d 9a19 953d 9297 6d3c 55ef 123d
00000290: 5a71 003c b33b bebc 46e9 833c e5b7 633d
000002a0: 42aa 42bd 8824 efba fd09 c83b 6da2 043d
000002b0: 4094 9cbc 467e 523c 7ca4 3bbd ca37 49bd
000002c0: d13c 41bc 4334 533d e5e8 0a3c f9e0 303c
000002d0: c0b5 1ebd dfd4 88bd 1dfe a9bb e677 f2bc
000002e0: e95b 823c 9e01 ffbb dd74 f8bc 7de5 423c
000002f0: 1389 99bd 713b e33c a675 0bbd a6f8 5c3d
00000300: 0ded 2ebd e643 36bc 69c8 5a3d 98a1 b3bd
00000310: a3d0 783d 9a6a 3f3d b6be 123d 98c8 263c
00000320: 9902 863d bad3 d6bc 1a74 9aba b628 ed3c
00000330: d703 e13d 9f71 8abb 347b 23bd 2fab 083d
00000340: 5536 e33d b3f2 e6bc cf95 e53c 5c56 ed3c
00000350: 5030 a2bd 29e3 023b 24ff 7fbc e16a a13d
00000360: 0692 2ebd d81e 07bd 1602 82bb b666 a7bc
00000370: b29a 59bc 81ac d8bc c905 6c3d da75 76bd
00000380: 6d08 09bc 8386 963c acf9 1dbc f41e bbbb
00000390: b686 5fbb b8cb 4bbd ad6e 64bd 9803 32bd
000003a0: 85b2 6ebd 4ac7 543d a354 e6bc cd00 523d
000003b0: 93bc 3dbd bdb8 2dbc 5a66 1bbc f9b8 533d
000003c0: 3a7d 89bc 1cbc 39bb 48ba 5b3c 31f7 a9bc
000003d0: 6476 18bc 2fae 0d3c f3e2 cdbc f812 243d
000003e0: a010 663d 0369 d63b 2065 d7bc 89ad 773c
000003f0: 1873 7cbc 8559 bfbc f33d c93c 155f 033d
-0.041203655 0.06492377 0.054799892 0.09110058 0.06278772 -0.04646491 0.0025138566 0.077569716
-0.049384605 0.011599446 0.073026784 -0.029654786 0.021714475 0.017056627 0.08913626 0.049900405
0.015218678 0.008187767 0.010034393 0.038542867 0.012583306 -0.020489167 -0.044142105 -0.0147438515
0.036564186 -0.041395344 -0.031340074 -0.0052556973 -0.05362976 -0.018608136 -0.009793005 -0.017848646
-0.007218758 -0.05250428 -0.022749295 -0.050617985 -0.0142111555 0.012349544 -0.05653273 -0.019755514
-0.05771121 -0.022740407 0.006523459 -0.011499528 0.035256296 -0.013875761 -0.04665637 -0.04410873
-0.007219892 0.037609924 -0.05324809 0.059224647 -0.013241171 0.027639195 0.037958875 0.0034883067
-0.0027618667 0.018160941 0.014881671 -0.020664591 -0.017031655 0.027949905 0.03936096 -0.019099787
-0.017525278 0.05193374 0.08990705 0.024718875 0.006915408 0.017899225 0.0077932687 -0.007665407
-0.034383483 0.018504132 -0.005793488 -0.010055798 -0.03729188 -0.007804187 -0.0052993214 -0.05834946
-0.0043555377 0.017160555 0.023592766 -0.04407502 0.0019521493 -0.04168531 0.0055040056 0.0029476178
0.006191765 0.02537057 -0.02105835 0.017376011 -0.035229005 -0.020224167 -0.026159132 0.0019801464
0.01661573 -0.0140002 -0.03962816 -0.020036561 0.0059177997 0.016917542 -0.001130263 -0.033599883
-0.011047282 -0.024750404 0.046494473 0.008869769 0.021551257 0.03150119 -0.09795163 -0.057245847
-0.027577907 -0.043672636 -0.011047865 -0.0124342125 -0.03533939 0.0324452 -0.07781224 0.058540303
0.03893608 0.009426859 0.041515246 0.018663697 0.11565723 0.0038247653 0.06346746 0.062143043
-0.027905375 0.016169949 0.060095962 0.12223503 0.044921815 0.031864338 0.005226913 -0.033178184
-0.016886272 0.047764577 -0.027227042 0.042682894 0.031634882 0.0023556494 0.005132543 -0.009149252
0.04720865 0.025796207 -0.016956018 -0.015069649 0.051256537 0.05402355 -0.04303197 -0.023743685
0.033409163 0.0013733023 0.01597491 0.15052377 0.041612253 -0.034325644 -0.0047075297 -0.0047625555
0.036426485 0.07280274 0.014501469 0.035872776 0.007839525 -0.023221826 0.016102444 0.055595297
-0.04752565 -0.001824514 0.0061047063 0.032381464 -0.01911366 0.012847489 -0.04581116 -0.04912547
-0.011794285 0.051563513 0.008478378 0.010795825 -0.03874755 -0.06681227 -0.0051877634 -0.029598188
0.015912967 -0.007782175 -0.030329162 0.011895535 -0.07496848 0.027738305 -0.034047745 0.053948067
-0.042706538 -0.011124587 0.053413782 -0.08771056 0.060745846 0.046732523 0.035826407 0.010179661
0.06543464 -0.026224006 -0.0011783869 0.028950077 0.109870605 -0.0042249705 -0.039912418 0.03336638
0.110943474 -0.0281919 0.028025536 0.028971843 -0.07919371 0.0019971824 -0.015624795 0.07881714
-0.042619728 -0.0329884 -0.003967534 -0.020434719 -0.013281511 -0.026449444 0.057622705 -0.060170986
-0.008363825 0.018374687 -0.009642046 -0.005710477 -0.0034107394 -0.04975483 -0.05576961 -0.04346046
-0.05827572 0.05194787 -0.02811653 0.051270295 -0.046322417 -0.010603127 -0.009484852 0.051690076
-0.016783345 -0.0028340882 0.013411112 -0.020747753 -0.00930557 0.008647486 -0.025132632 0.040057153
0.0561682 0.00654328 -0.026293337 0.015117058 -0.0154083 -0.023358116 0.024565673 0.0320731

fully_connected_layer.bias f4 [10]
00000000: cbbe 07bb 0337 3cbc cfb5 7d3c a71c ec3c
00000010: 692c 1ebd 5706 59bd df84 863d d95e 5f3d
00000020: b2b9 15bd 18d1 29bc
-0.0020713087 -0.011487725 0.015485241 0.028822256 -0.03861657 -0.05298456 0.06568312 0.054533813
-0.036554046 -0.010364793
