4_AutoEncoders/models/AutoEncoder_True_parms.pt (torch, 71745 bytes, 11 tensors)

encoder.conv1.weight f4 [4, 1, 5, 5]
00000000: 39ae 59be f8cf c33c ad77 3e3f 15fc c0be
00000010: 4894 343e a9ec 88be 3b22 6dbe 0057 df3e
00000020: 98c0 e33c 80ee 2c3e 3743 edbe cd82 93bd
00000030: b5cf 89be d9f0 b73e d13f 423e d89e febe
00000040: 3821 643c efe1 24bf 7f7b 6b3e f7da 823e
00000050: 64d4 90bf cb63 89be d486 9abe 55b3 c2be
00000060: 3371 c4bd 695c 81bd 35df 8b3d 0502 2fbd
00000070: c6f7 a23d c85b 2f3d 6f92 b0bc 7dfd 8e3c
00000080: d3fb d9bc 8c65 a43d fc31 803e 89a9 1c3d
00000090: 6d75 08bc fc50 3bbc cc3d d3bc 1779 ce3e
000000a0: 0db3 6e3c 565f a5bd 196f 0c3e 26be 0b3d
000000b0: c5ce 4b3f 61af ce3d c688 d7bb 366e 913e
000000c0: 4fc2 f5bc 7125 b63e 204b 56bd e6ca c43c
000000d0: 7353 1dbe 5e1c 4bbe f80c f7be f47f 083d
000000e0: 4813 76bd 7233 96bd fae2 193e 5ef7 e5be
000000f0: 437a 3ebd 4e91 a0bd 63ff 15be 7e59 203d
00000100: 0369 c3be ff5e 08be 5f64 b7bd a059 45be
00000110: 5f90 cbbd 5d31 a2be 2656 0fbe 0ca3 5abe
00000120: 87cf 9ebd 07dc 3fbe 6bbc a0be 4f97 273d
00000130: 83d6 95bc d4dc e43d b13f bbbc 5ab1 0d3f
00000140: e13b 1e3e c62d cfbd 13c3 383e 17b0 e8bd
00000150: 5662 133c d163 63bd edae 9ebd 44e0 273e
00000160: 7ee5 563d 269d babe c516 a4be b854 573e
00000170: e41b 193d c5e5 32bd ee71 0dbf 9e6a cabf
00000180: f8ab 913d 00bd 22bf b6cf 90be e3c1 88be
-0.21257867 0.023902878 0.7440136 -0.37692323 0.1763469 -0.26743057 -0.23157589 0.43621063
0.027801797 0.16887856 -0.46340343 -0.07202683 -0.2691628 0.3592594 0.18969657 -0.49730563
0.013923936 -0.6440725 0.22996329 0.25557682 -1.1314816 -0.26833948 -0.3018099 -0.38027444
-0.095919035 -0.06316454 0.06829683 -0.042726535 0.07957415 0.04281214 -0.0215542 0.017454857
-0.026609337 0.08027181 0.25038135 0.03824762 -0.008328778 -0.011432882 -0.025786303 0.4032676
0.014569056 -0.080748245 0.13714255 0.034116887 0.7961238 0.100920446 -0.006577584 0.28404397
-0.02999988 0.3557544 -0.05231774 0.02402253 -0.15363865 -0.1983504 -0.48252082 0.03332515
-0.06007698 -0.07334031 0.15027991 -0.4491529 -0.046503317 -0.07840215 -0.14648204 0.039147846
-0.38166055 -0.13317488 -0.08954691 -0.1927247 -0.09939646 -0.31678286 -0.13997707 -0.2135126
-0.077544264 -0.18736278 -0.31393752 0.040915783 -0.018290764 0.11174932 -0.022857519 0.5534874
0.1545253 -0.101161525 0.18043165 -0.113617115 0.008995613 -0.055515114 -0.07748208 0.16394144
0.052464955 -0.3644802 -0.32048622 0.21028411 0.037380114 -0.043676157 -0.5525197 -1.5813787
0.071128786 -0.6356964 -0.2828347 -0.26710424

encoder.conv1.bias f4 [4]
00000000: a09e e1be da07 05c0 d784 2d3f cd1d d9be
-0.44066334 -2.0786042 0.6778082 -0.4240555

encoder.conv2.weight f4 [8, 4, 3, 3]
00000000: b314 a4bd 48e2 c0bd bad1 a1bd 2cdc e1bd
00000010: be2e 02be 9f86 6dbc 13c3 30bd 6774 18be
00000020: bfb1 883d 805a a23d e491 a33e c663 7e3e
00000030: 7720 4b3e dce2 a43e 7bd2 963b 25fd 583c
00000040: 1fd3 553d 1304 a7bc d1cd 283e a78f 07be
00000050: ff52 dcbd 9c87 f53c a117 4bbf 150d acbe
00000060: 3f17 bdbd 5734 a4bc 49f2 d53c c9f5 ebbd
00000070: 1d91 47bd 737f 483e da3b f8bd ece5 0abd
00000080: fe5e 663e feae fd3c 4de6 17bc a8f4 753d
00000090: c7f2 023d a372 7c3d 2017 2c3e d3e6 7bbd
000000a0: 6888 e6bd a0ae 3a3e cf59 f4bd f068 7fbe
000000b0: d1ec 8c3d 19f6 1c3e 6598 0dbd 6214 62be
000000c0: 9d10 cb3d a8f7 debd b66d e3be ed89 c53c
000000d0: e01c d4bd ab1e 4bbe 8492 8abe 6deb ebbe
000000e0: 4b06 023f ff2e 3bbf 425a a7be 6e9f 0b3f
000000f0: e670 383d 2bde 993e 50cc 2a3f 5cae c0be
00000100: a7c8 80be 4713 28be 3149 a0be 2d30 99be
00000110: 6fc6 29be 116e d93c 5493 13be 645a 4d3e
00000120: 1e57 dcbd dda8 a1bd a229 bebb b6f4 43be
00000130: 915d 1ebe 109c 91bd cd58 d3bd 1671 dfbc
00000140: 2806 683e 247c 8fbd e591 9ebe 00e9 8bbe
00000150: af92 2fbc e02a 0a3e f252 6b3e ec7a 5dbd
00000160: bd7b 0e3e 6a70 1f3b b129 1dbe eb9b 033f
00000170: ef6c 1b3f 793e 91be 2f1e 31bd ccf1 dcbd
00000180: 70b6 40bf 958b 8abf 4d14 66bf 3932 0b3e
00000190: a5b2 7b3e 4637 683e 9073 aabd 6a02 e73d
000001a0: 7b9a 003e f7d9 40be 0e37 2b3e 5065 bd3e
000001b0: 679a ca3d 32aa 23be bfdc 39bd 4ff3 1f3e
000001c0: 3b09 a1be de0e 97bd 2472 7c3e 9bf0 63be
000001d0: 3c83 56bd 750e 8d3d 9440 1e3e c7e2 d53d
000001e0: ddf6 3abe bd55 ccbd db95 26bd 8062 66be
000001f0: 7288 11bf 858c a5be 80a1 8fbe 3762 1dbf
00000200: 0957 91be 0114 3dbe 3f5b 18be b50d 3dbe
00000210: 924c 023f 5a6d f23e 8a8e e03e 8881 8e3e
00000220: e797 713e 6dc7 a03d 4f31 fc3e 05f8 733e
00000230: 32c5 893c 7884 cf3e 65eb 523e 9360 443e
00000240: 60e0 92bd 2bff e1bd eb44 af3d 205d b0bb
00000250: 05fc 1abd 0151 ccbb 2153 e13b e145 cebd
00000260: 1b13 eebd f774 92bd 3eb3 863d 3f45 b13d
00000270: 0d04 96be 938b 62bd e6e7 623d 8df1 f8bd
00000280: 1128 923d 943e 4c3e 11f4 84bd 02a0 a4bd
00000290: 8f06 d4be f8c0 903e 6996 1c3e c444 dfbe
000002a0: 8106 283f a099 bebc da74 49bf a23c 463e
000002b0: 69a1 1b3e 98ff 9f3e 9081 313e d074 683e
000002c0: 6743 063e 54b4 253e df7d 44be 3b87 cfbe
000002d0: 1adb 0bbf 1b98 3c3e 5513 1cbf 9e25 dabe
000002e0: d738 033e 974e 31bf 7266 9fbe a9ad f93c
000002f0: bd21 c8be b242 15bf 6d27 28bf 5212 f33e
00000300: c718 d2be 93ae 8abd a197 863e bf68 dc3d
00000310: db6c 173d ea15 a63c dffa f33e 1b87 833f
00000320: a326 a2be 36ed 133f a3fc 273f 5db1 2abf
00000330: 0fd3 163e 0044 1cbe 0931 63bf 922e 46bf
00000340: 25dd 963e 7d3e 733d b9b6 c1be 27c8 db3e
00000350: 8613 083f 3ccc dfbe 8f14 433d 9050 3a3e
00000360: 2a0c d93d fafe d53d bd01 dc3e 0874 0dbe
00000370: 1caa 7d3e 54f9 193f 1f86 b6be d732 23bf
00000380: e652 4bbf 2c7e 383d 31d7 f23d 4fb2 893d
00000390: 98b4 b0be 0c9c 96be 4e79 03be 2a03 393e
000003a0: ca09 593e 8200 bb3d 76c3 c4be be9c 80be
000003b0: a4a7 e0be 878c 683e 700e 8d3e 1517 abbd
000003c0: 92b1 1abe de4c cabe 152b b3be 2f43 323c
000003d0: 3f92 a73d e235 d9bd 14ac 143e 0cc7 943e
000003e0: 3bc7 193e d9f5 a53c 691c 153e b57e e6bc
000003f0: 4523 3a3e b558 203e 2bd3 12bc f396 da3e
-0.080117606 -0.0941816 -0.0790133 -0.110283226 -0.12713143 -0.014497428 -0.043154787 -0.14888154
0.066745274 0.07927418 0.31947243 0.24842748 0.19836603 0.3220433 0.004602728 0.013243948
0.052203294 -0.020387685 0.16484763 -0.13238393 -0.10758018 0.02997189 -0.7933293 -0.3360373
-0.092329495 -0.020044489 0.026116507 -0.11521489 -0.048722375 0.19579868 -0.12120791 -0.033910677
0.22497174 0.030967232 -0.009271217 0.060047776 0.03196981 0.061632764 0.16805696 -0.061499428
-0.11256486 0.18230677 -0.11931192 -0.24942374 0.06881107 0.15328254 -0.034569163 -0.22078088
0.09915278 -0.108870804 -0.4441964 0.02411362 -0.1035707 -0.19835918 -0.27064908 -0.46078053
0.5079085 -0.73118585 -0.3268605 0.54540145 0.045029543 0.30052313 0.66718006 -0.37633026
-0.25153086 -0.16413604 -0.3130584 -0.29919568 -0.16579603 0.026541742 -0.1441167 0.20054013
-0.10758804 -0.07893536 -0.005803303 -0.19136319 -0.1546538 -0.07109845 -0.10319672 -0.027275603
0.22658598 -0.070061 -0.30970684 -0.27326202 -0.010716124 0.13492918 0.2298086 -0.054072306
0.1391439 0.0024328479 -0.15347935 0.51409787 0.60713094 -0.28367975 -0.043241676 -0.107883066
-0.7527838 -1.0823847 -0.89874727 0.13593377 0.24579866 0.22677335 -0.08322823 0.11279757
0.1255893 -0.18833147 0.1672022 0.36991358 0.09892731 -0.15982893 -0.045376536 0.15620159
-0.31452355 -0.073758826 0.24652916 -0.22259752 -0.05237125 0.06887523 0.15454322 0.10443645
-0.18258233 -0.09977291 -0.040670257 -0.22498512 -0.56848824 -0.3233377 -0.28052902 -0.6147799
-0.28386715 -0.18464662 -0.14878558 -0.1846226 0.5089809 0.47349054 0.4385875 0.278332
0.23593102 0.078505374 0.4925637 0.2382508 0.016817663 0.40530753 0.20597608 0.19177465
-0.071717024 -0.110349976 0.08558067 -0.005382195 -0.037838 -0.0062352424 0.006876365 -0.10071922
-0.11624738 -0.071512155 0.065771565 0.08655786 -0.29299966 -0.05530889 0.055396937 -0.12155447
0.07136548 0.19945747 -0.064918645 -0.080383316 -0.41411254 0.28272223 0.15291752 -0.43607152
0.65634924 -0.023266613 -0.78693926 0.19359067 0.15198292 0.3124969 0.1733458 0.2270081
0.1311165 0.16182071 -0.19188641 -0.4053286 -0.546312 0.18417399 -0.60967 -0.42606825
0.12814651 -0.69260544 -0.31132847 0.030478315 -0.3908824 -0.58304894 -0.6568516 0.47474915
-0.4103453 -0.06771579 0.2628756 0.10762166 0.036969047 0.020274121 0.47652337 1.0275606
-0.31670102 0.5778383 0.6561987 -0.66676885 0.1472895 -0.15260315 -0.88746697 -0.7741481
0.29465595 0.059385765 -0.3783472 0.42926142 0.5315479 -0.43710506 0.047627028 0.18194795
0.10598023 0.104490235 0.42970076 -0.13813794 0.24771923 0.6014607 -0.356492 -0.6374945
-0.7942337 0.045042202 0.11857451 0.06723463 -0.34512782 -0.2941593 -0.12839243 0.18067613
0.2119514 0.09130956 -0.38430375 -0.25119585 -0.438779 0.22709857 0.27550077 -0.08354012
-0.151068 -0.3951177 -0.34993806 0.010880276 0.08182191 -0.106059805 0.14518768 0.2905811
0.15017407 0.02025883 0.14561619 -0.02813659 0.18177517 0.15658839 -0.008961479 0.4269329

encoder.conv2.bias f4 [8]
00000000: ba38 5a3f fd1c 283f 2b4e 9c3f dd75 fa3d
00000010: 2e64 953f 48e4 09bf 3dd7 013f 3ac9 a43e
0.8524281 0.6566923 1.2211355 0.12229512 1.1671197 -0.53863955 0.5071905 0.32184774

encoder.linear.weight f4 [40, 200]
00000000: 77ef 513d fff3 1abe cf23 c5be de03 89bd
00000010: 0cbc 353d d715 533e 5e21 0bbd 3346 10bf
00000020: 7aa2 90bc f011 5b3e df58 3a3e c0ca ffbd
00000030: f15d 6e3c 9bc9 1d3e ac22 84bd 6849 023e
00000040: d101 8cbd cbcc 8d3e 7b85 223e 917d f93d
00000050: 726b 7c3e 8cfc fabd 6009 6539 9ab9 d23d
00000060: e2f8 8b3d 129f 06bd e375 023e 4035 873c
00000070: 2d71 cf3c 9976 95bc eb82 74bd 1f30 f43d
00000080: 1330 17be 0e86 29bb fdae 5bbb b4ab 1dbe
00000090: fa2a c8bd 4f72 e8bd ab55 683e 30d0 16bd
000000a0: 0421 abbd 5083 1cbe bdcb d33c c152 3fbe
000000b0: c077 323e 96f5 413d 054d 463d b171 a6be
000000c0: 594a d1bd a636 0bbe 4691 e83d 241f 38bd
000000d0: b8e0 c8bd 8c24 373d 7de2 443d 5b50 2f3e
000000e0: f0e3 853d 2fe2 34be b055 98bd 9aa7 02be
000000f0: 0eaa d23d 63b1 3f3d 5eef a93e 9f4a cebb
00000100: a366 2ebe df94 5e3e b939 d03d 8412 12be
00000110: 2ce0 1ebd ecf7 b3bd 2fc6 8a3e 4b58 4cbd
00000120: f8cf a0bd 1865 d1bd 497b 99bd 85c0 9cbc
00000130: 8be6 a63b 117b c83c 563f 7b3d 5cdf 96bd
00000140: 9e12 643e e0b3 0c3e a60e 153e 8cb4 4f3d
00000150: 2464 28be 5e9d 6ebc de22 653d 954c 80be
00000160: 7e6c 56bd d6c2 a6be f468 13be efd4 a3be
00000170: 2efa 2dbd a08f 90be b0c5 5bbe 2495 883e
00000180: d89f 27bb 7bb5 08be 320f babd ad76 843d
00000190: 88d2 38be 6a9f 0c3c 21c9 0dbe 6566 6f3e
000001a0: 212b 583e 41d7 9fbc 8811 793d bad8 913d
000001b0: ed57 813e faf3 f13d fb36 39bd 4008 26bd
000001c0: 596d 0d3e 1306 37bd 9566 48be ea24 693c
000001d0: 5258 8cbc c6cf cd3d 9217 c0bc 4ded b2be
000001e0: 4e93 b0bd 958f c1be cf92 b73c 11ad 3d3c
000001f0: c29d 083d 17fd bf3d f2af e9bc 468d 313e
00000200: 28f5 773d 6688 26be 2d93 753d 5199 013c
00000210: 3620 d2bc db44 b03d 0166 e03d 7f94 113e
00000220: 61b8 8a3c 1543 883e f541 9a3d ea7b 033d
00000230: dfce 633d 1f1f 6b3c 00d1 91be 817c 57bd
00000240: f74a 28be 9537 ef3b ef87 96bd e2cb f5bd
00000250: b98f f4bd 5139 68be 9073 cf3c ef11 cebd
00000260: 64f4 c3bb 7926 883d 0763 b83d a8da 13bd
00000270: 4622 84bd f6d4 8fbc 13a1 d93d 2500 ffba
00000280: 72a6 ee3c b268 193d 1539 89be 5c74 583d
00000290: d525 88bc 80d0 973d 37b3 c9ba f2a6 293e
000002a0: 0053 dc3d f182 5abe a162 873c 0b92 2c3d
000002b0: 12dc 35bd 22a8 b4bc 5aeb 91bc 739a 2fbd
000002c0: 4969 0bbe feef 18be 34f9 163e 62bb 8d3d
000002d0: c5eb 193d 5640 9c3c abd3 dfbd 7cfa 483e
000002e0: 222d dabc b265 143d 309d e6bd 1e3a 783d
000002f0: 87de 06be f584 54bd e3ef 1b3d 53f7 febd
00000300: a588 b83c bdb6 56bd ef15 fb3d f7e7 0ebd
00000310: 038b 67be 39df 4d3e affc ac3e ad38 a13e
00000320: 6b5a 523d 3c2d 2ebe eb0d 2abe 59e0 90bc
00000330: c3db 7e3e 49d9 b73e 6e7f a93e 865c e23e
00000340: 938c 4c3e 7816 ddbd 1f6c 293e 5898 f93d
00000350: bc5e 9f3d 8c56 883e 7d12 d53e 8bc8 6b3e
00000360: 4dba 01be b0e9 cbbe 5ea3 703d 852a e63e
00000370: ed6b 803e 290b a33d 3884 2f3e ed51 df3d
00000380: 9064 0d3e 45f0 bbbd ea29 313e aee4 953d
00000390: 66b9 973d 1bd3 1b3e 72ec b2bd 4251 0a3e
000003a0: e059 27be 9a3b 3ebe f936 88be d9ae d53b
000003b0: be8e b4bc d972 e53c 6432 d73c e722 14be
000003c0: 1d8d 05bd 681c 193d 34fc 0738 71f0 f8bd
000003d0: c9ae a23d 9488 0abe da8f 893e da8d 76bd
000003e0: be6c cabe 7b4b a8be b33b 393d e2dc 37bd
000003f0: fa1e 83be 126f c6be d6b0 93bd 1df2 683e
0.051253762 -0.1513214 -0.38503882 -0.06690191 0.04436879 0.206138 -0.03396737 -0.56357116
-0.0176556 0.21393561 0.18197964 -0.12489843 0.014548765 0.15408938 -0.06451926 0.12723315
-0.06836284 0.27695307 0.15871231 0.12182153 0.24650362 -0.12255201 0.00021842634 0.10289307
0.0683458 -0.032866545 0.12740283 0.016504884 0.025322521 -0.018245028 -0.059695166 0.11923241
-0.14764433 -0.0025867256 -0.003352105 -0.15397531 -0.09773822 -0.11349928 0.2268893 -0.036819637
-0.083559066 -0.15284467 0.025853986 -0.18683912 0.17428493 0.04735335 0.048413295 -0.32508615
-0.10219259 -0.13595065 0.11355834 -0.044951573 -0.09808487 0.04471259 0.04806756 0.17120497
0.06537616 -0.17664407 -0.074382186 -0.12759247 0.102863416 0.04680003 0.33190435 -0.0062955166
-0.1703134 0.21736477 0.1016726 -0.14264876 -0.038788006 -0.08787522 0.27104327 -0.04988889
-0.07852167 -0.1022436 -0.07494218 -0.01913477 0.005093401 0.024472745 0.0613397 -0.07366821
0.22272727 0.13740492 0.14556369 0.050709292 -0.1644445 -0.014563886 0.055941455 -0.25058427
-0.05234956 -0.32570523 -0.14395505 -0.31998393 -0.042474918 -0.28234577 -0.2146213 0.26676285
-0.0025577452 -0.1335048 -0.090849295 0.06467948 -0.18049061 0.008582929 -0.13846256 0.23378904
0.21110202 -0.01951182 0.060807735 0.071214154 0.25262395 0.11814113 -0.04521845 -0.04053521
0.13811244 -0.044683527 -0.19570382 0.014229992 -0.017131958 0.10049395 -0.02344874 -0.3494667
-0.08621846 -0.37804857 0.022408871 0.011576907 0.033353575 0.09374445 -0.02852628 0.17339048
0.060536534 -0.1626297 0.05995481 0.007910089 -0.025650125 0.08606883 0.10956956 0.14216803
0.016933622 0.2661368 0.075321116 0.032100596 0.05561721 0.014350682 -0.28479767 -0.05260897
-0.16434847 0.007300327 -0.07350146 -0.12001778 -0.119414754 -0.22678114 0.02532366 -0.10062014
-0.0059800614 0.06647963 0.09003263 -0.0360972 -0.0645185 -0.017557602 0.106264256 -0.0019454999
0.029132102 0.03745336 -0.26801363 0.052845344 -0.016619602 0.07412815 -0.0015388493 0.16567591
0.107580185 -0.21339013 0.016526522 0.042131465 -0.04439933 -0.022052828 -0.01781242 -0.042871904
-0.13614382 -0.149353 0.14743501 0.06920506 0.037578363 0.019073647 -0.10929044 0.19626802
-0.02663285 0.036229797 -0.1126045 0.0606023 -0.13170825 -0.05188461 0.03807057 -0.12449517
0.022526095 -0.052420367 0.12260043 -0.034889188 -0.22611623 0.20104684 0.33786532 0.31488553
0.05135576 -0.17009443 -0.16606872 -0.017685102 0.2488852 0.35907963 0.33105034 0.44211215
0.199755 -0.10795301 0.16545151 0.121872604 0.07781741 0.2662853 0.41615668 0.2302572
-0.12668724 -0.39826727 0.05874955 0.44954315 0.2508234 0.07961113 0.17140281 0.10904298
0.13807893 -0.09176687 0.17301145 0.07319008 0.07408409 0.15217249 -0.087365046 0.1350756
-0.16342878 -0.18577424 -0.2660444 0.0065210876 -0.022040721 0.028008865 0.026269145 -0.14466439
-0.03260528 0.037380606 3.242139e-05 -0.121552356 0.07943494 -0.13528663 0.26867563 -0.060193874
-0.3953609 -0.32870087 0.04522295 -0.044888385 -0.2560957 -0.38756615 -0.07211463 0.22748609

encoder.linear.bias f4 [40]
00000000: 319e 02be ef3e a9be e0c4 67bd 5717 193d
00000010: eb6f 433e 9d05 bbbd b9bc bb3c 8bd0 303e
00000020: 71ec 91be 0ba2 38be 5767 f93d d6f1 123e
00000030: 90ec b7be 309d 333d d142 90be 2197 b2bd
00000040: ad6f 97bd f70b df3e 8c02 043c f596 d93c
00000050: ac33 833e fcfe 19bc c674 393e 5f6a 29be
00000060: 47cd babd 7cef a73e 2d41 1abd 1a73 15bd
00000070: 3ff0 023c f6ed 09be 2ded fa3d f23f 84be
00000080: b054 a63e 2849 953e aa66 a8be 4e42 3ebe
00000090: b5b7 c93e 6377 0bbe 496b b6be 5282 d73c
-0.12755658 -0.33055827 -0.05658424 0.037375774 0.19085662 -0.0913193 0.022917138 0.17267053
-0.28500703 -0.18030564 0.12177914 0.14350066 -0.3592267 0.043851078 -0.28175977 -0.08720232
-0.07394347 0.43563816 0.008057248 0.02656124 0.2562536 -0.009399172 0.18110952 -0.16544484
-0.09121185 0.327999 -0.037659813 -0.036486723 0.007991849 -0.13469681 0.12252269 -0.25830036
0.32486486 0.29157376 -0.32890826 -0.1857998 0.3939797 -0.13619761 -0.35628727 0.026307259

decoder.linear_t.weight f4 [200, 40]
00000000: 4bcf f33c 5091 80bd 8f7b e5bd b239 d23b
00000010: e199 403c 7505 843b dd43 b63c b86c d33c
00000020: 9191 0abd a156 c63d b64d e03d c690 c8bd
00000030: 6bcf 74bd f68e 44bd 0106 aebc c8c6 17bd
00000040: f9d5 283d 2027 8bbd 5e3c 013d 55d2 983d
00000050: 7de4 c4bd ab96 bdbd 17e7 ddbd 64f5 25be
00000060: cf4f ac3d 69d7 56bd 1a84 98bd 8243 b1bc
00000070: 8005 d33d 17d6 3c3d bc9c 53bd e5dd e83d
00000080: 7d00 ddbc f826 e83d 69e2 343d 2942 2ebd
00000090: 6599 d93d 4476 7cbd a846 143e 7bc6 edbd
000000a0: 9c01 803d ffec a1bd 7f6c a73d e4c0 223e
000000b0: 3c09 17bd 7699 6a3d 68de 0a3e 8706 7a3d
000000c0: 45dc c9bb 4154 bebd 24de 16be 2f10 1fbd
000000d0: 7505 e33c bc73 653d 64d9 c13b 914a d33c
000000e0: aec6 693d 82b1 573d 158d b73c 5c5d 1fbe
000000f0: caa9 4dbd f894 4e3d 0286 d0bd dc18 cbbd
00000100: 92b7 873c 3209 1abe cc52 e3bd 414b 663d
00000110: 69a2 593c e46f 82b9 4002 2ebe a1e2 5ebd
00000120: a5ac ca3d d637 cebd c68d 0cbb 57a9 70bd
00000130: 5b18 793d 1b7e f53d befd a93c 6781 4dbc
00000140: 1320 cb3d cbc4 8abd 7068 90bd df59 ea3c
00000150: 2b7b 80bd 3adc 70be 0b81 63bc 86c5 33be
00000160: 406d 6f3d 4320 5d3d dac6 1dbe 9357 073e
00000170: af89 043e 8817 57bd 332f 813e ed7a 0abc
00000180: ee3f be3d 75a6 bdbd ba51 8ebc 2e19 c33d
00000190: 9ecc 93be 9819 69bd a153 9bbd 12cf ec3b
000001a0: 9ae0 29be 87b7 64bd ffd0 e73d e89f 9d3e
000001b0: 348c 63bb 7ff5 4ebd c25b d4bd 4089 81bd
000001c0: 5e17 34bd 1f08 ce3d c2dc 8b3d 6278 98bd
000001d0: 87ed 793d 76d9 68bd 1c69 3f3e 536b 1a3e
000001e0: eecf 17bd 68b4 243d 4c75 853d bc40 6b3d
000001f0: ef6a 15bd 2108 8abe 3f9d bbbb f20c 203e
00000200: 7668 bcbc 09de e0bc fa8b c63c 41b5 133d
00000210: 2ee4 e8bd 9711 953c b970 363d edd1 5fbd
00000220: 44e0 eb3d a973 38be 844a 91bb 61ed 9abe
00000230: 5bc4 cdbd b8f9 f93d f47d 753b 2306 b5bc
00000240: 6b0f 51bd 00a8 9abd 5242 babd 4c5a 1b3e
00000250: e17a 773d ab54 303e 8596 de39 dafa 8cbd
00000260: eaa8 c9bd 4765 9dbc eec3 7ebe dc9d 413e
00000270: e281 6b3d 8c38 513e c35d f3bc baf5 373e
00000280: a4b5 5d3d 603c 07be e46c 473d 6a28 d23c
00000290: 6af9 4cbb 40a5 3abe 3bed 083e aecc 05bd
000002a0: 426a 8fbd 33c8 6cbd 69b1 1d3e 4c6c 29bd
000002b0: 1e26 80bd 0dd2 b1bd 99c1 e2bc d151 1ebd
000002c0: c2cb aebb 6987 10be 99cf 673d 0785 9bbd
000002d0: 855f f8bd f3f2 313d 29ee 5fbe 79e5 30bd
000002e0: 1def d63d 914d 7fbd 0749 3b3c 04cd e93c
000002f0: d78c bdbd 6ac3 133e 99b5 25be 925e 04bd
00000300: fb39 3c3e fef4 d53c 514a 62bb 3338 863d
00000310: 64b0 9b3d 3a37 8d3d fb5b b93d d280 a03d
00000320: 6cc0 36bc e30a 853d 8040 a23d d80b 8a3e
00000330: ac06 98bc 1774 b43d 27a0 3e3d 5fa9 373e
00000340: 4fd8 d33d 2995 5dbc bd0a a9bd 5bbe 4c3d
00000350: 97fd 45bd daa1 8a3d ecf3 ddbc 2f7d 4d3d
00000360: a1f1 d43d d188 04bd 2fa5 1bbc 5e4d dcbd
00000370: d7a8 d5bd 2e5a 97bd 9a0d c4bd 8fb4 48bd
00000380: 71a3 b13d 80a5 b5bd 379e f2bd 5057 11be
00000390: b68e 843d 3bec 74bb 4d0c cdbd 6834 8f3d
000003a0: 3b4c 56bd 8e13 dfbd ee6e 49bd f66c 6bbd
000003b0: 057b f13c 449b 913c 7263 4f3d 3ed4 5fbe
000003c0: 2566 f6bc 55f3 6f3d 609a 9cbd b1fb 963e
000003d0: 2d6f 743e 6270 e23d 1cbb 913d bb8d d73d
000003e0: 60fc 1dbe 9275 9bbd 272f b43c 1d38 ebbd
000003f0: ed2f 653e 1d15 a3bd 7461 0f3e 8f66 0d3d
0.02976193 -0.06277716 -0.112052076 0.006415569 0.011755438 0.004028971 0.022249157 0.025808677
-0.03383023 0.09684492 0.10952322 -0.09793238 -0.05976812 -0.0479879 -0.021243097 -0.037054807
0.041219685 -0.06794572 0.03155171 0.07461993 -0.09613893 -0.09257253 -0.108350925 -0.1620689
0.0841366 -0.052451525 -0.074470714 -0.021638636 0.103037834 0.04610261 -0.051663145 0.11370448
-0.026977772 0.11335558 0.044161234 -0.042543564 0.10624961 -0.061636224 0.14480078 -0.11610123
0.06250307 -0.079065315 0.08174991 0.15893894 -0.03687404 0.057275258 0.13561404 0.06104138
-0.0061602914 -0.09293414 -0.14733177 -0.038833793 0.027712563 0.056018576 0.0059158076 0.025792392
0.05707424 0.05265952 0.02240614 -0.15562958 -0.05021075 0.050435036 -0.1018181 -0.09916851
0.016567025 -0.1504257 -0.110997766 0.05622411 0.0132833505 -0.00024878897 -0.16993046 -0.05441535
0.098962106 -0.100692436 -0.0021446808 -0.058755245 0.060814243 0.11986943 0.020750877 -0.012543059
0.09918227 -0.067758165 -0.0705117 0.028607307 -0.062734924 -0.2352151 -0.013885747 -0.17555818
0.0584538 0.053985845 -0.15407887 0.13217 0.12943147 -0.052512676 0.25231323 -0.008452159
0.09289537 -0.09260265 -0.017372955 0.09526287 -0.28867048 -0.056909174 -0.0758431 0.007226833
-0.16589585 -0.055839088 0.1131916 0.3078606 -0.0034721019 -0.050527092 -0.10369064 -0.063250065
-0.043967597 0.10060143 0.068292156 -0.07444836 0.06101754 -0.056848012 0.1869244 0.15080003
-0.03706353 0.04021111 0.06516513 0.057434782 -0.036478933 -0.26959327 -0.0057255323 0.15629938
-0.02299903 -0.027449625 0.024236668 0.03606153 -0.11371647 0.018196864 0.044541094 -0.05464356
0.11517385 -0.18012871 -0.004433932 -0.3025923 -0.100472175 0.12205833 0.0037459107 -0.022097653
-0.051040094 -0.07551575 -0.09094681 0.15171164 0.06041992 0.17219798 0.00042455285 -0.06883784
-0.09846671 -0.019213332 -0.24879429 0.18907875 0.057496913 0.20431727 -0.029707795 0.17964831
0.054128304 -0.13206625 0.04868783 0.025654037 -0.0031276592 -0.182271 0.13371746 -0.0326659
-0.07002689 -0.057808112 0.15399708 -0.041363046 -0.0625727 -0.08682642 -0.027680205 -0.038652245
-0.0053343484 -0.14114155 0.056594465 -0.07593732 -0.12127594 0.043444585 -0.21868195 -0.043187592
0.10494826 -0.062329832 0.011430985 0.028540142 -0.09255379 0.14430013 -0.16182555 -0.03231675
0.18381493 0.026117798 -0.003452916 0.06553688 0.07602003 0.06895299 0.09050747 0.078370705
-0.011154275 0.06496217 0.07922459 0.2696216 -0.018557869 0.08811205 0.046539452 0.17935704
0.10343992 -0.013524332 -0.08254001 0.049986225 -0.048337545 0.06769152 -0.02709385 0.050168213
0.103976496 -0.03235704 -0.009499832 -0.10756944 -0.10432594 -0.07390247 -0.09572907 -0.04900032
0.08673752 -0.08869457 -0.11846583 -0.14193463 0.064725325 -0.003737225 -0.10012112 0.069924176
-0.052318793 -0.10892402 -0.049178056 -0.05747696 0.029477606 0.017774232 0.050631948 -0.21858308
-0.030078003 0.05858167 -0.07646632 0.294889 0.23870535 0.110565916 0.071157664 0.1052508
-0.15428305 -0.07590784 0.02199514 -0.11485312 0.22381563 -0.079630114 0.14002019 0.034521636

decoder.linear_t.bias f4 [200]
00000000: 53e6 41bd 4e7b 04be c4e2 ecbd a2b2 8b3e
00000010: e2c3 a53d ae54 e5bd b56b bdbc 9fdc a33e
00000020: d869 44bc 3751 7f3c b59c 583d 8453 fe3d
00000030: 6689 26b9 439c 9a3e 222c 7e3d bd96 1bbe
00000040: 8b6a 9ebd fb2b 09be 7c29 003e 04d1 573e
00000050: 60c9 a3bd fdf0 b3b9 87ed bb3e 6d78 013f
00000060: 662c 1abe 8ba9 253e e397 8f3c a2ad 5abe
00000070: f2a3 023e 61fe a03e 1e0b cbbd 8d7f e7bd
00000080: 81dc 43be 9996 02bc 5878 a73c 31ab ebbd
00000090: e15b 05bc 0a61 913c 7dd0 55be cc97 b6bd
000000a0: 6a86 973d de7f 433d a297 a1be 6515 9fbe
000000b0: a3f9 b1bd 121b 413e 1758 d1bd 59ad 10bd
000000c0: 21b7 58be 8efd 473d 4d3d f4bd 774c c8bd
000000d0: 4ae9 0c3f 8857 313f 1f20 c43d 6219 6fbe
000000e0: 5dfe 8f3d 0fa8 92bc 694c 473e 8183 4b3e
000000f0: 859d 463c 4723 89bd c1b0 993e fc12 1d3f
00000100: 5ba8 ed3d 01a5 13be 0f5a c33c 9e04 dd3e
00000110: c3a0 1b3d 3551 a43d da5d 9d3d 850c b33d
00000120: 7151 033f 2923 653c b294 a9bb dc7c 28bd
00000130: ec19 e9bb 26aa ae3e c550 a03d 6cae 9bbd
00000140: 547e 85bd 3529 693d 494d 723c e4dc 5c3c
00000150: 423a 2ebd 237a ecbd d3b9 c63d 9958 b63d
00000160: 101b c5bd 8322 10be 27c8 093e 95d2 943b
00000170: b931 01be 56e7 ebbd 6b0b 0d3d ebcc a5bd
00000180: 0b9f 333d 1f57 8cbe 73be 25be b507 31be
00000190: a927 bcbd 38b6 f1bd 48b8 e6bd 2197 8cbd
000001a0: f198 d6bc dfee d1bc bed0 a93c 2472 98be
000001b0: 2487 0cbe f0ab b73d ea62 39bd b00c 6b3c
000001c0: 3b82 48be 0102 bc3d 3f46 fa3d afe6 a4bd
000001d0: 6336 6bbe 8924 82bd 64c6 ae3d b13a 9d3e
000001e0: 2e9c 47bd 5413 0bbe 328e 6dbe a0ab aa3d
000001f0: 069a d33e 99f5 593d 18cb a3bc 2fd2 3abe
00000200: deb9 88be 3ee0 ddbd e41e b13d 8632 e43d
00000210: 505a 43be efd8 ccbd 638e 4abe a1eb 9a3e
00000220: 6078 99be e779 abbe 8d0c dbbe cf75 49be
00000230: 6699 6bbc 4f93 153e 8aed 26bd 7cd0 22bc
00000240: 503a 2fbc 006f 9b3e f024 853c d64f 84bd
00000250: a487 1fbe c033 85bd fed1 65bd 79c2 2fbe
00000260: 8b1e d9bd 6e66 b13d 4133 823d 676c 93bd
00000270: 6e78 7e3e d0a5 2d3f f370 0a3f 3084 b23d
00000280: 9252 28be 3071 e6bc cd3e 043f e713 253e
00000290: 8231 b3bc 03c3 1fbd fd0b 653e 1344 723f
000002a0: ecbc 313f 0fac 87bd 5f11 593d 4995 ed3e
000002b0: b438 283f c1d6 db3e 61d0 58be 0611 23be
000002c0: 783a c3bb 4907 363e 17ed 8dbd e569 1abd
000002d0: 2f30 f6bd 5c44 31be fa89 d03d 43b3 e23d
000002e0: 42dd c73e 225d f6bc c478 aabb 59b0 c73e
000002f0: 7503 433e 6d1c e73e 5c1e 0a3d 366b 2cbe
00000300: 9772 80bd 67d1 0e3f c9d5 373e e7c9 503d
00000310: a991 ebbd f639 05bd 3b39 153f 2402 553e
-0.047338795 -0.12937662 -0.115666896 0.27284724 0.08094002 -0.11197792 -0.023122648 0.32004258
-0.011988126 0.015583328 0.052883822 0.12418273 -0.00015882179 0.30197343 0.062053807 -0.15194221
-0.07735165 -0.13395683 0.12515825 0.21075827 -0.079973936 -0.0003432109 0.36704656 0.5057438
-0.15055999 0.16177957 0.01752848 -0.21355298 0.12757853 0.31444076 -0.0991423 -0.11303625
-0.19127084 -0.007970476 0.020443127 -0.115072615 -0.008139581 0.017746467 -0.20880313 -0.08915672
0.07398684 0.047729366 -0.31561 -0.3107101 -0.086901926 0.18857983 -0.1022188 -0.035321567
-0.21163608 0.048825793 -0.11925755 -0.097802095 0.5504347 0.6927419 0.09576439 -0.23349527
0.07030938 -0.017902402 0.19462742 0.19874384 0.0121225165 -0.06696182 0.30017665 0.6135709
0.11604377 -0.14418413 0.023846654 0.43167585 0.03799511 0.080233015 0.076839164 0.08742622
0.51296145 0.013985434 -0.0051751966 -0.0411347 -0.007113686 0.34114188 0.078279056 -0.07601628
-0.06518236 0.056924064 0.014788934 0.013480399 -0.042536028 -0.11546733 0.09703412 0.089036174
-0.096243024 -0.14075665 0.13455258 0.004541705 -0.12616624 -0.11518733 0.034434717 -0.080957256
0.043852847 -0.27410218 -0.16185932 -0.17288096 -0.09187252 -0.118023336 -0.112656176 -0.06864763
-0.026195975 -0.025626598 0.020729419 -0.29774582 -0.13723427 0.08968341 -0.045260347 0.014346287
-0.19580929 0.0918007 0.1222043 -0.08051812 -0.22969966 -0.06354625 0.08533934 0.3070884
-0.04873293 -0.13581592 -0.23198774 0.08333516 0.41328448 0.053212736 -0.019994304 -0.18244241
-0.26704305 -0.108337864 0.0864847 0.11142449 -0.1907742 -0.10002314 -0.19780879 0.30257896
-0.2997465 -0.33491442 -0.42783013 -0.19673847 -0.014379835 0.14606975 -0.04075388 -0.009937402
-0.010695055 0.30358124 0.016252965 -0.0646054 -0.15579087 -0.06504011 -0.056108467 -0.17164029
-0.10601529 0.08662115 0.06357432 -0.071984105 0.24850628 0.67831135 0.54078597 0.08716619
-0.16437748 -0.028130144 0.51658326 0.16120873 -0.021874193 -0.039004337 0.22367854 0.94635123
0.69428897 -0.066246144 0.052995082 0.46402958 0.6571152 0.42937282 -0.2117324 -0.15924463
-0.0059578978 0.17776217 -0.06929987 -0.037698645 -0.12020909 -0.17311233 0.10182567 0.11069348
0.39035994 -0.030073706 -0.0052023847 0.3900173 0.19044288 0.45138875 0.03372036 -0.16837773
-0.06271856 0.5578827 0.17952646 0.0509738 -0.11502392 -0.03252598 0.5829045 0.20801598

decoder.conv2_t.weight f4 [8, 4, 3, 3]
00000000: 28dd c8bd c44d b73e 9a93 57bd 01a4 36be
00000010: 0513 0b3e 3a4f 6a3d 643f f63d d27e 493e
00000020: ccbd d73c 4f52 00be 1b86 3b3e 7051 913e
00000030: 3370 8b3e 798b c43e 9b68 833e afdf 6c3e
00000040: c2a5 49be 09d6 00bd bada 70be 999e f93e
00000050: 8662 223e 257f e83e e0f5 cf3e 4cb8 9dbd
00000060: 3ac2 e6bc f7aa bb3c 191a c83d 499d 463d
00000070: 0cbb 423e 0fce 1e3d 905d a63c 6a7a 463e
00000080: dc54 113e c7a3 863e 10db 443e 14db 00bc
00000090: 8ee0 a4be ed9d c7be 25a1 e4be 643c bdbd
000000a0: 1fe9 7dbe ac97 b7be b28f 11be 8a58 61be
000000b0: 7d48 7cbd 9c5a 62be 87f6 60be 9675 a0be
000000c0: d511 b8be dad3 77be 827e cebe 9892 c2bd
000000d0: 1fc4 a2be 4490 c7be a5ef 20be 916f 58be
000000e0: 030a 9bbe 4c63 1dbf 886d d3be 5ad5 1abe
000000f0: 95df 1ebd 7625 99be e5eb 49bf f255 4ebe
00000100: 17be 78be f1f8 e8bd d47c c9be aa4a 16be
00000110: 7c71 54be 5087 b4be 738d a5be 5ff7 89be
00000120: 06c9 d1be 936e 743d 869c 533d 6a3b e03d
00000130: d68b 963e 5cb4 2e3e 7557 7f3e c699 fb3e
00000140: c5fb 7e3e f00e 9dbd 22e5 07bd 8e2a ef3d
00000150: 3097 343e bee0 3a3e 9a07 a83e ca61 753e
00000160: b32a cdbd c07e 883e 1335 cc3c 6df5 533e
00000170: a9a1 33be 5490 903e e789 e13e c346 573e
00000180: ab82 413d 8b00 8b3e f17d 1e3f 4990 99bd
00000190: d0ac 9fbd 0d8d 953c af41 db3c 6123 363c
000001a0: 6c02 093e dc60 9b3e 92a1 b83e b75e 893e
000001b0: 6e27 d8bd fc91 dcbe b099 1a3d 8c27 19be
000001c0: e6e7 243c bf73 d53d d571 223e dea3 353e
000001d0: bd21 56bd 1e37 bfbe be65 09be 3e0f 37be
000001e0: c2a0 16bf 4198 84be e908 143e 0796 99bd
000001f0: 7cfe c23d fa1f 913e 6522 97bd 386f cabd
00000200: c202 30bf ca81 0ebf 827b 0cbe 46d7 893e
00000210: 3598 5cbe 5ea4 923e 0bf2 3c3e a43b 9abe
00000220: bdc2 77be 6d79 893c f0bd f3be b030 cebd
00000230: 4588 693d 856d cbbd 8a22 bf3c 6d97 463e
00000240: b0c2 80be 1b04 3bbd ce30 eebe 359b dfbd
00000250: 6fc7 58be 7552 61be 7db4 72be 90f7 06bf
00000260: cbd3 7bbe 3d78 253e 4ec5 fa3c a51c 6dbd
00000270: 60dd b13d 101f f5bd f8af c4be 5606 cdbc
00000280: 0f23 1cbe cd18 e8be 2818 b03d f16e 46be
00000290: 1483 fc3d 0758 e4bd c6d2 08bf 8f5b 2cbd
000002a0: 87bc a23e 0c61 b1be 899e 35bf d5a5 183d
000002b0: 4c94 c4bd 4eb3 66bc 5b05 abbb c940 05be
000002c0: 778b 1dbe 18ed 7dbe 6833 d5be 34f4 a9be
000002d0: 0c2f dcbe 9b2d c0be 95c9 a8bc 446a 91be
000002e0: 3257 6cbe 175a 4bbe 35bf 90be b690 b7be
000002f0: 2729 90be 34c8 3dbc 782a febd d3d6 4abd
00000300: 193d b5be ca69 8cbe 27cd febd 351a 8dbe
00000310: d4a8 22bd 02a6 36be 9989 2f3e 332d 1abe
00000320: 6271 67be 86f2 03bf c6b6 29be 88dc 0a3e
00000330: d98e 2abd 41b3 33be dd85 55bf 9406 cdbd
00000340: 2509 e7bd 289b 04bc 5737 cbbd 1a1a 26be
00000350: d471 833d 4cd1 cfbe 6406 66be c128 6fbd
00000360: a1a0 1ebf 9e93 bb3e 7468 19bf 735f 123d
00000370: 251e 273e 252e d7bd 2e71 77be 0064 ad3d
00000380: d05f 05bd a2e9 0e3d 648a d6bc b676 ac3e
00000390: 31f9 163e d210 9f3e d089 013f 7ba6 f23d
000003a0: 0259 813d 670f c53d c5e6 15be dbbc b43e
000003b0: 31d5 0a3e d318 763e 7c98 ce3e eb2c 343e
000003c0: cff4 93bd b1c2 f13c 41d3 953e 7435 9e3d
000003d0: a092 eb3d 0aa4 473c 1f77 613c c1c1 50be
000003e0: 7baa 813e 3642 1a3e 6e2b 853e 60e2 3e3e
000003f0: a144 f1be 6381 ffbd 4fae 9cbe c430 a5be
-0.09807807 0.35801518 -0.052631 -0.17836 0.13581474 0.057204463 0.120238096 0.19677284
0.02633562 -0.12531398 0.18312876 0.28382444 0.2723404 0.3838766 0.25665745 0.23132204
-0.19692138 -0.03145412 -0.23520938 0.48753813 0.15857896 0.45409504 0.40617275 -0.077011675
-0.028168786 0.02290867 0.09770603 0.048489843 0.19016665 0.03877073 0.020308286 0.19382635
0.14192528 0.26296827 0.1922419 -0.007864732 -0.32202572 -0.38987675 -0.44654194 -0.09240034
-0.2479596 -0.35857904 -0.14214972 -0.22006431 -0.061592568 -0.22104877 -0.21969043 -0.3133971
-0.35951105 -0.24201909 -0.40330893 -0.09500617 -0.31790254 -0.38977253 -0.15716417 -0.21136309
-0.30281076 -0.6147964 -0.41294503 -0.1512045 -0.038787443 -0.29911393 -0.7887557 -0.20149973
-0.24291264 -0.11375607 -0.3935305 -0.1467692 -0.20746416 -0.35259485 -0.3233448 -0.26946542
-0.4097368 0.059675764 0.051662944 0.10948832 0.2940356 0.17060989 0.24935706 0.49140757
0.2490073 -0.07668865 -0.033177502 0.116780385 0.17635798 0.18249795 0.328183 0.23963085
-0.1001791 0.26659203 0.024927652 0.20699091 -0.17542137 0.28235114 0.44050524 0.21023087
0.047243755 0.27148852 0.6191092 -0.07498223 -0.07796633 0.018255735 0.026764719 0.011116833
0.1337983 0.30347335 0.36060768 0.26830074 -0.105543956 -0.43080127 0.037744224 -0.14956492
0.0100650545 0.104224674 0.15863736 0.17738292 -0.05227827 -0.3734674 -0.13417718 -0.17876908
-0.58839047 -0.2589741 0.14456524 -0.074993186 0.09521195 0.2834471 -0.07379607 -0.098844945
-0.6875421 -0.5566679 -0.1371899 0.26922053 -0.21542437 0.28641027 0.18451707 -0.30123627
-0.2419538 0.016781533 -0.47605848 -0.1006788 0.057014722 -0.099329986 0.0233319 0.19393702
-0.25148535 -0.045658212 -0.4652161 -0.10918275 -0.21169828 -0.22004111 -0.23701663 -0.527215
-0.24592511 0.16159149 0.03061166 -0.057888646 0.08684802 -0.11968815 -0.38415504 -0.025027435
-0.15247749 -0.45331421 0.085983574 -0.19378258 0.12329689 -0.111496024 -0.53446615 -0.042079505
0.3178446 -0.34644353 -0.7094503 0.037267525 -0.09598598 -0.0140808355 -0.0052191443 -0.13012995
-0.15385233 -0.24797475 -0.41640782 -0.33194125 -0.43004644 -0.37534794 -0.020603934 -0.28401387
-0.23080137 -0.19858585 -0.2827088 -0.35852593 -0.28156397 -0.011583377 -0.12410444 -0.04952128
-0.35398176 -0.2742446 -0.124414735 -0.27559057 -0.03971179 -0.17836764 0.17142333 -0.15056305
-0.22601846 -0.51541936 -0.16573629 0.13560688 -0.041640136 -0.17548849 -0.83407384 -0.1001102
-0.11281041 -0.008093633 -0.099226646 -0.16220894 0.06418195 -0.40589368 -0.22463375 -0.058388475
-0.6196385 0.3663606 -0.5992501 0.03573556 0.16320093 -0.10506848 -0.24164268 0.08466339
-0.032562077 0.03489078 -0.026189037 0.3368432 0.14743496 0.3106752 0.5060091 0.1184816
0.06315805 0.096220784 -0.14638813 0.35300335 0.13557889 0.24032907 0.4035071 0.1759526
-0.07224428 0.029511781 0.29262736 0.07725039 0.11502576 0.012185106 0.013761311 -0.20386411
0.2532538 0.1506432 0.26009697 0.18641043 -0.47122672 -0.124758504 -0.30601737 -0.32263768

decoder.conv2_t.bias f4 [4]
00000000: a3b7 8e3d 3867 7abe 4604 16c0 3774 b4bb
0.0696862 -0.24453437 -2.3440108 -0.005507018

decoder.conv1_t.weight f4 [4, 1, 5, 5]
00000000: bdf1 f3bb f89d 81bc 0e41 84bb b909 aebc
00000010: 6992 f3bc 5ba7 24bd 8ebb 0dbd 9b39 233b
00000020: 2db4 00bd fa75 7bbd bc9d 2d3b d555 d43d
00000030: c7d2 193e 164a 863d db59 bdbc b14b cb3d
00000040: 7c50 983e b890 b43e 8f63 623e 1810 723d
00000050: 89de ce3d 09f6 743e 0b9d 8e3e 386e 333e
00000060: fe50 873d ac98 39bc 5152 ce3b 044b e33c
00000070: 52b7 14bb 13c8 84bc 5558 8a3c dc9d bb3d
00000080: d4c6 083e 0905 7a3d ec81 59b9 e571 f23d
00000090: 76e8 973e 941b ab3e 0fe2 3c3e 8190 073d
000000a0: 8c22 263e 7b7c b63e 27a5 b03e cfd5 1b3e
000000b0: aa27 41ba 816a a23d 816a 283e ecba 023e
000000c0: 454f ba3c 867d f5bc 813c d73c e580 8abb
000000d0: 8926 28bd b9a8 28bd 7f3b 07bc a517 813c
000000e0: 6781 65bd 7a7c 05be c591 cfbd 553e 03bd
000000f0: ab7e dbbc d1cc 10be 9af4 53be e45d 04be
00000100: 4cc5 01bd e39b 8bbd 4eaa 4bbe ab10 5ebe
00000110: 5153 dfbd 1cae 3abc 87e7 80bd 5882 1abe
00000120: 69af fabd 7438 19bd 9a20 1d3c 3af1 21bd
00000130: b0ed d3bd 7d4e 8bbd bb9c 833d 1b51 9b3d
00000140: 619e b8bd b565 0fbe 33ae f13c 3ac3 843e
00000150: 7a5f 573e 4fcb cdbd 75e2 08be a09e 983d
00000160: 54d0 8f3e 81c3 4c3e fabf d9bd 8157 23be
00000170: a7d8 9cbc 2a18 eb3d b3da ac3d dcb6 9ebd
00000180: 2129 ebbd 77b1 7cbd 34ff c8bc 03a6 d9bc
-0.007444589 -0.015822396 -0.0040360754 -0.02124487 -0.0297329 -0.040198665 -0.034602694 0.0024906162
-0.03142183 -0.061391808 0.0026491722 0.10367934 0.15021811 0.065570995 -0.023114135 0.09926546
0.29748905 0.35266662 0.22108291 0.05909738 0.10101039 0.2392198 0.2785419 0.17522514
0.06607245 -0.011327904 0.006296434 0.027745731 -0.0022692275 -0.016208684 0.016887823 0.09160969
0.13357097 0.06103996 -0.00020743132 0.1183813 0.2966954 0.33419478 0.1844561 0.033096794
0.16224116 0.35641846 0.34501 0.1521828 -0.0007368276 0.0793047 0.16446878 0.12766618
0.022742877 -0.02996708 0.026273968 -0.004226791 -0.041052375 -0.04117653 -0.008253931 0.015758345
-0.05603161 -0.13035765 -0.10135225 -0.032041866 -0.026793798 -0.14140631 -0.20698777 -0.12926441
-0.031682298 -0.068168424 -0.19889185 -0.21686046 -0.10904563 -0.01139405 -0.0629416 -0.15088785
-0.12240488 -0.037407354 0.009590292 -0.039536692 -0.1034807 -0.0680208 0.06426378 0.07583829
-0.090145834 -0.14003642 0.02950201 0.25930196 0.21032515 -0.10048544 -0.13367637 0.0745213
0.2808863 0.19996454 -0.1063232 -0.15951349 -0.019146277 0.11479218 0.08440151 -0.077497214
-0.11482454 -0.06169268 -0.024535753 -0.026568418
