4_AutoEncoders/models/parms.pt (torch, 71745 bytes, 11 tensors)

encoder.conv1.weight f4 [4, 1, 5, 5]
-0.019368812 0.010338947 -0.028997144 -0.02854914 -0.07074577 0.00078450306 0.009374996 6.9084424e-05
-0.08862843 -0.08559825 0.033333365 -0.047942445 0.10462659 0.087255344 -0.22452411 0.022766078
-0.051717296 0.1354281 0.44776616 0.012580868 0.024431247 -0.005616029 0.04570831 0.47344452
0.21481876 0.053495795 0.027770605 0.06621175 0.0020906401 0.116448365 0.17572224 -0.06604235
0.21180826 0.0025039776 0.031187097 -0.16352993 -0.23880534 -0.037296712 0.28986385 0.19147384
-0.29001653 -0.13530964 -0.638389 0.23776507 0.39366978 -0.19432704 -0.030036101 -0.49062672
-0.2867481 0.09048957 0.020146787 -0.03124003 0.045085743 -0.028903697 -0.028537588 0.020611757
-0.11775581 0.039688762 -0.04106793 -0.01832889 0.0017452745 -0.04622449 0.3615436 -0.13186847
0.0342595 0.13196552 0.13122961 0.47086293 -0.29436848 0.09257409 0.19928458 0.10296233
0.23262723 -0.286269 -0.051597256 -0.19067095 -0.0662729 -0.2525793 0.12292591 0.120785706
-0.2268425 -0.05075615 -0.48833254 0.09684296 0.2480748 -0.2604888 -0.123978026 -0.40162432
0.1339055 0.15959795 -0.18973176 -0.1407491 -0.11362391 0.087300345 0.070377335 -0.10759254
0.00218074 0.21324639 -0.094863735 0.07131321
00000000: 58ab 9ebc b064 293c 6b8b edbc e3df e9bc
00000010: 29e3 90bd 1ca7 4d3a 9599 193c 6be1 9038
00000020: d382 b5bd 234e afbd 9188 083d 4c5f 44bd
00000030: 7746 d63d eeb2 b23d a6e9 65be ed7f ba3c
00000040: 84d5 53bd aaad 0a3e 9b41 e53e fc1f 4e3c
00000050: 0a24 c83c aa06 b8bb a338 3b3d 5267 f23e
00000060: 73f9 5b3e 681e 5b3d 2e7f e33c 079a 873d
00000070: 1f03 093b 7b7c ee3d 88f0 333e 3641 87bd
00000080: 44e4 583e c619 243b 157c ff3c 6474 27be
00000090: 6389 74be 70c4 18bd 0969 943e b811 443e
000000a0: 0c7d 94be 9c8e 0abe 766d 23bf b078 733e
000000b0: 168f c93e abfd 46be 450e f6bc 6d33 fbbe
000000c0: a6d0 92be 9852 b93d e00a a53c 17eb ffbc
000000d0: d4ab 383d 72c7 ecbc a9c7 e9bc fdd9 a83c
000000e0: f529 f1bd af90 223d d936 28bd 7826 96bc
000000f0: b2c1 e43a e455 3dbd 3e1c b93e 8708 07be
00000100: b153 0c3d f821 073e 0e61 063e f214 f13e
00000110: 77b7 96be 7c97 bd3d 4211 4c3e eadd d23d
00000120: d535 6e3e da91 92be a557 53bd 3f3f 43be
00000130: 16ba 87bd 1352 81be 94c0 fb3d 7f5e f73d
00000140: 6649 68be aee5 4fbd b906 fabe 9a55 c63d
00000150: 5207 7e3e ca5e 85be 31e8 fdbd b4a1 cdbe
00000160: 861e 093e a56d 233e 0b49 42be 8820 10be
00000170: a7b3 e8bd 86ca b23d fe21 903d 7a59 dcbd
00000180: bfea 0e3b 435d 5a3e eb47 c2bd a90c 923d

encoder.conv1.bias f4 [4]
0.2489396 0.0371143 0.30626455 0.4252468
00000000: 06ea 7e3e 2a05 183d b5ce 9c3e f3b9 d93e

encoder.conv2.weight f4 [8, 4, 3, 3]
0.30683765 0.14102477 -0.014046819 -0.4386055 -0.13355707 0.5040184 -0.2380875 -0.42019832
0.21527457 0.013527129 0.025124623 0.25764608 0.0098312525 -0.06686445 0.8611152 -0.00205433
-0.35175717 0.17283772 0.0103213275 -0.05966721 -0.10445937 -0.10709482 -0.00658674 0.03387968
-0.48103598 -0.25805795 -0.6602456 -0.09857508 -0.019168733 0.033698913 -0.28882354 -0.17780341
-0.6351384 -0.12247032 0.2874161 -0.29382527 0.14656062 0.059897862 -0.06434374 0.35793683
-0.004058204 -0.30437553 0.24060693 -0.16919836 -0.13218118 -0.04809323 -0.048210505 -0.10509981
-0.06850962 -0.0490582 -0.20470247 -0.043746218 -0.123215705 -0.08028668 -0.08297728 0.07776278
0.009744092 -0.0223548 0.27257556 -0.22316082 0.17747177 -0.1119402 -0.060704436 -0.009044074
-0.0014245876 -0.060991284 0.21096882 0.17441122 -0.019180074 0.3102074 -0.69018924 0.23318028
0.114372276 0.1489896 -0.020003235 0.101847425 0.24472849 0.19190718 -0.0061440044 -0.07704532
0.15368119 -0.0077767125 0.0034773753 -0.038073782 -0.019098727 0.13348334 0.22439367 -0.028213497
0.10841147 0.26686326 -0.033581994 -0.11235326 -0.017032783 -0.00045309967 0.23006234 0.28878716
0.012304503 -0.13966274 -0.0005198628 0.024391882 -0.058930855 0.0479777 0.009722338 0.025804669
-0.085496664 -0.016943771 -0.29219484 -0.567539 0.08838873 -0.16592924 0.124094896 -0.050470125
-0.18536064 -0.14585379 -0.35180292 -0.5605346 -0.089886606 -0.1909446 -0.16691485 0.060026895
-0.2530028 -0.16062234 -0.016446043 -0.036319036 0.030234383 0.16647 -0.06331428 0.099712454
-0.00929365 0.12651083 -0.23984927 -0.36511865 -0.1672852 -0.5633986 -0.96002865 -0.0019174631
-0.024561021 0.09681811 0.37425116 -0.3479276 -0.029536877 -0.24711668 -0.49221614 0.12914523
-0.027977075 -0.07981254 0.15877523 0.24178965 0.034998503 0.26691437 0.13246927 0.19398902
0.5228068 -0.20405984 -0.01830298 0.07422749 -0.07110432 -0.091097414 -0.03432611 0.03744621
-0.021551833 -0.00930487 -0.13262877 0.10802367 0.06154103 0.051499616 -0.14146724 -0.13524872
-0.003287116 -0.020906163 0.12702319 -0.04075363 0.010939056 0.033469815 0.36597833 -0.12104989
-0.111456156 0.13788858 -0.12958163 0.18418008 -0.056243267 0.11974734 -0.010545426 -0.104599416
0.28187743 0.08516959 -0.01277835 0.3301781 -0.15981644 0.07814933 0.07752109 -0.06787483
-0.03893531 -0.016520068 -0.21391125 -0.013072882 -0.0516326 -0.38335285 0.039901476 0.014238519
0.05276239 -0.086836964 0.0027509735 0.23051643 -0.0046188254 0.38678515 0.120907 -0.013346724
-0.0033819666 0.041213993 -0.15656522 0.06850634 0.000712654 0.10619081 0.42111295 -0.063359514
0.019588519 -0.15385866 0.48327383 0.037498657 -0.15473215 0.13321659 0.08991875 -0.07844559
0.045810204 -0.11328219 0.0427184 0.3454227 -0.0749044 -0.039138053 0.16139103 -0.0010902632
-0.012368027 0.042859484 -0.014987404 -0.038081035 0.4084866 0.02256844 0.022675969 0.15942505
0.020077335 -0.13905798 -0.0059163338 -0.12632868 0.22593364 -0.02171372 0.0712695 0.32438058
-0.01098413 0.09401492 0.054041207 0.04432473 -0.28896952 -0.13929433 0.023199668 -0.5797466
00000000: d319 9d3e cc68 103e a124 66bc e690 e0be
00000010: 2fc3 08be 5a07 013f 36cd 73be 3c24 d7be
00000020: f070 5c3e e4a0 5d3c 27d2 cd3c 30ea 833e
00000030: 4313 213c 3bf0 88bd 0c72 5c3f f0a1 06bb
00000040: 8419 b4be 5ffc 303e c91a 293c 9b65 74bd
00000050: cbee d5bd 8754 dbbd 94d5 d7bb 6bc5 0a3d
00000060: 594a f6be 2c20 84be db05 29bf bbe1 c9bd
00000070: bf07 9dbc df07 0a3d aee0 93be 1912 36be
00000080: 6e98 22bf b8d1 fabd 3428 933e 4470 96be
00000090: fd13 163e 7657 753d a7c6 83bd 7f43 b73e
000000a0: affa 84bb 1cd7 9bbe aa61 763e 5642 2dbe
000000b0: 815a 07be 68fd 44bd 6178 45bd 923e d7bd
000000c0: c64e 8cbd 40f1 48bd 869d 51be 3c2f 33bd
000000d0: 8458 fcbd 586d a4bd feef a9bd 1842 9f3d
000000e0: afa5 1f3c 6a21 b7bc 068f 8b3e 4584 64be
000000f0: 29bb 353e e740 e5bd 37a5 78bd 992d 14bc
00000100: 3ab9 baba ffd1 79bd 3608 583e db98 323e
00000110: 881f 9dbc 81d3 9e3e 3eb0 30bf d0c6 6e3e
00000120: 033c ea3d bb90 183e d3dd a3bc 6295 d03d
00000130: 1b9a 7a3e 5183 443e a553 c9bb f0c9 9dbd
00000140: 9a5e 1d3e cbd3 febb ade4 633b 41f3 1bbd
00000150: ef74 9cbc dbaf 083e 74c7 653e fe1f e7bc
00000160: d506 de3d 4da2 883e 468d 09bd 7719 e6bd
00000170: 5688 8bbc 028e edb9 7695 6b3e e9db 933e
00000180: d398 493c c003 0fbe 6747 08ba 7cd1 c73c
00000190: 7b61 71bd 4484 443d 714a 1f3c 5064 d33c
000001a0: e018 afbd aacd 8abc 909a 95be 3c4a 11bf
000001b0: 2705 b53d 5be9 29be 7725 fe3d c3b9 4ebd
000001c0: 2ecf 3dbe b25a 15be 831f b4be 327f 0fbf
000001d0: 7816 b8bd fb86 43be baeb 2abe c3de 753d
000001e0: 9589 81be 2f7a 24be dab9 86bc 45c3 14bd
000001f0: 19ae f73c 1d77 2a3e ebaa 81bd 0b36 cc3d
00000200: 6544 18bc 0e8c 013e 0c9b 75be d5f0 babe
00000210: d04c 2bbe e43a 10bf 70c4 75bf 6353 fbba
00000220: 3234 c9bc 9348 c63d d99d bf3e 9123 b2be
00000230: 52f7 f1bc 280c 7dbe c103 fcbe a63e 043e
00000240: 2e30 e5bc c274 a3bd f995 223e b597 773e
00000250: 975a 0f3d 00a9 883e 06a6 073e 0fa5 463e
00000260: abd6 053f 10f5 50be 22f0 95bc 9504 983d
00000270: 249f 91bd 4891 babd 8999 0cbd 3261 193d
00000280: 788d b0bc 7473 18bc d6cf 07be 843b dd3d
00000290: 7212 7c3d 43f1 523d cadc 10be a47e 0abe
000002a0: a86c 57bb 6743 abbc 5e12 023e 47ed 26bd
000002b0: ba39 333c a517 093d 8361 bb3e 01e9 f7bd
000002c0: 2043 e4bd aa32 0d3e 0cb1 04be b499 3c3e
000002d0: 575f 66bd 183e f53d b9c6 2cbc 3838 d6bd
000002e0: 3d52 903e 656d ae3d 495c 51bc 1b0d a93e
000002f0: eca6 23be c20c a03d 61c3 9e3d f501 8bbd
00000300: a27a 1fbd 1855 87bc 8d0b 5bbe a42f 56bc
00000310: b57c 53bd d346 c4be bb6f 233d ad48 693c
00000320: 601d 583d 94d7 b1bd ad49 343b 800c 6c3e
00000330: 8459 97bb b408 c63e 179e f73d 38ac 5abc
00000340: fca3 5dbb 01d0 283d a252 20be 0d4d 8c3d
00000350: 66d1 3a3a 917a d93d 1e9c d73e a2c2 81bd
00000360: 1a78 a03c 208d 1dbe ab6f f73e 3198 193d
00000370: 1b72 1ebe ee69 083e 5227 b83d 15a8 a0bd
00000380: 7ba3 3b3d 7e00 e8bd 7df9 2e3d 3edb b03e
00000390: 7a67 99bd 394f 20bd b143 253e 2ae7 8eba
000003a0: 44a3 4abc 6d8d 2f3d bb8d 75bc dcfa 1bbd
000003b0: 2825 d13e 73e1 b83c f4c2 b93c 5240 233e
000003c0: 3979 a43c 3765 0ebe cedd c1bb 4e5c 01be
000003d0: 265b 673e f9e0 b1bc bef5 913d 3615 a63e
000003e0: c8f6 33bc e58a c03d 505a 5d3d d98d 353d
000003f0: d0f3 93be 2ca3 0ebe 3b0d be3c 466a 14bf

encoder.conv2.bias f4 [8]
0.91227496 0.20362219 0.68407214 2.0920908 -0.17468977 -0.18843137 -0.59024453 0.56465185
00000000: da8a 693f 5682 503e 5a1f 2f3f d1e4 0540
00000010: e0e1 32be 27f4 40be 441a 17bf 068d 103f

encoder.linear.weight f4 [40, 200]
0.04981153 0.16037853 -0.02113055 -0.16279274 -0.043937866 -0.14977601 -0.19439766 -0.043245696
0.01685338 0.034538515 -0.05514144 0.01775806 0.23762591 0.028068291 0.14339092 0.08771992
0.023378296 -0.1339144 0.06533448 -0.05025874 0.1229637 0.3373042 0.026710648 -0.17742507
-0.06623576 -0.07042492 0.08220024 -0.15573815 0.049062982 -0.006005755 0.017365068 0.14749327
-0.0020624434 -0.36107847 0.272102 -0.01763165 0.051221274 -0.000532277 0.015628366 -0.018986607
0.069908045 0.0209578 -0.031038415 0.2779826 -0.023218947 0.042583257 -0.3390837 0.07116495
-0.0014876303 -0.065784514 0.12650463 0.28325716 -0.3021421 -0.34481755 -0.10144291 0.00039704773
-0.19718394 -0.15606381 -0.011088007 -0.029661037 0.1263662 0.12635125 0.24580187 -0.23541854
0.22793517 0.19908626 -0.050626118 -0.17871031 0.06439314 -0.0799191 -0.12446202 0.09366605
0.29169685 -0.141565 -0.08142856 0.19568793 0.09398613 -0.093044415 -0.19825478 -0.041718803
-0.099338196 -0.10443779 0.122355506 -0.15307578 0.0693616 0.105180666 -0.061581053 -0.042729974
0.20892693 -0.16037653 -0.19046235 0.000929488 -0.02538779 0.38560236 0.23830606 0.09151523
0.2128538 0.10586314 -0.06842066 -0.081470326 -0.069232464 -0.15471867 0.18603864 0.15377355
0.0373084 0.1478177 -0.025457308 0.15783639 -0.06024486 0.17048831 0.039032046 0.035018124
0.12262889 -0.042862706 -0.08275923 0.075527996 -0.036258824 -0.23556738 -0.09950781 -0.108067796
-0.23243697 -0.20591258 -0.009721985 0.0066140634 0.0026442949 0.0605945 -0.32902297 0.11479459
0.049248558 0.14630263 -0.02840138 0.11692282 -0.082134865 0.30211782 -0.15210375 0.09099936
0.048286684 -0.11789778 -0.2764465 0.2527036 0.1414085 -0.15986519 0.0627827 -0.11539599
-0.08749446 -0.31239396 -0.29801568 0.049493637 -0.049664732 0.19341964 0.07823934 -0.014909869
-0.29584315 -0.09811284 0.10329131 -0.036180235 -0.08485236 0.13494639 -0.028987708 -0.103196315
0.068215236 -0.13837788 -0.03470388 0.10070382 0.05931762 0.07278142 -0.062200766 0.058206588
-0.10422819 0.20572004 0.002398119 -0.05092419 -0.12135433 0.026918825 0.051907793 0.06703257
-0.045585617 0.23589766 -0.27464366 -0.0010488892 0.098344594 0.009381749 0.11423029 0.15341043
-0.11427434 -0.048677098 -0.013155083 -0.08621011 0.06022232 0.024969006 -0.035277523 -0.049081862
0.15552717 -0.1221425 0.12471191 -0.09039589 -0.007970466 0.08602631 0.032153156 -0.029613333
0.005701075 0.07724383 0.059789293 -0.0027494773 0.07349949 -0.16835973 -0.20758669 -0.03049684
-0.07290027 0.024173709 0.031281125 -0.009799692 -0.23699698 0.0013117833 0.10808228 0.12635526
0.0005680358 0.16822354 -0.08928048 0.14125021 0.08800631 -0.048187777 0.04935822 -0.09433989
0.08116175 -0.035574876 -0.009856865 -0.024007393 0.106494136 0.19496071 -0.06260029 0.16453372
0.0030152085 -0.1621783 0.11117375 -0.068188794 0.037433643 -0.06587265 -0.21568307 -0.016214285
-0.06244207 -0.15059611 0.02192752 0.29098538 0.124078065 -0.10838494 -0.17805126 -0.046881463
0.28032604 -0.06088773 -0.05644712 -0.001604804 -0.14576413 0.050113685 0.22536142 -0.2509005
00000000: 2d07 4c3d 453a 243e fa19 adbc 24b3 26be
00000010: 31f8 33bd e25e 19be 2e10 47be 6622 31bd
00000020: 1910 8a3c 4278 0d3d fedb 61bd 5a79 913c
00000030: 3554 733e 79ef e53c 12d5 123e 80a6 b33d
00000040: d783 bf3c db20 09be 15ce 853d 1cdc 4dbd
00000050: 64d4 fb3d 23b3 ac3e 4ad0 da3c ebae 35be
00000060: 9da6 87bd f13a 90bd 9958 a83d d279 1fbe
00000070: 44f6 483d edcb c4bb 3041 8e3c 7a08 173e
00000080: 0f2a 07bb 47df b8be f450 8b3e 4070 90bc
00000090: 66cd 513d 8188 0bba 0f07 803c cd89 9bbc
000000a0: f32b 8f3d b1af ab3c 4644 febc bc53 8e3e
000000b0: a935 bebc c86b 2e3d 619c adbe eebe 913d
000000c0: 97fc c2ba 08ba 86bd 6e8a 013e 1507 913e
000000d0: 5fb2 9abe ed8b b0be 4dc1 cfbd d82a d039
000000e0: 96ea 49be 31cf 1fbe 79aa 35bc b4fb f2bc
000000f0: 2466 013e 3962 013e 7cb3 7b3e 8f11 71be
00000100: d667 693e 45dd 4b3e 555d 4fbd d6ff 36be
00000110: 8de0 833d a0ac a3bd f2e5 febd fcd3 bf3d
00000120: 4a59 953e 6af6 10be 04c4 a6bd 6b62 483e
00000130: cd7b c03d 128e bebd 4d03 4bbe 56e1 2abd
00000140: d371 cbbd 7be3 d5bd 8695 fa3d e6bf 1cbe
00000150: 740d 8e3d f668 d73d 6a3c 7cbd a005 2fbd
00000160: f1f0 553e bf39 24be 9008 43be e2a8 733a
00000170: 0efa cfbc ac6d c53e 8106 743e 566c bb3d
00000180: 59f6 593e c6ce d83d 2220 8cbd ead9 a6bd
00000190: c0c9 8dbd 926e 1ebe ea80 3e3e d076 1d3e
000001a0: b1d0 183d 865d 173e d88b d0bc dd9f 213e
000001b0: 50c3 76bd 7d94 2e3e 11e0 1f3d 2a6f 0f3d
000001c0: db24 fb3d ce90 2fbd ac7d a9bd 6cae 9a3d
000001d0: 2284 14bd 9338 71be c0ca cbbd a652 ddbd
000001e0: f503 6ebe bfda 52be f648 1fbc c9ba d83b
000001f0: e84b 2d3b f031 783d b375 a8be 6d19 eb3d
00000200: dbb8 493d 5bd0 153e 03aa e8bc 3b75 ef3d
00000210: 5336 a8bd 30af 9a3e 16c1 1bbe df5d ba3d
00000220: 42c8 453d 6474 f1bd 658a 8dbe 5e62 813e
00000230: 64cd 103e b3b3 23be 3794 803d bc54 ecbd
00000240: 4c30 b3bd 1af2 9fbe 8395 98be d7b9 4a3d
00000250: 3f6d 4bbd cc0f 463e f23b a03d 8648 74bc
00000260: c178 97be 62ef c8bd 658a d33d ba31 14bd
00000270: 13c7 adbd 632f 0a3e a177 edbc 9758 d3bd
00000280: 6eb4 8b3d eeb2 0dbe a825 0ebd ce3d ce3d
00000290: 08f7 723d 6d0e 953d 3bc6 7ebd 086a 6e3d
000002a0: 9775 d5bd 46a8 523e c329 1d3b e295 50bd
000002b0: 9e88 f8bd de84 dc3c 449d 543d 5f48 893d
000002c0: fcb7 3abd 288f 713e 189e 8cbe e27a 89ba
000002d0: e468 c93d e8b5 193c 92f1 e93d a017 1d3e
000002e0: aa08 eabd a361 47bd 6b88 57bc ed8e b0bd
000002f0: aeab 763d cd8b cc3c 2a7f 10bd 100a 49bd
00000300: 8442 1f3e d925 fabd f568 ff3d 7b21 b9bd
00000310: 8f96 02bc 902e b03d 07b3 033d a997 f2bc
00000320: 15d0 ba3b 0332 9e3d 9ee5 743d 9330 34bb
00000330: e786 963d 7e66 2cbe 9b91 54be 82d4 f9bc
00000340: bd4c 95bd f107 c63c a320 003d e38e 20bc
00000350: 56af 72be 25f0 ab3a 3e5a dd3d 4663 013e
00000360: 3de8 143a cb42 2c3e afd8 b6bd e5a3 103e
00000370: a73c b43d 8c60 45bd d82b 4a3d 4635 c1bd
00000380: 2238 a63d f6b6 11bd b07e 21bc 27ab c4bc
00000390: 9919 da3d c8a3 473e 9534 80bd 877b 283e
000003a0: ce9a 453b 1112 26be 10af e33d 91a6 8bbd
000003b0: 0554 193d 3de8 86bd 06dc 5cbe d2d3 84bc
000003c0: 42c3 7fbd de35 1abe 58a1 b33c 09fc 943e
000003d0: a41c fe3d ecf8 ddbd 1253 36be c706 40bd
000003e0: e586 8f3e 6a65 79bd 1835 67bd 4958 d2ba
000003f0: 3143 15be 0244 4d3d 25c5 663e 0876 80be

encoder.linear.bias f4 [40]
0.09395468 -0.12301963 0.16771165 -0.08847694 0.15538353 0.19407444 0.14211018 -0.0046972474
0.02713019 0.029139595 -0.14110978 -0.18355343 0.23323803 0.05752549 0.049499314 -0.08543032
0.07682348 0.009351236 0.119312726 -0.13897529 -0.040313948 -0.11718581 -0.1250596 0.041165683
0.073768854 -0.009669876 0.032528937 0.128148 0.119305484 -0.12564577 0.071200795 0.46581516
-0.05396357 0.12318399 -0.070127375 -0.16524926 -0.12083741 0.17586678 -0.25806862 -0.030073952
00000000: 506b c03d b7f1 fbbd 9abc 2b3e 6633 b5bd
00000010: dc1c 1f3e 73bb 463e 5585 113e 5eeb 99bb
00000020: 2240 de3c 29b6 ee3c 157f 10be 6ef5 3bbe
00000030: f3d5 6e3e d99f 6b3d cbbf 4a3d 17f6 aebd
00000040: a155 9d3d ed35 193c 3b5a f43d 8a4f 0ebe
00000050: 3d20 25bd 1dff efbd a00f 00be 599d 283d
00000060: 2014 973d 666e 1ebc 103d 053d 3b39 033e
00000070: 6f56 f43d 49a9 00be b9d1 913d 537f ee3e
00000080: e808 5dbd e347 fc3d f19e 8fbd 1a37 29be
00000090: 9b79 f7bd 6c16 343e 9221 84be a65d f6bc

decoder.linear_t.weight f4 [200, 40]
-0.13553645 0.07827112 0.05355588 -0.17039883 -0.11612113 0.03677267 0.17323883 0.1264836
-0.4086425 -0.11641095 0.0017275066 -0.16978283 -0.008190714 -0.013317473 -0.0834631 0.012784452
0.20891128 -0.12708409 -0.095159896 -0.13467316 0.08620449 0.017945345 0.14113559 -0.014824339
-0.040408716 0.12205553 -0.043620486 0.15225601 -0.017497893 0.032354247 0.011003402 0.1983339
-0.16835488 0.08069966 0.21113674 -0.011374589 -0.094595425 0.14586309 0.007842805 0.15337937
0.24218884 -0.107733734 0.17338288 0.031975836 0.26854804 -0.21207237 0.042009942 0.054207925
0.03574353 0.15340939 -0.00018864531 0.095104426 -0.19847779 0.02349913 -0.0938034 -0.004954732
0.2141138 -0.23142968 -0.0038967654 -0.09561498 -0.28303257 -0.20519805 -0.058762345 -0.04849804
0.07477399 -0.11908673 -0.123630136 0.11721652 -0.084889196 -0.009826339 0.21218927 -0.016082516
-0.0050416486 0.16197136 -0.11814188 0.0637526 0.18309228 0.024203932 0.12672254 -0.08357868
-0.050474267 -0.06833837 -0.01261268 0.078007385 0.022620121 -0.068267405 0.00948496 0.074238285
-0.16168782 0.057255466 -0.050530393 0.09173667 -0.08011939 0.035580236 0.010054219 0.0030627355
-0.0978544 0.07731047 0.0014071674 0.0063701198 -0.04335295 -0.014459556 0.04145159 0.01579355
-0.054396283 -0.04954246 -0.06415041 -0.06696883 -0.07987606 -0.057389423 -0.080519594 0.011486015
0.07887923 0.011345527 -0.002243249 0.012718994 -0.1236125 0.06035439 0.048486616 0.026302757
0.14123343 -0.23638605 -0.229046 0.082329884 0.3624672 -0.16097443 -0.53285193 0.06704878
-0.08851477 -0.077447765 0.08535064 0.14982136 0.12231214 -0.4701076 0.052300204 0.008166322
0.07624482 0.07969193 0.45287 -0.075094745 0.015161006 0.1443915 0.19381742 0.1771502
0.29573536 -0.3233468 0.09258807 0.19052392 0.17860179 -0.14832634 -0.0976392 0.11371408
0.016161833 0.05784961 0.0010216151 -0.20761576 -0.12834291 0.0031695652 -0.11259163 0.27468872
0.0068190056 -0.28030598 0.20812051 -0.1593739 -0.236527 0.0665519 -0.0885175 -0.40518454
-0.07939905 -0.09044434 0.076938376 -0.17966665 0.24444446 0.0036100775 -0.27756366 -0.37146628
-0.05972539 -0.08682135 -0.2483699 -0.2686013 0.14426088 -0.16640525 -0.22885574 -0.06281918
0.11769096 0.27456182 -0.037272718 0.38958225 0.15096955 -0.00091771275 0.05982636 0.027660575
-0.19788218 0.06881055 0.0772681 -0.10165872 -0.12456843 0.080251634 0.35154596 -0.0775851
-0.05907013 0.032916278 0.29831433 -0.04912831 -0.14809433 -0.03467002 -0.21769351 0.17359193
0.048413496 0.29937318 -0.16995525 -0.054460447 -0.33547348 -0.15352407 -0.13966927 -0.06349841
0.24554427 -0.14788508 0.144603 -0.25957328 -0.021093322 -0.020476084 -0.05597049 -0.032350022
0.13718003 0.10699237 -0.27237323 -0.21533789 0.0290684 -0.055683583 -0.29535326 0.100333564
0.16553871 0.048204716 0.15105283 0.11255309 0.11587213 0.21338922 0.048517596 0.21536705
-0.0130656045 -0.13338892 0.13830788 0.06751674 0.15893675 -0.0349098 -0.12801717 -0.18040529
0.075021 0.13323916 0.044420786 -0.08830983 0.114540525 0.024471585 0.08464934 0.026365038
00000000: 11ca 0abe 9c4c a03d 695d 5b3d 087d 2ebe
00000010: ead0 edbd f09e 163d 8565 313e eb84 013e
00000020: 9739 d1be dd68 eebd 816d e23a 8ddb 2dbe
00000030: 5832 06bc 8831 5abc b4ee aabd e175 513c
00000040: d7ec 553e 5522 02be 31e3 c2bd c3e7 09be
00000050: fb8b b03d 1e02 933c d985 103e c9e1 72bc
00000060: 9c83 25bd 40f8 f93d 65ab 32bd 00e9 1b3e
00000070: be57 8fbc e385 043d 9d47 343c 0b18 4b3e
00000080: 3965 2cbe dd45 a53d 3b34 583e 7c5c 3abc
00000090: 3fbb c1bd 225d 153e 1c7f 003c 7b0f 1d3e
000000a0: 5a00 783e 81a3 dcbd 488b 313e 18f9 023d
000000b0: 217f 893e 8029 59be 9e12 2c3d 2109 5e3d
000000c0: cf67 123d 5a17 1d3e 17cf 45b9 1cc6 c23d
000000d0: c33d 4bbe 3f81 c03c ff1b c0bd 4e5b a2bb
000000e0: a640 5b3e e7fb 6cbe e060 7fbb c9d1 c3bd
000000f0: a5e9 90be 701f 52be c9b0 70bd e1a5 46bd
00000100: 1b23 993d bee3 f3bd cc31 fdbd 370f f03d
00000110: 63da adbd a7fe 20bc 2548 593e 7bbf 83bc
00000120: 6a34 a5bb d2db 253e 5ff4 f1bd b990 823d
00000130: 8b7c 3b3e 5347 c63c 8ec3 013e 4d2b abbd
00000140: 1bbe 4ebd fdf4 8bbd 6aa5 4ebc 56c2 9f3d
00000150: d54d b93c c8cf 8bbd ce66 1b3c 3e0a 983d
00000160: 7e91 25be b584 6a3d f5f8 4ebd 6fe0 bb3d
00000170: a215 a4bd 95bc 113d 73ba 243c 2db8 483b
00000180: e367 c8bd f454 9e3d b470 b83a 70bc d03b
00000190: dd92 31bd c6e7 6cbc 24c9 293d 7a61 813c
000001a0: a3ce 5ebd 09ed 4abd 4a61 83bd f426 89bd
000001b0: 0f96 a3bd 2c11 6bbd 75e7 a4bd d72f 3c3c
000001c0: 6f8b a13d 97e2 393c 7903 13bb 5463 503c
000001d0: 8d28 fdbd 2a36 773d e799 463d e178 d73c
000001e0: 7f9f 103e 2f0f 72be 098b 6abe 929c a83d
000001f0: 4d95 b93e 7bd6 24be fc68 08bf df50 893d
00000200: 3b47 b5bd ef9c 9ebd 51cc ae3d c56a 193e
00000210: ca7e fa3d f1b1 f0be bd38 563d 09cc 053c
00000220: 3f26 9c3d 8635 a33d 94de e73e 46cb 99bd
00000230: de65 783c 5edb 133e 1378 463e dd66 353e
00000240: a06a 973e b68d a5be d09e bd3d b418 433e
00000250: 63e3 363e dce2 17be 10f7 c7bd ede2 e83d
00000260: d265 843c b6f3 6c3d b7e7 853a 3a99 54be
00000270: 536c 03be 7bb8 4f3b 7196 e6bd 00a4 8c3e
00000280: f771 df3b 4484 8fbe 8b1d 553e e932 23be
00000290: 2234 72be 5d4c 883d aa48 b5bd 5974 cfbe
000002a0: f89b a2bd e23a b9bd de91 9d3d 89fa 37be
000002b0: a64f 7a3e 0d97 6c3b d31c 8ebe d430 bebe
000002c0: 9ca2 74bd 64cf b1bd ae54 7ebe 1c86 89be
000002d0: 20b9 133e 2366 2abe 2959 6abe 58a7 80bd
000002e0: f507 f13d 5e93 8c3e 47ab 18bd 5377 c73e
000002f0: c397 1a3e a992 70ba 7c0c 753d 6e98 e23c
00000300: a0a1 4abe 8cec 8c3d bd3e 9e3d 7232 d0bd
00000310: bc1d ffbd f85a a43d d5fd b33e f0e4 9ebd
00000320: 85f3 71bd 38d3 063d a8bc 983e c43a 49bd
00000330: 0aa6 17be 2702 0ebd 0ceb 5ebe 15c2 313e
00000340: 3b4d 463d 7147 993e c008 2ebe eb11 5fbd
00000350: 2ec3 abbe 6a35 1dbe 7605 0fbe 740b 82bd
00000360: f56f 7b3e 306f 17be cf12 143e cae6 84be
00000370: e7cb acbc 76bd a7bc 5041 65bd 7581 04bd
00000380: ec78 0c3e d11e db3d 8174 8bbe 8981 5cbe
00000390: da20 ee3c 7814 64bd 8b38 97be af7b cd3d
000003a0: fb82 293e 4f72 453d 98ad 1a3e 3c82 e63d
000003b0: 5e4e ed3d b482 5a3e 63ba 463d 2e89 5c3e
000003c0: 1e11 56bc 1b97 08be 95a0 0d3e 3746 8a3d
000003d0: 51c0 223e 94fd 0ebd ef16 03be 2abc 38be
000003e0: 9ca4 993d d96f 083e 92f2 353d c9db b4bd
000003f0: 3994 ea3d a278 c83c a25c ad3d 7efb d73c

decoder.linear_t.bias f4 [200]
0.11576435 -0.13790087 -0.1348106 0.08187687 0.039305415 0.09794149 -0.22865058 0.12155078
0.12811808 0.09396559 0.053890474 -0.2411355 0.13939764 0.008371665 -0.033115763 0.130924
-0.09329266 -0.010756007 0.13766703 0.39604256 0.09225953 0.16778769 -0.04094962 0.0057772337
0.18541543 -0.046455216 -0.017966313 0.05080915 -0.16419412 0.059149217 -0.061962623 0.40157723
0.66985726 0.2095572 0.06255022 0.09351606 0.40439314 0.6422361 0.66783935 0.21174018
0.021935651 0.3378533 0.694512 0.47871253 -0.13293734 0.07453492 0.3888287 0.5605864
0.08021459 0.11977282 -0.15889089 0.0077279764 0.2967633 0.4013879 0.269158 0.07128101
0.051279426 0.12444138 0.15257919 0.057047397 0.059413586 -0.13365355 0.15741685 0.06374314
0.041468035 -0.14034729 -0.26113108 0.18925624 0.09742095 0.13936199 -0.025009621 -0.16683422
0.15260108 0.2420679 0.16509235 0.011574297 0.07280072 0.04944935 0.0100135775 0.15429783
-0.08816368 -0.17592615 0.17286223 0.27869323 0.16162203 0.100709006 -0.057325248 -0.10634891
0.35558623 0.19394879 0.12939604 0.078335896 -0.09144961 0.17687535 0.021173144 0.1259578
0.2840818 0.363899 0.22454049 0.107838176 -0.07850889 0.13984776 0.21492404 0.2379363
0.072338425 -0.00011331936 -0.27829355 0.008617374 0.15517877 0.11083046 -0.21037252 0.040940564
0.019217364 0.3143832 0.23181118 0.16186382 0.040519297 0.18514189 0.3081458 -0.00092902104
-0.003294891 -0.06826851 0.50013024 0.41521442 0.105430506 -0.08896988 -0.11122433 0.00698412
-0.050917063 0.052454714 0.07413545 0.09078536 0.012965015 0.12727965 0.034544617 -0.008972969
0.103606105 -0.07553653 0.06919045 0.12595575 0.05771776 0.09082867 -0.058187243 0.02556835
0.22445025 -0.016624441 -0.008627244 0.08366204 0.1764679 -0.08193605 0.033979237 0.024112843
0.058978736 0.13106811 0.18865693 -0.085835405 -0.102380544 0.4495435 0.19377796 0.08833209
-0.013678682 -0.053244818 0.29196852 0.4405082 0.4017081 0.019999651 -0.062320642 0.2503453
0.58563375 0.33860865 -0.12014854 0.10188058 0.17763312 0.5540281 0.11146908 0.015342107
-0.16482474 0.17055254 0.16057974 0.2532801 -0.03811102 -0.122039095 0.21359584 0.039265234
0.42124927 0.02755145 -0.08191136 -0.11726297 0.2241342 0.29914427 -0.060549073 -0.07836978
0.20703977 0.11803535 0.17174967 0.018794509 0.14497216 0.36132237 0.09319364 -0.08639209
00000000: dc15 ed3d e335 0dbe ca0b 0abe 0faf a73d
00000010: b7fe 203d 8c95 c83d 6123 6abe 9eef f83d
00000020: 6331 033e 0871 c03d 42bc 5c3d 39ec 76be
00000030: 41be 0e3e 4f29 093c 65a4 07bd f110 063e
00000040: 3910 bfbd f739 30bc 96f8 0c3e 17c6 ca3e
00000050: 91f2 bc3d 89d0 2b3e caba 27bd f34e bd3b
00000060: 8bdd 3d3e d347 3ebd 172e 93bc 411d 503d
00000070: 8122 28be 7346 723d 85cc 7dbd 889b cd3e
00000080: c47b 2b3f 2a96 563e 541a 803d 5985 bf3d
00000090: 9e0c cf3e 9669 243f 85f7 2a3f 6bd2 583e
000000a0: 65b2 b33c 1cfb ac3e 8acb 313f cf19 f53e
000000b0: ba20 08be c4a5 983d 8e14 c73e 9782 0f3f
000000c0: 8c47 a43d 744b f53d 4bb4 22be f73a fd3b
000000d0: 5cf1 973e b782 cd3e 14cf 893e c7fb 913d
000000e0: 600a 523d 1fdb fe3d b83d 1c3e 88aa 693d
000000f0: a95b 733d 7adc 08be e231 213e c38b 823d
00000100: 63da 293d 33b7 0fbe f9b2 85be 63cc 413e
00000110: a384 c73d e9b4 0e3e fae0 ccbc 97d6 2abe
00000120: 7543 1c3e a6e0 773e f80d 293e 1fa2 3d3c
00000130: 8b18 953d 678b 4a3d fd0f 243c 4000 1e3e
00000140: 298f b4bd fc25 34be cc02 313e e1b0 8e3e
00000150: 3f80 253e 8640 ce3d e1cd 6abd 75cd d9bd
00000160: 660f b63e 839a 463e 6580 043e 926e a03d
00000170: ef49 bbbd d01e 353e 4d73 ad3c 15fb 003e
00000180: 2b73 913e f850 ba3e f1ed 653e 43da dc3d
00000190: 45c9 a0bd 4034 0f3e 0c15 5c3e 93a5 733e
000001a0: 2b26 943d dea5 edb8 7e7c 8ebe e32f 0d3c
000001b0: 2fe7 1e3e 15fb e23d e56b 57be 4bb1 273d
000001c0: bc6d 9d3c d6f6 a03e e95f 6d3e a1bf 253e
000001d0: 90f7 253d d695 3d3e 49c5 9d3e 8c89 73ba
000001e0: 19ef 57bb 5cd0 8bbd 8908 003f fc96 d43e
000001f0: f3eb d73d d735 b6bd 95c9 e3bd 0bdb e43b
00000200: 698e 50bd c1da 563d 54d4 973d aded b93d
00000210: 376b 543c 9955 023e a87e 0d3d 5c03 13bc
00000220: 702f d43d e5b2 9abd b9b3 8d3d 8bfa 003e
00000230: 7569 6c3d 6204 ba3d bf55 6ebd b774 d13c
00000240: 49d6 653e fb2f 88bc 4959 0dbc 0157 ab3d
00000250: 00b4 343e 16ce a7bd d02d 0b3d 4c88 c53c
00000260: b093 713d b836 063e 482f 413e 79ca afbd
00000270: e4ac d1bd 912a e63e bb6d 463e 74e7 b43d
00000280: 8d1c 60bc 3d17 5abd e67c 953e 4a8a e13e
00000290: afac cd3e 4fd6 a33c ee43 7fbd 422d 803e
000002a0: 18ec 153f 1d5e ad3e 7010 f6bd c4a6 d03d
000002b0: 75e5 353e c9d4 0d3f e749 e43d 765d 7b3c
000002c0: d1c7 28be 53a5 2e3e 046f 243e eead 813e
000002d0: 4d1a 1cbd a2ef f9bd deb8 5a3e 95d4 203d
000002e0: fcad d73e 94b3 e13c 25c1 a7bd 9127 f0bd
000002f0: 7083 653e 7029 993e 4e02 78bd 5680 a0bd
00000300: 3c02 543e 85bc f13d 25df 2f3e f1f6 993c
00000310: 9573 143e 3fff b83e 4fdc be3d 56ee b0bd

decoder.conv2_t.weight f4 [8, 4, 3, 3]
0.027436204 -0.13812898 -0.22974838 -0.11192065 -0.5714333 -0.53672594 -0.0550295 -0.3397172
-0.27655408 -0.02343212 -0.024051849 -0.19758616 -0.064435184 -0.39464203 -0.5605934 -0.11533475
-0.5996191 -0.3996587 0.026555358 -0.2612006 -0.0564918 -0.35764462 -0.41154897 -0.15809116
-0.12999968 -0.5184103 -0.21983461 0.010425693 -0.11430925 -0.1063173 -0.269514 -0.6552648
-0.31791702 -0.27509218 -0.7233063 -0.2527765 0.05878486 0.24443209 0.2124411 0.19646366
0.496641 0.32430288 0.110376574 0.26938406 0.14096466 -0.030097457 0.085631065 0.15565373
0.08482686 0.39143842 0.34741515 -0.0012060369 0.3352525 0.2785294 0.022126319 0.09905808
-0.14155608 0.20418812 0.08693892 -0.24433915 0.12376987 -0.13327311 -0.1817858 0.023753332
0.12725209 0.020217024 0.2774009 0.47909394 0.15542313 0.2468465 0.36299387 0.12273645
0.007522109 -0.29522684 -0.6414132 0.12862071 -0.05035718 -0.296674 0.050534904 0.14018607
0.035312183 -0.05716573 -0.16868484 -0.6938428 0.07485009 -0.14343125 -0.7830156 0.11505587
0.13684602 0.1134534 -0.29520828 -0.19161938 -0.24260078 -0.43750882 -0.11525998 -0.4513725
0.081464626 0.32683542 -0.055348884 -0.09423995 -0.5768313 -0.45822516 -0.08565046 -0.5731503
-0.5648991 0.12330108 0.18473129 -0.0109564485 0.14934082 0.30333534 0.25512797 -0.042927228
0.19088496 0.27765474 -0.3596011 -0.27710357 -0.041241355 0.012872364 0.17009525 0.2210513
0.12402585 0.31676006 0.38036534 -0.02948351 -0.18541288 0.086676076 -0.10375329 0.1890908
-0.16353749 0.08896479 0.08466471 -0.17246611 -0.5000928 -0.65785223 -0.20607862 0.12851495
0.22717352 0.06923672 0.17586105 0.41631114 0.21902652 -0.33188438 -0.074827366 0.081955604
-0.14452617 -0.3698548 0.07561755 -0.15193684 -0.03889653 0.35939887 0.21139021 0.39838564
0.28972116 -0.061578844 -0.30138442 -0.23942508 -0.20693602 -0.46830228 0.21694383 -0.033034787
0.28332165 0.4171808 -0.115643285 -0.30578306 0.2182088 -0.17917122 -0.3827515 0.09388294
0.31584558 -0.015924323 0.029830037 -0.23675519 -0.3794204 0.10510099 -0.37855542 -0.12096812
0.31718236 0.26632532 0.46971095 0.2878108 -0.024604756 -0.08106713 0.08813509 -0.44291732
-0.4831836 -0.00812152 -0.46701837 -0.5305363 -0.07340687 0.025277836 -0.010213192 0.06708807
-0.03493299 -0.2076818 -0.0036663532 -0.12310575 -0.79349136 -0.17906089 -0.038575586 -0.21171436
0.010090118 -0.095136814 -0.26153207 0.03919728 -0.48510882 -0.059559938 0.028763533 -0.014295737
0.026816633 0.08104209 -0.24236523 -0.17437203 0.0625248 -0.7623695 -0.31997603 -0.02786113
0.017777078 0.41014233 0.187298 0.40732288 0.5666228 -0.0006502959 0.06657927 -0.16229634
-0.25602886 0.05685044 0.14292921 0.20853867 0.22057526 0.7743758 0.2730843 0.2424483
0.21182677 -0.2914773 0.030391073 0.10867774 -0.08892631 0.34416977 0.16765627 -0.061467584
-0.28562638 -0.4016058 -0.26302466 -0.031448063 0.17352352 0.04962591 0.54712206 0.5279693
0.04112733 0.11556693 -0.19219403 -0.17802905 0.05025236 0.25692803 0.011860438 0.06999182
00000000: e4c1 e03c af71 0dbe 2943 6bbe a736 e5bd
00000010: 7449 12bf df66 09bf 9d66 61bd 6aef adbe
00000020: 7f98 8dbe b8f4 bfbc 6208 c5bc 0754 4abe
00000030: 98f6 83bd 850e cabe 0d83 0fbf a034 ecbd
00000040: a380 19bf 11a0 ccbe 9f8a d93c 16bc 85be
00000050: f263 67bd 321d b7be 8cb6 d2be a6e2 21be
00000060: a31e 05be 8ab6 04bf 531c 61be 87d0 2a3c
00000070: f81a eabd e2bc d9bd bdfd 89be 6fbf 27bf
00000080: 05c6 a2be e2d8 8cbe 9a2a 39bf ec6b 81be
00000090: 65c8 703d 684c 7a3e 298a 593e c52d 493e
000000a0: bb47 fe3e 070b a63e 1d0d e23d b5ec 893e
000000b0: 0a59 103e f18e f6bc 575f af3d b163 1f3e
000000c0: b4b9 ad3d 9e6a c83e 66e0 b13e e213 9eba
000000d0: 37a6 ab3e 689b 8e3e 4142 b53c f6de ca3d
000000e0: 14f4 10be b116 513e 080d b23d 0b34 7abe
000000f0: 0f7b fd3d bf78 08be 0f26 3abe 5996 c23c
00000100: 5f4e 023e 2c9e a53c 7e07 8e3e cd4b f53e
00000110: 3e27 1f3e 54c5 7c3e 55da b93e 3f5d fb3d
00000120: 067c f63b f927 97be a833 24bf 26b5 033e
00000130: 5543 4ebd a8e5 97be b0fd 4e3d f08c 0f3e
00000140: 82a3 103d 9d26 6abd b8bb 2cbe af9f 31bf
00000150: 014b 993d a4df 12be b673 48bf 69a2 eb3d
00000160: 5d21 0c3e 425a e83d 8a25 97be df37 44be
00000170: 576c 78be 2801 e0be 6d0d ecbd 4c1a e7be
00000180: edd6 a63d f956 a73e 83b5 62bd e000 c1bd
00000190: 37ab 13bf 7d9c eabe 8269 afbd fab9 12bf
000001a0: 3a9d 10bf 4785 fc3d 332a 3d3e ad82 33bc
000001b0: cdec 183e c54e 9b3e 22a0 823e 76d4 2fbd
000001c0: 5977 433e c328 8e3e a31d b8be 85e0 8dbe
000001d0: b2ec 28bd 9ce6 523c 732d 2e3e 465b 623e
000001e0: 4401 fe3d 602e a23e 3fbf c23e 6787 f1bc
000001f0: e0dc 3dbe 3a83 b13d 9b7c d4bd 05a1 413e
00000200: 5f76 27be 2c33 b63d b164 ad3d f59a 30be
00000210: 1506 00bf 0169 28bf 4606 53be 6c99 033e
00000220: 2da0 683e fbcb 8d3d eb14 343e bc26 d53e
00000230: 7d48 603e c0ec a9be 173f 99bd 57d8 a73d
00000240: abfe 13be 9c5d bdbe 60dd 9a3d 5595 1bbe
00000250: f851 1fbd 2103 b83e ad76 583e 34f9 cb3e
00000260: 5556 943e 193a 7cbd 0f4f 9abe d92b 75be
00000270: 09e7 53be 51c5 efbe 8626 5e3e 7c4f 07bd
00000280: 890f 913e b998 d53e 63d6 ecbd 998f 9cbe
00000290: 2172 5f3e a978 37be 01f8 c3be b345 c03d
000002a0: 83b6 a13e ba73 82bc 1f5e f43c f46f 72be
000002b0: 6443 c2be 303f d73d 04d2 c1be 22be f7bd
000002c0: ba65 a23e cb5b 883e f47d f03e f05b 933e
000002d0: ea8f c9bc 8606 a6bd 2c80 b43d 0fc6 e2be
000002e0: d763 f7be 2010 05bc 081d efbe 3ad1 07bf
000002f0: 5756 96bd 7713 cf3c 3b55 27bc 7865 893d
00000300: e515 0fbd 8aaa 54be 3347 70bb de1e fcbd
00000310: 4022 4bbf bd5b 37be 6f01 1ebd a6cb 58be
00000320: 0651 253c 17d7 c2bd 88e7 85be 548d 203d
00000330: 2f60 f8be 1ff5 73bd 80a1 eb3c ab38 6abc
00000340: 8eae db3c 65f9 a53d 972e 78be 958e 32be
00000350: 010d 803d a62a 43bf e6d3 a3be 063d e4bc
00000360: 3ca1 913c 2dfe d13e 0ccb 3f3e a08c d03e
00000370: 310e 113f 9e78 2aba b65a 883d 0331 26be
00000380: 3716 83be 02dc 683d 095c 123e 298b 553e
00000390: 7bde 613e 7e3d 463f b5d1 8b3e 5e44 783e
000003a0: 1ee9 583e 833c 95be b3f6 f83c 6f92 de3d
000003b0: ff1e b6bd 0537 b03e 16ae 2b3e 6fc5 7bbd
000003c0: 9f3d 92be 479f cdbe 2bab 86be afcf 00bd
000003d0: 26b0 313e 8a44 4b3d 3110 0c3f ff28 073f
000003e0: 2275 283d 5bae ec3d 83ce 44be 3f4d 36be
000003f0: 6bd5 4d3d 128c 833e 4852 423c df57 8f3d

decoder.conv2_t.bias f4 [4]
-0.83666813 -1.9843318 2.999913e-05 0.014110983
00000000: e22f 56bf 96fe fdbf a4a6 fb37 c131 673c

decoder.conv1_t.weight f4 [4, 1, 5, 5]
0.010558352 -0.0008225391 0.0072397883 0.031208985 0.0103586195 0.010094305 -0.025980799 -0.01087796
-0.01027956 -0.0077368226 -0.04358817 -0.08483065 0.025039246 -0.06263017 -0.12362176 -0.060400035
0.18916446 0.6303123 0.27473798 -0.079286724 -0.0071807452 0.31879908 0.6982951 0.31330815
-0.013880061 0.021106979 0.03658216 -0.03089684 -0.008138208 0.01984721 0.009880477 -0.078690216
-0.18168841 -0.118189394 -0.0240794 -0.09910774 -0.21056397 -0.15164962 -0.17276393 -0.09829947
-0.19203678 -0.23403108 -0.2192367 -0.3639686 -0.1534493 -0.09733338 -0.16638122 -0.29880893
-0.2844912 -0.029336 -0.017030425 -0.0073228385 0.033435985 0.04468471 0.018083116 -0.0019441755
0.026579533 0.009231487 -0.09489993 -0.07180509 0.007953078 0.0056385086 -0.14734861 -0.35574862
-0.22069511 -0.03813912 -0.040831067 -0.17967242 -0.29735804 -0.1665761 -0.023147138 0.060820043
0.09637117 0.09153287 0.066389 0.00028402056 0.012356507 -0.04144869 -0.07098149 -0.0041736765
-0.0011850586 -0.014063439 -0.04743636 0.080834076 0.07206886 0.013897913 0.0023769944 0.20007189
0.63442737 0.3811916 0.0514125 -0.03713406 0.19928049 0.6625977 0.3530035 0.02591595
-0.11042885 -0.074081115 0.12372164 0.02626702
00000000: f0fc 2c3c aa9f 57ba bf3b ed3b fca9 ff3c
00000010: 33b7 293c 9562 253c afd5 d4bc 7939 32bc
00000020: 9a6b 28bc 2c85 fdbb 8289 32bd b1bb adbd
00000030: 1b1f cd3c 3f44 80bd 682d fdbd 0766 77bd
00000040: 54b4 413e 265c 213f 75aa 8c3e 1461 a2bd
00000050: 754c ebbb a239 a33e 78c3 323f ed69 a03e
00000060: 3269 63bc 8be8 ac3c 2dd7 153d 5f1b fdbc
00000070: 1e56 05bc 9e96 a23c b9e1 213c 5628 a1bd
00000080: 870c 3abe 480d f2bd 2942 c5bc 00f9 cabd
00000090: 159e 57be 0a4a 1bbe 07e9 30be 3c51 c9bd
000000a0: 4aa5 44be d8a5 6fbe 967f 60be 185a babe
000000b0: d021 1dbe b956 c7bd d75f 2abe 7cfd 98be
000000c0: d5a8 91be 0d52 f0bc 6483 8bbc 6cf4 efbb
000000d0: 2cf4 083d 5107 373d 0b23 943c b4d3 feba
000000e0: 52bd d93c aa3f 173c e55a c2bd 8c0e 93bd
000000f0: a04d 023c 3dc3 b83b 8ee2 16be af24 b6be
00000100: e6fd 61be c437 1cbd 7a3e 27bd 0cfc 37be
00000110: 503f 98be ed92 2abe 119f bdbc 701e 793d
00000120: 3f5e c53d 9675 bb3d f5f6 873d 98e8 9439
00000130: f272 4a3c 1ac6 29bd be5e 91bd 56c3 88bb
00000140: f853 9bba 576a 66bc a14c 42bd 568c a53d
00000150: d798 933d 12b4 633c 59c7 1b3b a5df 4c3e
00000160: d569 223f 8c2b c33e ea95 523d e219 18bd
00000170: 2f10 4c3e 01a0 293f e0bc b43e b04d d43c
00000180: 8528 e2bd d7b7 97bd c561 fd3d ef2d d73c
