4_AutoEncoders/models/q2_parms_nc_50.pt (torch, 87809 bytes, 11 tensors)

encoder.conv1.weight f4 [4, 1, 5, 5]
000000 80 11 8b 3b 24 b3 4c bc 20 a9 1a bd de ca 69 bd
       0.0042440295 -0.012493882 -0.037758946 -0.057078235
000010 50 2e ba bb b8 14 15 bc b5 f1 44 3d 83 e9 30 3c
       -0.0056817904 -0.009099178 0.048082072 0.010797861
000020 44 c5 ce bd c6 f9 71 bd 95 f1 36 3d 17 9d 1b 3e
       -0.10096219 -0.059076093 0.044663984 0.15196644
000030 4e 18 fc 3d 09 f4 6d 3c c0 24 22 bc fb ee 82 3d
       0.12309323 0.014523515 -0.009896457 0.06393238
000040 a3 40 38 3e da 9c 0f 3e 18 c8 14 3e 25 b3 b5 3c
       0.17993407 0.14024678 0.14529455 0.02218015
000050 11 17 80 3c 76 16 9b 3d 70 3d 20 3d 0b ea f9 3c
       0.015635999 0.075726435 0.03912109 0.030507108
000060 cc 97 9b 3c ac ff 8a 3c 72 b7 1b 3d 95 f2 89 3c
       0.01899328 0.016967617 0.038016744 0.016839305
000070 ba f8 58 3c 63 d8 02 3d ed a9 20 3d c6 91 6f 3d
       0.013242895 0.031944644 0.039224554 0.05848863
000080 b5 47 08 3d 8d c4 08 bd 0a 01 03 bd 27 37 8f bb
       0.03327151 -0.03339057 -0.031983413 -0.0043705883
000090 85 1d 82 3c a8 24 df 3c f1 bf a4 3d 19 de d3 3c
       0.015883217 0.027239159 0.080444224 0.02586274
0000a0 ff ae 32 bd 2f 30 59 bd f0 6d ba 3d 06 17 7d 3e
       -0.04362392 -0.053024467 0.09103 0.24715814
0000b0 ba 87 04 3e 1d 0c 96 bc 43 aa 06 bd 4f 36 b7 3d
       0.129424 -0.018316323 -0.032877218 0.089459054
0000c0 30 69 0b 3e bf 31 b7 3d dc 9c 38 bb 27 19 c7 bc
       0.13614345 0.08945035 -0.0028169667 -0.024303986
0000d0 d8 f3 20 3c 8c 3c 59 3d 0a 0e a1 bc bf 65 47 be
       0.009823762 0.053036258 -0.019660015 -0.19472407
0000e0 9f d4 a6 bd d0 81 23 be 02 0f 06 3a 24 83 92 3d
       -0.08146023 -0.15967488 0.00051139307 0.07153919
0000f0 94 5b 27 be 4e fc 88 bd 30 70 46 be 08 cd 65 3d
       -0.16343528 -0.06688748 -0.19378734 0.056103736
000100 dd 26 f6 ba 91 a0 9f be 12 8b fd bd f3 4d 95 be
       -0.0018779893 -0.3117719 -0.12380041 -0.29161033
000110 4f 0c 53 bc 7e c6 ca 3d af 91 22 be 01 31 40 bd
       -0.012881353 0.09901141 -0.15875886 -0.046921734
000120 08 30 17 be c9 83 45 3e 91 b8 39 bc d2 a8 1b 3d
       -0.14764416 0.19288553 -0.011335508 0.038002796
000130 f6 84 21 3d 2f e5 d5 3b 50 6b b1 3c 85 49 0e 3d
       0.039433442 0.006527565 0.021657616 0.034738082
000140 57 fd cc bc 34 66 b7 bd 93 56 24 bd 1f 9f 67 bd
       -0.025023146 -0.089550406 -0.040121626 -0.056548234
000150 f0 9c a6 3d 9e 9c 49 be c6 f8 94 bd c3 15 2c be
       0.08135402 -0.19688651 -0.07274012 -0.16805176
000160 4e 2a 1c be d4 e2 38 3d 8e 5f 1b be 00 63 e2 be
       -0.15250513 0.045138195 -0.1517317 -0.44216156
000170 bf 87 4d be 8c 97 57 be b4 c2 79 3c 1d 6f 9c be
       -0.20071314 -0.21053904 0.015244175 -0.30553523
000180 07 23 df be 32 66 5c be 44 e1 6c be a2 b8 83 bc
       -0.4358141 -0.2152336 -0.23132807 -0.01607925

encoder.conv1.bias f4 [4]
000000 be b6 b3 3e 57 db 9d 3e 50 9f 96 3d c1 83 53 3e
       0.3510036 0.30831406 0.07354605 0.20655729

encoder.conv2.weight f4 [8, 4, 3, 3]
000000 e6 58 11 3d 38 a4 11 3b d3 b5 e3 3d 9a a8 a2 bd
       0.03548517 0.0022223126 0.111186646 -0.079423144
000010 ea d0 f6 3d ad 52 bb bd 65 ff 6f bd ea 5f a3 3e
       0.12051566 -0.091466285 -0.058593173 0.31909114
000020 8a 53 2b bd 07 36 ec bd dc 78 c5 3d f3 0b 56 bd
       -0.041827716 -0.115337424 0.09642193 -0.05225749
000030 81 0f 23 3e 2d 82 a6 3c ee d4 97 3d e9 37 ac 3d
       0.15923883 0.020325745 0.0741366 0.084091015
000040 e8 37 d1 bd 6d da ae 3d 6d 6a 70 bd 8f 9e 18 3d
       -0.102157414 0.08537755 -0.058695246 0.03726059
000050 96 be 93 bc 61 56 42 3d a4 03 82 3c d9 b6 84 3c
       -0.018035214 0.04744566 0.015870877 0.01620047
000060 45 5b 6e bd 60 ab a9 be 84 f5 a1 bd 64 90 d4 3c
       -0.05819251 -0.3313856 -0.079081565 0.025947757
000070 16 76 8e 3d dc 58 83 bd 9d d0 9d 3c 36 71 2b be
       0.06956117 -0.06413433 0.019264514 -0.16742405
000080 0c d5 2f 3e ef ae 44 bd 58 e6 e5 be 54 74 9e 3d
       0.17171115 -0.048018392 -0.449023 0.077370316
000090 9a 85 56 3d 55 3d a6 bd fe d6 65 bd a1 00 a4 bd
       0.052373506 -0.08117167 -0.056113236 -0.080079325
0000a0 ac be 0b 3f e7 2e 66 be 5d ba 9f 3d 6c 44 cc bc
       0.5458782 -0.2247883 0.07799218 -0.02493497
0000b0 f6 ff b4 3d 50 37 95 3d 33 80 ab 3d 8b db 7c bd
       0.08837883 0.07285941 0.083740614 -0.06173281
0000c0 9e 5a 7d 3c 3f e5 95 bd 93 e3 88 3d 41 9e 57 be
       0.015463499 -0.07319116 0.06684031 -0.21056463
0000d0 c2 72 d9 3d 10 6c 79 bd be da 53 bd b2 63 c1 3c
       0.106175914 -0.060894072 -0.05172228 0.023607109
0000e0 75 ed bc bc ff 8e e3 3c 1b 10 75 be 0e cc ee bd
       -0.023062447 0.027778147 -0.23931925 -0.11660014
0000f0 1a 14 30 3e 28 cc a6 3e bf 55 9b 3c b3 c9 31 3d
       0.17195168 0.32577634 0.018961785 0.043405246
000100 01 24 23 be d0 88 c8 3d bd d8 06 3e c9 c4 e4 be
       -0.15931703 0.0979172 0.13168617 -0.44681385
000110 61 8f 3e 3d 62 d0 a6 3e 00 68 62 3e 53 5f aa bd
       0.046523456 0.32580858 0.22109985 -0.08318963
000120 fe 26 c4 bb 9d cc 4f bc f5 e8 ca bd 08 8a 87 3c
       -0.0059860935 -0.012683061 -0.09907714 0.01654531
000130 eb 09 a0 3c 49 ea f7 3e d0 63 80 3d b3 3a 31 bd
       0.01953598 0.48420933 0.06269038 -0.04326887
000140 d3 e5 21 3e e3 13 66 bd 31 f6 f4 3c 49 46 7d 3e
       0.15810327 -0.05617131 0.02990255 0.24733843
000150 d1 87 ed 3d 87 4a d4 3d d8 0c 99 3c a9 3a d0 bd
       0.115981705 0.103657775 0.018682882 -0.101674385
000160 0a 88 1b be b4 c8 75 3c c2 73 ba bc b8 09 7d 3c
       -0.15188614 0.015001465 -0.022760276 0.015444212
000170 dd 0b 00 3e 7a b1 b5 3c 97 09 66 bc 85 a7 61 be
       0.12504525 0.022179354 -0.014040372 -0.2203656
000180 12 a2 b7 bd b1 cf 55 bd b8 56 30 3d 84 a1 14 bd
       -0.08966459 -0.052200023 0.04305145 -0.036286846
000190 b9 ec 9b 3d 2d 86 8b bd a2 13 b0 b9 26 37 e7 bc
       0.07613511 -0.068127014 -0.00033583964 -0.028224539
0001a0 7c 79 08 bf f4 57 da bd 68 90 31 3e 14 aa e4 3b
       -0.5331037 -0.10661307 0.17340243 0.0069782827
0001b0 88 f1 00 3d b5 43 5a bc bf c3 ee 3d e5 46 c4 bb
       0.031480342 -0.013321807 0.11658429 -0.0059898966
0001c0 a5 ac 55 bd 7b b9 8d bd f0 c4 05 3e 8b be 0c be
       -0.0521666 -0.06920143 0.13063407 -0.13744561
0001d0 0a 08 9f 3e 98 cf 32 3d e2 b8 d8 bd 55 e5 4b 3d
       0.3106082 0.043655008 -0.105821386 0.049779255
0001e0 f8 e0 10 3d d9 73 4b be d8 b0 da 3e 32 9d a1 3d
       0.035370797 -0.19868411 0.42713046 0.07891311
0001f0 79 7b 25 3e 2d 19 4e 3e 5c 60 9f 3a 2b 74 8b 3c
       0.16160382 0.20126791 0.0012159455 0.017023167
000200 7d 51 d8 bc 19 da 5d 3d c0 e5 e6 bd 6d 81 45 3d
       -0.026406044 0.054163072 -0.1127429 0.048219133
000210 56 a6 09 bc 25 bc 90 bc 70 ad 8e 3d 99 cc 09 3d
       -0.008401474 -0.01766784 0.06966674 0.033642385
000220 f7 15 f8 bb 69 90 95 bd 34 2a 18 bd a5 ab 74 3d
       -0.007570978 -0.07302935 -0.037149623 0.059734005
000230 ce 1b 39 3e 60 89 af bc 52 52 68 3d a3 56 a6 be
       0.18077013 -0.02142781 0.05671913 -0.32487974
000240 d2 97 b4 3d 55 52 b2 3c 55 e9 45 3e 9e 76 f5 be
       0.0881802 0.021767775 0.1932729 -0.4794206
000250 99 3e 8e bb e6 c3 7b 3e e6 a8 9a 3c dc 33 d9 3d
       -0.0043409583 0.24586448 0.018879365 0.106055945
000260 ce 19 5e 3e 18 26 1e be 40 b2 6e bd 9c fa 52 3d
       0.21689531 -0.15444219 -0.05827546 0.05150853
000270 9d a4 50 bd a4 54 81 be d1 7e e7 bd 2f 61 74 bd
       -0.050938237 -0.25259888 -0.11303485 -0.059662994
000280 96 15 fc bd ac 0d 30 be ae fa 22 be 44 86 c3 3d
       -0.12308805 -0.17192715 -0.15915939 0.095470935
000290 83 d0 4e 3e a3 09 7e bd 44 93 85 3e 4f 7e 98 3e
       0.20196728 -0.06202091 0.26088917 0.29783866
0002a0 26 6d 92 bc 44 94 7e 3e 2a f7 4e bd dc d0 e1 3d
       -0.017874312 0.24861246 -0.050528683 0.11026165
0002b0 f8 32 b7 3e 23 1e 29 bd 49 c8 03 3e 8f 33 c1 3e
       0.35781074 -0.041288506 0.12869371 0.3773465
0002c0 de 0a 5b bd 44 db 11 bd 22 7e d0 3d ed 01 a0 be
       -0.05347716 -0.0356095 0.10180308 -0.3125147
0002d0 de 61 9c 3d a2 be 4d 3e 35 fe fa 3e ff 82 a7 3c
       0.07635854 0.20092252 0.4902207 0.020448206
0002e0 de a2 d6 3d 01 c4 2c bd 7d 80 c8 3b 56 64 27 bc
       0.10480283 -0.04217911 0.0061188326 -0.010216793
0002f0 fb 6d aa 3d a9 e7 f6 bd e8 43 31 3e 79 3f 27 be
       0.08321758 -0.120559044 0.1731106 -0.16332807
000300 aa 3e c4 bd a9 cb 6a be b0 10 86 3c 3f fb ac 3d
       -0.09582265 -0.22929253 0.01636538 0.08446359
000310 27 c5 6e 3c d2 af b0 bb 19 45 f9 bd 37 65 2d 3c
       0.014573372 -0.005392053 -0.121713825 0.0105832135
000320 a2 e8 03 be b9 50 df bc 66 11 9a 3d db 7c 32 bc
       -0.12881711 -0.027260171 0.0752285 -0.010894026
000330 1c 0b 9f 3c 97 30 ab 3d b3 2d 0a 3e 84 d0 a8 bd
       0.019414477 0.08358877 0.13493995 -0.08242896
000340 64 85 08 3e d5 88 36 bf 73 32 b7 bb c4 6b 20 3e
       0.13332134 -0.7130254 -0.005590731 0.1566611
000350 79 8e 3a 3e e3 08 2d bc d1 d8 d2 3c e2 5e 22 3d
       0.18218412 -0.010561201 0.025738152 0.03964127
000360 24 f3 57 bc 66 9b a2 3d 9b 8e 91 3c ba a5 0f 3e
       -0.013180528 0.07939796 0.017768195 0.14028063
000370 ae 12 e9 bd d4 77 de bb 23 02 e8 bc f2 c6 4e 3e
       -0.11380516 -0.006789187 -0.028321331 0.20193079
000380 df 34 1b bc f2 bc 7f 3b 3f 9f 0e 3c 14 42 9c 3c
       -0.009473055 0.0039022532 0.008704959 0.019074477
000390 40 76 84 be b0 48 90 3e 45 b3 f2 bd 1c a0 23 3e
       -0.25871468 0.28180456 -0.11850599 0.15979046
0003a0 42 d4 3d 3e ce 14 19 be 8f 2e 5e 3d fe d1 c3 bc
       0.18538001 -0.14949343 0.05424362 -0.023903843
0003b0 4b 03 b1 3b 57 d5 01 be 18 ad 1a 3e aa d9 1f 3d
       0.005402004 -0.12679039 0.15105093 0.03902594
0003c0 31 bf 2d 3e 36 98 0a 3e 0f 54 59 be 5c 96 4d bd
       0.16967465 0.13534626 -0.21223472 -0.050192222
0003d0 fe de 88 3b 70 b6 a0 bc 94 5b ee bc 92 35 14 3e
       0.0041769734 -0.019618243 -0.029096402 0.1447356
0003e0 80 43 09 be 3e 3a de 3d 5e 90 d1 be e6 01 66 be
       -0.13404655 0.108509526 -0.40930456 -0.22461662
0003f0 4e ae 15 3e a3 94 3b 3e b6 5b a2 3e b8 1b 1b bd
       0.14617273 0.18318419 0.31710595 -0.03786823

encoder.conv2.bias f4 [8]
000000 0a 07 4b 3f 51 44 19 3f f0 b6 5f 3f e7 f0 27 3e
       0.79307616 0.5986987 0.87388515 0.1640049
000010 e2 1b 29 be 30 44 c8 3e 80 10 6d 3f 42 6c 81 3e
       -0.16514543 0.39114523 0.926033 0.25277907

encoder.linear.weight f4 [50, 200]
000000 3a b5 0c 3d cd 77 87 3c 4a 07 5c 3e a5 35 8a be
       0.03435252 0.016536618 0.21487156 -0.26994053
000010 31 f4 25 3e bd bc b9 3c 7b e8 64 bd 3e 42 1d 3e
       0.16206433 0.022673005 -0.055885773 0.153573
000020 7b 92 4c be c8 7f 69 be 1b 3a 42 bd 45 f1 99 3d
       -0.19977753 -0.22802651 -0.047418695 0.07516722
000030 74 47 0e 3e 79 85 00 bd d2 1f c4 bc e6 fd 56 bd
       0.13894445 -0.03137729 -0.023940954 -0.05248823
000040 41 9b 96 3d 40 65 25 be 51 ed 3f bd 15 7f c2 3d
       0.07353831 -0.16151905 -0.046857182 0.09496895
000050 9a 2b 4b 3b b2 13 fc 3d 84 57 ac bd bf 5e 03 3e
       0.003100133 0.12308444 -0.0841513 0.12829112
000060 73 2c 61 3e ff 95 90 bc 23 38 82 3d e7 af 5d 3e
       0.21989612 -0.017649649 0.063583635 0.21649133
000070 56 ef ac bd 59 96 8a 3c 6b b1 31 bd 47 7f a7 bd
       -0.08444087 0.016917394 -0.04338209 -0.08178573
000080 7e 60 14 3e eb 92 f6 bd e2 64 08 be 78 46 88 3c
       0.14489934 -0.12039741 -0.13319734 0.016635165
000090 ad 48 4d 3d ab 9c 19 be 59 e5 26 bd a3 bd 25 bd
       0.050118137 -0.1500117 -0.040746067 -0.040464055
0000a0 5a e1 2b bb c3 1d 0c 3d 82 e5 99 3c c8 9f 2d bd
       -0.002622685 0.03420807 0.018786196 -0.042388707
0000b0 86 fa 5c 3d 13 0b ce ba 68 12 e0 3d 04 da b1 bd
       0.053949855 -0.0015719853 0.10941011 -0.08684161
0000c0 c6 fa 7c bd 41 99 93 bc db 40 6e bd a5 75 6b 3e
       -0.061762594 -0.018017413 -0.05816732 0.22994097
0000d0 76 fe 9a bc 40 cd 5a 3e af 59 47 bc e9 ff 16 bd
       -0.018920165 0.21367359 -0.012167378 -0.03686515
0000e0 9b 7b e6 bd 78 ad e3 3e c8 e2 87 be 9a 92 f8 bd
       -0.112540446 0.44468284 -0.26540208 -0.12137337
0000f0 0d f9 a1 3d e9 ba f9 bd 38 8b 27 be c5 1f 6f 3e
       0.07908831 -0.121938534 -0.16361701 0.23351963
000100 80 df 26 be 82 7d bc bd dd 1a 08 3e 7d 32 cd 3b
       -0.16296196 -0.09203626 0.13291498 0.006262122
000110 75 ad 88 3e 18 77 9f bb a6 80 a5 3d fb 4e 11 3e
       0.26694837 -0.004866492 0.08081178 0.14190285
000120 49 3d 4b 3d 13 0b 3d be 24 f4 45 3e 91 0e 0a 3d
       0.049618993 -0.18461256 0.19331414 0.033705298
000130 bf 67 27 3e db 8a 23 bd f1 55 45 3d d3 67 dc 3d
       0.1634817 -0.039927345 0.048177663 0.107619904
000140 b9 2d 9c 3d 46 29 ac bc 74 4c 40 be 0d 88 1b 3e
       0.076259084 -0.021015774 -0.18779165 0.15188618
000150 ce 0a ba 3c b4 24 ae 3d 83 68 3a 3e b7 c1 c1 3d
       0.02271023 0.08503094 0.1820393 0.09460776
000160 1e 41 4e bc e1 55 6c bc b8 67 4a 3c 03 49 93 bd
       -0.012588767 -0.014424772 0.01235383 -0.0719166
000170 fa e4 3e 3c 52 8c ea bd 65 5d 0c 3d 51 97 45 3d
       0.011651272 -0.11452545 0.034268755 0.04824001
000180 49 5d 2c bd a3 d1 09 3e f5 13 00 3e 42 1b 80 bc
       -0.04208115 0.13458876 0.12507613 -0.015637998
000190 39 24 93 bd 44 e5 fc 3c f9 5c a1 be 96 50 0a 3d
       -0.07184643 0.030871041 -0.31516245 0.03376826
0001a0 63 c9 f5 bd 90 60 95 bb 5b a0 d5 bd e8 84 18 bd
       -0.12001302 -0.0045586303 -0.10430976 -0.037236124
0001b0 20 3b c1 bc 44 b6 8d 3c 7f 65 46 3d 62 be 67 bd
       -0.023587763 0.017298825 0.048436638 -0.056578048
0001c0 f3 d2 e1 3c 40 33 21 3b ae 4a 03 be f5 99 9e bc
       0.027566409 0.0024597198 -0.12821457 -0.019360522
0001d0 fe e3 98 bd b2 c9 90 bd f6 5f b3 bd 27 b8 0d be
       -0.07465361 -0.0706972 -0.087585375 -0.1383978
0001e0 de 08 94 3d 23 f8 20 be c9 79 e6 3c be 2a c2 bd
       0.07228254 -0.15719657 0.028134244 -0.09480809
0001f0 4c 3d 7f 3c 18 7f a6 bb d3 c4 ca 3c 0d 1f 35 3c
       0.015578579 -0.0050810687 0.024752056 0.011054766
000200 14 9c 41 bd 15 54 71 bd 8c d2 91 bd 25 ec 82 3d
       -0.04726799 -0.058918077 -0.07120237 0.06392697
000210 99 56 90 bd 82 fb d5 3d 8c f4 64 3d ce e7 99 3c
       -0.07047767 0.10448362 0.05589728 0.01878729
000220 4d 6a 42 be e6 75 8c bd 5c 78 2b 3e 35 bf af bd
       -0.18985863 -0.06858425 0.16745132 -0.08581392
000230 c9 3c 1f bd a5 3e f8 3d cc 9b df 3d 38 59 82 3d
       -0.03887633 0.121213235 0.10918388 0.063646734
000240 c2 c9 2f bd 35 05 46 bd 11 22 50 3c 42 73 75 3c
       -0.04291702 -0.04834481 0.012703435 0.014981093
000250 35 78 27 be 9a 0b fa 3d c2 87 f4 bd 66 86 21 3e
       -0.16354449 0.12209244 -0.11939956 0.15773925
000260 f0 f2 3b 3d 86 52 af 3c bf 13 cc ba 2c a2 97 3d
       0.04588598 0.021401655 -0.001556985 0.07403979
000270 c5 b6 14 be ce 25 7e 3e 93 d8 98 bd 10 2f 02 be
       -0.14522846 0.24819109 -0.07463183 -0.12713265
000280 1f e8 1d bd f4 ba 26 3e 19 ff d7 3d be 18 80 bd
       -0.038551446 0.16282254 0.10546703 -0.06254719
000290 96 f7 6b bd c9 bb 5f bd f2 5f 37 3d ce ed 26 be
       -0.057609163 -0.054622445 0.044769235 -0.16301653
0002a0 1d 94 cf bc 29 27 1f 3c ab 82 83 3d 04 2c 6e 3d
       -0.02533918 0.009713926 0.06421407 0.058147445
0002b0 32 f6 96 bd 72 72 11 3e ca c7 22 3d 30 47 bc bc
       -0.07371177 0.14203814 0.039741315 -0.022983164
0002c0 7e 2d f0 3c ec dc 19 be 7c d3 30 3d 3d c3 7c bd
       0.029318567 -0.15025681 0.043170437 -0.06170963
0002d0 a3 c4 8e bb 9e ea 0c bd 69 53 59 be 05 57 94 3d
       -0.004356937 -0.034403436 -0.21223225 0.0724316
0002e0 4b 76 e8 3d 72 1f ee bc 98 b6 b3 bd b6 2c 18 bd
       0.113506876 -0.029067729 -0.08775061 -0.037152015
0002f0 e6 44 0a bd 25 82 eb 3a 7a b2 26 3c 52 39 10 be
       -0.033757113 0.0017967863 0.010174388 -0.14084366
000300 90 0b 98 bb dd b1 ae bc a6 e8 1b bd 14 b7 33 3d
       -0.00464005 -0.021325046 -0.038063668 0.04387577
000310 71 44 59 be 10 ce 3f bc b5 64 54 bc 14 1a b8 bd
       -0.21217515 -0.011706844 -0.012963464 -0.08989349
000320 39 60 26 ba 27 f8 ef bd 67 6c 0b be 5f 7d 1f 3e
       -0.0006346736 -0.11717253 -0.13615571 0.15575169
000330 10 ef 0f 3d 00 a1 1a 3d 72 49 2a 3e 08 d7 a2 be
       0.035140097 0.037751198 0.1662958 -0.3180468
000340 30 b4 7a 3e 90 16 27 bd a7 59 62 3d cf 81 c5 bd
       0.24482799 -0.040793 0.05526128 -0.096439
000350 22 a6 9f 3e ba fe 95 3d dd 08 c7 bc 7f 1a 44 3d
       0.31181437 0.07323976 -0.024296219 0.04787683
000360 b3 2d 3e 3e b9 52 a0 be 89 4f 8b bb 7b 54 0c be
       0.1857212 -0.31313112 -0.0042514247 -0.13704102
000370 e5 6a 5b 3d d9 eb 25 3c 7b fc 39 3c 1a 63 e8 3d
       0.05356874 0.010127031 0.0113517 0.11347027
000380 08 28 26 be 57 2e 91 3c df 7d 9f bd c9 aa 20 3b
       -0.16226208 0.017722292 -0.0778768 0.0024515858
000390 eb 4d 6d 3e 2b f0 c1 bc 26 9f 0a bd de 6f bc 3c
       0.23174255 -0.023674091 -0.033843182 0.023002561
0003a0 be d1 ba bd 76 e9 49 3e 1d 1e c9 bd 86 22 aa 3d
       -0.091220364 0.19717965 -0.09820197 0.08307366
0003b0 e6 a0 37 bd 3e 59 ee 3d 74 0a a3 bd a7 28 a4 bd
       -0.04483118 0.11638115 -0.07960978 -0.08015566
0003c0 43 55 3a 3d be 45 7b 3d 69 c4 2c be 6f 47 88 3e
       0.04549147 0.06134581 -0.168718 0.26617
0003d0 fa 5a a4 3b 09 eb 21 bd c6 84 1d 3d 6c aa 79 bc
       0.005015728 -0.039530788 0.0384567 -0.015238386
0003e0 ba d3 e5 3d 52 26 d4 bc f4 d2 0d be 0d fb 76 3d
       0.11222024 -0.025897179 -0.13850003 0.060298014
0003f0 b9 bc 47 3d c9 0b 5e 3e d9 0e a5 3d 2c 0e 87 3d
       0.048763964 0.21684183 0.080594726 0.065945

encoder.linear.bias f4 [50]
000000 46 6a 59 3d f5 08 02 3e 92 7c 85 bd 77 99 d4 3d
       0.053079866 0.1269873 -0.065179005 0.103808336
000010 76 bc 01 be 9e a9 5d 3d 74 7d 8f bd 82 1d 25 3c
       -0.12669548 0.054116838 -0.0700635 0.010077836
000020 6b e0 d0 bd 67 da 55 be ca 17 56 bb 7d 88 db bd
       -0.10199054 -0.20884095 -0.0032667988 -0.107193924
000030 18 9d 37 bd e8 a7 ff bc a0 60 32 3e 0c ed 0b bd
       -0.04482755 -0.031207994 0.17419672 -0.034161612
000040 64 88 5b be 08 75 2a 3e 17 5d 61 3d cd c5 51 bd
       -0.21438748 0.16646206 0.055020418 -0.05121403
000050 4f f5 83 be aa 1c 0c 3d a6 23 3e bd 29 3b b5 bd
       -0.25773093 0.034207024 -0.046420716 -0.088491745
000060 c8 04 46 bb b0 e8 22 bc e2 3f 59 3e f8 e7 b4 3d
       -0.0030215252 -0.009943172 0.21215776 0.08833307
000070 0f 8d fd bc f5 40 a0 bb f6 35 d3 bb 3f 59 33 bd
       -0.030951051 -0.004890556 -0.0064456416 -0.043786284
000080 bb 82 bb bd 36 d7 d7 3c 0e 1d 27 3e 1c e0 69 3d
       -0.09155794 0.026347738 0.16319677 0.057098493
000090 b0 5b af bd 7e 3c f9 bc 5f 8d 73 3d 51 3a ea 3a
       -0.0856241 -0.030424353 0.059460994 0.0017870163
0000a0 82 5a 09 be fb f1 22 3e 42 5b 0a 3d f7 94 51 3d
       -0.13413432 0.1591262 0.033778436 0.051167455
0000b0 2b a4 15 bd e6 8c 4f bd 9b ca 85 bd 8f 2d 7e bc
       -0.036533516 -0.05067148 -0.065327846 -0.015513792
0000c0 86 0d 29 3d 7c 0a fe bc
       0.041272663 -0.031010859

decoder.linear_t.weight f4 [200, 50]
000000 a2 6f 33 bb 94 9f e9 bd 93 84 94 3d 61 85 f4 bc
       -0.002737977 -0.1140739 0.07251849 -0.029848756
000010 8d 33 db 3d 8b 7f a0 bd 9f 57 cd 3d 9e 74 1d 3d
       0.10703192 -0.07836827 0.10026478 0.038441293
000020 c0 8f 13 3d bd 49 45 3d e9 c4 2d be 7c 58 29 3c
       0.036025763 0.048166025 -0.16969647 0.010336038
000030 2a ed 54 3d fb 63 6a bd ea a6 50 bc 08 ec 90 bd
       0.05198399 -0.057224255 -0.012735108 -0.070762694
000040 76 09 ad bc a6 62 4f 3d 71 69 87 3d b2 2c ca bd
       -0.021122675 0.050631188 0.06611908 -0.09871806
000050 21 99 dd 3b 0f 18 9c 3a 25 8f bf 3d 24 13 3a 3e
       0.006762639 0.0011909025 0.093534745 0.18171364
000060 36 2b ba 3d 9d 08 a2 bc 01 43 09 3d f6 29 c6 3c
       0.09090273 -0.019779498 0.033511166 0.02418993
000070 e8 36 46 3c 2d c3 17 3d 26 a7 07 bd 0d 70 fc 3d
       0.012098052 0.03705137 -0.03311839 0.123260595
000080 c8 e3 60 bd 14 de 03 bd 92 07 6a bd 0f fe 68 bd
       -0.05490473 -0.032194212 -0.057136126 -0.056882914
000090 c7 e2 1c 3d e5 2e 48 be fd 2a f0 bd fb 8f 2f 3d
       0.03830221 -0.19549139 -0.11726949 0.04286192
0000a0 ab aa 36 3e b0 a1 44 3d 3e ba e4 3c 2d 9b bc bd
       0.17838542 0.04800576 0.027920838 -0.09209285
0000b0 d6 28 66 be 42 89 7b 3c 52 01 05 3d 64 cb 89 bd
       -0.22476515 0.015352549 0.032471962 -0.06728247
0000c0 99 8e a4 bc 55 57 22 3d 86 ef 87 bd be 9b 01 be
       -0.020087527 0.039634068 -0.06637482 -0.12657067
0000d0 89 ce 10 3d cd db 27 be 15 d5 d2 3c 26 e7 0a bd
       0.035353217 -0.16392441 0.025736371 -0.033911847
0000e0 f3 21 a9 3d 5a 43 c9 bd db 7a 88 3d f1 58 f2 3d
       0.082584284 -0.098272994 0.06664058 0.118333705
0000f0 72 35 13 3e 67 da a7 3b b1 d0 f0 3d 88 a4 9a 3d
       0.14375857 0.005122471 0.11758555 0.07550913
000100 6a 55 7c bb b4 55 59 bd e5 e1 c1 3d c3 d1 fb 3d
       -0.003850306 -0.05306025 0.09466914 0.12295868
000110 7e 92 bd bd fe d6 c7 bd 3a e6 57 3d 8e cd 74 bd
       -0.09256457 -0.097578034 0.052709796 -0.059766345
000120 cb 09 09 3b 63 e6 d5 bc 6e 14 d8 3c 3d 45 44 bc
       0.0020910378 -0.026110834 0.02637693 -0.011979398
000130 1f bf 1b bc 9a b1 38 bd 5f 16 bb bd 85 b2 e8 3c
       -0.009506016 -0.04509125 -0.09135126 0.028405437
000140 2b 28 76 3d 8d 97 d3 bc 2f 12 25 3c 39 04 cf 3c
       0.0600969 -0.025829101 0.010075136 0.025270568
000150 36 0a 6a bd 92 1c 15 bd ba a2 19 bd d2 6b 00 bd
       -0.057138644 -0.0364042 -0.037508704 -0.031352825
000160 1f 1b 7a 3c cc 07 b9 bd 0c cf af bd 4d 7b 49 3d
       0.015265255 -0.0903469 -0.08584413 0.049189854
000170 68 73 01 3d 3e a2 b0 bb 04 6e cc bc 5c 26 73 bd
       0.0316042 -0.0053904345 -0.024954803 -0.059362754
000180 86 f8 7b bd 48 77 69 bd 1e e2 5d bd a3 e3 85 bd
       -0.061516307 -0.05699852 -0.05417072 -0.06537559
000190 17 8e 6f 3d fa 7d 5b be bf fd 80 be 58 58 ff bd
       0.058485117 -0.21434775 -0.25193593 -0.12468022
0001a0 f7 0f 1b 3d 00 d6 c0 bd 64 52 0c be 45 b6 6e 3c
       0.037857022 -0.09415817 -0.13703305 0.014569824
0001b0 60 a8 d1 bd 9e b8 49 be ad 52 9d bd 6e 02 88 3e
       -0.10237193 -0.19699332 -0.07681785 0.26564354
0001c0 a6 bb c6 3e aa 97 1a 3d 06 ec be bd e2 19 7d bd
       0.3881504 0.037742294 -0.09322362 -0.061792262
0001d0 b4 0b 1d bd 67 a7 cb bd 0d f6 17 3e 4e 3b a9 3d
       -0.03834124 -0.09944039 0.14839955 0.082632646
0001e0 84 2e 0f be 82 b7 c0 3d 13 1c f5 bd 41 a4 05 be
       -0.13982588 0.09410001 -0.11968245 -0.13050939
0001f0 7b 4f 86 3e d6 8f 8d be 2b 45 6c 3e 86 5a 9a be
       0.26232514 -0.276488 0.2307326 -0.3014719
000200 43 1b 00 3d 4d 0b 83 3e 8c df 15 3d a9 60 85 3b
       0.031276 0.2559456 0.036590144 0.0040703607
000210 86 ef c0 bd 86 ff 86 be 4e 82 6f 3d c0 3d bf bd
       -0.094206855 -0.26366824 0.058473878 -0.0933795
000220 f1 6d 35 bc 5b d0 69 bc 88 76 35 3e ea 9f 26 be
       -0.011073575 -0.014270867 0.17720997 -0.1627194
000230 46 0b 83 bc d1 d2 38 3e 32 16 97 bd fd fd 75 bd
       -0.015996587 0.1804917 -0.0737728 -0.060056675
000240 54 ab 76 3d 0c 0c 6f be a8 69 13 3e 85 ed de bd
       0.060221985 -0.2334444 0.14395773 -0.10885147
000250 07 d4 77 3e b5 4d 4a be b7 65 61 bd 94 6e 51 3c
       0.24201976 -0.19756205 -0.055028643 0.012782712
000260 6f ce 38 3e c4 91 09 be 23 e8 4f be 7c 51 27 3e
       0.18047498 -0.13434511 -0.20303397 0.16339678
000270 f3 c5 1f 3d 49 26 23 bd 51 2c 3e be e3 2c 0e be
       0.03900714 -0.039831433 -0.18571593 -0.1388431
000280 12 e2 f9 bd 6a 90 b6 bb 20 2d 8e 3e bb 10 e9 bd
       -0.122013226 -0.0055714147 0.27768803 -0.11380144
000290 4f e3 d9 3b 4d c6 24 bd e2 77 8b be 3a a2 17 be
       0.0066494117 -0.040228177 -0.272399 -0.14807978
0002a0 05 3e 3a 3c 6a ec da 3d 5c 84 09 bc ff 69 a5 3d
       0.011367326 0.10689624 -0.008393373 0.08076858
0002b0 f5 45 06 bd 1a 9f 1a be a8 2e b6 bd 65 24 19 3e
       -0.03278156 -0.15099755 -0.08895618 0.1495529
0002c0 e9 b7 90 3e 79 fa cc bd 7f 42 5e 3d 8d 0d 6b bd
       0.28265312 -0.10008711 0.054262634 -0.05738597
0002d0 70 23 4d be 41 56 89 3e f8 cd 09 be cc fc 14 be
       -0.2003305 0.2682362 -0.13457477 -0.1454956
0002e0 56 9e 8f bc a9 5f 7e bc 41 af bc bd 66 e1 51 3d
       -0.017531555 -0.015525737 -0.092131145 0.051240347
0002f0 e7 2d f2 bd bd bb ae be 53 a9 e3 bb ff 73 63 3d
       -0.118251614 -0.34127608 -0.0069476753 0.055530544
000300 92 47 43 3e 1d 2d f1 bd 9b 1e 93 3e 3d 8a 71 bd
       0.1907027 -0.11776183 0.28734288 -0.058969725
000310 c0 ab 61 be 64 e5 db bd 1e 59 c4 3d f4 d6 af 3c
       -0.22038174 -0.10737112 0.0958731 0.021464802
000320 0c 58 0f 3e a1 f6 8b 3e 96 cb c4 3d 68 5d 32 3d
       0.13998431 0.273366 0.096091434 0.04354611
000330 a2 01 36 be 9a 80 1f 3e bb 30 e9 bc b4 ec 54 bd
       -0.1777406 0.15576401 -0.02846562 -0.05198355
000340 38 9c 9b bd 83 e0 2b 3d 90 c7 f8 bd 22 f0 3f be
       -0.07598156 0.041962158 -0.121474385 -0.18743947
000350 63 f4 43 3e bd 7e a7 bd b8 8d 8f 3d 26 1b 8f bd
       0.19136195 -0.0817847 0.070094526 -0.069876
000360 54 f0 0f be a3 9c c5 bd 24 88 fe 3d 9c 83 71 3d
       -0.14056522 -0.09649017 0.124283105 0.058963403
000370 f8 62 59 be 2c 9b 1f be 73 3b 83 3d cf 72 69 be
       -0.2122916 -0.15586537 0.064078234 -0.22797702
000380 fb 7c 6a be 3c 9a b2 3e 76 4b 6f b9 e4 ba fb 3d
       -0.22899239 0.34883296 -0.00022820928 0.12291506
000390 43 94 4b 3e 9b 95 34 3e 1e 34 28 bd 0a c5 5a 3e
       0.19880776 0.17635195 -0.041065328 0.21364227
0003a0 e5 fc 45 be a0 4e 0a 3e f4 56 75 bd bc 97 79 3d
       -0.19334753 0.13506556 -0.059897378 0.06093572
0003b0 5a 0f 15 3e bc 1c 83 bc 6e 1b 8e be 68 18 3f be
       0.14556637 -0.016004913 -0.27755302 -0.18661654
0003c0 62 aa 0f 3c 6e f1 fc 3e bd 54 8e 3d 64 8f 93 3e
       0.00876865 0.49402946 0.06949756 0.28820336
0003d0 58 cb 15 be e9 4a 68 3d ee 00 05 be 48 73 ec bd
       -0.1462835 0.056712065 -0.12988636 -0.11545426
0003e0 ba 41 2b 3c e9 be 88 be d7 f4 0c bd 37 00 36 bd
       0.010452682 -0.26708153 -0.034413185 -0.0444338
0003f0 85 97 97 bd b2 f6 9e 3d e4 08 5a bd df 83 78 bd
       -0.07401947 0.07761897 -0.053231135 -0.060672637

decoder.linear_t.bias f4 [200]
000000 ac 1a 01 3e a6 55 89 bd c6 be 93 3e 72 e1 ec 3e
       0.12607831 -0.06705789 0.28856486 0.4626575
000010 62 8a 17 3d 2a 9d f3 bd c5 e7 c2 3d 7f 77 4a 3d
       0.036997207 -0.11895211 0.09516863 0.049430367
000020 71 d7 d3 3d f0 1a 05 3e 6b 16 c3 3d 0b 0f 59 bd
       0.103438266 0.12998557 0.0952576 -0.05299286
000030 4b 39 9d bd 40 f9 88 bd e0 87 14 bd 5e 4c ee 3d
       -0.076769434 -0.06688166 -0.036262393 0.1163566
000040 11 37 69 3e 8e cd 0c be da 1d 89 bc 72 03 52 bd
       0.22774912 -0.13750288 -0.016737867 -0.051272817
000050 7f b9 a6 3c 94 21 f7 3d 99 71 94 3e 1e 06 03 3d
       0.020352123 0.120669514 0.28992918 0.031988256
000060 19 98 b4 bc 8f 87 20 be f6 14 aa bd a4 b6 04 be
       -0.022045182 -0.15676711 -0.08304779 -0.12960297
000070 25 06 11 3d 8e b4 cc bd 79 bf 8d bd d4 b0 55 3e
       0.03540625 -0.099953756 -0.06921286 0.20868236
000080 23 41 7d 3e c2 23 26 3e e5 4e 88 3e dd dc f6 3d
       0.24731879 0.16224578 0.26622692 0.12053845
000090 b8 e5 34 bd 8a 1a 8e 3e 6b af 8a 3e 99 38 10 3e
       -0.04416439 0.27754623 0.27086958 0.1408409
0000a0 3b 76 f2 3c f9 e9 2c be 6e 43 0d 3e 52 40 0c 3e
       0.029597392 -0.16886128 0.13795254 0.13696411
0000b0 22 e7 ba 3e 5e d6 f0 bd 39 5b c9 3d e4 f6 36 3e
       0.36504465 -0.11759637 0.098318525 0.17867619
0000c0 f5 56 b6 3e d6 e6 b8 bc b5 f1 7e 3d e2 09 e8 bb
       0.35613218 -0.022571009 0.06224223 -0.0070812562
0000d0 4f 0b 03 3e 0b a0 c5 3e 72 ae 3c 3d 26 0b 51 3d
       0.12797283 0.38598666 0.0460648 0.051036023
0000e0 06 bf aa 3d f2 02 08 be 25 fe 24 3e a3 0c 71 3e
       0.08337216 -0.13282374 0.16112573 0.23539977
0000f0 07 e0 86 bd 2b e9 66 3e 08 b5 c0 bd 34 94 d4 3c
       -0.065856986 0.22549884 -0.09409529 0.025949575
000100 32 bc 9c 3e 1d c1 f3 bd 15 50 5f 3d f6 6e 8c 3e
       0.30612332 -0.11902068 0.05451973 0.27428406
000110 fd a9 ba 3d 01 76 ed 3d d6 82 84 3d 03 af a0 3c
       0.09114454 0.11594773 0.064702675 0.019614702
000120 a8 a4 25 bd 42 e0 1f be 76 e6 2d 3e 39 c9 22 3e
       -0.04044023 -0.15612891 0.16982445 0.15897073
000130 15 64 1d 3e 3b 0e 5d 3e 11 ca d8 3d ad e1 46 3e
       0.1537021 0.2158746 0.10585416 0.19422026
000140 0c c1 c4 bd 9a e1 95 3d ab 65 1e be 10 4f 11 bb
       -0.09607133 0.07318421 -0.15468471 -0.002217237
000150 aa 9d 05 3e d4 00 8e 3e 25 d1 3c 3e d8 9f a4 bb
       0.13048425 0.27735007 0.18439157 -0.0050239377
000160 04 66 78 3e 0d 4c 62 bd ef 78 18 3e c8 ee dd 3d
       0.24257666 -0.05524831 0.14889883 0.108365595
000170 2c f0 20 3e 6f 60 8c 3e 7e 5f a5 3d 89 58 f2 3c
       0.15716618 0.27417323 0.08074854 0.029583232
000180 4e ae 8f 3e b5 9a 1d bc 30 99 04 3d 32 73 b7 3d
       0.2806267 -0.009619405 0.032372653 0.08957519
000190 c8 98 02 be 32 d1 b3 3d c3 1c 69 3e b3 2d d3 bd
       -0.12753594 0.08780135 0.22764878 -0.10311451
0001a0 d4 b8 b4 bd 4f ed 25 be 2e 1f 1c 3e d2 c1 10 3d
       -0.08824316 -0.16203807 0.15246269 0.03534109
0001b0 a9 97 89 3e ae 85 3a 3e a7 89 85 3a 5a 8e 99 bd
       0.2687352 0.18215057 0.0010188118 -0.074978545
0001c0 f6 37 80 3c 70 7e 3e 3e ed 99 10 3d de 1d 8e 3c
       0.015651684 0.1860292 0.035303045 0.017348226
0001d0 4e 47 c5 3c 8f 28 ef 3d 4a ce ed bd b3 c2 1c 3e
       0.024081852 0.11677658 -0.11611612 0.15308647
0001e0 76 34 00 be aa fe 17 be ed b3 f4 3d a4 44 90 bd
       -0.12520012 -0.1484324 0.119483806 -0.07044342
0001f0 8c 25 87 3e 92 ad 26 bc 35 1c a8 3d 61 ed 88 3d
       0.26395833 -0.010173218 0.08208505 0.066859014
000200 00 5b cb bd 0f 18 a8 3d ac 6d 50 3e 92 5d 52 3c
       -0.09929466 0.08207714 0.20354337 0.012839692
000210 cd 95 03 3f d2 2d fc bd 2e 58 0b be ad 2a a8 3d
       0.5140045 -0.12313427 -0.13607857 0.08211265
000220 60 c5 4c 3e 21 4f c8 bd 62 93 a9 bd d7 9a 93 3d
       0.19997168 -0.09780718 -0.08280064 0.07207268
000230 ca 8c db bd 2f 2d b9 3d 2a 3a 46 3e ca d0 64 3e
       -0.10720213 0.09041821 0.19358125 0.22345272
000240 ef ec c6 3b ae 6c 9d 3e 5f d5 d6 3c fc 1a cd 3e
       0.006070725 0.3074698 0.02622479 0.4005965
000250 86 16 85 3d 66 f4 f3 bc 1c 37 5f bd 76 fd 05 3e
       0.06498437 -0.029779624 -0.054495916 0.13084969
000260 a0 2c 64 3d 19 e2 65 3d 3b 27 c7 3d 7d 16 04 3f
       0.05570662 0.056123827 0.097242795 0.51596814
000270 7d 83 16 3f da 01 4b 3c 89 e4 d4 3e 70 85 ce bd
       0.58794385 0.012390578 0.41580608 -0.10084045
000280 e1 39 81 3d 03 28 00 3f dd bd a4 3d 46 3c de 3e
       0.06309868 0.50061053 0.08044026 0.4340536
000290 25 47 f9 3d df 0e 8a 3e 5e 1c 1e 3f d0 61 60 3e
       0.12171773 0.2696447 0.61762035 0.21912313
0002a0 33 c9 89 3e 00 26 27 bd 81 19 7d 3e 4c 1d b4 3e
       0.26911315 -0.040807724 0.2471676 0.35178602
0002b0 4b 23 8a 3e 14 a3 69 3e 2a 8c 4e bd 81 a2 95 bd
       0.2698005 0.22816116 -0.05042664 -0.07306386
0002c0 b2 ad 30 3d a9 72 82 3b bf 17 1f 3e 99 5a 2f 3e
       0.0431344 0.0039809537 0.15536402 0.17124404
0002d0 4f eb f7 bd c6 ad fc bc 90 36 9f 3e 77 da 7b bc
       -0.121054284 -0.03084458 0.31096315 -0.01537191
0002e0 ab cb b4 3e 06 cb a4 3d 72 c5 ed ba 6f a5 b1 3e
       0.35311636 0.08046536 -0.0018140508 0.34696528
0002f0 e8 52 d6 bd 94 bf 87 3d 3a 51 09 ba a1 c4 10 be
       -0.10465032 0.066283375 -0.0005238239 -0.14137508
000300 b7 18 f3 bd f8 3c a2 3e 71 5d d6 bd c2 d5 ec bd
       -0.11869948 0.3168714 -0.10467041 -0.115642086
000310 fc 4d eb 3e 20 78 2e 3d 3c 90 30 3e 35 da 8a 3d
       0.45957935 0.04259503 0.17242521 0.06779901

decoder.conv2_t.weight f4 [8, 4, 3, 3]
000000 c0 a3 ef bd cd c5 31 3d 48 06 2a be 57 b0 bc bd
       -0.11701155 0.04340153 -0.16603959 -0.09213322
000010 fa 60 19 be d2 51 7d 3d a4 9a 24 be 66 a2 35 3c
       -0.149784 0.061845608 -0.16074616 0.011086082
000020 42 cb 47 3d 88 7b f5 bd fc 7a 15 bd e1 c5 54 be
       0.048777826 -0.11986452 -0.03649424 -0.2077861
000030 79 7b 32 bd 09 61 ea bd ba b1 c1 bc 17 a3 21 3e
       -0.043574784 -0.11444289 -0.023644317 0.1578487
000040 10 38 28 bc 90 ac d2 3e 06 35 dd 3d ab 09 02 be
       -0.010267273 0.4114728 0.10801129 -0.12699
000050 43 bd be be c2 ea 0d 3e 86 16 1e be c2 45 15 3d
       -0.3725377 0.13859084 -0.1543828 0.03644348
000060 45 65 22 be c7 5b 44 bc 47 32 37 3f 12 d6 bb be
       -0.15858944 -0.011984772 0.7156109 -0.3668676
000070 6d 2d e8 be 22 1b 04 be f2 41 8c bc 3a a2 83 3e
       -0.45347157 -0.12900975 -0.017121289 0.25709707
000080 23 1b 73 3e 5f 9b 01 3f 5b 81 3c 3f 29 01 38 3e
       0.2374082 0.506277 0.7363488 0.17969193
000090 bd bc 3f bd 71 6b 3d bd 3e 21 09 3d 58 7a d8 3c
       -0.046810854 -0.046245042 0.033478968 0.026425526
0000a0 e6 91 e4 bc 5c c4 4b be 4c e4 87 3e 95 b6 8a bb
       -0.027901601 -0.19899124 0.26541364 -0.0042331913
0000b0 d8 a3 2d be ea c5 d5 3d a1 76 d7 bd 0c 67 a4 3d
       -0.16957033 0.1043814 -0.105206735 0.08027467
0000c0 5d 2e 97 bc 8e b6 99 be 9f f2 4b bd 7f f7 39 be
       -0.018454725 -0.3002209 -0.04979193 -0.18160819
0000d0 a8 76 8d bd 0b cb 2b bf d5 bb e3 3c 7b ff b6 bd
       -0.069073975 -0.67106694 0.027799526 -0.08935448
0000e0 51 42 0a 3e 88 54 67 3d 20 ba 27 3e c2 24 c4 bd
       0.1350186 0.0564771 0.16379595 -0.095773235
0000f0 a2 d7 0d be 6a 1e 27 bd 1d 6f 58 bf 1b cd 9b bc
       -0.13851789 -0.04080049 -0.84544545 -0.0190187
000100 f9 1f e9 bc 54 ab 98 3d 3f e6 cd be 57 9e 35 bf
       -0.028457629 0.07454553 -0.40214726 -0.7094473
000110 3b ad a6 be ce a9 0c be 02 53 33 bf 8c 98 d9 be
       -0.3255404 -0.1373665 -0.70048535 -0.42499197
000120 54 73 44 be 8f 28 05 be 1f ff 36 be c8 9c ad 3d
       -0.19184619 -0.13003753 -0.17870758 0.08477169
000130 58 da 0a be 7c 27 f2 be 4f 9d a1 3e 72 4c 38 bd
       -0.13559854 -0.4729575 0.3156533 -0.04499478
000140 6a 18 23 be a9 03 3d 3d 68 dd 5a bd cd 39 81 be
       -0.15927282 0.04614607 -0.053433806 -0.2523941
000150 24 81 3c bc d6 f1 ec 3c 4d 3a b7 bd 25 d9 92 3e
       -0.011505399 0.02892391 -0.08946667 0.28681293
000160 19 99 df 3a 19 bb 31 3e 02 bf 93 3d 27 f7 25 bd
       0.0017059176 0.17356528 0.07214166 -0.040518906
000170 fc 7b 03 3d 86 ed bf 3d 71 1e 93 3e 98 bc e2 3d
       0.032100663 0.09371476 0.28734162 0.11071128
000180 f1 e7 81 be 46 a8 f9 bc ca 99 41 3f 81 23 87 bc
       -0.2537227 -0.030475747 0.7562529 -0.016496422
000190 26 e9 8a be 94 c3 cf be 13 cc 90 3e 85 d2 14 3a
       -0.27131003 -0.40578902 0.28280696 0.0005677122
0001a0 44 81 74 be c3 03 33 3f 8d fb 34 3f a1 7b 3f 3e
       -0.23877436 0.69927615 0.70696336 0.18699504
0001b0 f6 83 47 3d 61 06 08 bd c2 e1 0e be cd e9 b8 be
       0.048709832 -0.03320921 -0.13953307 -0.36115876
0001c0 e4 c8 ac bd 7a ee c3 be 31 32 0f be ef ca c6 bd
       -0.08436754 -0.3826788 -0.1398399 -0.09706675
0001d0 0e 60 ba be 61 67 72 be d6 ea 89 bc ce 93 67 bb
       -0.3640141 -0.23672248 -0.016835611 -0.0035335901
0001e0 f3 6e 1e bd 72 e3 2e bf a5 6a 3f bc 84 00 94 3d
       -0.03868003 -0.68315804 -0.011683141 0.07226661
0001f0 65 bc b8 3c 2a 2e 64 be 78 1c 0c 3e 0e a6 85 bb
       0.022550771 -0.22283235 0.13682735 -0.004078633
000200 53 48 ee be f6 4e 50 3d cb ed 8a bd e9 0e 79 be
       -0.46539554 0.050856553 -0.06783637 -0.24322094
000210 89 34 d9 3d 1f 79 05 3d 7f 1e 8f be 8c 45 e2 be
       0.106057234 0.032586213 -0.27952954 -0.44193685
000220 5b 36 e7 be bd c4 12 bd 71 ca b8 be 3d 50 17 bf
       -0.45158657 -0.035832155 -0.3609195 -0.5910681
000230 46 46 55 be a6 17 26 be 14 0c 87 be 15 5f 7e bd
       -0.20827588 -0.16219959 -0.26376402 -0.062102396
000240 1f ab 69 bb 0d 8b 75 bd dd 08 67 3e 9d c8 c0 3d
       -0.0035654975 -0.059947062 0.22561975 0.09413264
000250 15 cb 25 be 7c 24 a1 be c3 b9 07 be 47 42 83 3c
       -0.16190751 -0.31473148 -0.13254456 0.016022814
000260 12 c9 3a bd fd 34 fb 3d 6a 8d 1b be 8c a8 2f be
       -0.04560191 0.12265966 -0.15190664 -0.1715414
000270 4b 05 1a be 04 15 67 be ef c2 e2 3c 41 56 8a be
       -0.15041082 -0.2256661 0.027680842 -0.27018932
000280 a6 ff 0d bd 9d 02 31 bf 41 c5 16 bd d2 33 92 bd
       -0.034667633 -0.6914461 -0.03680921 -0.0713879
000290 36 df c2 3d 3d 6a 46 3d aa 31 12 3e c9 e7 52 bd
       0.0951523 0.04844116 0.14276758 -0.05149058
0002a0 48 7d 02 be 26 7f 51 bd 26 60 20 bf f7 10 95 3c
       -0.12743104 -0.05114665 -0.6264671 0.018196566
0002b0 4e 1c 60 be 1b 20 4b be a0 03 8a be 4b f9 1c bf
       -0.21885797 -0.19836466 -0.2695589 -0.6131789
0002c0 b8 3f b4 be fb 61 2a be b7 88 10 bf a0 56 e9 be
       -0.35204864 -0.16638939 -0.5645861 -0.45573902
0002d0 f0 24 4d bd e3 fc df bd b7 7a 24 bd 17 26 51 3e
       -0.050084054 -0.10936906 -0.040156092 0.20424686
0002e0 26 ed 23 3d 52 e2 9c bc c5 29 20 be 11 21 bb bd
       0.040021084 -0.019150887 -0.15640934 -0.09137166
0002f0 9d 3e 34 be f0 7a 02 be 59 87 78 bd 12 09 45 3e
       -0.1760201 -0.1274221 -0.060675953 0.19241741
000300 46 00 da bd 2d d6 3b 3f 3e a7 19 be 4e a2 9f 3e
       -0.106445834 0.7337368 -0.15005204 0.31178516
000310 06 14 ab bd 8d ba b5 be 8d 54 44 3e ed 2b 25 bd
       -0.083534285 -0.3549389 0.19172879 -0.040325094
000320 f2 fb d2 3e 7b f9 d2 3b 99 26 52 bc 27 29 24 3e
       0.41207844 0.006438432 -0.012826585 0.16031323
000330 85 5b 90 3d 21 22 1b be ba b5 60 3e 6e a4 81 3e
       0.07048706 -0.15149738 0.21944323 0.25320762
000340 68 d0 23 3f 9a 90 c1 3d f1 ac 32 3f a8 01 a7 3e
       0.6398988 0.09451409 0.6979514 0.3261845
000350 5f 3d b1 be 83 dc 06 3e ea dd a3 be d2 1f 63 be
       -0.34617135 0.13170056 -0.32005244 -0.22180107
000360 e0 99 bf 3c cc 06 f9 bd f2 01 af 3d 3d 43 bb bd
       0.023388803 -0.121594995 0.08545293 -0.09143684
000370 79 83 07 bd 2e 44 77 3f 67 ad f3 bd c0 4c 3e bd
       -0.033084366 0.9658841 -0.11898308 -0.046459913
000380 1c 09 78 be 65 cb 99 bc 5c 37 d8 ba 57 14 96 3e
       -0.24222225 -0.018773744 -0.001649599 0.29312393
000390 c5 86 ef bd 08 f6 38 3d 21 1e 37 bd cc 0d 57 be
       -0.11695627 0.04515651 -0.044706468 -0.21001357
0003a0 39 7a 08 be e5 f5 03 3f 81 ab d8 bc a1 44 c2 bc
       -0.13327874 0.5154708 -0.026448967 -0.023714365
0003b0 ec c9 58 be cf 78 7e 3d 61 12 c1 be 36 82 08 bd
       -0.21170777 0.06212693 -0.37709334 -0.033327304
0003c0 84 36 d4 bc 1e ad bf bd fd ca 5c 3e f4 ba 36 be
       -0.025904901 -0.09359191 0.21561809 -0.17844754
0003d0 c7 46 24 3e c9 02 30 3f 93 f6 9e be 95 cb 20 3f
       0.16042624 0.6875425 -0.31047496 0.6281064
0003e0 b9 54 52 3f 58 00 f5 bd 5a 2b bd 3e 6a 15 55 3c
       0.82160527 -0.11962956 0.36947137 0.013005594
0003f0 f3 55 1c be 9d 03 2c be a1 96 b8 bc e7 3a b5 3d
       -0.15267162 -0.16798253 -0.022532763 0.08849125

decoder.conv2_t.bias f4 [4]
000000 28 8c f7 be 7f 91 ac bd d1 55 28 bf c6 47 e2 3c
       -0.48349118 -0.08426189 -0.65755945 0.027622115

decoder.conv1_t.weight f4 [4, 1, 5, 5]
000000 04 5a b3 3c d3 1f 8b 3c 40 98 38 bd 35 da 56 bd
       0.021893509 0.016982948 -0.045067072 -0.052454192
000010 a6 8a 5c bd d8 c2 02 3d 1e b9 2d bd 3a c5 35 bd
       -0.053843163 0.0319241 -0.04241287 -0.044377543
000020 5a 1a e7 bd 98 ed 8a be 1f e0 79 bb 08 cc a7 bc
       -0.11284323 -0.27134395 -0.0038127971 -0.020483032
000030 c4 c2 fc 3e 75 45 0d 3f be 5a b5 bd 67 71 43 bd
       0.49367344 0.5518411 -0.08855198 -0.04771557
000040 a7 6e fb bd 93 82 1e 3f c9 00 3d 3f 8e 86 c4 bc
       -0.12276965 0.6191799 0.73829323 -0.023989942
000050 f4 3c c0 bd 80 99 7b be 58 4b 7c bd 04 15 af bd
       -0.09386626 -0.24570274 -0.06159529 -0.0854893
000060 7a 31 a8 be 06 5b 18 3d 23 8b 7d 3c 5c 16 2e bd
       -0.32850248 0.03719618 0.015475067 -0.042501792
000070 48 ae 85 bd 6c 9d 33 bd 60 15 a1 3c 22 f5 88 bd
       -0.06527382 -0.0438513 0.019663513 -0.066873804
000080 1c 80 61 bd 30 7b c5 bd 95 16 5c be e2 d1 86 3b
       -0.055053815 -0.09642637 -0.2149299 0.0041143754
000090 1a 7b 45 bd 54 a0 ec 3e 55 a1 14 3f 60 aa 41 bd
       -0.048213102 0.4621607 0.58058673 -0.047281623
0000a0 c3 fd 0c bd e7 bd d2 bd 03 63 11 3f c4 7d 33 3f
       -0.034421694 -0.10290127 0.56791705 0.7011378
0000b0 b3 15 57 bd 7c b7 9a bd 53 61 5f be d9 89 3e bd
       -0.05251093 -0.07554528 -0.2181447 -0.04651818
0000c0 1b a5 ae bd 79 de a5 be 96 dc b2 bd a7 ca e7 bd
       -0.08527585 -0.32396296 -0.0873348 -0.1131795
0000d0 c4 e8 4c bd 60 90 40 bc 13 2c 2f 3b df 96 21 bd
       -0.05002667 -0.011753172 0.002672915 -0.039450523
0000e0 a5 3e 6e bd 00 55 23 be 4e 96 4d bb 88 08 34 3c
       -0.05816521 -0.15950394 -0.0031370106 0.010988362
0000f0 c0 8d 04 3f 6f 25 19 3f ac 54 18 bd 7c 84 1e bd
       0.51778793 0.59822744 -0.037190124 -0.038700566
000100 89 99 82 3b 61 29 22 3f 80 da 0e 3f e7 4d 46 be
       0.003985588 0.6334439 0.55802155 -0.19365655
000110 cd c8 a3 bd 00 f9 9e 3b 95 fd b1 3d d7 49 c3 bd
       -0.07997284 0.0048514605 0.08690945 -0.09535568
000120 90 38 bb be c4 af ae 3c c7 3b 5a 3d 0f a3 a9 bc
       -0.3656659 0.021324046 0.053279664 -0.020707635
000130 2e 4b 85 bc 6b e8 60 3d 1a 19 47 3d 7c 16 f6 ba
       -0.0162712 0.05490915 0.048607923 -0.0018775011
000140 6b 2e 06 bc c0 a7 83 3c 59 7f 4a 3c 90 10 41 bc
       -0.008189778 0.0160712 0.012359464 -0.011783734
000150 8e 61 22 3d 6b d5 01 3d a9 5a bd 3c 3d 01 68 be
       0.039643817 0.03169767 0.02311452 -0.22656722
000160 f1 93 c1 bd 97 d4 2b 3e d3 12 e7 3c f7 f0 b9 bc
       -0.09452046 0.16780315 0.028207218 -0.022697909
000170 14 b6 fe bd 96 43 15 3f 1f e1 45 3f 57 46 8e bb
       -0.124370724 0.5830625 0.7729663 -0.0043418813
000180 15 61 6e bc ba 40 0b 3e a4 36 48 3f d7 1f 4e 3f
       -0.014549513 0.1359891 0.78208375 0.80517334
