4_AutoEncoders/models/q2_parms_nc_25.pt (torch, 47745 bytes, 11 tensors)

encoder.conv1.weight f4 [4, 1, 5, 5]
0	0x3cc9b75e	0.02462357
1	0xbd03fb66	-0.032222174
2	0xbc4223c3	-0.011849347
3	0xbd93cc3b	-0.07216688
4	0x3c98d4d4	0.018656172
5	0x3d2f91aa	0.042863525
6	0xbd329f20	-0.043608785
7	0xbb92f062	-0.0044842223
8	0xbe31fd7a	-0.1738185
9	0xbd1fbcc4	-0.03899838
10	0x3d68c744	0.05683066
11	0x3d22a350	0.03970653
12	0xbe4c09a3	-0.19925551
13	0xbe84f0a6	-0.2596485
14	0xbd9726e0	-0.07380462
15	0x3d9af257	0.07565754
16	0x3e5966d5	0.21230634
17	0x3d97d1ea	0.07413085
18	0xbe6877ad	-0.22701903
19	0xbe8495ee	-0.25895637
20	0xbd3091ac	-0.043107674
21	0x3e2ac3b3	0.16676216
22	0x3e99d4aa	0.30045062
23	0x3e69e47c	0.22841066
24	0x3bcf647d	0.006329118
25	0xba3b4bf3	-0.0007144801
26	0x3d09e19e	0.03366243
27	0xbd197aa5	-0.03747048
28	0xbd8fe6c4	-0.07026437
29	0x3b735cc9	0.0037134162
30	0xbc26e7db	-0.010187115
31	0xbd2c621e	-0.04208576
32	0xbe2eb3c1	-0.17060758
33	0xbdd131a0	-0.10214543
34	0x3e2f2ef3	0.17107753
35	0xbc9a9d59	-0.018873857
36	0xbd1f0568	-0.038823515
37	0xbe908de9	-0.2823327
38	0x3d3587d1	0.044318978
39	0x3e8853fc	0.26626575
40	0xbd1a965b	-0.037741046
41	0xbda26fb7	-0.07931464
42	0xbd818b4b	-0.06325396
43	0x3e0a4566	0.13503036
44	0x3ded45dc	0.1158559
45	0x3ce1578f	0.027507572
46	0x3d4dd103	0.050248157
47	0x3d968f20	0.07351518
48	0x3e222eee	0.15838215
49	0x3d91c044	0.0711675
50	0x3d00abd4	0.031413868
51	0x3aba3234	0.0014205636
52	0x3ca29a0b	0.019848844
53	0x3df93275	0.12167827
54	0x3d7d5413	0.061847758
55	0x3d7c2851	0.061561886
56	0x3deceb87	0.11568361
57	0x3e16faf2	0.14744166
58	0x3dbea24a	0.09308298
59	0xbd2ce5e7	-0.04221144
60	0x3ded7ca5	0.1159604
61	0x3e5543eb	0.2082669
62	0x3c17a1b0	0.009254858
63	0xbe0c5fd3	-0.13708429
64	0xbe128cf7	-0.14311586
65	0x3e228916	0.15872607
66	0x3ca3cf23	0.019996231
67	0xbe7bc163	-0.2458549
68	0xbdc6e25c	-0.097111434
69	0xbd436dd3	-0.04771216
70	0x3e122154	0.14270526
71	0xbe2b45c4	-0.16725832
72	0xbe88a9ae	-0.26691955
73	0x3af90bdc	0.0019000727
74	0x3b03816f	0.0020066162
75	0x3c342688	0.010995515
76	0x3b567861	0.003272556
77	0xbc6bcc53	-0.014391976
78	0xbc827a11	-0.015927346
79	0xbc8ece39	-0.017432319
80	0x3d4b3643	0.049612295
81	0x3cd67326	0.026177954
82	0x3c657c95	0.014006753
83	0xbc872da0	-0.016501248
84	0xbdffcf81	-0.1249075
85	0x3d19bf13	0.03753574
86	0x3cf2c44a	0.029634614
87	0x3e472d66	0.19450912
88	0x3e3075b4	0.172324
89	0xbd051898	-0.032494158
90	0xbd8cadaa	-0.06869061
91	0xbcf5efba	-0.030021537
92	0x3e115825	0.1419378
93	0x3e99163d	0.2989978
94	0x3e65ae92	0.22429875
95	0xbd5da377	-0.05411097
96	0xbdcf64a2	-0.10126616
97	0xbbcdc96e	-0.006280116
98	0x3e023b6e	0.12717983
99	0x3df06e21	0.117397554

encoder.conv1.bias f4 [4]
0	0xbdaa7e68	-0.08324891
1	0x3db6cd82	0.08925916
2	0x3da950d1	0.08267368
3	0x3ecf5a21	0.4049845

encoder.conv2.weight f4 [8, 4, 3, 3]
0	0x3b924d5a	0.0044647874
1	0xbdc7941c	-0.097450465
2	0xbd44733b	-0.047961455
3	0xbd8d4a3e	-0.06898926
4	0xbd8bea10	-0.06831753
5	0xbc23a437	-0.009987882
6	0xbd0d26c0	-0.034460783
7	0x3da06f67	0.07833748
8	0x3dad79c8	0.084704936
9	0xba13fb93	-0.00056450925
10	0x399cf540	0.00029937364
11	0xbd33f0cf	-0.043930825
12	0xbe35cc08	-0.17753613
13	0x3e360aab	0.17777507
14	0x3e37edcf	0.1796181
15	0x3b3f6771	0.0029205943
16	0x3e98f673	0.29875526
17	0xbc203c55	-0.009780009
18	0x3b3af2fa	0.0028526173
19	0x3c91daed	0.017804587
20	0xbd8fee17	-0.07027834
21	0x3cc9fb2c	0.0246559
22	0xbe2cefc1	-0.16888334
23	0xbde3146c	-0.110878795
24	0xbd73d7be	-0.05953192
25	0x3d7fb7a5	0.062430996
26	0x3e47c41f	0.19508408
27	0x3a0ed33e	0.00054483477
28	0x3d2d709b	0.042343717
29	0x3c3ee416	0.01165106
30	0xbe26f96e	-0.16306087
31	0x3dbd3f76	0.0924062
32	0x3d8a5c59	0.06755895
33	0x3ce9a8ef	0.028522937
34	0x3ebbf966	0.36713713
35	0x3da4f7f2	0.08055104
36	0x3dfd9733	0.123823546
37	0x3df75c37	0.120781355
38	0x3d9331b4	0.071872145
39	0x39b5206a	0.0003454716
40	0x3dc0f9ff	0.09422683
41	0x3dce87ad	0.10084472
42	0xbd98529a	-0.0743763
43	0x3d8326b0	0.064038634
44	0x3d06fbf4	0.032955125
45	0xbc2f022e	-0.010681672
46	0x3bf62539	0.0075117615
47	0x3d06cd13	0.032910418
48	0x3df383a0	0.1189034
49	0x3e1e8857	0.15481697
50	0xbd13a97b	-0.0360503
51	0xbdaebaed	-0.08531747
52	0x399d99c8	0.0003005995
53	0xbd77a405	-0.060459156
54	0x3be954b8	0.007120695
55	0x3c108791	0.008821384
56	0x3d081101	0.03321934
57	0xbd11f0aa	-0.035629906
58	0x3d1a5ed1	0.03768808
59	0x3d9f0027	0.07763701
60	0xbd0ccdd8	-0.034375995
61	0xbe0f94a8	-0.14021552
62	0xbde3acf3	-0.11116972
63	0x3cb50a3c	0.022099607
64	0x3d65c72f	0.05609816
65	0x3d3b1453	0.04567368
66	0x3e570aa9	0.2100016
67	0x3ed03a21	0.4066935
68	0x3de6cef6	0.112699434
69	0xbe014acf	-0.12626193
70	0x3de7b17b	0.113131486
71	0x3d19b812	0.03752906
72	0xbd83eccd	-0.064416505
73	0xbd2bfe03	-0.04199029
74	0xbd2efb38	-0.04272005
75	0x3d446836	0.047950946
76	0x3dd3520c	0.103183836
77	0x3df36c0c	0.11885843
78	0x3dbdf445	0.09275106
79	0xbdbf9f2a	-0.0935653
80	0xbc97ef42	-0.018546704
81	0xbd8fc761	-0.070204504
82	0x3c19663b	0.009362753
83	0x3dcf2431	0.10114325
84	0x3cf3937b	0.02973341
85	0x3d9eae47	0.077480845
86	0x3cae14ef	0.021250216
87	0x3d4db66c	0.0502228
88	0xbda02fa0	-0.07821584
89	0x3b9a5c82	0.004710735
90	0x39585274	0.00020630081
91	0xbcaf0d24	-0.02136857
92	0x3cc4032d	0.023927296
93	0xbc87719e	-0.01653367
94	0x3e3ba900	0.18326187
95	0x3e95be34	0.29246676
96	0x3e11cc17	0.1423801
97	0x3ee3eb5c	0.44515502
98	0x3eb6a6fc	0.35674274
99	0x3d01568c	0.03157668
100	0x3ba38d14	0.004991183
101	0x3c83b2cd	0.01607647
102	0xbdbb732e	-0.09152828
103	0xbda7943a	-0.08182569
104	0x3da1109b	0.07864495
105	0x3db64415	0.08899704
106	0xbdef17b9	-0.116744466
107	0x3b853cd9	0.0040660915
108	0x3e1c0c92	0.1523917
109	0x3dcfca73	0.10146036
110	0x3d004c72	0.031322904
111	0xbd8fd843	-0.070236705
112	0xbe28c874	-0.16482717
113	0xbe6a2a4b	-0.22867696
114	0xbe564682	-0.20925334
115	0xbe81daa3	-0.2536212
116	0xbe361573	-0.1778162
117	0x3e1e8cb7	0.15483366
118	0x3dd7c325	0.10535268
119	0x3d4a5af2	0.04940314
120	0x3ea0ce26	0.3140728
121	0xbdbca196	-0.092105076
122	0xbeb7b9cc	-0.3588394
123	0xbdb99bdc	-0.09062931
124	0xbeef36d2	-0.46721512
125	0xbe0dea63	-0.13858943
126	0x3c899b1f	0.0167976
127	0x3e27a19c	0.16370243
128	0x3d83840e	0.06421672
129	0x3de81ae1	0.11333252
130	0x3e805a52	0.2506891
131	0xbd18e3fa	-0.03732679
132	0xbd0c6b4a	-0.034282006
133	0xbe4c266d	-0.19936533
134	0xbe9994dc	-0.29996383
135	0xbb6b4b53	-0.003590305
136	0xbd663d84	-0.05621101
137	0xbd777589	-0.060414825
138	0x3db514ed	0.08841882
139	0xbe1fac8f	-0.1559317
140	0xbe6b48a1	-0.22976924
141	0xbdec148c	-0.115273565
142	0xbe9e4c09	-0.30917385
143	0xbe98e394	-0.29861128
144	0x3e80c615	0.25151125
145	0xbd17f050	-0.037094414
146	0xbd03ccdb	-0.032177787
147	0x3eb5e826	0.35528678
148	0x3d3225dc	0.043493137
149	0xbe544c5a	-0.20732251
150	0x3d8689a4	0.065692216
151	0x3e85e38c	0.26150167
152	0xbd195fba	-0.037444808
153	0x3e07ccc5	0.13261707
154	0xbd92fc02	-0.07176973
155	0xbc927372	-0.017877314
156	0x3e9a6add	0.30159655
157	0xbf021eab	-0.50828046
158	0xbe1bc4f6	-0.15211853
159	0x3eac2332	0.33620602
160	0xbe7b8f75	-0.24566443
161	0xbdf4959e	-0.119426
162	0xbe09a962	-0.1344352
163	0x3e50a81c	0.20376629
164	0xbe3a1e0d	-0.18175526
165	0xbdb324f4	-0.087472826
166	0x3e4d68fc	0.2005958
167	0xbec42235	-0.38307348
168	0xbbff69ed	-0.0077946098
169	0x3e43ea62	0.19132379
170	0xbd8deaa3	-0.06929519
171	0x3e55096e	0.20804378
172	0xbdb65d59	-0.089045234
173	0xbe2c512a	-0.16827837
174	0x3de5af1e	0.112150416
175	0xbe76b2be	-0.24091622
176	0xbe707ebf	-0.2348585
177	0x3bb775b9	0.0055987504
178	0x3e828a24	0.25496018
179	0xbb69f3b0	-0.0035698228
180	0xbdf82c21	-0.12117792
181	0x3b955803	0.004557611
182	0xbe59376d	-0.2121255
183	0xbea99378	-0.33120322
184	0xbea5d6d9	-0.32390478
185	0xbea3c434	-0.3198563
186	0xbe8294bf	-0.2550411
187	0xbe70ba0e	-0.23508474
188	0xbd80f405	-0.06296543
189	0xbe8ebe29	-0.27879456
190	0xbcf8ecee	-0.030386414
191	0x3e172087	0.14758502
192	0x3e1f3a57	0.15549599
193	0x3e69cce2	0.22832063
194	0x3e3dae09	0.1852342
195	0x3dbd9c37	0.09258311
196	0x3e9e8fb9	0.30969027
197	0x3e343f31	0.1760223
198	0xbd9ec691	-0.07752717
199	0xbe150a1d	-0.14554639
200	0xbe08464b	-0.13308065
201	0xbef96e2f	-0.48716876
202	0xbe84c004	-0.25927746
203	0x3e1d109a	0.15338364
204	0xbdee66a9	-0.116406746
205	0xbdfd5bb7	-0.12371009
206	0x3e96f543	0.29483995
207	0xbe4067a7	-0.1878954
208	0xbe895571	-0.26823
209	0xbe1a048f	-0.15040801
210	0xbe9d72dd	-0.30751696
211	0xbe376ee8	-0.17913401
212	0xbddf1771	-0.10893143
213	0xbe62188f	-0.22079681
214	0xbdda42c1	-0.106572635
215	0xbd89d209	-0.06729514
216	0xbd40fb4d	-0.04711466
217	0xbce36413	-0.02775768
218	0xbdd47563	-0.10373952
219	0x3d476769	0.048682604
220	0x3be6e5e4	0.007046448
221	0x3cc0fb77	0.023557408
222	0x3ca58dcc	0.020209216
223	0xbd2ad313	-0.041705202
224	0x3e05d1d0	0.13068318
225	0xbd07b3a6	-0.03313031
226	0xbb3508d9	-0.0027623682
227	0x3d0e60ec	0.0347604
228	0x3c1c0714	0.009523172
229	0xbd9a8ed6	-0.07546775
230	0x3df916d5	0.12162558
231	0x3d44932b	0.047991913
232	0x39bb9ec0	0.00035785697
233	0x3e7257b9	0.23666276
234	0x3b6d2435	0.003618491
235	0xbc5b8718	-0.013398908
236	0x3c9c3629	0.019068794
237	0x3b8f0984	0.004365148
238	0x3c917047	0.017753733
239	0xbd10bba3	-0.035335194
240	0x3c0831b9	0.008312636
241	0x3d06e50a	0.032933272
242	0x3d91edb4	0.071254164
243	0xbc540c5a	-0.012942398
244	0xbd7180c8	-0.058960706
245	0xbd75e2fc	-0.060030922
246	0xbd06cef7	-0.03291222
247	0xbdc86c84	-0.09786323
248	0x3e5ef885	0.2177449
249	0x3d2c5551	0.04207355
250	0x3c83c119	0.016083287
251	0x3eb8941a	0.36050493
252	0x3dd7a1e2	0.105289236
253	0xbdba2ff8	-0.090911806
254	0xbd7a65d6	-0.061132275
255	0x3e5f61b4	0.21814615

encoder.conv2.bias f4 [8]
0	0x3cd1149e	0.025522526
1	0x3c05c224	0.0081639625
2	0xbb8fb7c7	-0.0043859216
3	0x3f96d8ce	1.1784914
4	0x3db84292	0.08997072
5	0x3f94febe	1.1640241
6	0x3cb79588	0.02241017
7	0x3f198f53	0.5998432

encoder.linear.weight f4 [25, 200]
0	0xbd55d052	-0.052200623
1	0x3d240163	0.040040385
2	0xbc33914a	-0.010959933
3	0x3e50c3b0	0.20387149
4	0x3ea10f8c	0.31457174
5	0x3925ad5e	0.0001580021
6	0x3e03f925	0.1288801
7	0x3e827f0f	0.25487563
8	0xbda23aab	-0.07921346
9	0x3e31f053	0.17376833
10	0xbd8c8d7e	-0.06862925
11	0xbe77f7f5	-0.24215682
12	0x3c866dfb	0.016409865
13	0xbdf94763	-0.12171819
14	0x3d409587	0.0470176
15	0xbe22fff0	-0.15917945
16	0xbdc99003	-0.09841921
17	0x3e94bf49	0.2905219
18	0x3e607f0f	0.21923469
19	0xbdc13b8d	-0.094351865
20	0xbd3172a2	-0.043322213
21	0xbe2fa990	-0.17154527
22	0x38aabff0	8.141983e-05
23	0xbe1aaf7c	-0.15106004
24	0x3d1f7cbf	0.038937327
25	0x3d9c8a30	0.07643545
26	0xbe0cd809	-0.13754286
27	0xbebc9e9f	-0.36839768
28	0xbbd5f5ab	-0.00652953
29	0x3f004c74	0.5011666
30	0x3e7ee385	0.2489148
31	0x3e04588b	0.12924401
32	0xbd31ae9f	-0.043379422
33	0xbecb78fd	-0.39740744
34	0x3d8e981e	0.06962608
35	0x3e829fe7	0.2551262
36	0x3d43ab3e	0.04777073
37	0x3ea69f67	0.3254349
38	0x3df81f25	0.12115315
39	0x3e5db0de	0.216495
40	0xbe001bfe	-0.12510678
41	0xbe3494ed	-0.17634936
42	0x3c4fb16a	0.012676576
43	0x3d272b6f	0.040812906
44	0xbd64abf1	-0.05582804
45	0x3ceb2117	0.028702302
46	0xbea03ac5	-0.31294838
47	0x3cade7f8	0.021228775
48	0xbe220151	-0.15820815
49	0xbe0aa7fc	-0.13540643
50	0xbbb4e713	-0.0055207103
51	0xbd28c387	-0.041202094
52	0xbde4c80f	-0.11170971
53	0x3e64bd13	0.22337751
54	0x3e382783	0.17983823
55	0x3ddace46	0.10683875
56	0x3ddcb736	0.10777132
57	0x3cad03e3	0.021120017
58	0xbe16c9c9	-0.14725412
59	0x3c24381e	0.010023145
60	0x3d3d725f	0.04625165
61	0x3bb1d085	0.005426469
62	0x3ea4798b	0.3212398
63	0x3dc8a9dc	0.09798023
64	0x3e929138	0.28626418
65	0x3b50a11f	0.0031834317
66	0xbe854ce6	-0.2603523
67	0xbca84666	-0.020541381
68	0x3e121de6	0.14269218
69	0x3d7bf990	0.0615173
70	0xbd467312	-0.048449583
71	0xbe97e138	-0.29664016
72	0xbe09ad71	-0.13445069
73	0xbe055bc9	-0.13023295
74	0xbe3e6ac7	-0.1859542
75	0x3cbd4209	0.023102777
76	0x3e15219b	0.145636
77	0xbc9fc80e	-0.019504573
78	0xbe3c179f	-0.18368386
79	0xbdad11e1	-0.08450676
80	0xbdc0ef57	-0.094206505
81	0xbd920cf4	-0.07131377
82	0xbdb101b8	-0.08642906
83	0x3c37235a	0.011177862
84	0x3cbd36f1	0.023097487
85	0xbbdc69ee	-0.006726495
86	0x3e287889	0.1645223
87	0x3d8df0db	0.06930705
88	0x3d84cfcb	0.06484946
89	0x3df38d7a	0.11892219
90	0x3e1f0ec1	0.15532972
91	0xbda99817	-0.08280962
92	0xbe91d59c	-0.28483284
93	0xbd51b3bb	-0.051196795
94	0x3e295cad	0.16539259
95	0x3d382f30	0.044966877
96	0x3e63095d	0.2217154
97	0x3daa5d12	0.08318533
98	0xbd09251a	-0.03348265
99	0xbd7956ab	-0.06087367
100	0xbd9a15eb	-0.07523712
101	0xbe17fa27	-0.1484152
102	0xbea22e0e	-0.31675762
103	0xbe8800c7	-0.26563093
104	0x3d2e4495	0.042545874
105	0x3d61e707	0.055151965
106	0x3dbe5b66	0.092947766
107	0xbe0e00f1	-0.13867547
108	0xbe663398	-0.22480619
109	0xbcb40648	-0.021975651
110	0xbca27b44	-0.019834168
111	0xbdf1948f	-0.117959134
112	0xbd0ed82e	-0.034874134
113	0xbdb22be8	-0.08699781
114	0x3d39bdc3	0.045346987
115	0x3cdf83fa	0.027284611
116	0xbd493645	-0.04912402
117	0x3e19fb60	0.15037298
118	0xbc7b3b4a	-0.01533396
119	0x3d7eacb0	0.062176406
120	0x3cdb3fdc	0.026763849
121	0xbe6a9458	-0.22908151
122	0x3d5f453d	0.05450939
123	0x3d277758	0.0408853
124	0x3c89e73d	0.016833896
125	0xbd7e2c3e	-0.06205391
126	0x3d60dcc0	0.054898024
127	0x3e007de0	0.12548018
128	0x3df6df29	0.12054283
129	0xbe4731eb	-0.19452636
130	0xbdbad989	-0.09123523
131	0xbd814252	-0.06311478
132	0xbc57d5b2	-0.0131735075
133	0x3d4d08a7	0.05005708
134	0x3e353b98	0.17698514
135	0xbe0b5e29	-0.13610138
136	0xbe8150fd	-0.25257102
137	0xbd0e7dd4	-0.034787968
138	0xbdf1a0b4	-0.1179823
139	0x3dbe8d86	0.09304337
140	0xbdcf64ec	-0.10126671
141	0xbd928fe6	-0.07156353
142	0x3e4af81a	0.19821206
143	0x3e3d2435	0.18470843
144	0xbd1d23b9	-0.038364146
145	0xbc493f5f	-0.012283175
146	0x3eb9075f	0.36138436
147	0xbbf9d159	-0.007623833
148	0xbe611038	-0.21978843
149	0x3c2cb6f8	0.01054167
150	0x3dbf3e19	0.09338016
151	0xbe392223	-0.18079428
152	0x3e7dd538	0.24788368
153	0x3d7302c6	0.059328817
154	0x3e34d5fa	0.1765975
155	0x3e452bde	0.19255015
156	0x3d9e701d	0.07736228
157	0x3c9c568a	0.019084234
158	0x3da82e06	0.08211903
159	0x3d22e3bb	0.039767962
160	0xbe44b0c2	-0.19208053
161	0xbbc53708	-0.006018523
162	0xbe40b278	-0.1881808
163	0xbad723a7	-0.0016413823
164	0xbe23f773	-0.16012363
165	0xbeb263aa	-0.34841663
166	0x3e974852	0.29547364
167	0x3e80c633	0.25151214
168	0xbd32226a	-0.04348985
169	0xbe757046	-0.2396861
170	0xbe0d62c8	-0.13807213
171	0x3d1c85bc	0.038213477
172	0xbe15bca3	-0.1462274
173	0xbe122cd6	-0.14274916
174	0xbcf1e256	-0.02952687
175	0x3c62b7d5	0.013837774
176	0xbb4991a8	-0.0030756984
177	0x3bc8eb06	0.0061315326
178	0xbe60bb14	-0.21946365
179	0xbdfe4f78	-0.12417501
180	0xbd0224e5	-0.031773467
181	0xbd763106	-0.060105346
182	0x3cb52794	0.022113599
183	0xbd3cb351	-0.046069447
184	0xbdf31ec1	-0.118711
185	0xbdfdfb38	-0.12401432
186	0xbc2745b7	-0.010209492
187	0xbc54075a	-0.012941206
188	0xbcc12302	-0.023576263
189	0xbdcf065c	-0.10108635
190	0x3c34a5f5	0.011025895
191	0x3d4cea47	0.05002811
192	0x3da5dd71	0.08098877
193	0xbd10adb4	-0.035321906
194	0x3e144b24	0.14481789
195	0x3d5c5449	0.053791318
196	0xbda3df3c	-0.08001563
197	0x3ca7f2df	0.020501552
198	0x3c22d320	0.009938031
199	0x3ce1eb52	0.02757803
200	0x3d03b3c4	0.03215386
201	0xbd001a6b	-0.031275194
202	0x3dc18e3e	0.09450959
203	0x3d8be0fd	0.068300225
204	0xbe083422	-0.13301137
205	0xbb87d3d3	-0.0041451245
206	0xbd8e9dbc	-0.06963679
207	0x3e0401bb	0.12891285
208	0x3ea31fc2	0.31860167
209	0xbd5fd47e	-0.054646008
210	0x3dad18eb	0.08452018
211	0xbe500281	-0.20313455
212	0x3d9a5785	0.07536224
213	0x3d501641	0.050802473
214	0xbdaf0d99	-0.085475154
215	0x3cf4338c	0.029809736
216	0x3de4f9a1	0.111804254
217	0xbe2c0894	-0.16800147
218	0xbdb5e561	-0.08881641
219	0xbcf5ac25	-0.029989311
220	0x3ce2035a	0.027589489
221	0x3ea5de5d	0.32396212
222	0xbccee3a9	-0.025255041
223	0xbeb207d0	-0.34771585
224	0xbc9acbde	-0.01889604
225	0xbca9baf8	-0.020719036
226	0xbe6c8af0	-0.23099875
227	0xbd29163f	-0.04128098
228	0x3e13fb78	0.14451396
229	0x3db68e59	0.089138694
230	0x3e2d9bb9	0.16953935
231	0x3de2e30f	0.11078464
232	0x3e20e8ab	0.15713756
233	0xbe25f6f0	-0.1620748
234	0xbe3ef58a	-0.18648353
235	0x3d864bfa	0.0655746
236	0xbe3d9170	-0.18512511
237	0x3eafa194	0.34302962
238	0x3ec087f6	0.3760373
239	0x3d4027b5	0.046912868
240	0x3d4ff841	0.050773863
241	0xbe88a73b	-0.26690087
242	0xbe57df4a	-0.21081272
243	0xbc8d38f9	-0.01723908
244	0x3d6fd634	0.05855389
245	0x3e3bc2de	0.18336055
246	0x3e16a5a3	0.14711623
247	0xbe903fb5	-0.28173605
248	0xbe463ff0	-0.19360328
249	0x3d639c1e	0.055568807
250	0xbc1bcb7f	-0.0095089665
251	0x3b09d139	0.0021029247
252	0x3db54c7d	0.088524796
253	0x3e0ce365	0.13758619
254	0x3e374ddd	0.17900796
255	0x3e23e2ea	0.1600453

encoder.linear.bias f4 [25]
0	0xbe09d5bc	-0.1346044
1	0xbd2a8a60	-0.04163587
2	0x3dac7601	0.08420945
3	0xbde2b2c1	-0.11069251
4	0x3cde80d5	0.027161041
5	0xbe56a2a3	-0.20960478
6	0x3e082cee	0.1329839
7	0x3d597029	0.05308548
8	0xbe3f8509	-0.18703093
9	0xbe084a2e	-0.13309547
10	0x3e9a31b2	0.3011604
11	0xbbd92a1a	-0.0066273334
12	0xbe340ac1	-0.17582227
13	0xbd386e0c	-0.045026824
14	0xbe24b893	-0.16086034
15	0xbdf473d7	-0.11936157
16	0xbd277791	-0.04088551
17	0xbe0e78c7	-0.1391326
18	0x3d1d879b	0.0384594
19	0x3df52912	0.11970724
20	0x3d0378ba	0.032097556
21	0x3d994d9c	0.07485506
22	0xbdb6b9c9	-0.089221545
23	0xbe1dbab4	-0.15403253
24	0x3d8f8dc3	0.07009461

decoder.linear_t.weight f4 [200, 25]
0	0xbd44f892	-0.048088618
1	0xbd936f28	-0.07198936
2	0xbd85adfc	-0.065273255
3	0x3db438d9	0.08799905
4	0x3d75549c	0.059895143
5	0x3e27110e	0.163151
6	0xbca88f3a	-0.020576108
7	0xbe40297d	-0.18765827
8	0x3e1c6baa	0.15275446
9	0x3e3180c1	0.17334272
10	0xbe2e994a	-0.17050663
11	0xbdea3d80	-0.114375114
12	0x3e2f994a	0.17148319
13	0x3e39012d	0.18066855
14	0xbd6953cc	-0.05696468
15	0x3cb7e478	0.02244781
16	0xbc30f5a6	-0.010800755
17	0x3dcfc299	0.101445384
18	0xbb8bee89	-0.004270379
19	0xbd876626	-0.0661128
20	0xbd3b6d8d	-0.045758773
21	0xbdd36e45	-0.103237666
22	0x3d1feab6	0.039042197
23	0x3d420657	0.047369327
24	0x3ca4b248	0.020104542
25	0x3dac768e	0.0842105
26	0xbdb9089e	-0.09034847
27	0x3cb17be2	0.021665517
28	0xbdeeced3	-0.11660542
29	0x3c986892	0.01860455
30	0xbdf4106d	-0.119171955
31	0xbc3f971a	-0.01169374
32	0xbc428a2e	-0.011873765
33	0x3e0a9c11	0.13536097
34	0x3db880d6	0.090089485
35	0xbe0fe59d	-0.14052434
36	0xbd8bb7f4	-0.06822196
37	0xbcd9dbeb	-0.026594123
38	0x3de0bd15	0.109735645
39	0x3e798859	0.24368419
40	0x3e195184	0.14972502
41	0x3e0f4a27	0.1399313
42	0xbcb2a6cc	-0.02180805
43	0xbc56ad65	-0.013102864
44	0xbd36a482	-0.04459048
45	0xbe207481	-0.15669443
46	0x3cdf4301	0.02725363
47	0xbd4a5b9a	-0.049403764
48	0x3de28497	0.11060446
49	0xbdd40126	-0.103517815
50	0xbe878f22	-0.2647639
51	0x3cf4ab6f	0.029866902
52	0x3e793a64	0.2433868
53	0xbe716a62	-0.23575738
54	0xbe66b967	-0.22531663
55	0x3e77b21f	0.24189042
56	0x3df93b6f	0.12169539
57	0x3daa1525	0.08304814
58	0x3dd7213d	0.105043866
59	0xbe692b65	-0.2277046
60	0x3e80337d	0.25039282
61	0x3d516080	0.05111742
62	0x3e35a93f	0.17740344
63	0x3d5f153e	0.054463618
64	0xbe928deb	-0.286239
65	0xbe9ed71e	-0.31023496
66	0x3df79290	0.120885015
67	0xbddefad2	-0.10887684
68	0xbcd0abca	-0.02547254
69	0x3dab862f	0.08375203
70	0x3e85dffb	0.26147446
71	0x3d3994e1	0.045307998
72	0x3d899589	0.06717975
73	0xbdeeea4f	-0.116657846
74	0x3dadf5e6	0.08494167
75	0xbd2026e7	-0.0390996
76	0x3dfe5644	0.124187976
77	0x3e6f9a8f	0.23398803
78	0xbe6df2ff	-0.23237227
79	0x3e9602c8	0.29298997
80	0x3cac126c	0.021004878
81	0x3c2db9e5	0.010603403
82	0x3e674a2d	0.2258689
83	0xbeaeb55c	-0.3412274
84	0xbecf2d4f	-0.40464255
85	0xbb1bc765	-0.0023769971
86	0x3c62b95f	0.013838141
87	0xbc305847	-0.010763234
88	0x3d759f01	0.05996609
89	0xbeb52bb5	-0.35384908
90	0xbeca6cb9	-0.39536074
91	0x3dc9e3d2	0.098579064
92	0x3d2c61fe	0.04208564
93	0xbe25ded4	-0.16198283
94	0x3e2e744c	0.17036551
95	0xb989d892	-0.00026292034
96	0xbe17397c	-0.14768022
97	0xbe38c32e	-0.18043205
98	0xbe6b8330	-0.22999263
99	0x3e0f9ba0	0.1402421
100	0xbaaaa06d	-0.0013017781
101	0xbd327df4	-0.04357715
102	0xba685988	-0.0008863439
103	0xbdd015c3	-0.10160401
104	0x3e779b2a	0.24180284
105	0x3e0e2a13	0.13883238
106	0x3e6b684e	0.22989008
107	0x3e077dce	0.13231584
108	0xbeaa22df	-0.3322973
109	0xbdf4bb3b	-0.11949774
110	0x3e8c2684	0.27373135
111	0x3d89da0a	0.06731041
112	0x3c850e89	0.016242282
113	0xbd9cd7f8	-0.0765838
114	0xbe9c5dd8	-0.30540347
115	0xbe638a35	-0.2222069
116	0x3da9fa9f	0.08299755
117	0x3d40dfd7	0.04708847
118	0x3c065661	0.008199305
119	0x3ecd412c	0.40088785
120	0x3e2cada7	0.16863118
121	0xbe70bafd	-0.2350883
122	0xbe2d31e0	-0.16913557
123	0xbdff2a6c	-0.12459263
124	0xbe087408	-0.13325512
125	0x3e88cdd6	0.2671954
126	0x3e0ca499	0.13734664
127	0x3d3f1df4	0.046659425
128	0x3dd41091	0.10354722
129	0x3d2901a8	0.041261345
130	0x3ce30430	0.027711958
131	0xbda0289d	-0.07820246
132	0x3d270085	0.04077198
133	0x3db319d4	0.08745161
134	0xbd7c5a55	-0.061609585
135	0x3c1fb089	0.009746679
136	0xbd92ae8f	-0.07162201
137	0x3d492bf1	0.04911417
138	0xbe26411a	-0.16235772
139	0x3d0b4bf7	0.034007993
140	0x3bc1d2f4	0.00591504
141	0xbe0447fe	-0.12918088
142	0x3df70492	0.120614186
143	0x3e4fe922	0.20303777
144	0xbdee8b4d	-0.11647663
145	0xbe37e6dc	-0.1795916
146	0xbd01be7a	-0.031675793
147	0x3cecc3cf	0.028901963
148	0xbeba312f	-0.3636565
149	0xbe9c3acf	-0.30513617
150	0x3e1c114c	0.15240973
151	0xbc3c7ef4	-0.011504877
152	0x3e951154	0.29114783
153	0x3ece0f99	0.40246275
154	0xbe73a6bc	-0.23794073
155	0x3ddc67c4	0.10761979
156	0x3e7be043	0.24597268
157	0xbe0fba76	-0.14035973
158	0x3dd12f8e	0.102141485
159	0xbd81a2f1	-0.06329907
160	0xbdb1e85f	-0.086868994
161	0xbec86e36	-0.39146584
162	0x3d11b251	0.035570446
163	0xbe9c41ef	-0.30519053
164	0x3cb0fbec	0.0216045
165	0x3c0ab0ee	0.008465035
166	0xbd859936	-0.06523363
167	0xbc669201	-0.014072896
168	0x3d949faf	0.0725702
169	0x3e89444a	0.26809913
170	0x3deed10b	0.116609655
171	0x3ddf240f	0.108955495
172	0xbe576950	-0.21036267
173	0xbe21f6ce	-0.15816805
174	0x3e436dd9	0.19084872
175	0x3d6c6d52	0.057721443
176	0x3e5547f3	0.20828228
177	0x3cf58ab9	0.029973375
178	0x3e81cc4c	0.2535118
179	0xbe1b147a	-0.1514453
180	0xbec8564a	-0.39128333
181	0x3dd7a438	0.10529369
182	0xbc206a76	-0.009791007
183	0xbe336f1b	-0.17522852
184	0x3df63e8d	0.12023649
185	0x3e65931e	0.22419402
186	0x3e22adec	0.15886658
187	0xbdabe87d	-0.08393953
188	0x3df74894	0.1207439
189	0xbe5db85c	-0.21652359
190	0x3da962e3	0.08270814
191	0xbebd193e	-0.3693332
192	0xbdfa3032	-0.12216224
193	0x3d7bb16d	0.061448503
194	0xbeb4281f	-0.3518686
195	0x3e893a8e	0.26802486
196	0x3e803ccd	0.25046387
197	0xbd11592e	-0.03548544
198	0xbe4677eb	-0.19381683
199	0x3c5f6e43	0.013637128
200	0xbe6a9b37	-0.22910772
201	0x3db99133	0.09060898
202	0x3dc8c771	0.098036654
203	0xbdc376c5	-0.09544138
204	0xbe30ae79	-0.17254056
205	0x3e0dbadf	0.13840817
206	0x3e95a727	0.2922909
207	0xbd0e8090	-0.034790576
208	0xbe8590b3	-0.2608696
209	0x3e0c1274	0.13678914
210	0xbe1b717f	-0.15180014
211	0xbcadbb15	-0.021207372
212	0xbe236b81	-0.15958978
213	0xbe8d6194	-0.2761351
214	0x3bcd7fb5	0.0062713274
215	0x3e873731	0.26409295
216	0xbd88d3c3	-0.06681015
217	0xbecd6a56	-0.4012019
218	0x3e4e0622	0.20119527
219	0x3e526d04	0.20549399
220	0xbd8398f7	-0.0642566
221	0x3d3fef74	0.04685922
222	0x3e76472f	0.24050592
223	0x3b855b52	0.004069724
224	0xbe8fa127	-0.28052637
225	0xbe585f50	-0.21130109
226	0xbc8bde57	-0.017073793
227	0xbca7fb0a	-0.020505447
228	0xbe3a694a	-0.18204227
229	0xbc8d7f1f	-0.01727253
230	0x3db10ea8	0.086453736
231	0xbdd28c60	-0.10280681
232	0x3e06dda9	0.13170494
233	0x3c0f0ccb	0.008731077
234	0xbd0031aa	-0.031297363
235	0xbc3ef582	-0.011655213
236	0xbe8049b4	-0.2505623
237	0xbd46178c	-0.0483623
238	0xbcd5128c	-0.02600982
239	0xbd0cd700	-0.034384727
240	0x3e822c35	0.25424352
241	0x3c274646	0.010209626
242	0xbcfd4e15	-0.030921021
243	0x3c5cd101	0.013477565
244	0xbd96c8cb	-0.07362517
245	0xbd938d71	-0.07204712
246	0x3ebae094	0.36499465
247	0x3d23d24d	0.03999548
248	0xbe38667f	-0.18007849
249	0xbd755232	-0.05989284
250	0x3d977393	0.07395091
251	0xbe0b5efe	-0.13610455
252	0xbe19948e	-0.14998075
253	0x3e313a55	0.17307408
254	0x3c1fbd91	0.009749786
255	0xbd792695	-0.06082781

decoder.linear_t.bias f4 [200]
0	0x3debb0d0	0.11508334
1	0xbd8ae439	-0.06781811
2	0x3e3fbf20	0.18725252
3	0x3edcd863	0.4313384
4	0x3ee356ea	0.44402248
5	0x3dbf7a2d	0.09349475
6	0x3ea51991	0.32246068
7	0x3f12b72f	0.57310766
8	0x3ee80f60	0.4532423
9	0x3e7a27b9	0.24429215
10	0xbe55d132	-0.20880583
11	0x3d908256	0.070561096
12	0x3f13b49f	0.5769748
13	0xbe172b74	-0.1476267
14	0x3f31fd71	0.69527346
15	0xbde4ff17	-0.11181467
16	0x3e32a04b	0.1744396
17	0xbe5ef397	-0.2177261
18	0x3e0e29b0	0.1388309
19	0xbd7673be	-0.060168974
20	0xbe4c44d9	-0.19948138
21	0x3d6407b6	0.055671416
22	0x3e6f3eb3	0.23363762
23	0x3ea7730f	0.3270497
24	0x3e1bb022	0.15203908
25	0x3c98cc4a	0.0186521
26	0xbe8e6364	-0.27810204
27	0xbe1ec8fd	-0.15506358
28	0x3c7f46fa	0.015580887
29	0x3d33cb06	0.04389479
30	0xbd8a6585	-0.067576446
31	0x3dba6bf9	0.091026254
32	0xbcf0082f	-0.029300777
33	0x3ed1d13a	0.4097994
34	0x3ee800dd	0.4531316
35	0x3c9393b8	0.018014774
36	0xbb697e04	-0.003562809
37	0x3e8a2577	0.26981708
38	0xbdad0a2f	-0.08449208
39	0x3f420db0	0.75802135
40	0xbd61b7c5	-0.055106897
41	0x3e3eb365	0.18623121
42	0x3ed688ea	0.41901332
43	0xbd321287	-0.0434747
44	0x3e5cefe3	0.21575885
45	0xbe33aa0f	-0.17545341
46	0xbe201295	-0.15632088
47	0x3cd40659	0.025881933
48	0x3e790132	0.24316862
49	0x3eb81524	0.3595363
50	0x3e8cb8c1	0.27484706
51	0xbd246a21	-0.040140275
52	0x3eea50ad	0.45764676
53	0x3caf36e7	0.021388484
54	0x3e29ef41	0.16595174
55	0x3e867261	0.2625914
56	0x3e87e661	0.26542953
57	0x3c58014c	0.013183903
58	0x3f0e70a7	0.55640644
59	0xbe51775e	-0.20455691
60	0x3e204d34	0.1565445
61	0x3e4e7ea0	0.20165491
62	0xbe8b73c4	-0.2723676
63	0xbd92673b	-0.07148596
64	0x3d05e2a3	0.03268684
65	0xbe1fa4b2	-0.1559017
66	0xbe384afe	-0.17997357
67	0xba7b6405	-0.0009589794
68	0x3e8aff08	0.27147698
69	0xbe08169e	-0.13289878
70	0xbe4d00e1	-0.20019867
71	0x3e1d711a	0.15375176
72	0x3e91b80c	0.2846073
73	0xbd145879	-0.036217187
74	0x3caf2411	0.021379502
75	0xbddadba6	-0.10686426
76	0xbd69fe3b	-0.05712722
77	0x3eaa46a1	0.3325701
78	0xbe6ee71f	-0.23330353
79	0xbe4433a3	-0.19160323
80	0xbe368ddc	-0.17827553
81	0x3e6cd44a	0.23127857
82	0x3d2dd957	0.0424436
83	0x3c8171d5	0.01580135
84	0xbcefb16d	-0.029259408
85	0xbd94c5d4	-0.07264295
86	0xbb522e3a	-0.003207101
87	0x3eb875d0	0.36027384
88	0x3ddb05b3	0.106944464
89	0x3d5ff545	0.054677267
90	0xbd027cb4	-0.031857207
91	0x3d406731	0.04697341
92	0x3d419100	0.047257423
93	0xbe0b5481	-0.13606454
94	0xbc1498fc	-0.009069677
95	0x3e421c80	0.18956184
96	0x3eeed04a	0.46643287
97	0x3f1e5003	0.6184084
98	0x3f043982	0.5165025
99	0x3c9bc47a	0.019014586
100	0xbe0f0576	-0.13966927
101	0xbe328c38	-0.17436302
102	0xbe2d9923	-0.16952948
103	0xbe85a0f5	-0.26099363
104	0x3de87189	0.1134978
105	0x3dc958ce	0.09831391
106	0xbc65572c	-0.013997834
107	0xbd5d422a	-0.054018177
108	0x3e785d88	0.2425443
109	0x3db0c774	0.08631793
110	0x3d605141	0.05476499
111	0xbd099615	-0.033590395
112	0x3dd74b20	0.10512376
113	0x3eb0fbbc	0.34567058
114	0xbdbf6b55	-0.09346644
115	0xbe57283d	-0.21011443
116	0x3e12629a	0.14295426
117	0x3eeafc66	0.4589569
118	0x3e55db20	0.20884371
119	0x3e59bbe2	0.21263078
120	0xbe534687	-0.20632373
121	0x3670b170	3.586607e-06
122	0x3e92c18f	0.28663298
123	0xbde11a5e	-0.10991357
124	0xbe5f9d06	-0.21837243
125	0x3dafca79	0.085835405
126	0xbee6ef80	-0.451046
127	0xbd7d0515	-0.061772425
128	0xbd850b42	-0.06496288
129	0xbe1719df	-0.14755963
130	0x3d42e420	0.04758084
131	0x3f206bda	0.6266457
132	0x3eb4d821	0.35321143
133	0x3ef54a21	0.47908118
134	0x3ebb0fea	0.3653558
135	0xbe494ed6	-0.1965898
136	0x3dc4b535	0.09604875
137	0x3ed0e9b3	0.40803298
138	0x3e5c43a6	0.21510181
139	0x3ba504c0	0.0050359666
140	0xbd96d015	-0.07363907
141	0x3ee684cc	0.4502319
142	0x3f1027a5	0.5631049
143	0x3f13c260	0.5771847
144	0x3c371ea9	0.011176744
145	0xbe53fe00	-0.20702362
146	0x3e4e3e6c	0.20141
147	0x3e673f7f	0.22582816
148	0xbe83ec49	-0.2576621
149	0x3da43908	0.0801869
150	0x3da42961	0.08015705
151	0x3ecc5ed1	0.3991609
152	0x3eac7f04	0.33690655
153	0x3ea13dfb	0.314926
154	0xbc6a29e3	-0.014292213
155	0x3e0d5871	0.13803269
156	0x3e80dc0a	0.25167876
157	0x3d427c1c	0.04748164
158	0x3e01ed21	0.12688114
159	0x3efa1b44	0.48848927
160	0x3ddc1ba2	0.10747458
161	0x3edb6320	0.42849064
162	0x3e4b87ca	0.19876018
163	0x3f140d00	0.57832336
164	0x3e119bb3	0.14219551
165	0xbdce85cb	-0.10084113
166	0x3db676e6	0.08909397
167	0x3e17492a	0.14774004
168	0x3d2f8cde	0.04285895
169	0xbc99f543	-0.018793708
170	0x3e5680da	0.2094759
171	0x3cb9a6f0	0.02266261
172	0x3e9808ee	0.29694313
173	0x3df11f44	0.117735416
174	0xbe8da857	-0.27667496
175	0x3c300ddd	0.010745493
176	0x3e7f7656	0.24947485
177	0x3d7de853	0.06198914
178	0x3e631374	0.2217539
179	0x3e3ca4c7	0.18422233
180	0x3ec6432f	0.38723132
181	0xbdd29839	-0.102829404
182	0x3dda6b1d	0.106649615
183	0xbe0ddccb	-0.13853757
184	0x3e63f307	0.22260676
185	0x3eff526c	0.4986757
186	0xbb9b49d9	-0.004739028
187	0x3e8fb473	0.2806736
188	0x3e84f094	0.25964797
189	0x3ebf94eb	0.37418303
190	0x3e916f78	0.28405356
191	0x3e8cab2b	0.2747434
192	0x3ed46505	0.41483322
193	0x3e243a41	0.16037847
194	0x3eede5cf	0.46464393
195	0x3e8bf90a	0.2733844
196	0xbe5bb85e	-0.21457049
197	0x3d8a5d3b	0.067560636
198	0x3e0ea4d4	0.13930064
199	0xbdcd367f	-0.1002016

decoder.conv2_t.weight f4 [8, 4, 3, 3]
0	0x3dfca8a0	0.1233685
1	0xbe73e737	-0.2381867
2	0xbe039812	-0.12850979
3	0xbdff848c	-0.12476453
4	0xbecb80b7	-0.3974664
5	0x3f248466	0.64264524
6	0xbdc09ce6	-0.09404926
7	0x3e836e3c	0.2567004
8	0x3f22e9be	0.6363791
9	0xbe7693d7	-0.24079834
10	0xbde15f81	-0.11004544
11	0xbd193925	-0.037408013
12	0x3ec72a8d	0.3889965
13	0x3f38b396	0.72149026
14	0x3d96774a	0.07346971
15	0x3ed93229	0.42421082
16	0x3ef007b5	0.4688088
17	0xbd86be5d	-0.06579278
18	0xbe88c9a0	-0.26716328
19	0xbe5eba1d	-0.21750684
20	0xbd079cab	-0.033108395
21	0xbc46526f	-0.012104615
22	0x3ee0c56b	0.43900618
23	0x3e4e4c9f	0.20146416
24	0x3f03d88d	0.51502305
25	0x3f28520c	0.65750194
26	0x3e41adb3	0.18913917
27	0xbdc87d5d	-0.09789536
28	0xbdf733ae	-0.12070404
29	0x3cd9fe79	0.0266106
30	0xbcc2f853	-0.02380005
31	0xbb96958c	-0.004595464
32	0xbdaa0724	-0.08302143
33	0x3ecbd86c	0.39813554
34	0xbd4bca5a	-0.049753524
35	0xbdda5c7e	-0.10662173
36	0x3d6ff06d	0.058578897
37	0xbda2b079	-0.07943816
38	0x3ea3ea00	0.32014465
39	0xbe366a81	-0.17814066
40	0x3d5f6c6c	0.05454676
41	0x3f66e5b6	0.9019426
42	0xbe182a7c	-0.14859957
43	0x3e135de4	0.14391285
44	0x3e9328fa	0.287422
45	0x3e8bb59a	0.27286988
46	0x3ed5a91e	0.4173059
47	0xbdae2e04	-0.085048705
48	0x3f1eef0a	0.62083495
49	0x3f2c2c81	0.6725541
50	0xbe991959	-0.2990215
51	0x3e49b0b2	0.1969631
52	0x3d7852d7	0.060625877
53	0xbea8bee0	-0.32958126
54	0xbbac0f1b	-0.005250824
55	0x3e8a14b2	0.26968914
56	0x3dca4b43	0.09877636
57	0x3f01a029	0.5063501
58	0x3f64de7c	0.89401984
59	0x3d65ec6e	0.05613368
60	0x3e9d0176	0.30665177
61	0x3eab504c	0.334597
62	0xbe0fc8cf	-0.14041446
63	0x3e3bcefb	0.18340676
64	0xbe4f434f	-0.2024052
65	0xbd18e599	-0.037328336
66	0x3f148b71	0.5802527
67	0x3e59effc	0.21282953
68	0xbeca670a	-0.39531738
69	0x3e891db7	0.26780483
70	0x3e299cc8	0.16563714
71	0xbec06316	-0.37575597
72	0x3d3432eb	0.04399387
73	0xbd7b47f5	-0.06134792
74	0xbeed8009	-0.46386746
75	0x3c0a3218	0.008434795
76	0xbe14feab	-0.14550273
77	0xbf73b0de	-0.9519175
78	0x3b011791	0.0019697885
79	0x3de9e04e	0.11419736
80	0xbee65a00	-0.4499054
81	0xbe37b8af	-0.17941545
82	0xbf07ecbb	-0.530956
83	0xbeb0bd94	-0.34519637
84	0xbe995849	-0.2995017
85	0xbf9c5141	-1.2212297
86	0xbf0f833e	-0.56059635
87	0xbda030d5	-0.07821814
88	0xbee030e5	-0.43787304
89	0xbe492c09	-0.19645704
90	0xbdb33fac	-0.08752379
91	0xbe183527	-0.14864026
92	0xbe3ea127	-0.18616162
93	0xbe032780	-0.12808037
94	0xbf35a47b	-0.709541
95	0xbf36778f	-0.7127618
96	0xbde9ac9c	-0.11409876
97	0xbf0e6474	-0.5562203
98	0xbf207a0f	-0.62686247
99	0xbdf178cd	-0.11790619
100	0xbcc776eb	-0.024348697
101	0x3c0dcb3c	0.008654412
102	0xbea8440f	-0.32864425
103	0xbed9aa48	-0.42512727
104	0xbee34118	-0.443856
105	0xbe9889f2	-0.29792744
106	0xbd6239ed	-0.055231024
107	0xbefab097	-0.48962852
108	0x3e0802a6	0.1328226
109	0xbcaa64b5	-0.020799974
110	0x3d04693e	0.03232693
111	0x3c66a60e	0.014077676
112	0x3dd62248	0.104557574
113	0xbc562d35	-0.013072302
114	0x3c67a832	0.014139222
115	0xbdfe68ac	-0.12422308
116	0xbf3b1233	-0.73074645
117	0xbe0fbe92	-0.1403754
118	0x3e30e439	0.1727456
119	0x3eb6686c	0.35626543
120	0xbe271fbc	-0.163207
121	0xbd524b77	-0.0513415
122	0x3e1cc5c4	0.15309817
123	0xbeda9b3d	-0.42696562
124	0xbf8d7c77	-1.1053609
125	0xbeaccf6d	-0.33752003
126	0xbdda36d5	-0.1065499
127	0x3d09fb30	0.033686817
128	0x3e80b078	0.25134635
129	0xbd818dd3	-0.06325879
130	0x3e08a3e8	0.13343775
131	0x3eb9e674	0.36308634
132	0xbda653db	-0.08121463
133	0xbed2d301	-0.41176608
134	0xbea09a24	-0.313676
135	0x39e8436e	0.00044300727
136	0x3b9f799e	0.004866793
137	0x3d4343f3	0.047672223
138	0xbe1aaf93	-0.15106039
139	0x3e2f4325	0.17115457
140	0x3ed2873c	0.411188
141	0xbe6c255c	-0.23061126
142	0xbd8980f4	-0.06714049
143	0xbb6c68ec	-0.003607328
144	0xbe25c0a9	-0.16186775
145	0x3e4434b9	0.19160737
146	0xbeb7f230	-0.35926962
147	0xbdab8a8e	-0.083760366
148	0xbe0c181d	-0.13681073
149	0xbe960a69	-0.29304817
150	0xbe2d6d85	-0.1693631
151	0x3da87b0f	0.082265966
152	0x3e8c6307	0.27419302
153	0xbd6be07f	-0.057587143
154	0xbf3137f2	-0.6922599
155	0xbe60e3a0	-0.21961832
156	0xbd7cb5ca	-0.061696805
157	0xbf0c37ed	-0.54772836
158	0xbdc0c2c9	-0.09412152
159	0x3e61a53d	0.2203569
160	0x3e95791d	0.29193965
161	0x3e257fdb	0.16162054
162	0x3e388d7b	0.1802272
163	0xbe463ca8	-0.19359076
164	0xbe933748	-0.28753114
165	0x3d588646	0.052862428
166	0xbf110486	-0.5664753
167	0xbeebc397	-0.4604766
168	0x3e4ca98a	0.19986549
169	0x3e3ba197	0.1832336
170	0x3cdd3be7	0.027006103
171	0xbe0f4820	-0.13992357
172	0x3d86556a	0.0655926
173	0x39d3eab4	0.00040419924
174	0xbebbd37d	-0.3668479
175	0xbf287a1b	-0.6581132
176	0xbe677a2c	-0.22605199
177	0x3dc36027	0.09539824
178	0x3e1626ef	0.1466329
179	0x3c3f3246	0.011669701
180	0xbe2df5d7	-0.16988312
181	0x3ea22a1a	0.31672746
182	0x3f203425	0.62579566
183	0xbda4f5f2	-0.08054723
184	0x3eec78b8	0.4618585
185	0x3e827b35	0.25484625
186	0xbd046128	-0.032319218
187	0xbe0b781b	-0.13620035
188	0xbe271bbe	-0.16319177
189	0x3ef7ffc9	0.48437336
190	0x3f1911ae	0.597926
191	0x3e124360	0.14283514
192	0x3e28da6b	0.1648957
193	0x3e2503ac	0.16114682
194	0x3d73d13f	0.059525725
195	0xbe2d5650	-0.16927457
196	0xbd6fbaf9	-0.05852792
197	0x3e229cdc	0.1588015
198	0x3eaf0193	0.3418089
199	0x3f100c00	0.5626831
200	0x3e46bbb1	0.19407536
201	0x3f0d72e7	0.5525345
202	0x3f0d05d9	0.5508705
203	0x3e2f2586	0.17104158
204	0xbe2e30c8	-0.17010796
205	0xbe2126cb	-0.15737455
206	0x3d21a6ed	0.039465833
207	0x3e1f9486	0.15584001
208	0xbdb81caa	-0.08989842
209	0xbbc82bcf	-0.006108738
210	0x3ed0ffc2	0.40820128
211	0x3e8df6d1	0.27727368
212	0x3db5d3d6	0.08878295
213	0xbe5bb327	-0.2145506
214	0xbe847d22	-0.2587672
215	0x3db63f9d	0.08898852
216	0xbd4afa18	-0.049554914
217	0xbe04708f	-0.12933563
218	0xbf084896	-0.5323576
219	0x3dcf038c	0.101080984
220	0xbe616309	-0.22010435
221	0xbf3a258b	-0.72713536
222	0x3c8388ea	0.016056497
223	0xbcf30534	-0.029665567
224	0x3da3b70d	0.079938985
225	0xbebaa704	-0.36455548
226	0xbec31638	-0.3810289
227	0x3e40a2d3	0.18812113
228	0xbee13243	-0.4398366
229	0xbe4a2a4b	-0.19742696
230	0x3ee86556	0.45389813
231	0x3b7a1793	0.0038161024
232	0x3eb5d042	0.3551045
233	0x3eb80b53	0.3594614
234	0xbddeaa88	-0.1087237
235	0xbea1686c	-0.3152498
236	0x3da6a627	0.0813716
237	0xbebe75c8	-0.37199235
238	0xbef959f5	-0.48701444
239	0x3e857492	0.260655
240	0xbd9208ed	-0.07130609
241	0x3da9d009	0.08291633
242	0x3eb16ae4	0.34651864
243	0xbe41683e	-0.18887421
244	0xbd78268b	-0.060583632
245	0x3d8b2cc5	0.067956485
246	0xbf0750ca	-0.5285765
247	0xbd7621e9	-0.060090933
248	0x3ea35222	0.318986
249	0xbe33af42	-0.17547324
250	0xbd9f90bd	-0.077912785
251	0x3e94d765	0.29070583
252	0xbc9d4532	-0.019198034
253	0x3d444e55	0.047926266
254	0xbed24962	-0.41071612
255	0x3d5c35a2	0.053762086

decoder.conv2_t.bias f4 [4]
0	0xbf911a69	-1.1336185
1	0x3cba3749	0.02273144
2	0xbf10ee6e	-0.56613815
3	0xbe91c4f2	-0.2847057

decoder.conv1_t.weight f4 [4, 1, 5, 5]
0	0x3d5746f2	0.052557893
1	0x3d972e02	0.07381822
2	0x3da76ea9	0.081754036
3	0x3d3580f8	0.044312447
4	0x3cf5cd63	0.030005163
5	0x3d4126da	0.047156192
6	0x3cc99e3f	0.02461159
7	0x3d05e8f9	0.032692883
8	0x3ce5745d	0.028009588
9	0x3cabd86f	0.020977227
10	0xbddc8bf5	-0.10768882
11	0xbe98713e	-0.29773897
12	0xbe895244	-0.26820576
13	0xbdd4b2b9	-0.10385651
14	0xbcc7b071	-0.024376126
15	0xbe8514e5	-0.25992504
16	0xbf2c067e	-0.67197406
17	0xbf0226a3	-0.50840205
18	0xbdc4e230	-0.09613454
19	0x3cbaa513	0.022783792
20	0xbe36fe27	-0.17870389
21	0xbeffd2c2	-0.49965483
22	0xbe9ec271	-0.31007722
23	0x3d019fa7	0.031646397
24	0x3d71956d	0.058980394
25	0xbca822bb	-0.020524373
26	0x3c8dbb7e	0.017301317
27	0x3d29f7c3	0.04149605
28	0x3cefb4ef	0.02926108
29	0x3c8c20a6	0.017105412
30	0x3c120bf6	0.0089139845
31	0x3d04384e	0.03228026
32	0xbcce0c23	-0.025152272
33	0xbccebcb7	-0.02523647
34	0x3c36dee4	0.01116154
35	0x3d0ccaf7	0.03437325
36	0xbd8f2620	-0.06989694
37	0xbe4e0106	-0.20117578
38	0x3c8d0213	0.017212903
39	0x3e270dbb	0.16313832
40	0x3d39da20	0.045374036
41	0xbe0d6cd7	-0.1381105
42	0xba8b4412	-0.0010625145
43	0x3f481ca3	0.78168696
44	0x3f2c250a	0.6724402
45	0x3d811e26	0.063045785
46	0xbd026b38	-0.031840533
47	0x3e898575	0.26859632
48	0x3f6b9316	0.9202131
49	0x3f19c28e	0.6006249
50	0x3d19abb1	0.037517253
51	0xbc5ad958	-0.013357483
52	0xbdbf4916	-0.09340112
53	0xbddcae86	-0.10775475
54	0xbd9b463a	-0.07581754
55	0x3c33acdb	0.010966505
56	0xbc38e393	-0.011284727
57	0x3b18451f	0.0023234559
58	0xbda61621	-0.081096895
59	0xbdfdb7f5	-0.12388603
60	0xbd838f70	-0.06423843
61	0x3dea3f3d	0.11437843
62	0x3f192d4d	0.5983475
63	0x3f05b1ea	0.522246
64	0x3d3e8a49	0.046518598
65	0xbe0521b2	-0.13001135
66	0x3dcb10b5	0.09915296
67	0x3f4b3d27	0.79390186
68	0x3f159bc5	0.5844081
69	0xbd22feb3	-0.03979368
70	0xbe2cf44a	-0.16890064
71	0xbdb919af	-0.09038102
72	0x3e3ef9dd	0.18650003
73	0xbd84a62c	-0.06477007
74	0xbe51e86d	-0.2049882
75	0xbccfae7d	-0.025351757
76	0x3d2a1744	0.041526094
77	0x3df7f79c	0.121077746
78	0x3d2f64a4	0.042820588
79	0xbcfdf283	-0.030999428
80	0xbd0594f1	-0.032612745
81	0x3d916c3c	0.07100722
82	0x3c6b59f3	0.014364707
83	0xbe5fffd1	-0.2187493
84	0xbe153604	-0.14571387
85	0xbc550749	-0.013002225
86	0xbcbd1a9b	-0.023083976
87	0xbea6cef3	-0.32579765
88	0xbef39026	-0.47570914
89	0xbe06acb1	-0.13151814
90	0x3db733f2	0.08945455
91	0x3b8170fd	0.003950237
92	0xbee1c3d6	-0.44094723
93	0xbf0955ea	-0.5364672
94	0xbe3ca3f1	-0.18421914
95	0x3df9e2cb	0.122014605
96	0x3d933280	0.071873665
97	0xbe7d304c	-0.24725455
98	0xbed34e00	-0.41270447
99	0xbe754d4a	-0.23955265
