4_AutoEncoders/models/q2_parms_nc_10.pt (torch, 23617 bytes, 11 tensors)

encoder.conv1.weight f4 [4, 1, 5, 5]
-0.08740344 -0.08961311 -0.061371274 -0.123774216 -0.055565648 -0.012652111 -0.046472896 -0.06907746
-0.18521918 -0.011731303 -0.023211094 -0.041242845 -0.06904673 -0.11907387 -0.0059395414 -0.025684347
-0.043987617 -0.021111729 -0.16020173 -0.053615473 -0.027263662 -0.04231656 -0.1150589 -0.082556754
0.04708987 0.037647292 -0.00017132572 -0.015778212 0.0062614665 0.03591683 -0.03981804 -0.02913147
-0.019730767 -0.010788455 -0.02311525 -0.13736464 -0.03236546 -0.010495423 -0.06931333 -0.17712787
-0.16481861 -0.07282533 -0.13063417 -0.1345619 -0.21074979 -0.13175987 -0.0691833 -0.033424597
-0.061676197 -0.22118865 0.0248475 0.10569493 0.0457497 0.097148225 -0.036438745 0.10825762
0.068559535 -0.044716064 0.0429599 0.07212744 0.14339435 0.020826234 -0.078207485 0.029127086
-0.021874012 0.13029398 -0.05108424 -0.07300287 0.022422226 -0.07278648 0.044805933 -0.15261298
-0.10249341 -0.06719129 -0.058218367 -0.07872538 0.043027643 -0.03983456 -0.025800709 0.0006171949
0.013562676 0.0073079676 -0.04391586 0.055124998 0.041434884 0.05315346 0.007812135 0.10741647
0.15037735 0.13109891 0.033470128 0.020186698 0.14993246 0.14292112 0.17792988 0.010130205
0.0035182505 0.073468246 0.16866183 0.12410749
00000000: 9300 b3bd 1487 b7bd 7260 7bbd 567d fdbd
00000010: ce98 63bd cd4a 4fbc 5d5a 3ebd 7c78 8dbd
00000020: 19aa 3dbe a734 40bc 3125 bebc 42ee 28bd
00000030: 5f68 8dbd 00dd f3bd 7ca0 c2bb fb67 d2bc
00000040: 5c2c 34bd 81f2 acbc ec0b 24be e69b 5bbd
00000050: 0b58 dfbc 2154 2dbd 00a4 ebbd 8413 a9bd
00000060: 4fe1 403d 0c34 1a3d e6a5 33b9 4f41 81bc
00000070: fd2c cd3b 871d 133d 3e18 23bd 1fa5 eebc
00000080: 6ba2 a1bc 0fc2 30bc 315c bdbc 51a9 0cbe
00000090: a591 04bd fff4 2bbc 26f4 8dbd 0261 35be
000000a0: 36c6 28be 7225 95bd f7c4 05be 98ca 09be
000000b0: cbce 57be 0fec 06be f9af 8dbd 3be8 08bd
000000c0: 2ea0 7cbd 477f 62be fc8c cb3c 9576 d83d
000000d0: 0a64 3b3d a6f5 c63d cb40 15bd 2cb6 dd3d
000000e0: f168 8c3d 3128 37bd b8f6 2f3d 8db7 933d
000000f0: f8d5 123e c79b aa3c 3f2b a0bd ed9b ee3c
00000100: 2131 b3bc c96b 053e b53d 51bd 8782 95bd
00000110: d1ae b73c 1411 95bd 6d86 373d 9446 1cbe
00000120: 11e8 d1bd 969b 89bd 6276 6ebd c63a a1bd
00000130: c13d 303d 9029 23bd 025c d3bc 40cb 213a
00000140: fc35 5e3c ad77 ef3b 1ee1 33bd c0ca 613d
00000150: a0b7 293d 71b7 593d f0fc ff3b 2bfd db3d
00000160: 85fc 193e cb3e 063e f917 093d 935e a53c
00000170: e587 193e ea59 123e 4033 363e 29f9 253c
00000180: 7392 663b 8576 963d b0b5 2c3e 112c fe3d

encoder.conv1.bias f4 [4]
0.42319176 0.5192475 0.027928606 -0.7647381
00000000: 97ac d83e 67ed 043f 88ca e43c e0c5 43bf

encoder.conv2.weight f4 [8, 4, 3, 3]
0.11673753 0.25817245 0.27997628 -0.1029918 0.08613428 0.19443002 -0.05345323 0.17622146
0.09956791 -0.27978092 -0.10648597 0.3271076 -0.4295336 -0.1270937 0.25275564 -0.46428078
0.048646692 0.5753571 -0.27776697 -0.0472148 -0.03851666 -0.075012535 0.09708117 -0.17248581
0.04521349 0.25486565 0.12679288 0.14158402 -0.3672916 -0.7336964 0.25564483 -0.23951475
-0.5088717 0.23695573 -0.17570755 -0.18134665 -0.0073924046 0.03202506 0.043343555 0.14379424
0.1665507 0.04501437 0.05917169 -0.17265427 -0.39510092 -0.06133015 0.05207077 0.06919523
0.06908563 -0.09914495 -0.15782256 0.04512059 -0.28603852 -0.25559467 -0.031063627 0.045223977
0.117995024 0.098406754 0.007462622 -0.031174887 0.06017239 -0.1275891 -0.10940282 -0.05178785
-0.042733736 -0.034887172 0.0001536902 -0.0036434783 -0.017432764 0.047741193 0.2646013 0.21563467
0.10219698 -0.37892717 0.16643785 0.36396548 -0.119668275 0.04260496 0.29395562 -0.15794663
0.19879942 0.0095210355 -0.4541632 -0.060995445 -0.005947072 -0.333005 -0.09621905 -0.1934623
-0.3712233 -0.0016052099 -0.03006164 -0.32334572 -0.004507121 -0.20962086 -0.12082699 0.39217022
-0.2884975 -0.17291301 0.32378876 0.012193413 0.16320144 -0.45517433 0.016133206 0.12946276
-0.34329838 0.041467343 0.15320043 -0.21041095 0.0067082383 -0.20440191 0.042635776 -0.16489224
-0.27826127 -0.09945835 0.16055024 -0.032599546 -0.13949658 -0.25092304 -0.23936518 0.033530895
-0.27363497 0.011857705 0.1572781 0.13937874 0.12153033 0.049702868 -0.111632474 -0.12777108
0.032379597 -0.006269145 0.15567993 -0.004043697 0.103563 -0.10692316 -0.042323165 0.18332505
0.041596357 -0.04812284 -0.016178066 -0.093632415 0.038758688 -0.13012515 0.010499266 0.02595312
-0.1116886 -0.4113951 -0.33385202 0.015777651 0.003758876 0.033919837 0.2260998 0.19924961
0.16705067 -0.2727334 -0.070494264 0.04109384 -0.16966525 0.14920343 0.16529743 0.3779131
0.2720625 -0.038817987 0.013929494 0.33347267 0.2875031 0.32999572 0.0024852108 -0.07192801
0.014094683 -0.18856499 -0.08870712 0.06345089 0.0810657 0.07932345 -0.0047092205 -0.17705323
-0.091515414 -0.16764997 -0.25680792 0.100930355 0.031788237 0.3320487 -0.064139955 0.3976562
0.2263162 -0.15845546 0.021743827 0.13895114 -0.12467299 0.11766826 0.040768504 -0.62665164
0.1547618 -0.17975186 -0.34011257 0.035061862 -0.53801084 -0.23960666 -0.26581633 -0.31102216
-0.11531825 -0.38965395 -0.16537458 0.20074199 -0.0969938 -0.25828195 0.067109495 -0.15020521
-0.12124486 0.28924805 -0.080287874 0.26921904 0.082629785 -0.06937608 0.21122861 0.027195629
0.0048252232 0.0896236 0.13781482 -0.1539427 -0.2812644 -0.099134 -0.09290694 -0.17967616
-0.030233724 0.14471078 0.0500623 0.054958407 -0.03498862 -0.27863532 -0.04150992 0.09773079
0.053810984 0.0060559763 0.049457517 0.11171901 -0.06165075 -0.035278473 -0.052074295 0.061524283
0.013362666 0.19578388 0.14854367 -0.057554178 -0.05985415 -0.04557436 0.14085914 0.3029149
0.16821048 -0.07637378 -0.11480484 -0.02250068 0.057093844 -0.13232493 -0.02093765 -0.38059312
00000000: 1614 ef3d 2e2f 843e 0d59 8f3e 5ded d2bd
00000010: 2b67 b03d aa18 473e c6f1 5abd 6673 343e
00000020: 43ea cb3d 723f 8fbe 5115 dabd a67a a73e
00000030: d4eb dbbe da24 02be 3069 813e 36b6 edbe
00000040: c141 473d 9a4a 133f 7937 8ebe 4e64 41bd
00000050: a5c3 1dbd 2ca0 99bd 7ed2 c63d 1fa0 30be
00000060: c831 393d c07d 823e fed5 013e 67fb 103e
00000070: a50d bcbe 87d3 3bbf e1e3 823e 5b43 75be
00000080: 6a45 02bf 86a4 723e aeec 33be f0b2 39be
00000090: fc3b f2bb b62c 033d 0389 313d cc3e 133e
000000a0: 448c 2a3e fd60 383d 045e 723d 48cc 30be
000000b0: ab4a cabe 5335 7bbd 2948 553d 3bb6 8d3d
000000c0: c47c 8d3d 820c cbbd 3d9c 21be 5ed0 383d
000000d0: a473 92be 4edd 82be 2679 febc c73c 393d
000000e0: 60a7 f13d 7b89 c93d 0389 f43b 7a62 ffbc
000000f0: 5377 763d b8a6 02be 960e e0bd 7f1f 54bd
00000100: 9209 2fbd dae5 0ebd e627 2139 6cc7 6ebb
00000110: 28cf 8ebc 458c 433d d279 873e 56cf 5c3e
00000120: a64c d13d be02 c2be af6e 2a3e af59 ba3e
00000130: a414 f5bd 8a82 2e3d 5a81 963e c3bc 21be
00000140: 1392 4b3e 1efe 1b3c 1488 e8be 5cd6 79bd
00000150: a8df c2bb a27f aabe 7e0e c5bd fb1a 46be
00000160: fb10 bebe e865 d2ba d443 f6bc 928d a5be
00000170: 79b0 93bb daa6 56be 2474 f7bd 89ca c83e
00000180: f2b5 93be 1c10 31be a4c7 a53e e2c6 473c
00000190: 471e 273e 9c0c e9be c929 843c e391 043e
000001a0: cec4 afbe a9d9 293d 93e0 1c3e f875 57be
000001b0: c8d0 db3b bc4e 51be daa2 2e3d 83d9 28be
000001c0: 4378 8ebe d2b0 cbbd 4867 243e 1a87 05bd
000001d0: 31d8 0ebe fc78 80be 251c 75be b157 093d
000001e0: e219 8cbe d246 423c 830d 213e 4db9 0e3e
000001f0: e5e4 f83d 3c95 4b3d 919f e4bd 6cd6 02be
00000200: 78a0 043d 666d cdbb 8f6a 1f3e fd80 84bb
00000210: d718 d43d 88fa dabd 0e5b 2dbd 90b9 3b3e
00000220: f160 2a3d 741c 45bd dd87 84bc 5ac2 bfbd
00000230: 6ec1 1e3d 873f 05be 1d05 2c3c a39b d43c
00000240: febc e4bd 61a2 d2be a7ee aabe 2240 813c
00000250: 7957 763b 87ef 0a3d b586 673e 1708 4c3e
00000260: 550f 2b3e b6a3 8bbe 4c5f 90bd 0452 283d
00000270: babc 2dbe c9c8 183e bb43 293e d37d c13e
00000280: c74b 8b3e 9cff 1ebd 8838 643c eebc aa3e
00000290: 9b33 933e 33f5 a83e ebde 223b fe4e 93bd
000002a0: 63ed 663c 2e17 41be 14ac b5bd 8af2 813d
000002b0: c605 a63d 5574 a23d ce4f 9abb 714d 35be
000002c0: 6f6c bbbd 6fac 2bbe 547c 83be 93b4 ce3d
000002d0: 6234 023d 4a02 aa3e cf5b 83bd 9899 cb3e
000002e0: 6fbf 673e 2642 22be 1c20 b23c 3549 0e3e
000002f0: 8d54 ffbd 0ffc f03d e0fc 263d 3e6c 20bf
00000300: e179 1e3e df10 38be 3c23 aebe 079d 0f3d
00000310: 14bb 09bf 735b 75be 1419 88be 4c3e 9fbe
00000320: fa2b ecbd b980 c7be f457 29be 4f8f 4d3e
00000330: afa4 c6bd 883d 84be b470 893d 65cf 19be
00000340: 3a4f f8bd 5218 943e f86d a4bd 14d7 893e
00000350: ce39 a93d 0c15 8ebd 504c 583e 5ec9 de3c
00000360: e81c 9e3b 948c b73d 541f 0d3e 28a3 1dbe
00000370: e301 90be c406 cbbd fe45 bebd 07fd 37be
00000380: b7ac f7bc 102f 143e 200e 4d3d 111c 613d
00000390: 3a50 0fbd 4aa9 8ebe 4e06 2abd 1527 c83d
000003a0: e868 5c3d 3671 c63b f793 4a3d f0cc e43d
000003b0: 7f85 7cbd 2980 10bd db4b 55bd e300 7c3d
000003c0: 15ef 5a3c 927b 483e d51b 183e eebd 6bbd
000003d0: a029 75bd 2eac 3abd 613d 103e a917 9b3e
000003e0: 5e3f 2c3e db69 9cbd cd1e ebbd 5953 b8bc
000003f0: 3cdb 693d 3080 07be 6f85 abbc 1add c2be

encoder.conv2.bias f4 [8]
-0.5409073 0.8254478 0.35760084 1.0671849 -0.34861758 -0.3805705 0.558242 0.4298218
00000000: e778 0abf 8c50 533f 7517 b73e 8499 883f
00000010: 017e b2be 23da c2be f3e8 0e3f 9a11 dc3e

encoder.linear.weight f4 [10, 200]
-0.041485656 -0.22343922 -0.0523719 -0.018760087 -0.05864472 -0.15443538 0.2992493 -0.028865805
-0.0662557 0.12727314 -0.11782523 0.11990969 -0.13663934 -0.22174755 0.26447976 -0.15762952
0.034255352 -0.055715915 0.0025056677 0.013880137 -0.19354163 -0.36404243 -0.1749732 0.1508156
0.17849341 0.41952837 0.078750454 0.16760273 0.10603758 -0.03984392 0.11551951 -0.14995563
-0.29555216 0.1303255 0.05796601 -0.004666835 -0.18188234 -0.14381117 0.21812476 -0.2750869
0.35602978 0.13211991 0.006950931 0.41568026 -0.34139347 0.46502674 0.33282623 0.017044757
-0.3630239 -0.19403617 0.03238331 0.12859394 -0.13991761 -0.08949556 -0.17482145 0.07578957
0.022338917 -0.22558135 0.09318925 0.009354602 0.14065768 -0.101119846 -0.31349325 -0.04896534
0.269624 0.17901854 -0.0061899344 -0.31425825 0.21956587 0.08301177 0.064571485 -0.031061005
-0.105559856 0.33335817 -0.022695247 0.035441335 0.24719217 0.611436 0.14903842 -0.37928292
0.017162642 0.35477975 -0.028560653 0.23996136 0.18219776 0.13455154 0.055612862 -0.25556648
-0.075095125 0.083599 0.26368037 0.17937806 -0.28010663 0.0441594 0.10694505 0.30168897
0.20058548 -0.27329943 0.22384849 -0.19061227 0.063739546 0.042233277 -0.069932036 -0.030933965
-0.10515475 -0.0022870565 0.18126827 -0.023312045 0.07089029 -0.22069906 -0.00038283685 -0.03928079
-0.038480863 -0.113019966 -0.15671669 -0.06645647 0.019726325 -0.022335395 -0.11497713 0.19166902
0.010675141 0.06348026 -0.08056478 0.1206793 -0.16674037 0.0837661 -0.009119993 -0.07223962
-0.15205784 -0.18410316 -0.05895026 -0.120615296 -0.28521693 -0.16396521 -0.029943462 -0.006063204
-0.29889002 -0.19379477 -0.0065535586 0.061407994 -0.14283733 -0.05518617 -0.27351162 0.1245524
-0.05576635 -0.039708726 -0.011760483 0.12161221 -0.006413696 -0.19368516 0.10227961 0.35093838
0.30119717 0.009668328 -0.20543924 0.3419556 0.15928847 0.0045427456 0.17399207 0.09661798
-0.14001481 -0.27770165 -0.08677827 -0.098104075 0.0002382637 0.0126886675 -0.014110772 -0.4405784
0.7021392 0.078950055 0.31320983 0.34744418 0.12526093 -0.13721956 -0.08786438 -0.014479433
0.109034695 0.16742261 0.21057677 0.03271465 0.06253118 -0.20622624 0.27889073 0.0982161
0.090650916 0.0768903 -0.08436401 -0.031152295 0.16648214 0.16878958 0.16737118 -0.012942065
-0.15052193 -0.038460124 0.08354648 0.07565947 -0.07211746 -0.0871227 -0.22115685 -0.029262718
0.039119367 -0.03748753 0.032717146 -0.031603865 0.06689808 0.040772516 -0.08781632 0.26131865
-0.094838746 0.0137767745 0.05913837 0.1078417 -0.07360795 -0.17555733 0.0330874 0.076284505
0.2510707 -0.24373876 -0.095676206 0.33216023 -0.2787518 -0.30420575 -0.42781577 -0.18166998
-0.09863114 -0.31135663 -0.06956572 0.04603187 -0.020542257 -0.20433672 -0.26573315 -0.26698261
0.03483194 -0.08537077 0.0788772 0.30650663 0.1306577 -0.08606638 0.12012867 0.30574203
0.16930132 0.14104794 -0.48522082 0.1075483 0.13134216 0.3238844 0.37304774 -0.07017755
0.11715882 -0.09143395 -0.023030201 0.20868008 -0.023329964 0.116604105 0.15263833 0.03618451
00000000: ddec 29bd 40cd 64be eb83 56bd c1ae 99bc
00000010: 7235 70bd 4f24 1ebe 3437 993e fb77 ecbc
00000020: 12b1 87bd e453 023e 5b4e f1bd 3693 f53d
00000030: 2feb 0bbe ca11 63be e469 873e a269 21be
00000040: 574f 0c3d 5f36 64bd 2136 243b 8469 633c
00000050: c72f 46be c563 babe 2d2c 33be 686f 1a3e
00000060: fac6 363e 6ccc d63e eb47 a13d 0da0 2b3e
00000070: 3b2a d93d 6133 23bd 7e95 ec3d f88d 19be
00000080: 9d52 97be 0c74 053e c46d 6d3d 40ec 98bb
00000090: 5d3f 3abe 3c43 13be 195c 5f3e 31d8 8cbe
000000a0: 8949 b63e 714a 073e a3c4 e33b 0bd4 d43e
000000b0: 20cb aebe fc17 ee3e 3368 aa3e 72a1 8b3c
000000c0: 45de b9be 6bb1 46be 5da4 043d 21ae 033e
000000d0: 9046 0fbe 7349 b7bd 6504 33be 9037 9b3d
000000e0: 1b00 b73c ccfe 66be 01da be3d 0b44 193c
000000f0: 9108 103e ec17 cfbd 3082 a0be e18f 48bd
00000100: 280c 8a3e a350 373e efd4 cabb 75e6 a0be
00000110: e0d5 603e 1302 aa3d 0e3e 843d a673 febc
00000120: c42f d8bd ecad aa3e 62eb b9bc ef2a 113d
00000130: f21f 7d3e 1287 1c3f 879d 183e 5f31 c2be
00000140: ab98 8c3c b1a5 b53e 08f8 e9bc 6eb8 753e
00000150: 0d92 3a3e e1c7 093e 50ca 633d 9cd9 82be
00000160: 79cb 99bd f435 ab3d 1d01 873e e2ae 373e
00000170: 236a 8fbe 7de0 343d 0206 db3d fa76 9a3e
00000180: 4866 4d3e e7ed 8bbe 8a38 653e dd2f 43be
00000190: e189 823d cdfc 2c3d 8738 8fbd 3a69 fdbc
000001a0: 605b d7bd 71e2 15bb 649e 393e e7f8 bebc
000001b0: ee2e 913d effe 61be 7eb7 c8b9 e5e4 20bd
000001c0: 1c9e 1dbd 0377 e7bd 577a 20be 541a 88bd
000001d0: 1a99 a13c b8f8 b6bc 2179 ebbd e244 443e
000001e0: c9e6 2e3c f001 823d 26ff a4bd b526 f73d
000001f0: fdbd 2abe 908d ab3d 066c 15bc 5ef2 93bd
00000200: 0db5 1bbe 8a85 3cbe d475 71bd 2705 f7bd
00000210: f407 92be 7fe6 27be fe4b f5bc d7ad c6bb
00000220: 1d08 99be 2372 46be 3cbf d6bb f386 7b3d
00000230: f343 12be e50a 62bd b709 8cbe 5415 ff3d
00000240: 426b 64bd 9ea5 22bd 0aaf 40bc d30f f93d
00000250: fb29 d2bb 6755 46be f977 d13d 32ae b33e
00000260: 8436 9a3e e867 1e3c aa5e 52be ce14 af3e
00000270: 841c 233e 50db 943b fa2a 323e a6df c53d
00000280: 0b60 0fbe e92e 8ebe ceb8 b1bd caea c8bd
00000290: 6dd6 7939 21e4 4f3c de30 67bc 7e93 e1be
000002a0: 65bf 333f 91b0 a13d 0a5d a03e 34e4 b13e
000002b0: 6744 003e 4983 0cbe 3df2 b3bd 253b 6dbc
000002c0: 954d df3d d570 2b3e 70a1 573e ccff 053d
000002d0: 5910 803d f92c 53be c4ca 8e3e 8625 c93d
000002e0: 30a7 b93d a978 9d3d 0ac7 acbd 1933 ffbc
000002f0: 4b7a 2a3e 2dd7 2c3e 5a63 2b3e f40a 54bc
00000300: 6c22 1abe 5d88 1dbd 6b1a ab3d 5af3 9a3d
00000310: 52b2 93bd 636d b2bd f176 62be 5eb8 efbc
00000320: a13b 203d 868c 19bd 6a02 063d 0e73 01bd
00000330: dc01 893d 1501 273d 0bd9 b3bd 8fcb 853e
00000340: d13a c2bd fbb7 613c 133b 723d 1cdc dc3d
00000350: c4bf 96bd 4dc5 33be a786 073d 0d3b 9c3d
00000360: 578c 803e a796 79be e3f1 c3bd e810 aa3e
00000370: 8eb8 8ebe dbc0 9bbe ab0a dbbe b207 3abe
00000380: 20ff c9bd 236a 9fbe 7978 8ebd ea8b 3c3d
00000390: 3c48 a8bc a53d 51be 2d0e 88be f2b1 88be
000003a0: f0ab 0e3d dfd6 aebd 5f8a a13d 70ee 9c3e
000003b0: 22cb 053e 9243 b0bd 0506 f63d 388a 9c3e
000003c0: 535d 2d3e df6e 103e dd6e f8be 4842 dc3d
000003d0: 8f7e 063e 2dd4 a53e 1d00 bf3e 3fb9 8fbd
000003e0: f7f0 ef3d b941 bbbd d5a9 bcbc 3bb0 553e
000003f0: 7b1e bfbc 22ce ee3d 394d 1c3e 3536 143d

encoder.linear.bias f4 [10]
-0.12292535 -0.14645463 -0.23477103 -0.18245296 -0.08975568 0.03469247 -0.026393535 -0.034182176
0.102176905 0.07118046
00000000: 49c0 fbbd 34f8 15be d167 70be f3d4 3abe
00000010: d3d1 b7bd b119 0e3d 4137 d8bc 9c02 0cbd
00000020: 2042 d13d 10c7 913d

decoder.linear_t.weight f4 [200, 10]
-0.28420985 -0.011646501 0.1514343 0.21935663 -0.038085196 0.006066887 -0.20130052 0.10852334
0.22553805 -0.20521563 -0.116071165 -0.319606 -0.05168361 0.4270215 -0.07533369 0.03278354
0.050517317 0.24235366 0.004716288 -0.24435754 -0.12946963 -0.5295806 -0.23435444 0.3961487
-0.3149099 0.24809738 0.14431289 0.23693205 0.40110007 -0.47114605 -0.20793279 -0.22013193
0.4092665 0.107587725 0.3409474 0.3543653 -0.41520685 0.16863175 -0.91394764 0.11032954
-0.005703752 0.20762585 0.25091857 -0.17826334 0.53591233 -0.0140172625 -0.078856274 0.29998708
-0.3770751 -0.24356672 -0.020969888 0.10286085 -0.22025566 0.07190922 0.2631789 -0.10483773
-0.27734426 -0.022604322 0.11841916 0.2614415 -0.73065656 0.20000754 -0.42396381 -0.32739043
-0.4220367 0.50360173 -0.34267473 0.077017926 -0.010837486 -0.13608329 0.18605573 -0.10796335
0.5866156 -0.043789282 -0.065460876 -0.2805024 0.031436592 -0.051266115 -0.24527033 0.5430286
0.23914544 -0.041409906 0.3421198 0.07418607 -0.262059 -0.2796983 0.05330148 -0.051342756
0.22263974 0.3535125 -0.24120471 0.23638882 -0.3450619 0.11772732 -0.12608843 -0.48446345
-0.040556017 -0.12703261 -0.42366692 -0.47895026 -0.064022 -0.48155507 -0.050230738 -0.19792311
0.10867614 -0.043009035 0.19430664 -0.62104166 -0.4360935 0.1013312 -0.23598023 0.14169799
0.1995543 0.048010234 -0.18118939 -0.1694364 -0.26569185 0.12602401 0.087276906 -0.13639389
-0.2877627 -0.69055295 0.392043 -0.32345602 -0.2846387 -0.22332813 -0.32418102 0.7320088
-0.109209746 0.33692056 -0.11120738 -0.03799778 -1.0311514 -0.038580116 -0.11437145 0.065536916
-0.16040796 0.060476333 -0.42594674 0.3798678 -0.45790622 0.28180537 -0.5441941 0.89362514
0.20441002 0.003891653 -0.70134443 0.20755851 -0.050361168 0.8809651 -0.031878904 -0.28836226
-0.07526494 -0.07750549 0.100854374 0.12284458 0.13172175 -0.24091142 -0.1374778 0.29885027
-0.7247161 -0.32719338 0.12003063 -0.14460269 0.027098054 0.006450718 -0.07469881 -0.59119576
-0.53658706 -0.26153293 0.21488445 -0.08256863 0.05248853 0.1470623 -0.29885352 -0.105415136
-0.3716014 0.016182413 -0.11228217 -0.45964476 0.029554935 0.64853376 -0.20269781 0.30120394
-0.102415286 0.2332982 0.35475746 -0.10451496 -0.32743862 -0.009701779 -0.6323358 0.14894286
-0.22080229 0.47300917 0.7030558 -0.6475652 0.267868 0.35922626 -0.041772246 0.6742145
0.20094934 0.1383098 -0.1148906 -0.26471403 0.08260777 0.61892205 0.4019248 0.13927582
-0.20809165 0.1697158 -0.4370265 -0.113681644 0.21232001 -0.5074468 0.10035247 0.36615527
0.35687095 -0.037934806 -0.62616026 0.06863123 -0.56349295 -0.12599652 0.30136973 -0.30779958
0.041501544 0.16117115 0.386714 0.6910809 -0.81541646 -0.056803595 0.23574513 -0.068804145
0.028928079 -0.07166244 0.45393682 0.30526266 -0.9647544 0.21947978 0.5199875 -0.10818246
0.072347626 -0.3981212 0.075348325 -0.15908812 -0.5790158 -0.14640853 -0.28680253 0.35392702
-0.12997745 -0.15374222 -0.21917418 0.19169186 -0.17166375 0.06623687 -0.0010196795 -0.12496921
00000000: f483 91be f7d0 3ebc 9811 1b3e 069f 603e
00000010: 39ff 1bbd bdcc c63b b921 4ebe 7c41 de3d
00000020: 72f3 663e 0c24 52be b8b6 edbd 66a3 a3be
00000030: 31b2 53bd 90a2 da3e 8d48 9abd 0948 063d
00000040: 3feb 4e3d 8f2b 783e 178b 9a3b dd38 7abe
00000050: b093 04be 9892 07bf 9cfa 6fbe 01d4 ca3e
00000060: df3b a1be 3d0d 7e3e c2c6 133e 519e 723e
00000070: fd5c cd3e 0e3a f1be 55ec 54be 446a 61be
00000080: 618b d13e f456 dc3d a890 ae3e 5e6f b53e
00000090: fe95 d4be cdad 2c3e 79f8 69bf 74f4 e13d
000000a0: 8ae6 babb df9b 543e 6678 803e aa8a 36be
000000b0: 8d31 093f a9a8 65bc 667f a1bd e897 993e
000000c0: fd0f c1be 8e69 79be 0bc9 abbc b6a8 d23d
000000d0: b38a 61be 2445 933d 63bf 863e 2ab5 d6bd
000000e0: 1100 8ebe b32c b9bc bf85 f23d a9db 853e
000000f0: 4f0c 3bbf c7ce 4c3e c911 d9be b89f a7be
00000100: 3215 d8be 0bec 003f 1073 afbe 93bb 9d3d
00000110: b68f 31bc 6b59 0bbe 6585 3e3e e41b ddbd
00000120: 712c 163f 645c 33bd 5a10 86bd 039e 8fbe
00000130: a8c3 003d 6bfc 51bd 2528 7bbe ec03 0b3f
00000140: 8be2 743e 6f9d 29bd 542a af3e deee 973d
00000150: 992c 86be 9e34 8fbe a752 5a3d c84c 52bd
00000160: acfb 633e 97ff b43e 5efe 76be e90f 723e
00000170: f4ab b0be 051b f13d 531d 01be 980b f8be
00000180: 111e 26bd d614 02be dfea d8be f838 f5be
00000190: f71d 83bd 638e f6be bfbe 4dbd 5bac 4abe
000001a0: 9991 de3d 3e2a 30bd 52f8 463e 96fc 1ebf
000001b0: a647 dfbe bb86 cf3d cda4 71be 4719 113e
000001c0: f657 4c3e 61a6 443d b689 39be bc80 2dbe
000001d0: c308 88be 700c 013e 3cbe b23d d7aa 0bbe
000001e0: a255 93be 14c8 30bf dcb9 c83e 079c a5be
000001f0: 2abc 91be 21b0 64be 0efb a5be ee64 3b3f
00000200: 5ca9 dfbd da80 ac3e b2c0 e3bd 8fa3 1bbd
00000210: c5fc 83bf 2f06 1ebd 943b eabd 3838 863d
00000220: fc41 24be 08b6 773d b115 dabe 087e c23e
00000230: af72 eabe cb48 903e 4e50 0bbf 9ec4 643f
00000240: dc50 513e 1a0b 7f3b 4f8b 33bf 388a 543e
00000250: 8347 4ebd ee86 613f 7493 02bd 38a4 93be
00000260: 8124 9abd 33bb 9ebd bd8c ce3d f095 fb3d
00000270: 11e2 063e 7cb1 76be fbc6 0cbe e702 993e
00000280: ff86 39bf e485 a7be 9ed2 f53d ba12 14be
00000290: bdfc dd3c 8b60 d33b b1fb 98bd 9b58 17bf
000002a0: c55d 09bf a5e7 85be ab0a 5c3e be19 a9bd
000002b0: 36fe 563d 8097 163e 5403 99be e4e3 d7bd
000002c0: 8a42 bebe fb90 843c 32f4 e5bd 8f56 ebbe
000002d0: 311d f23c 4f06 263f 0490 4fbe 6737 9a3e
000002e0: 1bbf d1bd b9e5 6e3e c5a2 b53e f00b d6bd
000002f0: 09a6 a7be 36f4 1ebc c2e0 21bf 7a84 183e
00000300: ff19 62be 422e f23e 77fb 333f d5c6 25bf
00000310: ff25 893e 81ec b73e 6019 2bbd 5299 2c3f
00000320: aac5 4d3e 16a1 0d3e c34b ebbd 9988 87be
00000330: 432e a93d ad71 1e3f 16c9 cd3e 529e 0e3e
00000340: fa15 55be fbc9 2d3e f0c1 dfbe ecd1 e8bd
00000350: 6b6a 593e 09e8 01bf 9985 cd3d b478 bb3e
00000360: cab7 b63e 8761 1bbd 0a4c 20bf 888e 8c3d
00000370: 1341 10bf 3b05 01be 224d 9a3e e897 9dbe
00000380: 86fd 293d 0d0a 253e 61ff c53e aeea 303f
00000390: 22bf 50bf e3aa 68bd 2c67 713e 30e9 8cbd
000003a0: 94fa ec3c c2c3 92bd 686a e83e 634b 9c3e
000003b0: 25fa 76bf 4fbf 603e e71d 053f c48e ddbd
000003c0: fe2a 943d 8bd6 cbbe 3950 9a3d ffe7 22be
000003d0: 613a 14bf 1eec 15be c8d7 92be ec35 b53e
000003e0: cf18 05be 9a6e 1dbe 326f 60be df4a 443e
000003f0: 9fc8 2fbe 32a7 873d c4a6 85ba dbef ffbd

decoder.linear_t.bias f4 [200]
0.2778004 0.12203308 0.050969016 -0.20579726 0.07139408 -0.055904977 -0.30087033 0.057699062
-0.20023417 -0.021736681 -0.052207984 -0.10439811 -0.045790922 -0.5130494 -0.18882458 0.42924276
0.07743764 0.27189082 -0.038741816 -0.19262692 0.21648085 0.13718884 -0.32011396 -0.08587281
-0.21004911 -0.24538068 -0.09718939 -0.023992829 0.05547831 0.0022455978 -0.16188401 0.15326375
0.30767792 -0.057280883 0.15019342 -0.06310262 0.5679624 -0.78651404 0.37103438 -0.50948834
0.10258053 -0.059494223 0.11334548 -0.07485327 0.28390664 -0.08650719 0.57084566 -0.52200454
-0.09367491 0.026827589 -0.03435561 -0.19990467 -0.07550163 -0.062931456 -0.08316812 0.07649775
-0.19110231 0.26947802 -0.07121468 0.015389638 -0.3824952 0.37429833 0.16436112 0.15576184
0.18758403 -0.28432107 -0.060003467 0.0676856 0.05636681 -0.2415027 -0.0018901055 0.80325305
0.41378877 0.5965488 -0.119802855 -0.18104081 0.16229531 0.4180178 0.15124428 -0.17689326
-0.10569864 -0.08839849 -0.21610339 -0.35499904 0.061481852 0.2752934 0.033813283 0.005903347
0.18811755 -0.08733472 -0.08288747 0.23749125 -0.04939291 0.20411025 0.1417268 -0.14326856
-0.2929548 -0.26559824 -0.01977874 -0.0012585925 0.4354479 0.2512657 -0.22078979 -0.061739713
0.62217885 0.018490236 -0.13507703 -0.2811399 -0.1448038 -0.39508006 0.80794936 -0.29601082
-0.014645338 0.02286915 0.18000966 0.24249293 0.27807137 -0.25189808 -0.16280018 -0.07995235
0.5139968 0.23806491 -0.32781455 -0.6490622 0.12580717 0.27084687 -0.030071655 -0.19451602
0.24425897 0.12584198 -0.30408522 0.012417148 0.120160505 -0.13160932 0.37116975 0.23567641
0.13663967 0.43496224 -0.14148125 0.5098735 -0.18491717 0.14975142 -0.42472172 0.3591155
0.45999777 0.008338911 -0.12201027 -0.16152205 0.19314776 -0.0020541523 -0.16766968 -0.11098522
-0.022186922 0.3246829 -0.11513674 0.099306494 0.7646628 -0.008966317 -0.05079601 0.18228585
-0.33455905 0.04410226 0.63796085 0.10872649 -0.29378515 0.3676384 -0.3741176 -0.1872548
0.024902474 0.010328669 -0.24054714 0.1912391 -0.05304022 -0.2679031 -0.23294912 -0.0894645
-0.21588321 -0.22380364 -0.49169964 -0.33080557 -0.23347218 0.880582 0.053272463 0.058364455
-0.092147335 -0.25483164 -0.07390414 0.3170211 0.29565066 -0.07138915 -0.036673713 0.21915439
0.7475897 0.02628508 0.3158524 -0.39281058 0.012082593 -0.13796173 0.23797615 -0.032658577
00000000: db3b 8e3e 7bec f93d e3c4 503d 84bc 52be
00000010: 0f37 923d 9efc 64bd ad0b 9abe da55 6c3d
00000020: 300a 4dbe 2011 b2bc 0ad8 55bd adce d5bd
00000030: 438f 3bbd 3557 03bf 3b5b 41be b5c5 db3e
00000040: a097 9e3d 4635 8b3e bdaf 1ebd fe3f 45be
00000050: 28ad 5d3e 3b7b 0c3e fae5 a3be 15de afbd
00000060: 1d17 57be 1345 7bbe 3b0b c7bd 9c8c c4bc
00000070: 393d 633d e12a 133b ecc4 25be 2cf1 1c3e
00000080: f687 9d3e 5c9f 6abd 4ecc 193e f23b 81bd
00000090: fc65 113f fc58 49bf 38f8 bd3e d46d 02bf
000000a0: be15 d23d 37b0 73bd ad21 e83d ac4c 99bd
000000b0: 365c 913e ae2a b1bd f122 123f 17a2 05bf
000000c0: a2d8 bfbd 88c5 db3c 78b8 0cbd cfb3 4cbe
000000d0: 99a0 9abd 35e2 80bd 0c54 aabd daaa 9c3d
000000e0: 53b0 43be 06f9 893e 01d9 91bd d224 7c3c
000000f0: 69d6 c3be 08a4 bf3e 484e 283e 0880 1f3e
00000100: 0716 403e 8892 91be 32c6 75bd bf9e 8a3d
00000110: e2e0 663d 7c4c 77be 6bbd f7ba fea1 4d3f
00000120: 1fdc d33e 6cb7 183f 335b f5bd c362 39be
00000130: be30 263e 6e06 d63e c8df 1a3e 8223 35be
00000140: 8778 d8bd 440a b5bd 354a 5dbe 6fc2 b5be
00000150: 65d4 7b3d 42f3 8c3e cc7f 0a3d dd70 c13b
00000160: e3a1 403e 8cdc b2bd e8c0 a9bd e830 733e
00000170: 3850 4abd 4702 513e d520 113e feb4 12be
00000180: 2cfe 95be 7efc 87be 0607 a2bc 5bf7 a4ba
00000190: 07f3 de3e e6a5 803e b816 62be c8e2 7cbd
000001a0: 1d47 1f3f d678 973c a251 0abe 92f1 8fbe
000001b0: 7347 14be ef47 cabe c5d5 4e3f bb8e 97be
000001c0: 00f3 6fbc 1558 bb3c 7454 383e 1150 783e
000001d0: 5f5f 8e3e c9f8 80be 17b5 26be 0fbe a3bd
000001e0: 4b95 033f 4ac7 733e 4fd7 a7be f128 26bf
000001f0: 98d3 003e 71ac 8a3e d558 f6bc 352f 47be
00000200: 061f 7a3e b8dc 003e 0fb1 9bbe 4b71 4b3c
00000210: b616 f63d 98c4 06be f609 be3e 2855 713e
00000220: 45eb 0b3e 5fb3 de3e 76e0 10be 1287 023f
00000230: ed5a 3dbe 7058 193e 2075 d9be fddd b73e
00000240: d484 eb3e ee9f 083c 85e0 f9bd 0966 25be
00000250: 87c8 453e f59e 06bb 9ab1 2bbe 384c e3bd
00000260: 59c1 b5bc d63c a63e d0cc ebbd 3461 cb3d
00000270: f1c0 433f 76e7 12bc 7a0f 50bd 24a9 3a3e
00000280: 534b abbe 92a4 343d 6751 233f feab de3d
00000290: 026b 96be 1a3b bc3e 588c bfbe b9bf 3fbe
000002a0: 4600 cc3c 9439 293c fd51 76be 2fd4 433e
000002b0: b440 59bd 982a 89be 378a 6ebe 2a39 b7bd
000002c0: 7d10 5dbe c82c 65be 0ec0 fbbe 595f a9be
000002d0: 5513 6fbe d26d 613f 3a34 5a3d 910f 6f3d
000002e0: beb7 bcbd 4b79 82be 0e5b 97bd 9750 a23e
000002f0: 865f 973e 7a34 92bd 2d37 16bd 026a 603e
00000300: 0a62 3f3f cf53 d73c 68b7 a13e 781e c9be
00000310: 11f6 453c d745 0dbe 05b0 733e 00c5 05bd

decoder.conv2_t.weight f4 [8, 4, 3, 3]
-0.09174245 -0.15310349 0.07205222 -0.030458206 -0.73693514 -0.12985554 -0.50921166 -1.2033006
-0.4859702 -0.13117437 -0.17251965 0.06614157 -0.610726 -0.8688106 -0.23254171 -0.62707734
-0.88831013 -0.25654253 -0.040082198 -0.06836045 0.07307737 -0.270174 -0.71370417 -0.22726893
-0.5442871 -1.2042867 -0.45362273 -0.11127796 -0.15771273 -0.32990682 -0.065678656 -0.055501398
-0.010305587 0.015174596 -0.94042504 -0.5182163 -0.12047711 0.40988964 0.37063792 -0.15578063
0.8273815 -0.09010006 0.055010643 0.42455092 0.1569799 0.14374238 0.61139387 0.4486707
0.39310807 0.8903596 0.4463254 0.23230222 0.3995351 0.118421376 -0.118410185 0.2207162
0.27304593 0.073072836 0.65497774 0.4516168 0.13372971 0.37260675 0.11869893 -0.0688908
-0.60383725 -0.3585566 -0.0038987051 0.012491408 0.20576788 -0.028172025 -0.04953951 0.054207508
0.022554236 0.25877202 0.37878704 0.083015785 0.6567223 0.02153305 0.031353097 -0.08035147
-0.18675746 0.11514669 0.54944456 0.43917862 0.43944156 0.6643933 0.31326193 0.08684428
-0.04649997 -0.15743044 -0.07948673 0.16150065 0.25603107 0.1786808 0.5923159 0.38887772
0.20866112 0.09225121 -0.08766931 -0.20570363 -0.51443374 -0.18393278 -0.104212455 -0.011082185
0.09404727 -0.1623805 -0.6186396 -0.4054413 0.0061190426 -0.60207623 -0.51724815 0.06370377
-0.5060793 -0.08758759 0.12730643 0.48074666 0.37592226 -0.25877702 -0.7007605 -0.3463704
-0.11619841 -0.14721105 -0.044827785 0.32939428 0.55560774 0.26766682 0.07950412 -0.40915903
-0.43919852 -0.17735614 -0.56787294 -0.3288127 0.107565865 0.2957481 0.16634035 -0.18420208
0.19666213 -0.15903315 -0.24027996 -0.0646661 0.15081719 0.25618204 0.6265781 0.25003606
-0.32493925 -0.44330743 -0.34011832 -0.023408564 -1.0443554 -0.13506603 -0.63247985 -0.8410361
-0.20312238 -0.45958504 -0.64923847 -0.20775527 -0.7873507 -0.7815243 -0.22438414 -0.5396449
-0.4938941 -0.15339549 -0.24184828 -0.4724737 -0.27444908 -0.49058703 -1.39734 -0.34569228
-0.54634494 -0.9251889 -0.269221 -0.24975666 -0.38877463 -0.31195018 -0.4160578 -0.071000986
-0.0154677285 -0.5680636 -0.31111392 -0.11231944 0.17377694 -0.154918 -0.75235164 -0.020161606
-0.4211558 0.13852589 0.22793049 -0.21222433 -0.47728541 0.10081552 -0.41724485 -0.84173036
0.1520242 -0.5347995 -0.8428951 0.0799076 -0.29617095 -0.28868034 0.21019153 0.011324018
-0.38952723 0.22608207 -0.171422 -0.5660503 0.27343208 -0.18032503 -0.32646275 -0.17440149
-0.0582092 -0.08756665 -0.12306198 0.056509815 -0.49308893 -0.08219361 -0.2429972 -0.45558286
-0.06723895 -0.38003725 -0.30250835 -0.044403903 -0.059288282 -0.08212791 0.12190575 0.5855084
0.48740152 -0.25374162 -0.34304708 -0.14216672 0.013521151 0.2733084 0.257048 0.41177112
0.59457785 0.34151146 -0.048142802 -0.31591216 -0.2687323 -0.11330607 -0.14174095 0.0035475804
0.2121124 0.45097536 0.3294324 0.025426023 -0.08858411 -0.0022036852 -0.02905389 -0.09330889
0.1747878 0.34065244 0.61337453 0.38720378 -0.0028688596 0.4512294 0.53692937 0.022696557
00000000: 77e3 bbbd 29c7 1cbe 1d90 933d 7d83 f9bc
00000010: c8a7 3cbf daf8 04be b25b 02bf c105 9abf
00000020: 16d1 f8be 9352 06be fea8 30be 3b75 873d
00000030: 8a58 1cbf 5f6a 5ebf 6a1f 6ebe 2488 20bf
00000040: 4b68 63bf 8b59 83be 3b2d 24bd 9000 8cbd
00000050: 97a9 953d 3f54 8abe 51b5 36bf 30b9 68be
00000060: 6656 0bbf 1126 9abf 3d41 e8be b3e5 e3bd
00000070: 727f 21be 8ce9 a8be 8882 86bd 6f55 63bd
00000080: c4d8 28bc de9e 783c b2bf 70bf d3a9 04bf
00000090: b4bc f6bd 0edd d13e 41c4 bd3e f584 1fbe
000000a0: 46cf 533f 6186 b8bd d752 613d bd5e d93e
000000b0: 57bf 203e 3431 133e 4f84 1c3f 2ab8 e53e
000000c0: 7645 c93e 9bee 633f c384 e43e a2e0 6d3e
000000d0: dd8f cc3e e886 f23d 0a81 f2bd 6d03 623e
000000e0: adcc 8b3e 36a7 953d 9fac 273f 513a e73e
000000f0: 71f0 083e 50c6 be3e 6d18 f33d 9f16 8dbd
00000100: 1495 1abf bb94 b7be 6b81 7fbb c3a8 4c3c
00000110: d1b4 523e 05c9 e6bc f1e9 4abd b108 5e3d
00000120: a9c3 b83c c47d 843e 60f0 c13e 2e04 aa3d
00000130: f41e 283f 1466 b03c 1b6c 003d 508f a4bd
00000140: 593d 3fbe 07d2 eb3d 66a8 0c3f 05dc e03e
00000150: 7cfe e03e ae15 2a3f de63 a03e 6adb b13d
00000160: c176 3ebd 7235 21be f0c9 a2bd 6d60 253e
00000170: 8116 833e 1af8 363e 04a2 173f fb1a c73e
00000180: 43ab 553e 34ee bc3d f88b b3bd f9a3 52be
00000190: eeb1 03bf e058 3cbe 576d d5bd 0e92 35bc
000001a0: db9b c03d 1347 26be 2a5f 1ebf 0196 cfbe
000001b0: 4082 c83b ab21 1abf 606a 04bf 1f77 823d
000001c0: 6a8e 01bf 1f61 b3bd 9e5c 023e 6d24 f63e
000001d0: e278 c03e 6c7e 84be 0a65 33bf 7657 b1be
000001e0: 6ff9 edbd 7ebe 16be 579d 37bd 5ea6 a83e
000001f0: 4f3c 0e3f a00b 893e 0ed3 a23d 4b7d d1be
00000200: a1de e0be d99c 35be 1f60 11bf 235a a8be
00000210: 7e4b dc3d 4c6c 973e 2055 2a3e 789f 3cbe
00000220: cc61 493e 96d9 22be f30b 76be a96f 84bd
00000230: d26f 1a3e 4b2a 833e 6c67 203f ba04 803e
00000240: 705e a6be 31f9 e2be fd23 aebe 51c3 bfbc
00000250: 70ad 85bf c04e 0abe 33ea 21bf 244e 57bf
00000260: 50ff 4fbe bb4e ebbe 7e34 26bf ccbd 54be
00000270: d18f 49bf fa11 48bf f5c4 65be 2b26 0abf
00000280: b0df fcbe b513 1dbe 13a7 77be 13e8 f1be
00000290: 9784 8cbe 392e fbbe 0adc b2bf 94fe b0be
000002a0: 43dd 0bbf 2ed9 6cbf 56d7 89be 36c0 7fbe
000002b0: 780d c7be efb7 9fbe 8705 d5be f768 91bd
000002c0: 5b6c 7dbc 9e6c 11bf 534a 9fbe bc07 e6bd
000002d0: 95f2 313e d3a2 1ebe 1e9a 40bf f429 a5bc
000002e0: bca1 d7be bbd9 0d3e 9c66 693e 5651 59be
000002f0: c15e f4be 5e78 ce3d 1ea1 d5be a47b 57bf
00000300: 3bac 1b3e 9fe8 08bf f9c7 57bf 99a6 a33d
00000310: b8a3 97be e9cd 93be 733c 573e 6088 393c
00000320: 1d70 c7be 0f82 673e 4089 2fbe ace8 10bf
00000330: 4aff 8b3e 20a7 38be 2026 a7be 4e96 32be
00000340: c56c 6ebd 2556 b3bd eb07 fcbd d676 673d
00000350: 2776 fcbe 2055 a8bd 42d4 78be 2842 e9be
00000360: 93b4 89bd 3e94 c2be 60e2 9abe dee0 35bd
00000370: 45d8 72bd ad32 a8bd b9a9 f93d e1e3 153f
00000380: b18c f93e 6cea 81be dea3 afbe 2794 11be
00000390: d187 5d3c 14ef 8b3e cc9b 833e aad3 d23e
000003a0: 4136 183f 97da ae3e 6331 45bd 3dbf a1be
000003b0: 4897 89be 030d e8bd 8a24 11be 867e 683b
000003c0: fe33 593e 3ee6 e63e 5dab a83e 3c4a d03c
000003d0: 966b b5bd b46b 10bb 6c02 eebc bb18 bfbd
000003e0: 93fb 323e ff69 ae3e 1d06 1d3f 933f c63e
000003f0: 7a03 3cbb 8a07 e73e 3474 093f 21ee b93c

decoder.conv2_t.bias f4 [4]
-2.5771341 -1.3806496 -0.67262435 -0.7069755
00000000: c4ef 24c0 20b9 b0bf 1c31 2cbf 59fc 34bf

decoder.conv1_t.weight f4 [4, 1, 5, 5]
0.01143702 -0.0123457685 -0.010237097 0.011023688 -0.0052276785 -0.0048386874 -0.17996997 -0.23904622
-0.15685911 -0.10734163 -0.13130747 -0.49324492 -0.6000757 -0.40896 -0.25949702 -0.19414335
-0.5169632 -0.52044743 -0.28639144 -0.1788204 -0.082551464 -0.21566744 -0.152235 -0.06136081
-0.049612902 0.010104077 0.0050335904 -0.017622149 0.02073703 0.038540367 0.0052020946 -0.0616325
-0.058008187 0.08296277 0.08817468 -0.007950337 -0.062428497 0.1540095 0.50667655 0.33415043
-0.00023974494 -0.005099103 0.46142203 0.80204016 0.41858926 -0.0028052365 -0.00836763 0.30216783
0.42201284 0.15219732 -0.04319057 -0.07731349 -0.034926515 -0.1138771 -0.13987097 -0.041365854
0.19054684 0.35153896 0.06580241 -0.116064504 0.025651041 0.48473683 0.6955971 0.15767898
-0.11457914 -0.044852775 0.29880476 0.27785203 -0.22745597 -0.25678986 -0.07407545 0.056942742
-0.09757962 -0.30686462 -0.1371953 0.009839568 -0.027265165 -0.098715894 -0.085772425 0.005673718
-0.08157666 -0.18047798 -0.24730219 -0.18449299 -0.03906282 -0.14375557 -0.25920576 -0.1435608
0.030266132 0.049791537 -0.10746806 -0.056337036 0.38410944 0.5880327 0.29890683 -0.03284923
0.19104011 0.6150898 0.63756007 0.28297812
00000000: 5762 3b3c e845 4abc 7fb9 27bc b39c 343c
00000010: f24c abbb da8d 9ebb 0c4a 38be 88c8 74be
00000020: ad9f 20be eed5 dbbd 7775 06be 998a fcbe
00000030: 909e 19bf 3563 d1be cbdc 84be 84cd 46be
00000040: b357 04bf 0b3c 05bf e6a1 92be b21c 37be
00000050: be10 a9bd edd7 5cbe 7ee3 1bbe 7955 7bbd
00000060: e636 4bbd 928b 253c d1f0 a43b 535c 90bc
00000070: b4e0 a93c 81dc 1d3d 5576 aa3b 5c72 7cbd
00000080: fe99 6dbd 62e8 a93d ed94 b43d 2142 02bc
00000090: 06b5 7fbd abb4 1d3e 8eb5 013f c415 ab3e
000000a0: 0b64 7bb9 6016 a7bb 823f ec3e 8152 4d3f
000000b0: 5551 d63e 0fd8 37bb 6218 09bc beb5 9a3e
000000c0: 1112 d83e 9dd9 1b3e 98e8 30bd 8956 9ebd
000000d0: 1b0f 0fbd 6638 e9bd 563a 0fbe 3e6f 29bd
000000e0: b61e 433e eafc b33e 6ac3 863d 3ab3 edbd
000000f0: 2222 d23c 6d2f f83e a712 323f 9976 213e
00000100: 78a8 eabd 8bb7 37bd f0fc 983e 9f42 8e3e
00000110: 38ea 68be f679 83be dfb4 97bd cb3c 693d
00000120: d3d7 c7bd 5c1d 9dbe ed7c 0cbe 2436 213c
00000130: 325b dfbc 8f2b cabd 74a9 afbd 99ea b93b
00000140: aa11 a7bd 38cf 38be c93c 7dbe bbeb 3cbe
00000150: 5600 20bd a934 13be 9eb6 84be 9a01 13be
00000160: aef0 f73c 36f2 4b3d 3718 dcbd aac1 66bd
00000170: fea9 c43e 5089 163f 510a 993e ea8c 06bd
00000180: 05a0 433e 8676 1d3f 2337 233f 82e2 903e
