4_AutoEncoders/models/q2_parms_nc_100.pt (torch, 168001 bytes, 11 tensors)

encoder.conv1.weight f4 [4, 1, 5, 5]
00000000: 7c69 f63c 4076 65bc 81db 69bc af97 673d
00000010: ab1e 513d de08 95be 2f2c 66be 24d2 cfbe
00000020: a10c 81bd d8e4 50bc 7f2e 60be 2a6a e3be
00000030: 7711 3bbe b2ee 8cbd ecb8 aa3c f892 b2be
00000040: 2080 c5be b9c7 67be 5563 15be 0a98 c93a
00000050: 5c4c 0cbe f100 bdbd 36cd 95bd 55b9 523d
00000060: 3c04 473d f83f cabb a71d 0bbd ada4 d2bc
00000070: f2ec db3c 5cfc 153c cd59 18ba 37ec 52bc
00000080: 31e4 413d 9f34 89bc 907a d3bb 28b7 07bb
00000090: bb96 5db9 d70a bdbd 4c13 5fbe 70da 0abe
000000a0: eb89 013d b128 eabc 5a14 20bc 262f 8d3e
000000b0: 56f4 393e 9512 1ebd 3df2 5abb f3af 073e
000000c0: 9c9b 883e 4eec 873e 6a9c ae3b 6d6f e33c
000000d0: 3025 ef3c 713b c8bc 3d40 7cbd fdc3 603c
000000e0: 0bae 9fbd b84b 783d 8e73 11bb 126b ecbc
000000f0: 17aa 9c3c 182a 55bd d165 b93d 7b48 debd
00000100: f43a d1bd 2213 c9bc 7f0e aebc 6c01 7f3e
00000110: 0d62 3fbe d430 e5be e6ef 8ebc 31db a9bd
00000120: 2539 563e 167c 2e3e f180 023e 03e4 93bb
00000130: fb0a 38bc 2b61 0d3c 7d9e 8ebc 49c6 4a3c
00000140: 0592 b23a 2f28 db3d 06f6 9d3d 26a7 7fbc
00000150: 71a0 3bbb fe01 033e cfab b43e a086 5b3e
00000160: 9d20 df3c e673 913b 3fb0 ca3d 0358 4f3e
00000170: b53f d63d 1609 473d 679f fe3c 103b 2abc
00000180: e065 76bd d82e ccbd aa4d 96bc 3b71 82bc
0.030079596 -0.014005244 -0.014273525 0.05654114 0.051054638 -0.29108328 -0.22477792 -0.40590012
-0.06301237 -0.012749873 -0.21892737 -0.44416934 -0.18268381 -0.06881465 0.02084013 -0.34877753
-0.38574314 -0.22634782 -0.14588673 0.0015380394 -0.13701004 -0.09228695 -0.073145315 0.051446278
0.048588023 -0.0061721765 -0.033963826 -0.02571329 0.026846383 0.009154405 -0.0005811721 -0.012873701
0.04733676 -0.016748725 -0.0064538196 -0.0020708535 -0.00021132354 -0.09230583 -0.21784705 -0.1355989
0.03162567 -0.028583856 -0.009770477 0.27575034 0.18159613 -0.03859194 -0.0033408545 0.13250713
0.2668122 0.26547474 0.0053287046 0.027763093 0.029192537 -0.024442406 -0.0615847 0.013718602
-0.07796868 0.060619086 -0.002219412 -0.028859649 0.019124074 -0.052042097 0.09052623 -0.10853668
-0.102163225 -0.024545256 -0.021247147 0.24902886 -0.18689747 -0.44763815 -0.017448377 -0.082937606
0.20920236 0.17039523 0.127445 -0.004513265 -0.011233087 0.008629124 -0.017409557 0.012376376
0.001362384 0.10701024 0.07712941 -0.015603816 -0.0028629566 0.12793729 0.3528733 0.21438074
0.02723723 0.004438865 0.098968975 0.20248418 0.1046137 0.04859265 0.031081868 -0.010390058
-0.06015575 -0.09969872 -0.01834758 -0.015923133

encoder.conv1.bias f4 [4]
00000000: da14 493f 2e77 ed3e c187 4b3e a3fd 003f
0.7854744 0.4637999 0.19876005 0.5038702

encoder.conv2.weight f4 [8, 4, 3, 3]
00000000: e517 d1bd 0581 293d 08a2 023c 9efb 5f3e
00000010: 72f7 30be bdc2 40bb 7344 ff3b 76d7 0cbf
00000020: 4bd7 4b3e ab76 d7bd 5519 823d ad10 a33d
00000030: bc0e 1c3e 7cb9 943d 1102 c83d 61d4 f13c
00000040: a455 72bd 0d27 ef3d 6c69 f93c 5d27 193d
00000050: a893 213d 2c4a b13d fc50 833d a8b4 1b3d
00000060: bf24 873d be86 d13c cfad 4b3d bcf9 0a3e
00000070: 4986 a8bc 21c6 4a3d d7b4 83be 9688 bb3e
00000080: 97f1 333c 594d a9bc 11b6 e73e 26bb 9fbe
00000090: 7e78 b9bd e52b f93c 6ade 823d 089a 443e
000000a0: 872a 93bd 75ec 9bbe 1c31 91be ea48 ea3e
000000b0: 51aa cf3e 82dd 78ba ebdc aa3d 78f9 0a3e
000000c0: e0ca 923e ca4e abbd 0ce8 d53e 072b a1bd
000000d0: 693b 50bd ed88 143f 0f0c 2d3d dc9c 133e
000000e0: 02d7 013e 2c22 223e f9bd 6f3d eb43 0d3e
000000f0: 3bca 363e f55e 5dbd a861 0d3e 4d7b 0c3e
00000100: 6239 8fbd d385 25bd d91e 6bbe 9327 b13e
00000110: 4289 803e 4c6e 853e 9612 23bf d22e 0abe
00000120: e148 82bc f79e 1e3d 3a95 293d 05a4 cb3d
00000130: 8d33 4cbe 1611 113f 9c65 d63b d6d0 fb3c
00000140: f898 a23d 242d ee3d fe7f ca3d d6e8 a13e
00000150: 8927 b23b b867 f8be 3acc 1c3e cddd c23d
00000160: 8718 a43e 7a1e f33e b105 0d3d 37b7 713d
00000170: 80fd 083e 260f 193e 9b8f b3bd 22e0 95bc
00000180: fb0c ba3e f76c 6c3e 498b dc3d fa47 353d
00000190: ee14 0abd fc36 2c3e 3a08 86bd 6bdc 3d3e
000001a0: 4631 3fbf ddb9 9cbc a2aa de3d dea1 c73e
000001b0: 13e5 9b3d 8860 ccbd e74b 45bd 4e32 35be
000001c0: f23b 03be beb9 ee3e b16e 10be d81b 84bc
000001d0: c883 133f d771 f33d f957 05be 6c5a 203d
000001e0: 622d 603d 62da 82bc ec4c 14bc e8c7 1fbe
000001f0: 727b 3ebd be3f 2cbe 4be9 a2bd b05c c6bd
00000200: 3cb7 17be 7469 b43d 9a7d 1d3d 8872 94be
00000210: 22c0 0d3e 8c91 16be d74b 8ebe 8fd9 9dbd
00000220: 42f2 533d 899d dd3c 1807 32be 8444 153c
00000230: eace 02be 7d18 c2bc 4ea8 42be e7c6 3ebe
00000240: dc42 373d 8e70 36b9 277b d23d e470 ab3d
00000250: 2db6 35bf 08e3 0d3d 7058 2f3d 54ef bf3e
00000260: 71ea 59bd 0913 8b3e d039 9a3d 668f 503c
00000270: 46cc 823e 1723 e3bd e3e0 40bd d9e9 f7bb
00000280: 4c21 993d 2908 343d c3eb 453d 2544 2e3c
00000290: 4e7a 0e38 b8fa 333d 708d 903d bd3e 13bb
000002a0: 0eab 49bc 858b 5c3c fd42 573c 3aff 193d
000002b0: 584b 01bc 8fb8 1dbd e1c7 053e 456f 133f
000002c0: 54eb adbd ac19 d4bc 2ee1 d4be c1e6 873e
000002d0: 36e3 e0bd 63b8 003c 9feb ccbd fcd9 a7bc
000002e0: 81ed e2bd 64df ae3b 0ef3 b73d af49 0d3e
000002f0: 50cb 1dbe 015b e63c 9fcb 02bd 680c b63d
00000300: b8e2 4d3d 68f3 dfbd 23e0 6a3d ecd2 ccbc
00000310: 2cc7 82bd 1904 b2bd 6dc3 613c 2c32 45bd
00000320: 58db bebd 6e24 00bd 4368 46bc 3114 ce3d
00000330: 5433 97bd 3422 323d 2620 aebd dcf0 f6bd
00000340: 9532 20be 619a b4bd eb2f 0abe 8c5c 96bd
00000350: 58b0 1abd 0620 00be 6b95 17be 6bc4 b3bd
00000360: b6e6 1dbc bc37 58bc 80e1 513d 1870 bcbc
00000370: 648f 8f3d 9de8 77bd 85c7 2dbd 3230 8a3d
00000380: d80e babe d613 983b c548 95bb 5292 d83d
00000390: 719d a53c 43b1 c43b dce2 323e a2db b43d
000003a0: eaac 943e 1a32 8c3e 4686 e43b 6a9c 383d
000003b0: acbc 633d 9fe7 563c 0653 eabb 2ef6 603d
000003c0: 7da5 123d 2913 833d d91c b93d 4356 6e3c
000003d0: b7fd 983c 9586 6e3b 0f29 d93b 03ea 10bd
000003e0: 9230 e43d 3088 813d 29fb b53c 67a0 133f
000003f0: 3d70 d23d 61ab 7b3e 293a aa3d ab10 603e
-0.10209636 0.04138281 0.007973202 0.21873328 -0.17281893 -0.0029412948 0.007790142 -0.5501627
0.19906346 -0.10520681 0.06352488 0.07962165 0.15239996 0.07261941 0.09766019 0.029520215
-0.059163705 0.1167737 0.030445777 0.037391055 0.039447457 0.08656725 0.06411931 0.038014084
0.06598806 0.025576945 0.049726304 0.13571829 -0.020571845 0.049505357 -0.25723907 0.36627644
0.0109828925 -0.020666765 0.45256093 -0.3119747 -0.09056185 0.030416438 0.06390078 0.19199383
-0.07185846 -0.3045384 -0.2835778 0.45758754 0.4055963 -0.00094934565 0.08342918 0.13571727
0.28670406 -0.08364637 0.417786 -0.07869535 -0.050837908 0.5802143 0.042247828 0.14415306
0.12679675 0.15833348 0.05853078 0.1379544 0.17850582 -0.054045636 0.13806784 0.1371891
-0.06993367 -0.040410828 -0.22960986 0.34600505 0.2510472 0.26060712 -0.63700235 -0.13494423
-0.015903892 0.03872582 0.04140208 0.099433936 -0.1994154 0.56666696 0.0065428745 0.03073923
0.07939333 0.11629704 0.09887694 0.31622952 0.005436842 -0.4851663 0.15312281 0.095149614
0.32049963 0.4748419 0.034429256 0.059012618 0.13377953 0.14947185 -0.08767625 -0.018295351
0.36338028 0.23088442 0.10768754 0.044258095 -0.033711366 0.1681785 -0.06544538 0.18541114
-0.7468456 -0.019131595 0.108723894 0.38990682 0.07612052 -0.099793494 -0.04816809 -0.17694971
-0.12815836 0.46626085 -0.14104725 -0.016126558 0.5762296 0.118869476 -0.1302184 0.039148733
0.05473078 -0.015973274 -0.009051543 -0.15603602 -0.046504445 -0.1682119 -0.07954653 -0.096856475
-0.14815992 0.08809176 0.03844986 -0.2899363 0.13842824 -0.14703959 -0.27792236 -0.07707512
0.051744707 0.027052658 -0.17385519 0.009110574 -0.12774244 -0.023693318 -0.19009516 -0.18630563
0.044741496 -0.00017398802 0.10277396 0.083711416 -0.70981103 0.034640342 0.04280895 0.3748728
-0.053202096 0.2716296 0.07530558 0.012729501 0.25546473 -0.11090677 -0.04708947 -0.0075657186
0.07477054 0.043953095 0.048320543 0.010636364 3.3969343e-05 0.043940276 0.07058227 -0.0022467815
-0.012308849 0.013460998 0.01313853 0.03759692 -0.0078914985 -0.038506087 0.13064529 0.5759166
-0.08492151 -0.025891148 -0.41578048 0.2654324 -0.10980837 0.007856461 -0.10005879 -0.020489685
-0.110804565 0.005336689 0.08981906 0.1379764 -0.15409589 0.028119566 -0.03193247 0.08889085
0.050265044 -0.10935098 0.05734266 -0.02500292 -0.06385645 -0.08692188 0.013779503 -0.04814355
-0.0931918 -0.031284742 -0.012109819 0.10062445 -0.07382837 0.04348965 -0.085022256 -0.12057659
-0.15644296 -0.08818508 -0.13494842 -0.07341871 -0.03776583 -0.12512216 -0.14803092 -0.08777698
-0.009637525 -0.013196882 0.051240444 -0.02300267 0.070097715 -0.06052457 -0.042426605 0.06747474
-0.3633945 0.0046410365 -0.004555794 0.105747834 0.020216675 0.0060025766 0.17469352 0.08830954
0.29038173 0.27381974 0.0069740145 0.045071043 0.055599853 0.013116746 -0.0071510104 0.054922275
0.035802353 0.06400139 0.090387054 0.014546934 0.018675668 0.0036396135 0.006627209 -0.03537942
0.111420766 0.06324804 0.022214489 0.5766663 0.10275314 0.24577095 0.083118744 0.21881358

encoder.conv2.bias f4 [8]
00000000: 0506 8a3f fa07 433f abd3 213f 70e6 543e
00000010: 7ade 433f 02d5 84bd 758f d53e 2847 113f
1.0783087 0.76184046 0.63213605 0.2079103 0.7651135 -0.064859405 0.41711012 0.567492

encoder.linear.weight f4 [100, 200]
00000000: 9113 583b a4f5 a8bc 7f3c 743c 787d 9cbd
00000010: 9075 a2be 312c 6c3c c0cb 393d 32cd 763d
00000020: 1ade 88be f2ee 85bd 30bb efbc 6572 bbbd
00000030: d22c 983e 43ce 463d bcea 103e b1ea 173d
00000040: 77fc f5bd 9062 683c 062d 24be fabd b6be
00000050: 5c98 b53c 89d8 c83d ed76 0a3d 4614 673d
00000060: 11e9 733d a9e6 adbc a81b 00be fffb a5bd
00000070: 0cf9 28be 77cd 333e 8329 c3bc b138 cabd
00000080: 72ce 9a3c 959d 993c 1ce4 22be a439 ebbb
00000090: 9971 5ebd 1df8 ff3b fd9d a83c 3cad 85bd
000000a0: 39d2 8fbd baa4 4c3d 7d35 8bbc eb34 3fbd
000000b0: 2237 1a3d dd65 583d 7892 18be 2427 a73d
000000c0: ce68 683d a8da 5abd 9969 c23c e275 293e
000000d0: d968 023e 6a3f e83d cad2 353d f819 9c3d
000000e0: fbc7 f53d 9ede d1bd 91cf bcbd c68e 8dbd
000000f0: 3917 28bb 6173 303e efdc 083d c091 413d
00000100: 3865 153d dc51 083d 113a c7bd ca8c dbbd
00000110: b580 69bd 4deb 103d 6217 963b ae56 c8bd
00000120: 84af 123e 3f49 473d 097c 0cbe 8bb5 a3bd
00000130: 9dbd 3e3c a5f6 cbbb 8e51 d2bc 6947 d2bb
00000140: f43b 35bd aeb6 113d 8398 083d 9996 0c3d
00000150: f531 a73d db16 47bd 5cda 34bc 52d6 ce3c
00000160: abe6 adbc 22ce fabb 7b5e 84bd d4a6 a33c
00000170: 2c14 7fbd d655 e2bd 0c66 56ba 6c82 9abd
00000180: 3dda 0a3d 5f90 bf3c 041a b13c bd2d 29bb
00000190: 8ab7 1b3d 2f51 c9bd 1ad0 8ebe b4e7 d8bc
000001a0: 6f65 5cbe 7e43 263d b201 c2bd 9492 02be
000001b0: c3ca f83b c172 bcbc 7ed1 cebb 14fb 6c3d
000001c0: 32b1 17be 4170 c43d affe bbbd 37c8 7abd
000001d0: 2509 f4bc 4bcf 593c e264 123e 1e47 e1bb
000001e0: 1212 6a3d 05cf 593d bba9 933c 6042 85bd
000001f0: 9929 043d 3112 d5bc c845 d7bc 6241 8f3c
00000200: 0754 683d 0bbd 1e3d f8fe 8abc 8e92 373d
00000210: c3c0 7b3d 4023 49bc ba1b c8bc 74fe 1d3b
00000220: 345c 283d 5305 0dbd 6acc 2e3d b7f7 443d
00000230: 5c60 c7bb a03c 413c 2d30 8d3d ca83 f6bc
00000240: 76f3 61bd d7da 263d b782 283d 43be 50bc
00000250: b793 d8bc 09df 9039 25d2 123e 7bdb 873d
00000260: 650d dabb 9769 983d a34a 8d3d c8f6 403b
00000270: 68b2 e7bd b208 c9bd f6cb 0dbd 8ec5 f0bd
00000280: b037 c9bc a9ca fcbd e142 bf3d 2de4 36bd
00000290: 57a5 e53d ab76 253e b94d 98bc c692 bf3d
000002a0: 1927 a53d c3db 2f3e c6c0 323e 1a79 8a3d
000002b0: 3cc5 84bd a457 1c3d c7fa 42be 529e 913c
000002c0: 1cef 003d 9818 793d 3d06 623c 5151 ab3d
000002d0: 347b 85bc 365a e43c 3654 64bc 3126 afbd
000002e0: a84f 51bd 8734 26bc f686 5cbd c906 31bc
000002f0: 0eff 88bd 95a4 e2bc 0465 8c3d 9345 ad3c
00000300: 507d a23c 4899 c73c 7941 8b3d 1ffa 4f3c
00000310: 346f 083d 6ffb 78bd 3fb1 91bd 3d95 73bd
00000320: 211e dbbc ce96 6b3e f620 c23c 31da 33bc
00000330: be15 553c f82e f23c aee6 0abe 8e6b 3b3e
00000340: 0db0 f23d 93a7 5c3e 624f 843d bdf9 7f3c
00000350: d75b 333d d904 1a3c 43c7 9a3e b84e cdbb
00000360: 68a8 debc 2b9e 003e 442d 47ba 01e3 233e
00000370: ae03 91bc b2be aa3c 75b6 c6bd 1b29 923d
00000380: b0c6 ee3d e2fa dc3d 2f54 1abd 4226 1cbe
00000390: 40d8 803d 60df fdbd f284 debd 96c4 fbbd
000003a0: 67b9 c03c 8090 ae3d ba1a 88bd df93 423c
000003b0: 4e01 7bbc 6eb0 d73c 80a7 cfbd 3642 9ebd
000003c0: f41e 36bd 58c8 db3d 80fd 4fbd 76bf 99bc
000003d0: 70de aebd b653 bebc 14c7 0ebe 2eb2 1fbd
000003e0: 7e67 ac3b 413a 41bd d5cb ffbd bace f43d
000003f0: ccd5 c7bc 4ecf 3ebd 3e13 243d 5044 e83c
0.0032970647 -0.020624943 0.0149070015 -0.07641119 -0.31730318 0.014414833 0.045360327 0.060254283
-0.2673195 -0.06539716 -0.029264063 -0.091526784 0.29721695 0.04853655 0.14152044 0.037089054
-0.120110445 0.014183655 -0.160328 -0.35691816 0.022167377 0.09806926 0.033804823 0.05641582
0.05954844 -0.021228151 -0.1251055 -0.08104705 -0.16501254 0.17558847 -0.023823505 -0.09874094
0.018897269 0.018751899 -0.1590733 -0.007178502 -0.054307554 0.00781156 0.020583147 -0.065271825
-0.07022519 0.049961783 -0.016993279 -0.046681326 0.037650235 0.05283152 -0.14899623 0.08161762
0.056740575 -0.053431183 0.023731994 0.16548875 0.12735309 0.1134022 0.044390477 0.07622141
0.12001034 -0.10247539 -0.09219278 -0.069119975 -0.0025648607 0.17231514 0.033413824 0.04725814
0.036473483 0.033281192 -0.09727872 -0.10720213 -0.05700751 0.03538065 0.004580424 -0.09782158
0.14324766 0.048653837 -0.1371919 -0.07993611 0.011641887 -0.0062244707 -0.025673654 -0.006417204
-0.04424663 0.035574608 0.03334857 0.03432331 0.081638254 -0.04860578 -0.011038389 0.02524868
-0.021228155 -0.0076539675 -0.06463333 0.01997701 -0.062275097 -0.11051528 -0.00081786583 -0.07544407
0.033899534 0.023384271 0.02161885 -0.0025814616 0.038016833 -0.09829938 -0.27893144 -0.026477672
-0.21523069 0.04059171 -0.094729796 -0.12751228 0.0075925305 -0.023003938 -0.0063115945 0.057856634
-0.14813688 0.09591723 -0.091794364 -0.061226096 -0.029789517 0.013294051 0.14296296 -0.006874933
0.05714614 0.053175945 0.01802527 -0.06506801 0.032266233 -0.02600965 -0.026278391 0.017487232
0.05672076 0.038754504 -0.016967282 0.0448175 0.06146313 -0.012276471 -0.024427284 0.0024107965
0.041103557 -0.034428906 0.042675413 0.0480878 -0.006084485 0.011794239 0.068939544 -0.030092139
-0.055163823 0.040736046 0.041140284 -0.012740674 -0.026437623 0.00027631994 0.14337976 0.066336595
-0.006654429 0.07442015 0.068990014 0.0029443968 -0.11313325 -0.098161116 -0.03461834 -0.117564306
-0.024562687 -0.12343342 0.09338928 -0.0446512 0.11213177 0.1615855 -0.018591749 0.09354167
0.08064098 0.17173676 0.1745635 0.067613795 -0.06482932 0.038169518 -0.19040976 0.017775688
0.031478032 0.06081447 0.013795433 0.08365119 -0.0162941 0.027875047 -0.013936093 -0.08552206
-0.051101357 -0.010144359 -0.053839646 -0.01080484 -0.06689273 -0.02766637 0.06855205 0.02115134
0.019835144 0.024365082 0.06799597 0.012693911 0.033309177 -0.06078666 -0.07113885 -0.059468497
-0.026747765 0.23006746 0.023697358 -0.010977314 0.013005672 0.029563412 -0.1356456 0.18302748
0.11849985 0.215483 0.064604536 0.015623507 0.043788757 0.00940057 0.3023015 -0.0062654875
-0.027179912 0.12560336 -0.00075979927 0.16004564 -0.01770195 0.020842884 -0.0970277 0.071367465
0.116589904 0.107900396 -0.03767794 -0.15248969 0.062912464 -0.12396121 -0.10865201 -0.12293355
0.023525907 0.08523655 -0.06645723 0.0118760755 -0.015320135 0.026329245 -0.1013937 -0.077274725
-0.044463113 0.10731572 -0.050778866 -0.018768054 -0.0853852 -0.023233276 -0.1394313 -0.038988285
0.0052613607 -0.047174696 -0.1249005 0.119534925 -0.024393938 -0.04658442 0.040057413 0.028352886

encoder.linear.bias f4 [100]
00000000: 86a4 70bc f6b6 c5bd 6340 e4bd 001f e1bb
00000010: 4975 3abd 973a 8abb 62e3 11bd 17e3 b23c
00000020: 466e 9abd 68a9 17bd f9df 133c 7cbc f0bd
00000030: ed09 7e3c ada4 923d 6a5b 333d 46fd 47bd
00000040: eb61 e43c a613 173d 8aec 2dbd 7c7d 6a3c
00000050: 80b0 063d 404c a53d 250a f8bd 8477 8e3d
00000060: c875 693d 66c2 b0bd ac6d 163d 90ac 9abd
00000070: 8454 8a3d 9e4a b73d 9bfe 94bb bc25 90bd
00000080: 79eb 23bd d60d 713d 93dc ce3c f6d8 a5bd
00000090: ec53 10be a2a0 813d 206d 56bc 74dd 30bc
000000a0: 01de ae3b 84ee 8c3d 0521 d23b 466b f4bc
000000b0: 52c2 c7bd a268 043e c28c 4cbd 715b 413d
000000c0: 66ce 52bc 0791 b0bd c643 493b 049d 64bd
000000d0: f9a6 843d e6bc a43d e773 d63a b954 12be
000000e0: e867 443d 1e75 9cbc 621b b23b 2bf9 a33d
000000f0: 5289 99bd 89ab f43c d3c4 8c3d 11b2 e3bc
00000100: b666 2c3d 218a e9bd 51a2 f13d 28d5 e4bc
00000110: 1142 7ebc 9059 49bd 7f82 90bc 8332 163d
00000120: f80c ca3c 00fd 55bd 125a 973d e11e 07bd
00000130: f166 2cbd 1b85 50bd 3260 5bbb 69a5 393d
00000140: 6930 a73d c1c2 a2bd 0b58 183c 7e37 51bc
00000150: 0c1d 00be 0b60 05bc 2e5b fa3d 3ed3 89bd
00000160: a6af 723d dabc a43d 4600 17bd 1127 243d
00000170: 0399 87bd 3d47 e33d 1c87 fdbc 620f 053d
00000180: 6bdb 903d d3ea 843d 64fd 46bc 3686 253e
-0.014687663 -0.09654038 -0.11145093 -0.0068701506 -0.045522008 -0.0042184102 -0.03561724 0.0218368
-0.07540564 -0.037026793 0.009025567 -0.117547005 0.015505296 0.07160316 0.04378835 -0.048825525
0.027878722 0.036883973 -0.04246191 0.014312144 0.032883167 0.08071184 -0.1211131 0.069563895
0.05699709 -0.086308286 0.036725685 -0.07552445 0.06754401 0.08949779 -0.004546953 -0.07038447
-0.040019486 0.058851086 0.025251662 -0.08098023 -0.14094514 0.063294664 -0.013087541 -0.010794986
0.0053365235 0.06881431 0.0064126276 -0.029836308 -0.097538605 0.12930539 -0.049938925 0.047206346
-0.012866592 -0.08621412 0.0030710562 -0.055813804 0.0647716 0.08043842 0.0016361446 -0.14290132
0.047950655 -0.019098815 0.005435393 0.080065094 -0.07496895 0.02986695 0.06873479 -0.02779487
0.04209014 -0.11403299 0.117985375 -0.027933672 -0.015518681 -0.04915768 -0.01764035 0.036669265
0.024664387 -0.052243233 0.073902264 -0.032988433 -0.04209036 -0.05090819 -0.0033474085 0.045323763
0.081635304 -0.079473026 0.009298335 -0.012769578 -0.1251108 -0.008140574 0.122244224 -0.067297444
0.059249543 0.08043833 -0.036865495 0.04007632 -0.066209815 0.11097572 -0.030948214 0.032485373
0.07073101 0.06490102 -0.012145374 0.16164479

decoder.linear_t.weight f4 [200, 100]
00000000: 08e5 b23c c399 4d3e b493 15be 4a4c 493d
00000010: 837e c9bd d9e9 3f3d 4d14 3f3d 463e 6b3d
00000020: 2515 73bc 500c b33d 203b 003e fd1c 8c3c
00000030: 7da4 053d 286f 2a3d 77e0 5fbd 2335 f5bd
00000040: b002 4abe 8cd1 f93d 3cdf 8fbc fed5 37be
00000050: 26b5 a5bd 38ff ea3b edc3 2c3d 5cf1 5b3c
00000060: a486 88bd 7a91 99bc b9e2 0c3e d9fc eebb
00000070: ffd3 093e 8d72 05bd 843a 45bc f42d 833b
00000080: ba89 dbbd d713 27bc 4434 e83d 36ef 55bd
00000090: 4960 56bd c1e0 a5ba 1294 1cbd 376a fe3b
000000a0: 1b75 ccbc 3182 b73d 9c3d 213d 8138 1bbd
000000b0: 6e95 81bc 445e af3d 6f06 87bc a236 8b3b
000000c0: d070 8fbc d4fc 8bbc 1bfd cabd f748 cabb
000000d0: 64bc b43d 315a 803d 26e0 d03a 24ac 97bc
000000e0: 289c 0bbe 9fa1 20bc fe42 903d 23e3 9f3d
000000f0: 2da7 bb3d 93e3 84bd 260d 803c f719 243e
00000100: 90eb 343d c1e5 113d 56d6 61bd 85d6 f83d
00000110: 8228 493d ef5a 47bd aea9 813d 5fab 5e3e
00000120: dcd0 9dbc 4c37 0d3c 951d 8c3d 69fb febd
00000130: 0694 ddbd fb95 08be 18b4 043e 0219 c63d
00000140: 7316 f93d 5fcf 8b3d 78b1 49be 7763 213d
00000150: eb01 6ebd 8175 15bd a597 1e3c d554 5cbc
00000160: 67ad 653d 5e4c 153c b642 f9bd 07f6 353e
00000170: 2b70 cbbd a78d 373e 51e1 c93d 91bf 823d
00000180: 3398 e7bc b511 f2bc af8f 0a3e 6a16 143d
00000190: 9b6e a6bc 1cfe d1bd cc34 bdbc 3126 523d
000001a0: e8ac 69bd 7cb6 9abd eba5 b33d f5d5 b9bc
000001b0: b8f9 98bc 924e 4a3c 5a90 f53d a696 f93c
000001c0: 64bf 0d3e 9e54 c43d 0cdb 853b d4fc 95bd
000001d0: fc55 f03d fb5e e13c 8fbd bcbc 792e 463d
000001e0: 9a8c 023d 7e9a debd dc2c 1cbd 98a1 0fbd
000001f0: d70b 4dbd 1cb7 c43d 5628 1fbd d0d6 963d
00000200: e831 6cbd 4e67 b13d c1b1 1f3e aa01 93bd
00000210: 6cf6 cd3d 9fb2 083e e2a4 b03c c3a0 8dbd
00000220: ab54 44be db26 2f3d 0870 57bd c89c 003d
00000230: 90f7 253d a5a8 8bbd bad8 303b ed1e 863d
00000240: 201f 443d 7487 503d b317 16be 7b46 9fba
00000250: 90e5 8d3d 38bb fb3d 0218 453e a619 a13d
00000260: 5347 82bc a830 aa3d 654f 533d 5cb0 6f3c
00000270: 0c12 c9b9 c9ae 893d 241b e5bd 8d8b fc3c
00000280: 44fc 903d fcaf 72bb 71ca f03d 5ebc 59bc
00000290: 9586 1bbd 7292 cdbd 5841 263e 9c3a a9bc
000002a0: c5e4 30bc 87f1 7abd 4b49 4d3d 072c bcbc
000002b0: 2317 b83d 7931 653e dfe3 babd d60c 173e
000002c0: 9fd1 24bd f35d 07bc 165e 96bd e851 49be
000002d0: 28cc 18bd 17c7 3a3d 2394 73bd 1054 91bc
000002e0: 8955 ef3b 30fa c6bd 1ccd 99bc a16a 093c
000002f0: aba0 fc3d 0d31 11bc b6ed d1bd a17d e1bd
00000300: c1b1 ca3d 3c13 72bd 6380 0c3b 262e acbd
00000310: 6349 613d 64ae 743d d4eb 82bc 50bb 033e
00000320: a0e1 ed3c d9c2 793d b158 043c 953b 8d3d
00000330: eccb 113e 82c4 8cbd 4fcf 5dbc 7976 8c3d
00000340: ec50 1f3d c4fc 8bbd 7448 113c 8bbd 0fbc
00000350: b960 8dbd 94ce debd 35e7 f3bc 9b02 c3bb
00000360: abdd 053e fef9 713d 12a5 9d3c 9617 23bd
00000370: 4be4 cfbc 4cf5 833c c6b8 e0bd de03 d23d
00000380: 00c6 5ebd 735c f0bd e584 17be f4b3 aabd
00000390: 5e97 7cbd f27d 523e bbcf 8dbc 43bf f9bd
000003a0: 0a3c 30bd 0cdd efbd eccc ffbc 5c2a 1fbd
000003b0: 2ffe 26be c256 5b3d 2f3c bb3d 4db8 063d
000003c0: 8bb6 d3bd fcb7 ee3c db42 163d 3cac e6bd
000003d0: d7a5 01bd e567 abbd a81f 76bd e690 5d3b
000003e0: a114 533c 188e d03d d206 49bd 2f78 c9bd
000003f0: 0ce4 993d 4313 2c3e 8480 793c bad7 ff3d
0.021837726 0.20078187 -0.14607126 0.04914502 -0.09838583 0.046853874 0.04665022 0.057432435
-0.014836584 0.08742583 0.12522554 0.017103666 0.03262757 0.041609913 -0.054657426 -0.11973026
-0.19727588 0.12198171 -0.017562501 -0.17952725 -0.08091192 0.0071715377 0.042179037 0.013424244
-0.06666306 -0.018746126 0.13758363 -0.0072933254 0.13459776 -0.032579947 -0.012037877 0.004003281
-0.10719629 -0.010197601 0.11338094 -0.052230082 -0.05233792 -0.0012655483 -0.03822715 0.0077641266
-0.024958184 0.08960379 0.039365396 -0.037895683 -0.015818324 0.085629016 -0.01648256 0.004248456
-0.017509848 -0.017088331 -0.09911557 -0.006173249 0.08824995 0.06267203 0.0015935942 -0.0185147
-0.13633788 -0.0098041585 0.07044028 0.07806995 0.091627456 -0.06488719 0.01563127 0.1602553
0.044169962 0.0356195 -0.055136047 0.12150291 0.049110897 -0.048670705 0.06331192 0.2174506
-0.019264631 0.008619141 0.0684158 -0.124502964 -0.10819249 -0.13338463 0.12959325 0.096727386
0.12162485 0.06826662 -0.19696605 0.039401498 -0.058107298 -0.036489014 0.00967971 -0.01344796
0.056073572 0.009112446 -0.12170927 0.17769633 -0.09933504 0.1792513 0.09857429 0.06384195
-0.028270816 -0.029549459 0.13531373 0.03615419 -0.020316413 -0.10253546 -0.023096465 0.051305953
-0.057049662 -0.075543374 0.08771881 -0.02268503 -0.018673763 0.012347834 0.119904235 0.030467343
0.13842541 0.09586452 0.0040849503 -0.07323614 0.1173515 0.02751111 -0.023039607 0.048384164
0.03187237 -0.10869311 -0.03812872 -0.035066217 -0.05006012 0.09605238 -0.038856827 0.07365191
-0.05766478 0.08662282 0.15595151 -0.07178052 0.10056767 0.13349389 0.021562997 -0.069154285
-0.19172923 0.042761665 -0.052597076 0.03139952 0.040519297 -0.06819276 0.0026984648 0.065488674
0.047881246 0.05091043 -0.14657478 -0.0012151742 0.06928551 0.122915685 0.1924744 0.0786622
-0.01590315 0.08310062 0.05158939 0.01462945 -0.00038351153 0.06722791 -0.11186817 0.030828262
0.07079366 -0.0037031164 0.11757363 -0.013289539 -0.037970144 -0.10037698 0.16235864 -0.02065783
-0.01079673 -0.061265495 0.050118726 -0.022970213 0.08988788 0.22382154 -0.09125494 0.1475099
-0.040238973 -0.008262145 -0.07342164 -0.19660151 -0.037304074 0.045600023 -0.059467446 -0.01774028
0.0073038978 -0.09715688 -0.018774562 0.008387239 0.123353325 -0.008861792 -0.10250418 -0.1101029
0.09897185 -0.059100375 0.002143883 -0.084072396 0.055001628 0.059736624 -0.015981592 0.12864423
0.02903825 0.060976837 0.008077786 0.0689613 0.14237946 -0.068734184 -0.013538196 0.06858534
0.038895532 -0.068353206 0.008867372 -0.008773218 -0.06903214 -0.108792454 -0.029773334 -0.0059512383
0.13072841 0.0590763 0.01924375 -0.039817415 -0.025377413 0.016108178 -0.10972743 0.10254644
-0.054388046 -0.11736383 -0.14796789 -0.083351046 -0.061667792 0.20555857 -0.017310968 -0.121946834
-0.043026008 -0.11712083 -0.031225644 -0.038858756 -0.16307901 0.053549536 0.091423385 0.032890607
-0.10337552 0.029140465 0.036684852 -0.1126332 -0.031652298 -0.08369426 -0.060088784 0.003380829
0.012883336 0.10183352 -0.04907877 -0.09837376 0.075141996 0.16804223 0.015228394 0.124923185

decoder.linear_t.bias f4 [200]
00000000: 8de3 953d f13c 183e 165a 7f3d 5f73 6d3c
00000010: 2c6e 933b 692d e13d 8692 833e f695 c53c
00000020: 4f73 213d 558c 1f3d 572f 91bc b9ab 193e
00000030: 7a45 743d a56f f6bb 2ec9 c13c 2427 2a3e
00000040: 76ec 5dbd 4409 3dbd 23f9 cb3d 3f90 99bd
00000050: a0a4 343e 382e e03d 8d51 6c3d d7c2 cebc
00000060: 6d2e e4bd 9eef d43d 10dd 733d 3f56 a4bc
00000070: de5a 2e3e c843 cd3c d019 4ebd 9571 01bd
00000080: 2c39 1a3c 89bb 463d bd2b 763c 4651 9f3d
00000090: f560 3dbd 33de 58bb 56e3 98bd 0f90 38bd
000000a0: f731 82bd acb5 79bd 3e4f 1cbd 885a a73d
000000b0: d317 573c a2cb 46bd 0378 3dbd ba30 ebbc
000000c0: 1371 dbbb 3ba3 473c 0139 cd3c 9c2a 203e
000000d0: 24f3 52bd f735 7f3e e567 8abd de38 df3c
000000e0: 1f8e 1ebd c5b8 6d3d 0e1a 3fbd 7943 733d
000000f0: 3418 ebbc bd7e 823d 4934 103e af67 4d3d
00000100: 2332 aebd e617 8b3d 3fbd 803d b51a d63d
00000110: 3374 2abd b61d d33b 871e bfbd fd82 d43d
00000120: 6586 0d3c 672b 0fbe 34f9 40bc b769 e5bc
00000130: fa7d 0f3e 2dea 313e adb5 ae3e 03e2 023e
00000140: 7150 00bc 2abe 0d3c 1180 d4bd c176 7e3e
00000150: afe3 183d 4845 0a3d b817 17bd aaad 813e
00000160: 3c9d ed3e 8584 a93d e078 d93d 2af3 81bd
00000170: 5c31 903e 0e88 bd3e 1ef2 203d d267 ae3d
00000180: d0c1 b33e 7de5 a53e 4206 993e f637 603d
00000190: aefb 1d3d 92f1 cc3d 0981 0cbc cae8 1e3e
000001a0: 51a8 d13c ccc8 483b d2f1 a53e 2b59 c33e
000001b0: 818b db3e ffe2 923e a91c b0bd 83bc ba3e
000001c0: 2a12 b23e d2a6 c13e cddb 883e 77b9 493d
000001d0: 6016 903e 86bb 65bd ae8d a7bd 7c51 053e
000001e0: 53a0 64bd 9bbe 1a3e 4a94 ca3e 0d92 9e3e
000001f0: 6dd6 81bc 9669 093e 8a30 03bd 01d1 4fbd
00000200: 9c20 c5bd e7a0 263c 1c7d a7bb d33d 293a
00000210: 037a ddbc bc28 863c 835f c23d 6dde c7bb
00000220: 48e2 a2bd c3e7 4f3d 0729 3ebd b040 0fbc
00000230: c376 f7bc 8999 1abd 6d1b a6bc 82c3 f33c
00000240: 133b 45bd 1491 203e ae13 ec3d 1f4d bb3d
00000250: 9e21 023e b6f0 803d 6c61 d5bd 64c0 ae3d
00000260: 183b aa3d 0335 853d f290 edbd c1f5 66bc
00000270: 6551 5e3e c83e 5a3e a8f8 4e3e e15b 913d
00000280: 831a 953d b0ee 2e3e 119b b63d 74e3 503e
00000290: 961d 09bd 4076 a2bd b0a7 843e 65a6 883e
000002a0: 4c9f 353e a72c 9ebb 1174 933d 6e27 043e
000002b0: a98c c23d e939 693d 1d97 b2bd 0948 083e
000002c0: 5954 f33d cd90 793e b456 153e 0a62 1b3d
000002d0: 861c a33d a14c 0abd f107 d13c 062e d0bd
000002e0: eb86 45bd 5b5f 013e 4b53 a6bc f559 ea3d
000002f0: 2502 81bd 2e7b 663d ba20 533d f278 c43d
00000300: 9aee 23bd d4fd ddbd 1b05 07bd f1b6 613b
00000310: 827e bd3c 04b4 5fbc 450e 2d3d b99f 0d3e
0.073187925 0.14866997 0.062341772 0.014492839 0.0044992175 0.109949894 0.25697726 0.024119359
0.039416607 0.03895219 -0.017722769 0.15006913 0.05963657 -0.0075206333 0.0236555 0.16616493
-0.054180585 -0.046151415 0.099596284 -0.07498216 0.17640924 0.109463155 0.05769496 -0.025239391
-0.111416675 0.10397266 0.059536994 -0.020060657 0.1702685 0.025056735 -0.050317585 -0.03160246
0.009413045 0.04851869 0.015025076 0.077791736 -0.046235044 -0.0033091425 -0.07465236 -0.04505926
-0.06357186 -0.06096427 -0.03816151 0.08171564 0.013128239 -0.048534043 -0.04625703 -0.028709758
-0.006696829 0.012184913 0.025051596 0.15641254 -0.05150141 0.2492293 -0.067580976 0.027248796
-0.038709756 0.058037538 -0.046655707 0.05939052 -0.028698064 0.0637183 0.14082445 0.05014771
-0.085056566 0.06791668 0.06286096 0.10454313 -0.041614722 0.006442751 -0.093319945 0.103765465
0.008637999 -0.139814 -0.011778165 -0.02800451 0.140129 0.17374487 0.34122983 0.12781529
-0.007831679 0.008651296 -0.10375989 0.24849989 0.03732651 0.033757478 -0.036887854 0.25327808
0.46409023 0.08277229 0.10618758 -0.06345208 0.28162658 0.37017864 0.0392934 0.08515896
0.35108805 0.32401648 0.29887587 0.05474087 0.0385701 0.100070134 -0.008575686 0.1551849
0.025592955 0.0030637262 0.32411057 0.38153967 0.4287987 0.2868881 -0.085992165 0.36471948
0.34779483 0.37822586 0.26730195 0.04924914 0.2814207 -0.05608704 -0.0818132 0.13019365
-0.05581696 0.15111773 0.3956626 0.30970803 -0.015849316 0.13419184 -0.032028712 -0.05073643
-0.0962536 0.010170198 -0.0051113497 0.0006456051 -0.027035719 0.016376846 0.09490874 -0.0060995133
-0.07953316 0.050758135 -0.046425845 -0.00874345 -0.030207997 -0.03774408 -0.02027675 0.029756311
-0.04815204 0.15680343 0.11527191 0.09145569 0.12708136 0.06295912 -0.104189724 0.08532789
0.083120525 0.06504252 -0.11599912 -0.014096678 0.21710737 0.21313012 0.20212042 0.07097603
0.07280447 0.1708324 0.08916295 0.20399266 -0.03347548 -0.07932711 0.25909185 0.2668945
0.17736548 -0.0048271003 0.07199872 0.12905666 0.09499485 0.056939993 -0.08720229 0.13308729
0.118813224 0.24371643 0.14583856 0.037935294 0.07964425 -0.033764485 0.025516482 -0.10165028
-0.04822437 0.12634031 -0.020303389 0.11442939 -0.06299237 0.056269817 0.051544882 0.09593381
-0.04002247 -0.108394295 -0.032963853 0.0034441317 0.023131613 -0.013653759 0.042249937 0.1383046

decoder.conv2_t.weight f4 [8, 4, 3, 3]
00000000: 842b 31be c476 a03e 5054 eb3e e713 e3be
00000010: 757c 883e 79d2 b83e dd11 23be 7ca7 123e
00000020: a65f a1bc 1a75 b73b 6aac 71bc 41ec 4d3d
00000030: cb2f a8bd 5f5c 853d b8b6 c13e 1690 80be
00000040: 7053 2ebe e6b4 383e 6ead 37bd 9900 61bc
00000050: 9214 d13e 2544 a6be 6f13 01be 9abd 013f
00000060: 6939 73be eaf9 d7bc ba6c ad3d 5ef3 0dbe
00000070: d7f0 ddbd d4e1 ff3e 997b afbe fd5f 17be
00000080: 5519 9a3e 7fd1 3bbd 4ac2 2a3d 0064 053c
00000090: 6c7c a83d 0b48 363c 108e cbbd df3e 3fbb
000000a0: 6855 2ebf 7eff 19bf 71e7 863e 1ea1 40be
000000b0: 0a5f febd 2113 9c3c 1dab 863c 0ce7 e2bb
000000c0: 9187 16bd 52ad 323d a8ac 9dbe cdc3 b73c
000000d0: 15c0 79be 7a33 2dbf 0754 a33c df64 2b3e
000000e0: 2087 32bd 64d0 97bc 8c74 4dbe b78e 34bf
000000f0: 9ec8 1f3e 0953 6cbd af0b eebe 6ff7 fa3b
00000100: 6152 003e f502 69be cfd4 d73c d0ce 89be
00000110: 9c9a 5bbf 044b 813e b09e 893e 1ef6 c0bc
00000120: 4196 08bf 3dab 21bf 165f a0bd d485 90be
00000130: 2503 50bd 7ec8 463e a760 363e 1921 b63e
00000140: 38cf 693d 0775 59bc a5b4 85bd e24c 27bd
00000150: a613 1bbe 296f 973c b035 4cbe a8d7 413c
00000160: f652 4c3d 6222 8e3e f211 57be 3bdd eabe
00000170: d638 30be d148 88be ba3d d5be aea4 433d
00000180: 7e2f 1f3e a20d 6d3e a49f 803e 3308 b6be
00000190: 8cfa 22bf 20eb 88be 830e adbc 5c74 75bc
000001a0: 0b7b 883e c00d af3d daeb b43d 40aa 943d
000001b0: 18f4 153e 0e99 773e 2c84 1f3d bdef 263f
000001c0: d1ce 3c3f 56a0 f73d 383a ae3e cd59 913e
000001d0: 443e 0abc 676a b2bc 56ea b7bb 93b2 32bc
000001e0: af67 3d3d 0fea 25be d011 793e 5cdf 593e
000001f0: 062b 263f abaf 833e dd75 3cbd b41d 293e
00000200: c1b0 613d 3b3c 883e 1279 453f 1969 9f3e
00000210: cc74 883e 5877 fe3e c1cf 083e 4d43 573d
00000220: bd1f c33e c2f0 433e 1f28 993e 6a7f 423f
00000230: 56c2 953e 5aca 183d 6477 f23d 2e82 a43b
00000240: 45e9 76bc 36fe 443e 73e4 593c b477 1c3f
00000250: ea5c 2b3f 6e0a 663c 9fa7 103f db81 963e
00000260: 57fe d1bd b998 33bc 9aa8 313b 797f 01bc
00000270: 793b 55bc 3644 dcbd 9418 153e 6441 753e
00000280: 44e0 403f eed0 453e 228d c0bd 7182 a03d
00000290: 839e 413d b8f9 0b3e 5c93 2f3f 48ab 2c3e
000002a0: 4e7c cd3e 210b 2e3f 6461 4a3d afe4 9bbd
000002b0: 965a 5d3e f0b0 eb3d 1a04 9d3e 73ea 543f
000002c0: f734 483e b039 283e cd9a 973e 65cd 6ebd
000002d0: 9251 97bc 7cc1 d23c decb 6d3d 0123 89bd
000002e0: ff5e 90be 2bd3 1dbe a9c6 b8be 0619 25bf
000002f0: 778c a8be a24e 97ba a819 67bc 9b26 6ebc
00000300: 501e 5f3d b4de e9bd 4f39 babb aaf4 04bd
00000310: e380 e5be 579f cbbe d117 34bd bf31 143d
00000320: 9cd9 263d 0670 973d 9550 78bd 3555 15be
00000330: 2aff edbd 32d8 2dbf 6ee0 0ebf 5217 c8bc
00000340: 78b2 433d 7871 103d 8f73 393c 7de7 b7be
00000350: 5a55 cdbe 219b 0bbe 215a 0bbf 2f0d cfbe
00000360: febd 6ebc ffdb df3e d7b2 f63e 41ab b7be
00000370: 4d20 543e 32b3 ea3e d6d7 3dbe bd0f b43d
00000380: 9378 103e 531f 37bb f3b4 a4bc dde7 233d
00000390: 3256 04bd e849 c9bc ed9d 0b3f 01af 26be
000003a0: 07ab dfbe dad4 253e 81b3 13bc a7e5 d83d
000003b0: a477 ce3e 9646 edbd 7fb0 bcbd 14a8 273f
000003c0: e9c1 2bbe 40c1 93be 38fa 2f3e 1ffc 44bc
000003d0: 5512 113e 40b0 203f 17b8 54be 04f6 d5be
000003e0: d8f8 a13e 9ad7 783d 2c5a dabc 8ff2 1e3e
000003f0: a359 f2be 46cb 29bf c2e2 1cbe 38b2 b3be
-0.17301756 0.3134061 0.45962763 -0.44351122 0.26657453 0.36098078 -0.15924783 0.14321703
-0.019698929 0.0055986764 -0.014750579 0.050274137 -0.08212241 0.06511759 0.37834716 -0.2510993
-0.17024016 0.18037757 -0.04484313 -0.013733053 0.40836006 -0.32473865 -0.1260507 0.50679934
-0.23752369 -0.026364285 0.084680036 -0.13862368 -0.10836952 0.4997698 -0.34273985 -0.1478271
0.30097452 -0.045854088 0.041689195 0.008141518 0.082268566 0.011125575 -0.09939206 -0.0029181761
-0.6809907 -0.60155475 0.2634845 -0.18811461 -0.12420471 0.01905209 0.016439015 -0.0069245156
-0.03675038 0.043622322 -0.3079579 0.022432232 -0.2438968 -0.6765667 0.019937528 0.16737698
-0.043585896 -0.018531986 -0.2006399 -0.70530266 0.15603873 -0.057696376 -0.4649329 0.007658891
0.12531425 -0.22755034 0.026346592 -0.26915598 -0.8578279 0.25252545 0.2687888 -0.023554858
-0.5335427 -0.63151914 -0.07830636 -0.28227103 -0.05078425 0.19412419 0.17810307 0.35572127
0.057082385 -0.01327253 -0.06528596 -0.040844806 -0.15144214 0.018485622 -0.19942355 0.011831202
0.049883805 0.27760607 -0.2100294 -0.4587191 -0.17209181 -0.26618055 -0.41648656 0.047764473
0.1554546 0.23149732 0.25121796 -0.3555313 -0.63663554 -0.26741886 -0.021125084 -0.0149813555
0.26656374 0.085475445 0.088340476 0.07259035 0.14643896 0.2417948 0.03894441 0.6520956
0.73753077 0.120911285 0.34028792 0.28388825 -0.008437697 -0.021779252 -0.005612652 -0.010906833
0.04624146 -0.16202568 0.24323201 0.21276611 0.649094 0.25719962 -0.04601084 0.16515237
0.055100206 0.26608452 0.77137864 0.3113487 0.2665161 0.49700427 0.13360502 0.052554417
0.38110152 0.1913481 0.29913422 0.7597567 0.2924983 0.037302352 0.11839178 0.0050204014
-0.015070264 0.19237599 0.013299095 0.6112015 0.6693865 0.014040573 0.5650577 0.29395947
-0.102535896 -0.010961705 0.002710855 -0.007903927 -0.013014668 -0.10755198 0.14560157 0.23950726
0.753422 0.19317982 -0.09401919 0.0783738 0.04727031 0.13669479 0.6858423 0.16862214
0.401339 0.6798573 0.049409285 -0.07611977 0.21616587 0.115083575 0.30667192 0.8317024
0.19551454 0.16428256 0.2961029 -0.05830135 -0.018471513 0.025727026 0.05805575 -0.066961296
-0.28197476 -0.15412585 -0.36089066 -0.6449131 -0.32919666 -0.001154382 -0.014105238 -0.014535571
0.054472268 -0.114194304 -0.0056831012 -0.032459892 -0.44824895 -0.39770004 -0.043968026 0.036180254
0.040734872 0.07394414 -0.060623724 -0.14583285 -0.11620934 -0.6790801 -0.558112 -0.024425182
0.047777623 0.035264462 0.011319055 -0.359188 -0.4010418 -0.13633396 -0.544344 -0.40439746
-0.014571665 0.4372253 0.4818332 -0.35872844 0.20715447 0.4583984 -0.18539366 0.08792064
0.14108495 -0.0027942255 -0.020105815 0.040016044 -0.032308765 -0.024571374 0.5453785 -0.16277696
-0.4368517 0.16194478 -0.009014965 0.10590678 0.40325654 -0.11585729 -0.092133515 0.6549084
-0.1677319 -0.28858376 0.17185295 -0.012023001 0.1416715 0.62768936 -0.2077335 -0.41789258
0.31635165 0.06075249 -0.026654325 0.15522216 -0.47334012 -0.66325796 -0.15320876 -0.35096908

decoder.conv2_t.bias f4 [4]
00000000: 435c 123d 1908 bebf 66f1 da3c 3b5b 0dbe
0.03573252 -1.4846221 0.026726436 -0.13804333

decoder.conv1_t.weight f4 [4, 1, 5, 5]
00000000: 15cf 5d3a 220b 1cbb 94e4 d63b 1998 333b
00000010: a015 3cbd 7a63 77bb 30b2 c8bc 0050 c4bb
00000020: 8ef1 87bc 9a21 05be bf7d 9bb9 9615 91bc
00000030: 3b6c 803c 290c 32bd 2713 8a3e 9b83 3ebb
00000040: 6f29 ce3c c9a4 62bd 857b 98bb c237 7d3f
00000050: 21cd efbb 2939 153d b210 2dbd aa34 133e
00000060: 5bf9 3a3f c0c6 60bc 0247 2cbd c341 33bd
00000070: f5b9 95bc 9f4d 863c 1e25 e93c 1b95 ad3d
00000080: 89ef f8bc 4684 e9bd c1b1 133d 55f3 693d
00000090: 1196 b03d 2fcd 00bf e949 8dbf 4d58 40be
000000a0: 9615 3d3d 9074 bd3d e0f9 9bbe 7dea 05bf
000000b0: a09c cc3d c32e ad3d b17d b73d 83f4 9fbd
000000c0: efef d23d 6511 923e 3d94 28bc c96c 003c
000000d0: 063e 123c 25ab 1a3d 5bc6 d43c 159f 3eb9
000000e0: 76e8 2c3d bf47 8d3c a6fc e2bc 29be 1ebc
000000f0: ca5c b23c fb92 553c ecb4 e4bd 2d75 823e
00000100: 473d e33d 39f2 bebc c8e3 96bd 8c0e ad3e
00000110: 5288 9e3f b8e9 563e 3a07 8d3d 1570 16bd
00000120: 1bca 6abe f698 1ebe 9ec0 b7be 8161 2abc
00000130: fd55 cebb 0b7c dd3b 5e21 80bc 26be 0c3d
00000140: 8967 3bbb 7530 b23c ac0f 363d 1a31 c13c
00000150: ecb1 de3d ce60 323c 0c0c ca3c a82e 8abd
00000160: 09ee c2bd 803e 4dbe 7a48 823d 821e 2fbc
00000170: 2aaf 86be 63e3 49bd 7405 d0be 6578 a7bd
00000180: 486c aebd ddd4 203f 998d a23f f9ca 7e3e
0.00084613386 -0.0023810347 0.0065580104 0.002740389 -0.04591906 -0.0037748502 -0.024499029 -0.005990982
-0.016594674 -0.13001099 -0.00029657592 -0.017710488 0.015676608 -0.043468628 0.26967737 -0.0029070142
0.025166241 -0.055332933 -0.0046533966 0.98913205 -0.0073181544 0.036431465 -0.04225225 0.14375558
0.73036736 -0.013719261 -0.042059906 -0.043763887 -0.018277148 0.016394434 0.028460082 0.08475705
-0.030387657 -0.11402182 0.03605819 0.057116825 0.08622373 -0.50313085 -1.103818 -0.18783684
0.046163164 0.09250748 -0.30464077 -0.52310926 0.09990811 0.08456185 0.089595206 -0.07810309
0.1029967 0.28528896 -0.010289249 0.007838436 0.00892592 0.037760872 0.02597349 -0.00018179075
0.04221388 0.017246125 -0.027708363 -0.009688892 0.02177276 0.013035531 -0.111673206 0.25480023
0.11095672 -0.02330886 -0.073676646 0.3380016 1.2385352 0.20987594 0.06886144 -0.036727984
-0.2292866 -0.15488037 -0.35889143 -0.010399223 -0.0062968717 0.006759172 -0.01564091 0.034361027
-0.0028595647 0.021751622 0.04444854 0.023582984 0.1087378 0.010887338 0.024663948 -0.0674718
-0.09518058 -0.20043373 0.0636148 -0.010688426 -0.26305515 -0.04928912 -0.4062916 -0.0817726
-0.08516747 0.62824804 1.2699462 0.24882115
