Homework/4_AutoEncoders/models/AutoEncoder_False_parms.pt (torch, 71745 bytes, 11 tensors)

encoder.conv1.weight f4 [4, 1, 5, 5]
000000 1d d4 a2 3d dd 2b 5f bd 0d 37 04 be a9 e5 3f 3e
       0.07950614 -0.05448519 -0.12911625 0.18739952
000010 5c f2 af 3e f5 97 c4 bc ca df 02 bd f3 97 50 3e
       0.34364593 -0.02399824 -0.031951703 0.20370464
000020 7e 75 12 bd 0e ce 13 3e 3f f2 c6 bc 69 cc 41 be
       -0.03575658 0.14434072 -0.024285434 -0.18925633
000030 ba 66 b0 3e 22 13 51 be 2e 0e 97 be e2 ff ff 3c
       0.34453374 -0.20417455 -0.29503006 0.031249944
000040 fc 64 20 be 16 dd df 3d 3a 99 fb bd b6 0b ac be
       -0.15663522 0.10930841 -0.12285085 -0.33602685
000050 15 fa b0 bc 1a 6d 86 bd 08 9d ca be 1f b2 5d be
       -0.021603623 -0.06563778 -0.3957293 -0.21649979
000060 cb a4 53 bc 97 97 dd bc 78 66 92 3d 5e 65 02 bd
       -0.012917708 -0.027049823 0.071484506 -0.031834953
000070 a6 d0 c3 bd 47 60 bd bc a8 9c 1e bc d8 d1 f4 bc
       -0.09561281 -0.023117198 -0.009680904 -0.029885218
000080 47 a9 46 be 8d b9 65 bd ef 38 21 be e4 53 83 bd
       -0.19400512 -0.05608516 -0.15744375 -0.06412485
000090 0a 12 12 be 16 c9 a4 be a8 e2 4b 3e 83 0d 14 bf
       -0.14264694 -0.32184666 0.19910681 -0.5783312
0000a0 e9 0b 39 be 46 3e 58 be 7b bf 36 be d9 1f 3d bd
       -0.1807095 -0.21117505 -0.17846482 -0.04617295
0000b0 76 07 f7 be 80 87 12 be 61 9d 4f be 73 b2 a9 be
       -0.4824788 -0.14309502 -0.20274879 -0.33143958
0000c0 a9 57 1c be 5a 54 60 be e7 af 36 3d d8 04 28 3d
       -0.15267815 -0.21907178 0.044601347 0.041020244
0000d0 7a cb 4c 3a 38 55 cc bd c9 9b 36 be cc f5 1d be
       0.0007812303 -0.09977192 -0.17832865 -0.15425795
0000e0 ae 75 0b 3c 71 f7 6f be 03 25 4b be d6 49 73 be
       0.008511944 -0.23434235 -0.19838338 -0.23758635
0000f0 b9 8f 82 3d ca e6 2e bd af 80 ac bd d0 10 30 be
       0.06375069 -0.042700566 -0.08422982 -0.17193913
000100 f8 87 a4 3e 54 83 2b bc d4 b7 c8 bc d2 0f 44 3d
       0.32134986 -0.010468323 -0.024501719 0.04786665
000110 19 fe 09 be b6 78 04 3f b9 a6 b9 3d a3 09 83 bc
       -0.13475837 0.5174669 0.09065003 -0.015995806
000120 a2 7a 73 3e ac 17 aa bd 3c 94 09 3e ff d9 ef 3d
       0.2377725 -0.08305296 0.13435453 0.11711501
000130 2e de 83 bd 14 29 b2 bd bd 4e c8 3d 19 7c 02 3d
       -0.06438862 -0.08699241 0.09780643 0.03185663
000140 ce 07 90 3d 8e 9d ed bc 58 95 a9 bb f3 7b 8f 3d
       0.070327386 -0.029005792 -0.005175274 0.07006063
000150 96 c0 dc ba f2 7e af bc de 3d 2c 3e b6 ac 90 3e
       -0.0016842063 -0.021422837 0.16820475 0.28256768
000160 7a 60 cf bc 82 1a 4d bd 32 20 03 bd 76 9d 9e 3e
       -0.025314558 -0.050074108 -0.032013126 0.30979508
000170 96 c7 a9 3e 03 af 50 bd d4 f3 36 bd 64 30 dc 3c
       0.33160084 -0.050948154 -0.044666126 0.026878543
000180 ed 19 1c 3e 66 0a 01 3e 7a 23 10 3d 57 27 24 3d
       0.15244265 0.12601623 0.035190083 0.04007658

encoder.conv1.bias f4 [4]
000000 56 08 9b be fc 91 b7 3e c1 62 9e be 4d e4 8d bb
       -0.30279797 0.35853565 -0.30934718 -0.004330194

encoder.conv2.weight f4 [8, 4, 3, 3]
000000 8a 04 b5 3d c9 cb 33 be b7 33 a9 3b cb 4f da 3d
       0.088387564 -0.17558207 0.0051636356 0.106597506
000010 b0 a0 81 3e c0 37 92 3e e6 1d b3 bc 0d 0d 8d 3d
       0.25317907 0.2855816 -0.021864843 0.06887255
000020 ad 77 67 3d 88 04 27 3e 69 33 8d be 84 65 de be
       0.056510616 0.16310322 -0.27578285 -0.43436825
000030 3d f2 63 3e 0f 9e 55 be 10 0b 3e be c7 ed 51 3d
       0.22260375 -0.20861076 -0.18558908 0.051252153
000040 d2 e3 8f 3d 04 ca 0b 3e e0 ea 1d 3d f0 8a 8d 3e
       0.07025875 0.13651282 0.038554072 0.27645063
000050 c0 85 57 3e 2c fe 91 3d 07 c1 58 3d 52 ac ab bd
       0.21047115 0.071285576 0.05291846 -0.08382477
000060 13 d2 a0 bc fc e5 77 3c 46 4c ba 3c 34 b7 3f 3d
       -0.019631421 0.015130516 0.022741448 0.046805575
000070 e1 f6 57 bd 00 c8 4e 3e 14 bb 3d bb 24 2e 15 be
       -0.052725676 0.20193481 -0.0028950619 -0.14568383
000080 42 8c 81 bd 8a e2 04 3d ed df f2 3d 4d f0 4b bd
       -0.0632558 0.032442607 0.11859117 -0.049789716
000090 9f 1e b7 bc f1 43 07 bc fd 66 75 3d 6f 8d d2 bd
       -0.022353468 -0.008255945 0.05991267 -0.102808826
0000a0 a4 19 4f 3e ce c2 12 3e f3 57 0e be 5b 61 8e be
       0.20224625 0.14332125 -0.13900737 -0.2780865
0000b0 01 1f 73 3e a4 6a 81 be 9c 4f 0b 3e 7e 73 b8 3e
       0.23742296 -0.25276673 0.13604587 0.36025614
0000c0 b7 e2 02 bf aa 8c 26 3f 79 f8 c8 3d 39 11 25 bf
       -0.5112719 0.65058386 0.098130174 -0.64479405
0000d0 e8 b6 f2 3e fa 91 eb 3c 52 72 10 be 56 59 8d 3e
       0.4740517 0.02875613 -0.1410611 0.2760722
0000e0 a8 36 b2 3e 20 7a 82 be e8 5d aa be a7 e1 6c 3e
       0.34807324 -0.254838 -0.3327477 0.23132955
0000f0 3c e9 d1 be b3 fc cd be f3 6b 02 3f 55 e7 3a bd
       -0.40998256 -0.40231857 0.5094597 -0.04563077
000100 f0 b1 72 bd d7 84 41 be 6f 8f c4 ba f9 4f 5c be
       -0.059251726 -0.1889833 -0.001499636 -0.21514882
000110 ec ec be be c7 b8 fa 3d 03 d2 15 be 71 a6 d4 be
       -0.37290132 0.12242275 -0.14630894 -0.41533235
000120 53 76 02 3c 0a f3 51 bd f4 57 c0 3d 2a cb 04 3e
       0.007962781 -0.05125717 0.09391776 0.12968126
000130 1a 4b 75 3d 9a 4e 73 3e 1b af 34 bd c1 b6 be bd
       0.059886076 0.23760453 -0.044112306 -0.09312201
000140 1b c4 50 3e 60 2e 62 bd 9c 15 1b 3d 49 64 a7 3d
       0.20387308 -0.055220008 0.037862405 0.08173425
000150 ca 74 ff 3d 75 67 a1 3e 8b 89 1d 3e 0b e4 f6 be
       0.124734476 0.31524244 0.153845 -0.48220858
000160 4e 03 53 bf a0 b4 f6 bc 8f 1b 2c 3d a6 67 02 3e
       -0.8242692 -0.030115426 0.04201847 0.12734851
000170 17 4e 26 3e 0c 2a 9a bd 80 c3 de 3d da de 22 3e
       0.16240726 -0.07527551 0.108771324 0.15905324
000180 3d 4f 5d bd 25 ff 87 3e 74 e0 06 3e 34 65 2a 3d
       -0.054030646 0.26561847 0.1317156 0.04160042
000190 11 f8 74 3c 74 21 87 bc d4 31 b4 3c 92 a4 38 be
       0.014951722 -0.016495444 0.021996416 -0.18031529
0001a0 eb a4 ac bd 8e 73 b2 3d 7b 86 eb 3e ea 4f 4e 3e
       -0.08429893 0.087134466 0.46001038 0.20147672
0001b0 12 6c 41 3d d1 0c 29 3c 17 f1 1c be bd 55 76 bd
       0.047222205 0.010317997 -0.15326343 -0.06014036
0001c0 1f 19 02 3c 43 bd c3 3d 7f ce f2 bd bd e3 c1 be
       0.00794056 0.09557583 -0.11855792 -0.37869063
0001d0 c4 6e ea 3d 2d 6c 0c 3d fa 0f c3 3c a4 b9 c8 be
       0.11446908 0.034282852 0.02381133 -0.39204133
0001e0 6b 67 10 3f d2 0d 2c 3f fc 39 f5 bd c6 ba 76 3e
       0.56407803 0.6720859 -0.1197395 0.24094686
0001f0 a3 43 99 3e 91 87 db bd 1a 5f d9 3b 5e d5 3d 3d
       0.29934415 -0.107192166 0.0066336514 0.04634606
000200 c4 9b c1 bd 5b f2 78 bd 24 7a 25 3e 00 2f 5e be
       -0.09453538 -0.060778003 0.16159874 -0.21697617
000210 5e f4 20 be f0 ef d2 3d a1 78 53 be ef cc 86 bd
       -0.15718219 0.10299671 -0.20651485 -0.06582057
000220 41 85 22 3e 0a 0e 66 bc f3 0b 5d be cf d8 41 be
       0.15871145 -0.014041433 -0.2158659 -0.18930362
000230 d2 62 79 be 27 e7 b9 bd b0 b6 20 bd fe 3e 61 3d
       -0.24354103 -0.09077292 -0.039236724 0.054991715
000240 0b 19 98 3c a3 19 20 3c 5d 1b 06 be 29 6a ea bd
       0.018566629 0.009771737 -0.13096376 -0.1144603
000250 a8 d8 ed 3c f5 ec 06 be a5 cd 2c be 90 f4 e7 bd
       0.029033974 -0.1317633 -0.16875322 -0.113259435
000260 5d a9 09 be e3 31 44 bd 94 e0 85 be 04 f4 43 3d
       -0.13443513 -0.04789914 -0.26147902 0.047840133
000270 35 76 37 be 61 46 ef be c4 c3 ac 3e d1 1e 5c be
       -0.17916186 -0.46733382 0.33743107 -0.2149613
000280 14 54 bb be 2a 54 d5 3d c2 b6 2d 3d bf c3 9b bd
       -0.36587584 0.10416444 0.04241062 -0.07605695
000290 1b d0 ac bd 6a e8 90 3d c7 f3 af be 4e 5f 23 be
       -0.084381305 0.070755795 -0.34365675 -0.15954325
0002a0 2a 87 17 bd ef e6 42 be 87 f8 02 bd 39 43 cd bc
       -0.036994137 -0.19033407 -0.031975295 -0.025056468
0002b0 72 d0 dd 3d 80 b9 81 bd 75 34 0b be be 0f 89 3e
       0.108307734 -0.063342094 -0.1359423 0.26769823
0002c0 85 c1 23 be d2 b6 12 bc cb 6d a2 3e 75 9b a2 3d
       -0.1599179 -0.008954721 0.3172439 0.07939807
0002d0 b0 f9 02 3d 53 08 67 3d a7 89 29 3e fe 18 03 bd
       0.0319764 0.056404423 0.16556416 -0.032006256
0002e0 23 59 f2 bc 3c 5c 00 3e 67 3f 93 3e b9 0f 4b 3e
       -0.02958352 0.12535185 0.2875931 0.19830216
0002f0 12 e6 9c 3d 47 70 40 3d a6 e8 b8 3e 36 cc 00 3e
       0.0766107 0.046982076 0.36114997 0.125779
000300 54 9a 1b bf 38 ba 3f bf 61 c6 8f be a3 c3 3a be
       -0.6078236 -0.7489352 -0.2808104 -0.18238692
000310 be 9b 52 3e f2 af 0c 3e c7 35 3f bd 75 b9 1c bd
       0.20567223 0.13738993 -0.046682145 -0.038262803
000320 ee c9 f6 3d 8f 42 b4 bc 82 b3 a4 3e eb b3 7a 3e
       0.12050234 -0.022004394 0.32168204 0.24482696
000330 29 86 16 bc e7 37 82 bd 30 05 17 3e 12 58 4a bc
       -0.00918726 -0.06358319 0.14748073 -0.012350099
000340 a5 dc 33 be c2 91 ba bc 21 61 55 3b cc 1a b0 3e
       -0.17564638 -0.02277458 0.0032559114 0.34395444
000350 db b1 7a 3e 38 05 82 3b 55 4d 27 bd bd 61 5f be
       0.24481909 0.0039679073 -0.040845234 -0.21814628
000360 01 3e b2 3d 97 07 c9 bc 04 b0 a6 3e 94 5f 45 3d
       0.087032326 -0.024539752 0.32556164 0.048186854
000370 df 33 ba bd 4b ec d3 3d ef 68 44 be b2 6a 42 3c
       -0.09091925 0.10347804 -0.19180654 0.011866258
000380 7c 00 af 3d a3 40 09 3f 11 7d 1c 3e ad ee fd 3d
       0.08545014 0.5361425 0.15282084 0.123990394
000390 23 00 27 bd df 52 b7 3d c6 35 f6 3d 91 d4 69 bf
       -0.040771615 0.08951353 0.12021975 -0.91339976
0003a0 39 b1 93 3d 21 15 2b 3f 32 f1 98 bd 82 42 2d bd
       0.07211537 0.66829115 -0.07467879 -0.042299755
0003b0 4f 76 37 be 77 7b a1 be c9 0b 8a 3c bd 82 a2 be
       -0.17916225 -0.3153951 0.016851323 -0.3174037
0003c0 87 88 92 bd 06 cc ca bc 9f d2 40 be 73 56 aa be
       -0.07154947 -0.02475549 -0.18830346 -0.3326908
0003d0 37 fa 55 be 8a b7 ee 3e fb 2c d7 be da 73 d8 be
       -0.2089623 0.46624404 -0.42026505 -0.42275888
0003e0 d8 20 fd bd 01 68 9b 3e 7e 3b c5 3d 77 03 06 be
       -0.1235978 0.30352786 0.09630488 -0.13087259
0003f0 06 bb 94 ba 40 22 e2 bb 94 b9 bd bc 11 f0 b2 bd
       -0.0011347241 -0.0069010556 -0.02315978 -0.08737195

encoder.conv2.bias f4 [8]
000000 07 5e 6b 3f 5c 9c 31 3e fe 49 d9 3e 0b 19 5c bd
       0.9194035 0.17344803 0.42439264 -0.05373482
000010 c8 1a 9f 3f 41 fe e1 3e 7d 04 d7 be 32 87 4a 3f
       1.2430048 0.44139293 -0.41995612 0.7911254

encoder.linear.weight f4 [40, 200]
000000 6a 22 51 3d d1 a8 93 3c fa 53 90 3e 8e ba 97 3d
       0.05105821 0.018024834 0.2818907 0.07408629
000010 c2 39 29 be 6b b0 b8 bd c4 7a a9 3a 4f 22 79 bd
       -0.16525939 -0.09018024 0.0012930264 -0.060823735
000020 7c 54 ac 3d 38 77 d0 be 13 96 0a 3d 39 9c 1f 3d
       0.084145516 -0.40715957 0.03383453 0.038967345
000030 49 c5 03 3f 34 f4 15 be af 04 ec bd b4 ea 87 bd
       0.5147291 -0.14643937 -0.11524331 -0.06636563
000040 97 03 b4 bd d9 61 54 3e 90 a1 01 3d 62 22 75 be
       -0.08789747 0.20740451 0.03164822 -0.23938897
000050 48 39 86 be 40 4d 81 3e 92 20 ce 3d 97 eb ac 3d
       -0.26215577 0.2525425 0.10064806 0.08443373
000060 16 f0 d4 be 01 ba bc 3c 02 d4 c7 3d 0a 18 9f 3c
       -0.4158942 0.023037912 0.09757234 0.019420642
000070 ff 57 0b 3d a9 69 49 3e 28 d3 df bc 05 d7 a2 bb
       0.034019466 0.19669212 -0.027322367 -0.00496948
000080 fb 5a 02 3c 1f 1a 21 3e 64 2a 4b bd bf b9 80 3c
       0.007956262 0.1573262 -0.049600974 0.01571357
000090 f8 e4 51 bc 70 cd ac 3d a7 95 97 3d 68 0d 69 3d
       -0.012810938 0.084376216 0.07401591 0.05689755
0000a0 ef e3 98 3d 4f 13 a5 3b 18 8f c6 bd 56 cc b1 3d
       0.0746535 0.005037702 -0.09695262 0.08681552
0000b0 8c a4 19 be 8a 22 b5 3d ea a2 39 3d a3 35 21 3c
       -0.15004176 0.088444784 0.045321383 0.009839448
0000c0 ac a3 a0 3c 97 4f be bd c3 00 3a bd fc 80 1e be
       0.019609295 -0.09292524 -0.045410883 -0.15478891
0000d0 47 7d e6 bc 4e c1 a1 be 06 bb cb 3c f5 ef bb 3d
       -0.028135909 -0.31592792 0.024869453 0.091766275
0000e0 28 c5 70 bd 1b 3b 90 3e 15 08 62 be 54 6c 25 be
       -0.058781773 0.28170094 -0.22073396 -0.16154605
0000f0 98 81 e5 3d d3 ac 1a be c1 94 8e be 53 32 03 3f
       0.11206359 -0.1510499 -0.27847865 0.51248664
000100 07 92 8f 3d 45 92 9a 3d f4 df 24 3d 3b b6 d7 bc
       0.070102744 0.0754743 0.04025264 -0.026332011
000110 bf e2 22 3d 4c 98 67 be 13 ac 9b 3e 0d b0 a4 3e
       0.039767023 -0.2261669 0.3040472 0.32165566
000120 87 90 8d be 71 96 ec bd e1 1c 7a be b0 65 b7 3d
       -0.27649328 -0.11552132 -0.24425079 0.08954942
000130 91 fb f9 3d 64 a4 20 3d d9 05 c9 be c7 e9 c9 3e
       0.122061856 0.039219275 -0.39262274 0.3943617
000140 f6 81 40 be 8b a1 17 bd b9 38 71 bd b2 c8 aa 3d
       -0.18799576 -0.037019294 -0.058891986 0.08339061
000150 5e 02 9a 3d 3a e6 a0 3c 76 2c 05 3e d0 d3 3a bd
       0.07519983 0.01964103 0.13005242 -0.045612156
000160 0d fa d2 3c 7e dc 13 3e 0a af f3 bd bc 68 09 3e
       0.025754 0.1443958 -0.118986204 0.13418859
000170 93 91 15 be 55 e9 9f bc 6f de 1d be bd 16 c3 bd
       -0.14606313 -0.019520441 -0.15416883 -0.09525821
000180 97 68 ae 3d d9 e9 7d 3d 2c 52 e4 bd 3e 48 16 3d
       0.08516043 0.061990593 -0.111484855 0.03668999
000190 c8 9b 61 3d df ae 28 bc cf aa 31 be 65 dd 66 3e
       0.055080205 -0.010295599 -0.17350315 0.22545393
0001a0 12 e9 4b be 88 31 17 bb 3e 40 ef bc fe e3 03 3e
       -0.19913128 -0.0023070294 -0.029205438 0.12879941
0001b0 a9 c0 81 be 46 05 4b 3e 83 87 5d ba 37 1b 42 be
       -0.253423 0.1982623 -0.0008450674 -0.18955694
0001c0 cb 1d 70 3d 7c 37 3e bd 8a d5 96 bc 21 a5 d5 3d
       0.058622163 -0.046439633 -0.01841237 0.104318865
0001d0 1e 12 50 be 39 94 b4 3d 6a 4e ec bd f8 2c 94 3e
       -0.20319411 0.08817334 -0.11538394 0.28940558
0001e0 77 ee 8f 3c ca fe 83 3e 98 99 9e be 5b 49 6b bd
       0.017569764 0.25780326 -0.30976558 -0.057443004
0001f0 22 38 3a 3e a3 e8 13 bd 39 d6 35 be 8c ba c7 3c
       0.18185475 -0.03611053 -0.177575 0.024380945
000200 19 79 60 3e 7b d8 95 be 7d a8 12 3e a9 6d c2 3d
       0.21921195 -0.29266724 0.14322086 0.09493572
000210 7c ea 4a 3d 78 ee 1a 3e 35 e8 cf 3c ca c0 d0 3d
       0.049540028 0.15130031 0.02537928 0.101930216
000220 2d bc 5a bd 54 79 8e bc 48 6a a2 bd bd bb cb bd
       -0.053402115 -0.017391838 -0.07930428 -0.099479176
000230 87 e6 45 3d 7b f1 5b be ee fc 7e 3e 6b 70 b4 be
       0.04831555 -0.21478836 0.24901173 -0.35242018
000240 83 83 81 bd 12 65 be 3d 1c 49 9d bc 6f 33 96 be
       -0.06323912 0.092966214 -0.0191999 -0.29336116
000250 a6 5e 0a 3e d0 c0 1b be 70 e7 7d bd 4a 5f 7a bd
       0.13512668 -0.15210271 -0.061988294 -0.06112603
000260 e2 c2 9f bd 41 30 6b be 21 ab 5f 3c e8 9a 86 3d
       -0.07800843 -0.22967626 0.01365164 0.06572515
000270 9a 97 9d bc 42 3d 35 3d 0b 66 65 3d 81 d6 1d 3d
       -0.019237328 0.044247873 0.05600552 0.038534645
000280 33 17 a2 bd 6a ee 86 3d 5f 6a 07 3e c6 77 6a 3d
       -0.07914581 0.065884426 0.13224171 0.05724313
000290 24 54 86 3c e1 66 12 3d fd 02 e9 bd 3b ed ac 3d
       0.016397543 0.035742644 -0.11377523 0.084436856
0002a0 23 8b b6 3d 7a 93 91 bb 77 88 e1 bc 8d 69 08 3e
       0.08913257 -0.0044426294 -0.027530892 0.13321514
0002b0 06 f6 b7 bd b8 22 d0 3d c0 4a 9b bd 3e c7 4f bd
       -0.08982472 0.10162872 -0.07582617 -0.05072712
0002c0 93 e4 65 be e1 5e 48 3e da 9b 3e be 5c 22 5a be
       -0.22450475 0.19567443 -0.1861414 -0.2130217
0002d0 c2 96 3d bc bd e9 fd 3d 96 ed 2d 3e 82 a4 f7 3d
       -0.011571588 0.12398098 0.16985163 0.12091924
0002e0 d4 6f 2c be e1 82 ac b9 6f a8 2a bc c0 c3 67 3e
       -0.16839534 -0.0003290391 -0.010416134 0.22633266
0002f0 bd f4 0e be 5f 75 a1 3c 38 15 da bd af 50 8e 3e
       -0.13960548 0.019709287 -0.106485784 0.27795932
000300 8d 2a e0 bc 5d b2 a9 bd 7d 43 7c be ad 81 03 3e
       -0.02736404 -0.08285973 -0.2463512 0.12842436
000310 10 06 ab 3c 2b c1 f3 3d bf 0c 35 be 25 96 a4 be
       0.020876914 0.11902078 -0.17680643 -0.321458
000320 e1 bf cf 3d e3 16 ba 3d 65 a9 67 bd 03 96 1f be
       0.1014402 0.090863965 -0.05655803 -0.15584569
000330 22 68 95 bd 2a e3 b3 3d 62 43 3e be 21 35 01 3b
       -0.072952524 0.087835625 -0.18580392 0.0019715505
000340 5c 58 4c 3d a6 6e 05 3d d8 5a 35 3d 1a 3d 4d 3e
       0.049888954 0.032576226 0.04427609 0.2004284
000350 4b 85 91 3d 83 1a 4c bd 0b e0 bf 3d 1d 76 b4 3d
       0.07105502 -0.04982997 0.09368905 0.08811591
000360 98 80 29 3d 5e d8 8c be c4 f6 84 3e 39 3b 17 bb
       0.041382402 -0.27508825 0.25969517 -0.002307607
000370 a1 8f 00 be b1 61 f0 bd a0 26 4e 3d 41 11 3e be
       -0.1255479 -0.11737383 0.050329804 -0.1856127
000380 20 c9 c3 bd f3 5e eb bd 9e 86 cd 3c 87 05 88 bd
       -0.09559846 -0.114927195 0.025088605 -0.06641679
000390 f9 74 44 3e 20 11 a7 bd 17 52 29 bd 4f 1c b3 3d
       0.19185247 -0.08157563 -0.041338053 0.08745634
0003a0 1b 8d 83 3d 29 e4 cc 3c a5 6a 05 3c 2a ca 88 bd
       0.06423398 0.025011139 0.008143102 -0.06679185
0003b0 1f 21 3c bd 6e 6f 00 3d ea f4 32 3d d5 66 11 3d
       -0.045930024 0.031356268 0.0436906 0.03549846
0003c0 55 0b 9b bb 3e 7e 2a bd 09 e7 ac bd 1f 25 91 3c
       -0.0047315755 -0.0416243 -0.08442504 0.017717896
0003d0 c3 a5 26 bd 04 e7 a2 3d 48 59 33 bd dc 24 71 be
       -0.040685426 0.07954219 -0.043786317 -0.23549217
0003e0 cb 73 ed 3e 57 0e 06 3e 12 6a 96 3d 6a 2e 48 be
       0.46377406 0.13091408 0.0734445 -0.19548956
0003f0 5a 7c 80 be 29 d0 b3 bb 69 0b d2 bd 2e f7 0e 3e
       -0.25094873 -0.005487461 -0.102560826 0.13961479

encoder.linear.bias f4 [40]
000000 3d ba 92 be cd 36 2d 3e 43 d9 7e 3c 9c b0 09 3d
       -0.28657714 0.16915436 0.015554729 0.033615693
000010 ad 5e 5c 3d 9f 3e 94 3e 20 44 91 be af 6b 5c 3d
       0.053801227 0.28954026 -0.28372288 0.053813633
000020 8b 12 f6 bd 4d ce 42 bd be 4e ba bc fe 88 8e bc
       -0.120152555 -0.047560025 -0.022742625 -0.017399307
000030 01 47 f8 bd 0e 50 69 3e 20 2f 8a be 57 51 51 3e
       -0.12122918 0.22784445 -0.2698908 0.20441185
000040 d0 59 df 3d 5f dd d7 3d 67 03 96 3e 8d e5 5d be
       0.10905802 0.1054027 0.2929947 -0.21669598
000050 8b 28 87 3e ca e0 e9 bd cd 34 27 3e 23 1d 8d bd
       0.2639812 -0.11419828 0.16328736 -0.06890323
000060 3e 8b 88 bd d6 c3 ba 3d df f4 02 be ed dc 31 be
       -0.06667183 0.09119384 -0.12788723 -0.17369433
000070 81 d1 85 3e 10 2d 56 be f1 19 4f 3e 81 a5 8b 3e
       0.261364 -0.20915627 0.2022474 0.27274707
000080 e3 9e 36 be 24 fd fc bc 18 33 5b be f4 bb d3 bd
       -0.17834048 -0.030882426 -0.2140621 -0.103385836
000090 54 da 24 be 70 4b 32 be b9 a3 4b be c2 fa 6f bd
       -0.1609891 -0.1741159 -0.19886674 -0.05858875

decoder.linear_t.weight f4 [200, 40]
000000 9c f8 8c 3d 91 a9 a7 3d b5 25 ba 3d 42 83 25 bb
       0.06883356 0.08186639 0.09089223 -0.0025255238
000010 e0 d2 17 3e d9 f0 18 bd ea 23 04 3e 70 39 98 3d
       0.14826536 -0.037339065 0.12904325 0.0743283
000020 c1 6d 9b bd 6a da 91 3d 49 b1 5c 3d 3f aa c3 3d
       -0.07589293 0.07121737 0.05388001 0.09553956
000030 ab 3e 14 3e 24 02 24 be 9d 11 05 3e 0e de 9b 3d
       0.14477031 -0.16016442 0.12995 0.07610713
000040 aa b8 f2 bd cd 18 19 be 27 df 13 bd 72 43 6d 3b
       -0.11851628 -0.14950867 -0.036101487 0.003620353
000050 ae 66 a7 bd 13 24 c2 3d af 1d 79 bd ac 7a 14 3e
       -0.081738815 0.09479537 -0.060819324 0.1449992
000060 58 49 c1 bc f9 aa 62 3c 34 6c a9 bd 03 53 92 3d
       -0.023594543 0.013834708 -0.08272591 0.071447395
000070 42 f1 07 be 16 d6 14 3c a2 da f4 bd eb 8c 97 bd
       -0.13275626 0.009084245 -0.119557634 -0.07399925
000080 e1 9c 13 be 20 5a 84 3d f7 09 3c bd fb a7 da bc
       -0.14415313 0.064625025 -0.04590794 -0.026691427
000090 18 d6 13 3e 29 4f 1c 3e b8 a5 b1 3c a7 99 5d bd
       0.14437139 0.15264572 0.021685466 -0.054101612
0000a0 39 2c 0d be 53 fd 45 be 56 05 ce 3d 74 52 57 3d
       -0.13786401 -0.19334917 0.100596115 0.052568868
0000b0 66 7c bc 3c e5 5a 15 be 0c d3 34 3c 7d 01 a4 bd
       0.023008537 -0.14585455 0.011036646 -0.08008096
0000c0 91 6e 09 3e 69 73 23 bd 9c 07 c4 bd 4d f9 81 bd
       0.13421084 -0.039904986 -0.09571764 -0.063463785
0000d0 bf d6 78 3c 84 de 2e 3d 4c aa 5a 3e ff 11 db 39
       0.015187918 0.042692676 0.21354026 0.00041784343
0000e0 99 bf ba bc 88 ef 00 3e 5c 33 f1 bd db 9d 24 3e
       -0.022796439 0.12591374 -0.11777374 0.16075842
0000f0 c0 a2 67 be 57 6d 1a 3e e8 bb 36 bc 26 c5 d0 3d
       -0.22620678 0.15080772 -0.011153199 0.10193853
000100 50 f5 8c bd d7 05 80 3d df 48 84 3d a2 79 c8 3d
       -0.06882727 0.06251114 0.064592116 0.097888246
000110 01 2d 2f be 8b 7e 20 bd ea 96 41 3e d3 10 76 be
       -0.17107011 -0.03918318 0.18905225 -0.24029855
000120 f8 b7 98 bd 3f c5 39 3d 39 c2 28 bd 31 73 51 be
       -0.07456964 0.045354124 -0.04120085 -0.20454098
000130 4a b7 39 bd 7f a5 98 bd 88 d2 d0 bd 94 76 1c bd
       -0.045340814 -0.07453441 -0.10196406 -0.038199022
000140 48 9d 5e 3c 13 b0 55 3e 1f 4b cb 3c 26 1c 5d bc
       0.013587303 0.20867948 0.024816094 -0.013495481
000150 d5 0b 8d 3d 8b 1f 93 bd a4 56 7d be a6 22 98 3d
       0.068870224 -0.07183751 -0.24740082 0.07428484
000160 fb 9a 56 3d dd f8 90 bd c4 44 f3 bd 5e e5 12 3c
       0.052393895 -0.07078717 -0.118783504 0.008965818
000170 10 73 a2 bd 71 fb e3 3d 44 5b b9 3d e0 1c 03 3e
       -0.07932103 0.11131943 0.09050611 0.12803984
000180 57 30 4e 3e 83 d6 82 3d fe de 34 be 9a 35 06 bd
       0.20135628 0.06388571 -0.1766319 -0.032765962
000190 cb ad 59 bd 4e 09 f0 bd 80 9c 3a bd fe fa 25 bd
       -0.053144258 -0.11720525 -0.045559406 -0.040522568
0001a0 8b 25 d1 39 b6 03 91 bd 4a 72 39 3d b4 6c b4 bd
       0.00039891558 -0.07080786 0.04527501 -0.08809796
0001b0 59 a1 e2 3d 02 5a 48 3e bc f7 15 bd cf f6 10 be
       0.11065931 0.19565585 -0.03661321 -0.1415665
0001c0 9e 88 da bb d2 90 fa bd 9d 63 09 3e 4e 80 6f 3d
       -0.006669118 -0.122346535 0.13416906 0.05847197
0001d0 a8 4a 99 bd 7c d9 92 3b 3a 05 c1 bc ec b4 e6 3d
       -0.07484943 0.0044814926 -0.023562063 0.11264977
0001e0 c8 d9 f7 3d f9 0c 71 3d 06 71 f5 3c b2 f9 19 bc
       0.12102085 0.058850262 0.02996112 -0.009397911
0001f0 fd d5 6a be b7 be 17 bc 50 0b 24 3d 56 79 99 3e
       -0.22933193 -0.009261779 0.04004985 0.29975384
000200 eb c2 6e bd f2 40 24 be f9 f0 32 3e 18 b4 63 3b
       -0.058291357 -0.160404 0.17474736 0.0034744795
000210 2a ba ce be 85 76 3a be 97 96 7d 3e 18 3c 5a bd
       -0.40376407 -0.18209274 0.24764477 -0.053279966
000220 93 a7 28 3e 91 03 73 3d 46 60 a0 3d 5a d7 2d be
       0.16470174 0.059329573 0.07830863 -0.16976681
000230 38 be 5c 3e e8 60 14 3e c7 d3 85 3e ab db ba 3c
       0.21556938 0.14490092 0.26138136 0.022809824
000240 1c e8 21 be fe 59 c6 bc da 20 ca 3b 8f 3e 42 be
       -0.15811199 -0.024212833 0.006168467 -0.18969177
000250 a0 23 c9 3c 65 80 3c be d1 a9 33 3d 82 4f c5 3d
       0.02455312 -0.18408354 0.04386312 0.096343055
000260 03 05 71 3e 60 92 05 3d ea a6 2f be f2 09 74 bd
       0.23537068 0.032610297 -0.17153516 -0.059579797
000270 ec 91 c6 3c a8 93 0e be bf 71 c9 bd 58 9e 3c be
       0.024239503 -0.13923514 -0.098361485 -0.18419778
000280 5c 3d a8 3c 4c 77 7e 3d 90 31 d9 3d 8c 5b 7a 3d
       0.02053707 0.06212549 0.106051564 0.061122462
000290 c6 dc 2c 3e 4d af 80 bd d5 be d3 bc dd 4c 83 3d
       0.16881093 -0.06283436 -0.025847832 0.06411145
0002a0 89 fe aa 3d 92 b7 5a 3d 93 d6 e3 3d 61 6d 16 bd
       0.0834933 0.053397723 0.11124911 -0.036725406
0002b0 bc 1b 33 3e 66 08 c6 bd a7 e2 89 3d bb 79 03 3e
       0.17491049 -0.096695706 0.06732684 0.12839405
0002c0 82 26 9e 3d d9 c7 a6 3c 79 40 f9 3b 99 31 47 bc
       0.077221885 0.020358967 0.0076065627 -0.012157821
0002d0 e4 27 c0 bd 04 50 18 be ab 13 dd bd 94 c7 18 3e
       -0.093826085 -0.14874274 -0.10794767 0.14919883
0002e0 e1 a7 57 3d d4 d8 95 bd 93 77 39 3d 38 7d 8d 3d
       0.052650336 -0.07316747 0.04528005 0.06908649
0002f0 3b f5 52 be 82 80 e1 ba 82 0d a7 3d 4b 59 ff bd
       -0.2060136 -0.0017204436 0.08156873 -0.12468203
000300 47 f3 12 bd 18 1b e3 bd b1 e6 75 bc bd 9c 57 bc
       -0.03587654 -0.11089152 -0.015008614 -0.013159928
000310 a4 28 9c 3c cd a7 dc 3d e2 bf 93 3b 66 58 f2 bd
       0.019062348 0.10774193 0.004508958 -0.11833267
000320 05 99 90 3c 5d 0e 8c bd bc 7d aa bd 15 6b f0 bc
       0.01765109 -0.06838677 -0.08324763 -0.029347936
000330 15 f2 b8 bd 1a b3 6a be 71 4b 35 be ab 00 82 be
       -0.090305485 -0.22919884 -0.1770456 -0.25391135
000340 2a 82 5a 3d a9 0b 69 3c 0b e9 52 bd 21 ef 64 3d
       0.05334679 0.014223971 -0.05149178 0.055892114
000350 60 e3 fd 3d e3 6c c9 3d 17 04 b5 3d bc 61 46 be
       0.12396884 0.098352216 0.08838671 -0.1937322
000360 8a 8c 96 3c a3 ce 86 bd be 89 ce 3d 5a 73 6a 3d
       0.018377561 -0.065823816 0.10084866 0.057238914
000370 af c0 5a 3e b6 9b de bd b6 0f 05 3e 29 d2 33 bc
       0.21362565 -0.10869543 0.12994274 -0.010975399
000380 1e bd 94 3d ed 56 e4 3d 15 28 22 3e f1 79 52 bc
       0.07262634 0.11149392 0.15835603 -0.012846456
000390 73 82 e3 bd 8c a2 79 3d 46 37 03 be 98 27 34 be
       -0.111088656 0.060946032 -0.12814054 -0.17593229
0003a0 09 ed 10 3e ae 0f b2 bc 69 b9 0a be 12 a5 83 be
       0.14152922 -0.021735992 -0.13547291 -0.25711876
0003b0 92 01 17 3e d5 da b3 3e 89 f2 3e 3e 1e 74 d7 bd
       0.14746693 0.35127893 0.18647207 -0.105201945
0003c0 73 40 e1 3d f8 f7 21 be ad 1f 7d 3d dc 0d 9f 3d
       0.10998621 -0.15817249 0.061797787 0.07766315
0003d0 54 6d 82 3d 45 c5 c5 bd 23 9c 18 bb 8f 82 a5 3d
       0.06368509 -0.09656767 -0.0023286424 0.08081543
0003e0 46 ed 06 3e 59 69 0e be 8f e4 46 3d ff 30 91 be
       0.1317645 -0.13907374 0.048557814 -0.28357694
0003f0 33 34 d5 bd 6c 39 b1 3d b5 2b d0 bd 51 bb 22 be
       -0.10410347 0.086535305 -0.101645865 -0.15891768

decoder.linear_t.bias f4 [200]
000000 6c e0 e7 bd c7 a1 03 be 1f 94 03 3e 59 8c a7 3d
       -0.11322102 -0.12854682 0.12849472 0.08181066
000010 28 0f 00 be 63 9f a0 bd 48 09 e5 bd 22 fe de 3d
       -0.12505782 -0.078429006 -0.11183411 0.10888316
000020 a6 a5 c6 3e 11 95 59 3e db 2e 24 be f6 54 f9 3d
       0.38798255 0.2124827 -0.16033499 0.12174408
000030 2d f6 0e 3f 4b 06 a1 bd 88 d9 5a 3e fa af b9 3c
       0.55844384 -0.078625284 0.21372044 0.02266692
000040 2a 3c 48 3d af a8 c7 bd 98 da 02 3f a3 8a 43 3e
       0.048885502 -0.09748971 0.511148 0.19095854
000050 91 ed 2a 3d da e4 a8 3e 7a 52 8e 3e 0b 37 2d 3d
       0.041730467 0.329871 0.277973 0.04228882
000060 d6 ff 49 3e b0 5e 95 3d 45 76 40 3d af f2 de 3c
       0.197265 0.07293451 0.04698779 0.02721533
000070 8b bf 84 3e 1e 79 70 3e 9e 6a a0 bb e3 ca 63 be
       0.25927386 0.23483703 -0.0048955223 -0.22245364
000080 19 04 13 3f c7 0c 02 3f bb 05 d6 3e e6 2d 1c 3d
       0.5742813 0.50800747 0.41801247 0.03812971
000090 0e a2 cd bd b4 f3 26 3d 68 fb 06 3f ca 9e 02 3f
       -0.10040675 0.040759757 0.52727365 0.5102354
0000a0 ce 3b 30 be 2b e5 50 3e 9b c9 eb 3e 16 27 1f 3f
       -0.17210314 0.2039992 0.4605225 0.62169015
0000b0 cf 41 04 3f 4b df 67 3d 9b 4a a7 3e 1b 8b 72 3e
       0.51662916 0.056609433 0.32674107 0.23685877
0000c0 e1 2d 3a 3f 18 a2 2a 3e ad 2d 01 3e 50 0e f0 3d
       0.72726256 0.16663396 0.1261508 0.1172148
0000d0 81 2f 29 be 95 a3 8e 3c 4d e9 c8 ba 49 df 00 3d
       -0.16522028 0.017411986 -0.0015328318 0.03146294
0000e0 cf 2c 2c be 01 a3 bc bc ee 87 8c bd 8d 64 0d bd
       -0.16813968 -0.023026945 -0.06861864 -0.03451972
0000f0 97 d2 e7 3d cf f2 8d bc 4d 8c 17 be 7a 7e 8b 3d
       0.11319464 -0.017327694 -0.14799614 0.06811233
000100 67 1f ce 3d bb 4c 29 bd 75 26 87 be 3b 75 21 3d
       0.10064583 -0.04133294 -0.26396528 0.03941844
000110 dc b6 61 bd ba e3 bd 3d fe 96 a9 bc d0 fd 76 bd
       -0.05510603 0.09271951 -0.020701881 -0.06030065
000120 38 bb 07 be 34 05 bb 3d a8 4c 06 3b bb 7a 0e be
       -0.13255012 0.09131852 0.0020492468 -0.13914005
000130 14 d4 00 be 1d a0 69 3d 4f 10 52 3e 51 4b d2 3d
       -0.12580901 0.05703746 0.20514034 0.10268272
000140 07 6c d2 3d bb 35 d9 3d d4 23 c2 bc a3 a0 bb 3d
       0.10274511 0.106059514 -0.023698725 0.091614984
000150 35 88 b4 3d 00 02 29 3e 54 ef a8 bd 15 b9 23 be
       0.08815042 0.16504669 -0.08248773 -0.15988572
000160 39 8a b8 3b fa 82 8d bd 32 55 0b 3e b8 b7 64 3d
       0.005631712 -0.069097474 0.13606718 0.05583927
000170 2c 6e 0c be d0 e2 2c be d8 dd 8c bd d3 96 1c be
       -0.13713902 -0.16883397 -0.06878251 -0.1529191
000180 6e 60 4c bd af f3 79 be a5 df a2 bd 30 6b d6 3d
       -0.04989665 -0.24409364 -0.07952813 0.10469663
000190 df 11 f4 bd 66 8f 6d bd 14 d9 4b 3e e1 0f 26 be
       -0.11917471 -0.057998084 0.19907027 -0.16216995
0001a0 09 de a0 3d cd e0 c3 bc b4 4a f4 3e d5 d9 6e 3e
       0.0785485 -0.023910904 0.47713244 0.23325284
0001b0 25 49 a0 3e d4 ad 17 3e 38 ad df 3b 49 87 0f 3f
       0.31305805 0.14812404 0.006826069 0.56065804
0001c0 e3 17 9f bd 1b b9 1a 3f 48 2e 41 3e 22 f7 e5 3d
       -0.07768228 0.604387 0.18865311 0.112287775
0001d0 20 39 bb 3e 93 b6 a7 3e 07 6c 8d 3e d0 7d 62 3e
       0.3656702 0.3275648 0.2762148 0.22118306
0001e0 ed 22 8d 3c 30 f9 b5 3e 15 70 7d 3e 4b 1d ab 3d
       0.017228568 0.35541677 0.24749787 0.083551966
0001f0 44 59 0e be d2 b5 64 bd aa b6 fd 3d bb c1 88 3e
       -0.1390124 -0.05583746 0.12388356 0.26710305
000200 a8 db a1 3e da 7d 2a 3e 9c db a5 3d 17 9e 91 3d
       0.31612897 0.16649571 0.08098528 0.07110231
000210 d5 68 92 3d b9 16 11 3e 65 9c 53 3d 1c a3 fa bd
       0.071489014 0.14168824 0.05166282 -0.12238142
000220 d9 56 54 be 5f 92 c6 bc fd 21 1a 3c cf 6e 74 3e
       -0.20736255 -0.024239717 0.0094075175 0.23870395
000230 f2 f6 17 bb 6f 7f 75 be 2a 59 c7 bd 61 ad 00 3e
       -0.0023187962 -0.23974393 -0.097338036 0.12566139
000240 a1 c6 15 3d 09 19 83 3d f1 3d 7d be 5b 7a 38 bd
       0.03656638 0.064012595 -0.2473066 -0.045038562
000250 e7 1e 0a 3e ca da 94 3d 74 ff b1 3d 53 75 63 3c
       0.13488351 0.07268293 0.08691302 0.013882953
000260 ce 10 b3 3e ef df a4 3d ae d0 47 3e 25 07 a2 3d
       0.34973758 0.080505244 0.19513199 0.07911519
000270 8a c5 d5 bd 09 46 35 3e ea 51 84 3e 7c 78 0f 3e
       -0.10438068 0.17702498 0.25843745 0.14010805
000280 83 d4 41 bd 7d a4 99 3c 3d 98 84 3e 46 79 f7 3e
       -0.047321808 0.018755192 0.258974 0.48334712
000290 ea 45 60 3e 15 cd 9e bd 7b d3 d7 bd f3 be 24 be
       0.2190167 -0.0775396 -0.105383836 -0.16088466
0002a0 dc 98 c0 bd 10 96 10 3e e0 87 05 3d be cb 26 bd
       -0.094041556 0.14119744 0.032600284 -0.040721647
0002b0 48 da 1d bd 92 fa 8d 3e b8 b0 62 3d eb 57 d1 bd
       -0.038538247 0.27730232 0.055344313 -0.10221847
0002c0 60 6c 6c 3d 83 5d 43 be de 32 02 3f 2b a3 94 3e
       0.057720542 -0.1907864 0.5085887 0.29030737
0002d0 21 29 3c be b6 1d f1 bc a1 73 a3 3e 93 ea d0 3e
       -0.18375064 -0.029433113 0.31924155 0.40803966
0002e0 c3 e1 09 3e 58 9b 74 bb 78 69 01 3e f2 ff fd 3b
       0.13465028 -0.0037324037 0.1263789 0.0077514583
0002f0 5e a7 12 3b ad 1f 09 3e 93 90 9f bc 8b 1e 4f 3e
       0.002237759 0.1339099 -0.019478118 0.20226495
000300 82 e0 8a bd 99 85 1d 3f ee e8 85 3e cd 9f 0e 3e
       -0.06781103 0.6153198 0.26154274 0.13928147
000310 c0 30 ff bd aa 33 c2 3e 16 eb 4b 3e 7a 14 32 3e
       -0.1246047 0.37930042 0.19913897 0.17390624

decoder.conv2_t.weight f4 [8, 4, 3, 3]
000000 19 99 3d 3e 2f 8e 10 be a4 d1 a1 3d 4f 5e 1c be
       0.18515433 -0.14116739 0.07901314 -0.15270351
000010 49 ad 1f 3e 81 8d d6 3d fa 10 41 be 71 5a e2 3c
       0.15593447 0.104762085 -0.18854132 0.027631016
000020 83 3b df bc 3f b0 b6 3e 6e 29 bc 3e 85 60 ac bc
       -0.027250057 0.3568134 0.36750358 -0.021042118
000030 66 72 d3 3e c7 fd 06 3f 42 fc f1 bb 06 c7 89 3b
       0.41298217 0.52730983 -0.007384808 0.0042046336
000040 91 da d4 3d 4d 9a a8 3c c0 52 d2 3d 39 7b b5 3c
       0.10393251 0.020581389 0.102696896 0.022153484
000050 64 45 a1 3d 95 cd c8 3d 9d b1 07 3f 9a 4a 63 3d
       0.07874563 0.09804837 0.5300539 0.055491067
000060 7e 1c bc bd 3b f0 a3 bc 01 bc 8c bc b8 13 53 3e
       -0.09185122 -0.020012012 -0.017179491 0.20612991
000070 32 70 9d 3e 28 a9 01 3e dd 87 71 3d 40 fa 9f 3e
       0.3074966 0.12662184 0.05896746 0.31245613
000080 2c 97 08 3e af d4 4c be c5 b3 ea bc 80 9a 00 3d
       0.13338917 -0.20003007 -0.028650174 0.031397343
000090 3f e9 8b 3e a5 ee 50 be 95 a5 1a 3e 2b c2 8b 3e
       0.2732639 -0.20403536 0.15102227 0.27296576
0000a0 e5 29 72 3e 81 be 27 be 23 f7 49 3c 12 cf 8b be
       0.23648794 -0.16381265 0.012326988 -0.2730642
0000b0 b0 ef 38 be ae c0 4c 3e 68 1c a8 3e a0 1f 72 bd
       -0.18060184 0.19995376 0.32834172 -0.05911219
0000c0 f8 be 1b 3f 13 3b d5 3e e5 a9 ad be 8f f4 1b 3e
       0.6083827 0.41646633 -0.33918682 0.1523001
0000d0 fb ce 58 be e8 d9 88 be 54 d3 ce 3d 1a 5f 01 3c
       -0.21172707 -0.2672875 0.100989014 0.007896209
0000e0 06 0a c3 3d f0 3e 94 3e 37 80 1c 3f aa 1a 49 be
       0.09523396 0.28954268 0.6113314 -0.19639078
0000f0 67 ac da 3d 7a c0 d4 3d 97 1d 3c be 00 10 ff 3d
       0.106774144 0.103882745 -0.18370663 0.12454224
000100 b8 24 a1 3e a3 bf 99 3d 77 33 ab 3e be 72 fb 3e
       0.31473327 0.07507255 0.33437702 0.4911098
000110 b6 30 f8 bd 07 d2 ef 3d 0f 20 20 3d 29 26 3c be
       -0.12118666 0.117099814 0.039093073 -0.18373932
000120 2c ea e8 3a d4 c3 ae be 68 fc 43 be 5c a9 a9 be
       0.0017769984 -0.3413378 -0.19139254 -0.33137023
000130 a3 5f 55 bf 91 51 5b be 97 d1 92 be 4d 49 0c bf
       -0.83349055 -0.21417834 -0.2867553 -0.5479935
000140 73 a9 44 be d6 d5 d4 3c 44 60 10 be 7f f9 37 bd
       -0.19205265 0.025980871 -0.14099222 -0.044915672
000150 b6 88 b0 be b2 f8 15 bf 8c d5 28 be 5b 1c eb be
       -0.34479302 -0.58582604 -0.16487712 -0.4592007
000160 44 81 f2 be 48 6b 1d be 18 23 a3 3c 44 a4 03 be
       -0.47364247 -0.15372956 0.019914195 -0.12855631
000170 d1 6a 81 bd c4 64 2a be 50 78 c9 be 34 5f 77 be
       -0.06319202 -0.16640002 -0.39349604 -0.24157411
000180 d0 37 52 be 77 84 cc 3d 6e 90 57 be d3 34 1f 3d
       -0.20529103 0.09986203 -0.2105119 0.038868736
000190 a0 45 c8 bd 13 14 0c be 33 34 23 be d1 b9 0d bf
       -0.09778905 -0.13679533 -0.15937881 -0.5536166
0001a0 5d 30 a3 be a0 f1 a0 be 27 7a 0c bf eb 81 87 be
       -0.31872836 -0.31434345 -0.5487389 -0.26466307
0001b0 5a 80 8a be 88 de a5 be c5 e9 eb bd 8a af 6d be
       -0.2705105 -0.3239634 -0.115191974 -0.23211494
0001c0 61 40 51 be a8 0e 6b bc 19 53 e4 3e 1a 12 7a 3f
       -0.20434715 -0.014346756 0.44594648 0.9768387
0001d0 c0 37 8c 3e f3 b4 a2 bd 3d 5a fc bd c7 fd 89 3d
       0.27386284 -0.079446696 -0.12321899 0.06737857
0001e0 7e 39 df be c8 c0 ed be 1f 6c af bc 5d d9 f7 bc
       -0.4359855 -0.46436143 -0.02141386 -0.030255014
0001f0 2b e1 92 3d d3 94 3e 3e 08 d5 ab bd 68 2c f4 bd
       0.07171854 0.1861146 -0.08390242 -0.11922532
000200 f4 23 1a 3c ac 26 39 be e9 ba e9 be 62 47 30 bd
       0.009407986 -0.18081158 -0.45650414 -0.043036826
000210 d5 6c ba bc 76 86 2a 3e dc 2b 40 3e bf 87 64 bd
       -0.022756973 0.16652855 0.18766731 -0.05579352
000220 3b 2c 3d be f1 2a a6 bc c1 1e bf be 1b c1 f5 be
       -0.18473904 -0.020284148 -0.3732815 -0.4799889
000230 37 e1 e9 bd f9 0e a2 3d 05 51 00 3e d9 59 36 3e
       -0.114199094 0.07913012 0.12530906 0.17807712
000240 97 91 10 3e 2c 5f 9a bd c4 39 d2 3d 93 af 6b 3b
       0.14118038 -0.07537684 0.10264924 0.0035962805
000250 c7 2e 97 3e 14 6b a7 3e 1f 83 32 be a2 21 9a bd
       0.29527876 0.32698882 -0.17432831 -0.07525946
000260 1b b3 33 3e 2a 7a 78 ba 60 2d a3 3d 0d f2 59 3e
       0.17548792 -0.0009478653 0.07967639 0.21283741
000270 c0 7b 45 3d 83 26 01 3f c8 14 03 3f 4d aa 89 3b
       0.04821372 0.5044939 0.51203585 0.0042012096
000280 30 c8 c3 3e a0 79 9d 3e 9c 1f 13 bc a3 51 fb 3d
       0.38238668 0.30756855 -0.008979704 0.1227143
000290 26 af aa 3d 19 45 00 be df fa 42 3e 7b 69 bf 3e
       0.08334188 -0.12526359 0.19041012 0.37385163
0002a0 69 13 f2 bd c7 59 f8 bd 46 b7 4e 3e e0 27 c3 3c
       -0.118201084 -0.12126499 0.20187101 0.023822725
0002b0 34 5d ff 3c b4 c3 47 3e b8 da 91 bc b1 7f 4a 3e
       0.031172372 0.19508249 -0.017804489 0.19775273
0002c0 76 ce d5 3e 15 73 d6 bd 6f bc d1 3d 77 4c 87 3e
       0.4175908 -0.10471169 0.10241019 0.26425526
0002d0 0d 33 6c bd 85 e7 2e be 78 76 ed bd e9 d0 36 3e
       -0.057665873 -0.17080505 -0.11594862 0.1785313
0002e0 6a 1a 02 3d 47 60 51 bd a3 2b 0d 3e 87 6c 3b 3e
       0.03176347 -0.051117208 0.13786177 0.18303119
0002f0 1e 66 c2 3b c4 7c 12 be f0 6a fb be 38 9f de be
       0.0059325835 -0.14305407 -0.49105024 -0.4348085
000300 44 df 62 be 3c b9 4c bf 27 28 f4 be 42 2b f5 3d
       -0.22155482 -0.79970145 -0.47686884 0.119711414
000310 a7 38 9c 3c 17 e3 8c bd 83 d2 d5 bc 07 6b db bd
       0.019069983 -0.068792515 -0.026101356 -0.10713773
000320 f9 c0 5a be c6 db 4d 3d c7 4c 25 bf b5 4a 15 bf
       -0.21362676 0.05025842 -0.6457028 -0.5831712
000330 9d 09 f8 3d e2 5a da 3c f4 89 de bd f2 ea 22 bd
       0.121112086 0.026654664 -0.10866156 -0.039774843
000340 f7 a9 44 be 44 fe 03 bf ae 58 92 3d c7 33 3d be
       -0.19205461 -0.51559854 0.071458206 -0.18476783
000350 ea aa a3 be 41 bd 33 3e 5e 63 5a 3e 9c ee 84 3c
       -0.31966335 0.17552663 0.21326968 0.016227059
000360 7e 4a 74 be 2b 10 b2 bd 42 ba 54 bc dd fe ff 3d
       -0.23856542 -0.0869449 -0.01298386 0.12499783
000370 3b f5 a5 3e 1d db 77 3e d7 79 71 bd 37 02 a8 be
       0.32413658 0.24204679 -0.058954086 -0.3281419
000380 ff 93 6d 3c de 3f b1 be 4a 01 51 be 67 b3 1d 3e
       0.014500617 -0.3461904 -0.20410648 0.15400468
000390 2d 28 38 be d8 ed af 3e 7a bc f9 3e 0f 7a 9b 3d
       -0.17984076 0.34361148 0.4877661 0.0759164
0003a0 00 6b a1 3e fc 85 2b 3e d5 db cb bd ed b5 e9 3d
       0.31526947 0.1675033 -0.09954039 0.11411653
0003b0 44 7a 8a 3b 9d 53 2a be b0 91 35 bc 22 34 c3 3e
       0.004226001 -0.16633458 -0.011082098 0.38125712
0003c0 cf 40 86 bc d3 3d 9e be a2 aa 03 3e aa 0a 59 be
       -0.016388325 -0.30906543 0.1285806 -0.21195474
0003d0 ac 93 5e be 07 29 b6 3d 10 c0 f0 bd aa 72 12 3e
       -0.2173602 0.08894544 -0.11755383 0.14301553
0003e0 6f 98 bc 3e 2e e0 97 3d 97 8b 3f 3e ca 9d 12 3e
       0.36835048 0.07415806 0.18705593 0.14318004
0003f0 28 81 5a 3d 47 13 81 bd e4 7e 0b 3b 03 c9 3b 3e
       0.05334583 -0.06302505 0.002128535 0.18338399

decoder.conv2_t.bias f4 [4]
000000 a2 c2 6f bf d3 74 e3 be 06 61 9d bf f6 2c 7b bf
       -0.9365636 -0.44425067 -1.2295234 -0.9811548

decoder.conv1_t.weight f4 [4, 1, 5, 5]
000000 36 a3 d4 bb db 9b a5 ba 8b ad 1f 3b 95 fb 32 3c
       -0.006489183 -0.001263495 0.0024364914 0.01092424
000010 09 4b 54 3c a6 e5 81 3c ae 4c a9 3c b7 bf a8 3b
       0.012957343 0.015856575 0.020666447 0.0051498073
000020 fd 67 c1 3b 3f bb 5b 3c 55 16 11 3d 43 9c 07 bd
       0.005902289 0.013411342 0.035421688 -0.033108007
000030 50 fb 0c be 04 72 b4 bd 0a 83 f7 bc b2 68 e5 3c
       -0.13767743 -0.08810809 -0.030213851 0.028004024
000040 36 53 b7 bc 45 68 5d 3d 29 fc 48 3e 19 17 56 3d
       -0.022378545 0.054054517 0.19627441 0.05226812
000050 72 03 05 3d f2 84 2b 3e 8c e5 f3 3e cd d4 f4 3e
       0.03247399 0.16749933 0.47636068 0.47818604
000060 61 1a 01 3e e1 cc f2 bb 96 2e 3a 3c f5 5d 7a 3c
       0.12607719 -0.0074096774 0.011363646 0.01528119
000070 f6 d5 36 bd 01 a3 d1 bc 5e 38 08 bb f7 06 02 3d
       -0.044637643 -0.025590422 -0.002078555 0.031744923
000080 74 59 a4 3d 56 65 1d 3e c6 01 09 3e d0 60 a8 3c
       0.08024874 0.15370688 0.13379583 0.020553976
000090 5d 20 52 3c 51 60 64 3e 64 92 23 3f d0 a6 e0 3e
       0.012825099 0.22302367 0.6389525 0.43877268
0000a0 90 26 11 3d 68 13 78 bd 85 a4 45 3e be cf 19 3f
       0.035437167 -0.060565382 0.1930104 0.60082614
0000b0 9a 63 8c 3e a7 ad eb 3c bb eb 7d bd db a2 5b 3d
       0.2741974 0.028769327 -0.06199239 0.053622108
0000c0 1f f0 27 3e 72 94 dd 3c 91 3f 26 3c 5d d4 ff bc
       0.16400193 0.027048323 0.010146991 -0.031229192
0000d0 3d be 9c bd 6d f1 94 bd f0 15 8b bd cf 31 0d bd
       -0.076534726 -0.07272611 -0.067912936 -0.03447133
0000e0 91 b1 03 be 5d 55 69 bd ee f1 7a 3b 6e ca f2 bd
       -0.12860705 -0.056966174 0.0038291174 -0.11855017
0000f0 91 d9 8d bd 19 bb 05 be f1 ea c0 3d 68 72 64 3c
       -0.06926263 -0.13059653 0.094198115 0.013943292
000100 e7 c9 3e be 5d 85 19 be c1 4d b8 be f0 30 e8 be
       -0.18631707 -0.1499228 -0.35996822 -0.45349836
000110 c2 5f f9 be 6a 4f 68 be 9b e5 84 bd 68 52 26 be
       -0.4870587 -0.22686544 -0.06489106 -0.16242373
000120 18 ec 78 be 9c 75 5b be 01 fa 8d bd 34 e9 a8 3c
       -0.24308813 -0.21431583 -0.0693245 0.020619012
000130 59 61 a9 3c de a1 55 3a fd b8 4b 3d 10 a5 2b 3d
       0.020676302 0.0008149425 0.049736965 0.041905463
000140 84 0a 95 bc 46 4e d1 bd 26 a8 1a be c0 74 05 be
       -0.01819349 -0.102200076 -0.15103206 -0.13032818
000150 ed 2b 88 bd 56 03 fd bd 9c 86 83 bd 3d d9 a8 3d
       -0.06649003 -0.12354152 -0.06422159 0.0824456
000160 43 a6 2b be ca 7f 54 be d7 99 c3 bd f0 c0 cf 3e
       -0.16762643 -0.20751873 -0.09550827 0.40576887
000170 18 3a 4d 3f cf cc b5 3d a7 21 06 be 72 f3 f6 bd
       0.8016677 0.08876955 -0.13098775 -0.12058152
000180 e0 ee 1c 3e c7 54 61 3e 89 0f f6 bd de 5a 9b bd
       0.15325499 0.22004996 -0.12014682 -0.07585691
