Homework/4_AutoEncoders/models/parms.pt (torch, 71745 bytes, 11 tensors)

encoder.conv1.weight f4 [4, 1, 5, 5]
0	0x3d3a86d6	0.045538746
1	0xbd002e93	-0.031294417
2	0xbda33a29	-0.079700775
3	0x3c5ac0b6	0.01335161
4	0xbcb7e3d6	-0.022447508
5	0x3cd9fde1	0.026610317
6	0x38eb55aa	0.000112216294
7	0xbd4784fd	-0.048710812
8	0x3da0100c	0.07815561
9	0x3cb11d7e	0.021620508
10	0xbd3c8f1b	-0.046034914
11	0x3d95588f	0.07292282
12	0x3df9db92	0.12200083
13	0x3e076c7e	0.1322498
14	0x3d2eaa18	0.042642683
15	0xbd4efe6e	-0.05053561
16	0x3e0aebcf	0.13566516
17	0x3ec96d23	0.39341077
18	0x3de917ca	0.113814905
19	0x3dd66d5e	0.10470079
20	0xbc7ed53a	-0.015553767
21	0x3dc138d2	0.09434666
22	0x3e995379	0.29946497
23	0x3dd3c36e	0.1034001
24	0x3d9ff8fc	0.07811162
25	0x3b9b7455	0.0047440925
26	0xbd949926	-0.07255773
27	0xbe58dd85	-0.21178253
28	0x3b70fdf9	0.0036772473
29	0x3c562222	0.013069661
30	0x3dfa4ad5	0.12221304
31	0xbe0be3a0	-0.13661051
32	0xbe540ad5	-0.20707257
33	0xbe229a56	-0.15879187
34	0xbe1529d6	-0.1456674
35	0x3ddb0c88	0.106957495
36	0xbe49e7e1	-0.19717361
37	0xbe7146f9	-0.2356223
38	0xbe0e7855	-0.1391309
39	0xbd628642	-0.05530382
40	0x3e2cee5b	0.168878
41	0xbe3a452e	-0.18190452
42	0xbe8a16ad	-0.26970425
43	0xbc0e8540	-0.008698761
44	0x3d9d2c31	0.076744445
45	0x3db00d5b	0.08596297
46	0xbd13f034	-0.036117747
47	0x3dda0a59	0.10646505
48	0xbdb318c9	-0.08744962
49	0x3e167716	0.14693865
50	0x3bb01de9	0.0053746593
51	0xbd8c2306	-0.06842618
52	0xbe0013a7	-0.12507497
53	0xbc3f74c1	-0.011685551
54	0x3d899f81	0.06719876
55	0xbd8f2bc5	-0.0699077
56	0xbc2b26ea	-0.01044629
57	0xbec27b59	-0.37984732
58	0x3ce67ec1	0.028136613
59	0xbc4bf284	-0.012447957
60	0xbe41210e	-0.18860266
61	0x3c3ed173	0.011646616
62	0xbe836967	-0.25666353
63	0xbe8ec8df	-0.27887627
64	0xbde7b254	-0.1131331
65	0xbea29d8e	-0.3176083
66	0xbd0260b8	-0.03183052
67	0xbed037a0	-0.40667439
68	0xbe39b67b	-0.18136017
69	0xbe154551	-0.14577223
70	0xbe5e456a	-0.21706167
71	0xbd083d95	-0.033261854
72	0xbedef1e1	-0.43543914
73	0x3d89af25	0.06722859
74	0xbcc757aa	-0.024333794
75	0xbdbbb372	-0.09165086
76	0x3d968010	0.07348645
77	0x3e0f34a5	0.13984926
78	0xbc9af531	-0.018915744
79	0x3d42dd9d	0.04757463
80	0x3b831262	0.003999994
81	0x3c0269b8	0.007959776
82	0x3daa4424	0.08313778
83	0xbd7250f2	-0.059159227
84	0x3ca9fa4a	0.02074923
85	0x3deddd23	0.11614444
86	0xbe7124f3	-0.23549251
87	0xbd32d9da	-0.04366479
88	0xbdc85e7c	-0.097836465
89	0xbe6f7afb	-0.23386757
90	0xbc08bb44	-0.008345429
91	0xbe8655ff	-0.26237485
92	0xbe89ff53	-0.2695261
93	0xbe3d6ca0	-0.18498468
94	0xbe25f0f8	-0.16205204
95	0xbd005bb3	-0.03133745
96	0xbe1c77e4	-0.1528011
97	0xbde33e01	-0.11095811
98	0xbdf231fd	-0.11825941
99	0x3b2cecaa	0.002638618

encoder.conv1.bias f4 [4]
0	0xbf933863	-1.1501583
1	0x3f01e950	0.5074663
2	0x3f1e0dc8	0.6173978
3	0x3f7f502f	0.99731725

encoder.conv2.weight f4 [8, 4, 3, 3]
0	0xbd2052ee	-0.039141588
1	0x3de76c80	0.112999916
2	0x3d9c8cfd	0.07644079
3	0xbe04a7c0	-0.12954617
4	0x3ed42087	0.41431066
5	0xbea507be	-0.3223247
6	0x3dee0bbd	0.11623333
7	0x3e917973	0.2841297
8	0xbda312ac	-0.07962546
9	0x3c7d23c1	0.015450419
10	0x3e0f5e8a	0.14000908
11	0x3e055ece	0.13024446
12	0x3c812815	0.015766183
13	0xbddc802b	-0.107666336
14	0xbda83dab	-0.08214887
15	0x3e3f1ec9	0.18664087
16	0xbe34e1e0	-0.1766429
17	0x3ea2efd3	0.31823596
18	0xbd022925	-0.03177752
19	0xbd3f3f75	-0.046691377
20	0xbe251a77	-0.16123377
21	0x3e7cb17c	0.2467708
22	0xbe79b907	-0.24386989
23	0x3d5f56fc	0.054526314
24	0x3daaf19e	0.08346866
25	0xbed344ff	-0.41263577
26	0x3d78169c	0.060568437
27	0x3a302bd8	0.00067204004
28	0xbdbe3c71	-0.09288872
29	0x3ce67c75	0.028135518
30	0x3ce8eef3	0.028434252
31	0xbeb46a2c	-0.35237253
32	0x3e410a84	0.18851668
33	0xbe2421f1	-0.16028573
34	0xbef1f94f	-0.4726052
35	0xbce9bd9e	-0.0285328
36	0x3de26f23	0.11056354
37	0xbd7ced30	-0.061749637
38	0x3eadbe71	0.33934358
39	0xbd5fc207	-0.0546284
40	0xbe319a9a	-0.17344132
41	0xbb68da7d	-0.003553062
42	0xbd2167fc	-0.039405808
43	0x3d94d78d	0.072676755
44	0xbda04460	-0.078255415
45	0x3de82836	0.11335795
46	0xbac91b23	-0.001534317
47	0x3dcb1b67	0.09917336
48	0xbeb50c06	-0.35360736
49	0xbeafcc44	-0.3433553
50	0xbec0718a	-0.37586623
51	0xbde41abf	-0.11137914
52	0xbdadc3dc	-0.08484623
53	0x3e713ddc	0.23558754
54	0xbe83d66a	-0.25749522
55	0xbec07954	-0.37592566
56	0xbeb4edb1	-0.35337594
57	0xbebec4fd	-0.37259665
58	0x3edf2a5f	0.43587014
59	0xbe14bc55	-0.14524968
60	0xbda8cd2e	-0.0824226
61	0x3eec6838	0.46173263
62	0x3e67f229	0.2265097
63	0x3c379f96	0.011207482
64	0xbde47022	-0.111542
65	0xbe2648c3	-0.16238694
66	0x3e664f86	0.22491273
67	0x3f199071	0.59986025
68	0x3e28fecb	0.16503446
69	0x3e904f17	0.2818534
70	0xbd9601ee	-0.07324587
71	0xbcbb672d	-0.022876346
72	0x3dbb6d04	0.091516525
73	0xbe0be2d1	-0.13660742
74	0x3d090e27	0.033460762
75	0x3e0e3fba	0.13891497
76	0xbcf0eae5	-0.029408881
77	0x3ecac9a7	0.39606974
78	0xbd58fff0	-0.052978456
79	0x3e334e0b	0.1751024
80	0x3e30f945	0.17282589
81	0x3d953c78	0.07286924
82	0xbc41ad22	-0.011821063
83	0xbc37fcc0	-0.011229694
84	0xbd01ef71	-0.03172249
85	0x3e41000c	0.18847674
86	0x3c28d69b	0.010305072
87	0xbddb54fb	-0.10709568
88	0x3d1676a6	0.036734246
89	0xbf02b29c	-0.51053786
90	0x3bc507dc	0.0060129
91	0x3d6ea811	0.05826575
92	0x3d992423	0.07477596
93	0xbd7bc735	-0.061469276
94	0x3d9edf8a	0.077574804
95	0xbed4fe9c	-0.41600502
96	0x3c550e24	0.01300386
97	0x3d2c038a	0.041995563
98	0xbee3e35b	-0.44509396
99	0xbd8884aa	-0.06665929
100	0x3d2afc71	0.041744653
101	0x3d93bd03	0.072137855
102	0xbb0b2c31	-0.0021236057
103	0xbadd5a39	-0.001688785
104	0xbc450e8c	-0.012027394
105	0x3da8ceaa	0.08242543
106	0xbe27ee00	-0.16399384
107	0xbc23cf5d	-0.00999817
108	0x3d28777d	0.041129578
109	0x3d24739a	0.04014931
110	0x3e3ff72f	0.18746637
111	0x3e209d57	0.1568502
112	0x3e7de879	0.24795713
113	0x3e46f1c4	0.19428164
114	0xbe0c0739	-0.1367463
115	0xbeae229f	-0.3401079
116	0xbe000047	-0.12500106
117	0x3dad6fc4	0.08468583
118	0x3e7af00c	0.24505633
119	0x3e33519e	0.17511603
120	0x3d03b7ac	0.032157585
121	0xbea1ab21	-0.31575873
122	0xbec6b467	-0.3880951
123	0xbd290a87	-0.041269805
124	0xbd9d5dad	-0.07683883
125	0xbb03f66d	-0.0020135895
126	0x3bd40373	0.0064701377
127	0xbcff3a72	-0.031155799
128	0xbde9740d	-0.11399088
129	0x3cc020f8	0.02345322
130	0xbf1b16b7	-0.60581535
131	0xbee00950	-0.43757105
132	0x3da09354	0.078406006
133	0x3ee8addd	0.45445147
134	0x3e53b7c1	0.20675565
135	0xbd4740a5	-0.048645634
136	0x3db8bfc0	0.090209484
137	0x3cdce1d8	0.02696316
138	0xbe825875	-0.25458112
139	0xbeec197c	-0.46113193
140	0xbe65ba10	-0.22434258
141	0x3de50756	0.1118304
142	0x3f02e50a	0.51130736
143	0x3d920204	0.07129291
144	0x3e262a1f	0.16227005
145	0xbec252f3	-0.3795391
146	0x3d83dfdf	0.064391844
147	0x3e978561	0.29593948
148	0xbef1b892	-0.47211128
149	0xbdcf520f	-0.10123073
150	0xbe21a008	-0.15783703
151	0xbd607194	-0.054795817
152	0x3b844223	0.0040362044
153	0x3d8ed825	0.0697482
154	0x3c954549	0.018221514
155	0xbdcbca66	-0.09950714
156	0x3df21b8a	0.11821659
157	0x3e436128	0.19080031
158	0xbedf4d68	-0.43613744
159	0xbb022344	-0.0019857446
160	0x3eb2ea0c	0.3494419
161	0xbe004280	-0.12525368
162	0xbe554455	-0.20826848
163	0x3de6db02	0.11272241
164	0x3a544cad	0.0008098584
165	0xbe386aa4	-0.1800943
166	0x3efd4232	0.49464566
167	0xbcc523e8	-0.024064973
168	0x3dd91889	0.10600383
169	0x3efbbbf9	0.4916685
170	0x3ecd18e9	0.40058067
171	0xbb8056fd	-0.00391662
172	0x3e7658d9	0.2405733
173	0xbef07c21	-0.46969703
174	0x3e370d24	0.17876107
175	0x3da325c9	0.07966191
176	0xbf22bb5e	-0.6356715
177	0x3eca96a7	0.39568064
178	0x3e32cf45	0.1746188
179	0xbf0d6cdd	-0.5524424
180	0xbc2b93af	-0.010472222
181	0xbe00bf77	-0.12573038
182	0xbe22c7dc	-0.15896553
183	0xbe884a88	-0.26619363
184	0xbe1103ee	-0.14161655
185	0x3e5d5e1e	0.21617934
186	0xbef08dd2	-0.469832
187	0xbd8bfa4a	-0.06834848
188	0xbdc2e85a	-0.09516974
189	0xbdb0b277	-0.086277895
190	0x3d90647c	0.07050416
191	0xbe4413a8	-0.19148123
192	0xbdbaa5b3	-0.09113636
193	0x3e12ed8b	0.14348428
194	0x3dd24cf6	0.102685854
195	0xbda21416	-0.07913987
196	0x3dc6a0be	0.09698628
197	0x3dd8e2da	0.105901435
198	0xbdc91e51	-0.098202355
199	0x3c9f5f10	0.019454509
200	0x3de56054	0.11200014
201	0xbe7c4960	-0.24637365
202	0x3f0eb350	0.5574236
203	0x3ed5ca3a	0.4175585
204	0xbe9df716	-0.30852574
205	0x3eaffbd9	0.34371832
206	0x3e86b38e	0.26308864
207	0xbe814bfd	-0.25253287
208	0x3dd1abb1	0.10237826
209	0x3e015861	0.1263137
210	0xbc283476	-0.010266414
211	0x3e1ef5a4	0.15523392
212	0xbe667113	-0.22504072
213	0x3e99c983	0.30036554
214	0x3e3019f8	0.17197406
215	0xbe3d643e	-0.1849527
216	0xbd62efae	-0.055404358
217	0x3d4aeeac	0.04954402
218	0xbe2b40b7	-0.16723906
219	0xbe44462b	-0.19167392
220	0xbec6a7db	-0.3879994
221	0xbe8375ee	-0.2567591
222	0x3e293460	0.16523886
223	0x3e8f3a74	0.27974284
224	0x3e0535e7	0.13008843
225	0xbde3846a	-0.1110924
226	0xbd4ae9d2	-0.049539395
227	0xbdff0ef0	-0.12454021
228	0xbe147ee7	-0.14501534
229	0x3d3c58f3	0.045983266
230	0x3ec96d61	0.39341262
231	0xba76d8e3	-0.0009416474
232	0x3e8c4ce9	0.27402428
233	0x3e4e79ae	0.20163605
234	0xbdee016b	-0.11621364
235	0x3b8c6189	0.004284088
236	0x3ddfa03c	0.10919234
237	0xbe3932e1	-0.18085815
238	0x3eb3f5fe	0.35148615
239	0x3f3bc940	0.7335396
240	0xbd607e55	-0.05480798
241	0xbe257bf6	-0.16160569
242	0xbe6d528d	-0.23176022
243	0x3e6b2947	0.22964965
244	0x3e101ce8	0.14073527
245	0xbd5a23f0	-0.05325693
246	0x3ea08e72	0.31358677
247	0x3eab0005	0.33398452
248	0x3d3af5f0	0.0456447
249	0xbea1f472	-0.3163181
250	0xbf047838	-0.5174594
251	0xbe9d2cc9	-0.3069823
252	0x3e8e344b	0.2777427
253	0xbe024f07	-0.12725459
254	0x3ceb11ae	0.028694954
255	0x3e6fd775	0.23422034

encoder.conv2.bias f4 [8]
0	0x3fa7c1c6	1.310601
1	0x3e331be9	0.17491116
2	0x3fd42729	1.6574451
3	0x3ee44562	0.44584185
4	0x3dc24567	0.09485894
5	0xbec6d22b	-0.3883222
6	0xbe4b3567	-0.1984459
7	0x3f4a4a82	0.7901994

encoder.linear.weight f4 [40, 200]
0	0x3dbe1108	0.09280592
1	0xbd47d0a6	-0.048782967
2	0xbe7aefd4	-0.2450555
3	0xbd793093	-0.06083734
4	0xbdf2d57b	-0.118571244
5	0x3cbfae11	0.023398431
6	0x3caaf6a4	0.02086956
7	0xbca8ebf3	-0.020620322
8	0xbe0efa16	-0.13962588
9	0xbda844a6	-0.08216219
10	0x3d6750e2	0.05647362
11	0xbc83d584	-0.016093023
12	0x3da4b7cd	0.0804287
13	0xbe05766d	-0.13033457
14	0x3e1aa33e	0.15101334
15	0xbd999887	-0.074997954
16	0xbcb68440	-0.022279859
17	0xbe1cf9e8	-0.15329707
18	0x3d94305a	0.07235785
19	0x3c4823f4	0.012215603
20	0x3d1eacac	0.03873889
21	0x3e8c7ad7	0.2743747
22	0xbe8eb602	-0.27873236
23	0x3d217666	0.039419554
24	0xbe38c43c	-0.18043607
25	0xbcc90a36	-0.024541002
26	0x3d53a5f0	0.051671922
27	0x3d7a3d37	0.061093535
28	0xbe74e215	-0.23914368
29	0xbe2eeb61	-0.17081977
30	0x3d1f4455	0.038883526
31	0x3dc43d01	0.09581948
32	0x3d994711	0.07484258
33	0x3da0a734	0.078443915
34	0xbd0e796d	-0.03478377
35	0x3c0a3ebc	0.008437809
36	0x3c291c2b	0.010321657
37	0x3e74b2d7	0.23896347
38	0x3e24da62	0.16098931
39	0xbde6e855	-0.112747826
40	0x3ccf1921	0.025280537
41	0x3d2a0e02	0.041517265
42	0x3c655f1f	0.013999729
43	0xbdc92812	-0.09822096
44	0x3d6f2cf9	0.0583925
45	0xbd2148ce	-0.039376073
46	0xbd91ffc3	-0.07128861
47	0xbe5407da	-0.2070612
48	0x3d07e06b	0.033173006
49	0x3e1319e9	0.14365353
50	0xbc6e3ea4	-0.014541302
51	0xbd40032b	-0.04687802
52	0x3ea53fab	0.32275137
53	0xbe944e63	-0.28966054
54	0x3e3c8801	0.18411256
55	0x3e5a46d1	0.21316077
56	0xbd960be6	-0.07326488
57	0x3e80d69e	0.2516374
58	0x3e2c262d	0.16811438
59	0xbe7ef898	-0.24899518
60	0x3e104329	0.1408812
61	0xbdf286d0	-0.1184212
62	0xbf370492	-0.7149135
63	0xbf01b3ff	-0.5066528
64	0x3cb0153b	0.021494498
65	0x3dd8ecd3	0.10592046
66	0xbe3049c2	-0.17215636
67	0xbee25f6b	-0.44213423
68	0x3d75bbc4	0.05999352
69	0x3e8e19e8	0.2775414
70	0x3e0ce530	0.13759303
71	0x3e9b9c8e	0.3039288
72	0xbdafca4c	-0.08583507
73	0xbd46cff1	-0.048538152
74	0xbd38ba73	-0.045099687
75	0xbd83c986	-0.06434922
76	0xbb0b33a6	-0.0021240502
77	0x3e2c7cf9	0.16844548
78	0xbcad1fe9	-0.02113338
79	0xbdc2de57	-0.09515064
80	0x3ddd95d2	0.108195916
81	0x3e277272	0.16352251
82	0x3a7dee64	0.0009686707
83	0xbe6c430b	-0.2307245
84	0xbd4ec22f	-0.050478157
85	0x3bc4b71c	0.0060032737
86	0xbcb87b1d	-0.022519642
87	0xbe2d40c1	-0.16919233
88	0xbdfbb9d7	-0.122913055
89	0xbe08898f	-0.13333724
90	0xbc76aefc	-0.015056368
91	0x3db4c091	0.088257916
92	0x3d0e05e5	0.03467359
93	0x3e36c69a	0.17849198
94	0x3bc259e4	0.005931126
95	0x3d245717	0.040122118
96	0x3ad706c1	0.0016405211
97	0xbdabf7f2	-0.08396901
98	0x3dabf64d	0.083965875
99	0x3d925a2b	0.071461044
100	0x3d1566d5	0.03647502
101	0xbded1840	-0.11576891
102	0xbd077ad3	-0.03307612
103	0xbde7fca8	-0.11327487
104	0x3dad76bb	0.08469912
105	0x3db49f02	0.08819391
106	0xbe17a58c	-0.14809245
107	0xbc547df7	-0.0129694855
108	0xbdc005fd	-0.09376142
109	0x3c5e01b3	0.01355021
110	0x3d992549	0.07477815
111	0x3d09de77	0.033659425
112	0x3e4e6a2c	0.20157689
113	0x3dafd8f8	0.085863054
114	0x3c9991c8	0.018746272
115	0x3dfc7446	0.12326865
116	0xbc5be80b	-0.013422023
117	0x3caa65d5	0.02080051
118	0x3e3d5a24	0.18491417
119	0x3e1b47a1	0.15164043
120	0x3e4ab9c0	0.1979742
121	0xbe3d418d	-0.18482037
122	0x3d5b2c3d	0.053508986
123	0x3d2cbd90	0.04217297
124	0x3e2ab522	0.16670659
125	0x3b7ec2f4	0.0038873525
126	0xbd3fc5bf	-0.046819445
127	0x3e023246	0.1271449
128	0x3d70d060	0.058792472
129	0xbdc189e9	-0.094501324
130	0x3d7a8b1f	0.061167832
131	0xbc5fd9e4	-0.013662789
132	0xbd4b451a	-0.049626447
133	0xbda29d80	-0.07940197
134	0x3df36ead	0.11886344
135	0x3db30bd8	0.087424934
136	0x3df6addc	0.1204488
137	0x3c215f04	0.009849314
138	0x3de2da66	0.110768124
139	0xbd84f559	-0.06492109
140	0x3dbd3eb7	0.092404775
141	0x3d971438	0.07376903
142	0x3d9330b6	0.07187025
143	0xbdb055da	-0.08610125
144	0xbdedc20e	-0.116092786
145	0x3ccbbf56	0.02487151
146	0xbe1483ee	-0.14503452
147	0x3d891499	0.06693382
148	0x3e05c594	0.13063651
149	0x3d139fd7	0.036041107
150	0xbd315990	-0.043298304
151	0x3cea7c51	0.028623732
152	0x3ae854d4	0.0017725476
153	0x3e217d50	0.15770459
154	0x3e13b7ed	0.14425631
155	0xbc167789	-0.009183773
156	0x3a5fc7ed	0.0008536566
157	0x3dc2b5f8	0.09507364
158	0x3eb221c0	0.34791374
159	0xbd35615a	-0.044282295
160	0xbd34fbb6	-0.044185363
161	0xbd21be6a	-0.039488234
162	0x3ccbf116	0.024895232
163	0x3d0eb761	0.034842853
164	0x3e9cf630	0.30656576
165	0x3d3196f9	0.04335687
166	0xbbba206c	-0.0056801345
167	0xbe61a7e7	-0.22036706
168	0xbe94eed9	-0.29088476
169	0xbdea11dc	-0.11429188
170	0x3c8bc4c4	0.017061599
171	0x3e9e7be8	0.30953908
172	0x3e91174b	0.28338084
173	0x3d2c321f	0.042039987
174	0x3cad1a51	0.021130713
175	0x3c90dd89	0.017683761
176	0x3ceb0191	0.02868727
177	0xbe96202f	-0.2932143
178	0x3d444697	0.047918882
179	0xbecd82d2	-0.4013887
180	0x3e1b861a	0.15187874
181	0x3db0adb1	0.08626879
182	0xbe43b954	-0.19113666
183	0x3e876cf3	0.2645031
184	0x3e8321d2	0.2561174
185	0x3d1323f9	0.035922978
186	0x3d35f5e7	0.044423964
187	0x3e014ac7	0.12626182
188	0x3d6a0b71	0.057139818
189	0xbd69095b	-0.056893688
190	0xbd393218	-0.04521379
191	0x3e256ad7	0.16154037
192	0xbe0c90ad	-0.13727064
193	0xbd52224a	-0.05130223
194	0x3e07d2ac	0.13263959
195	0x3dac6485	0.0841761
196	0x3e1f00a6	0.15527591
197	0xbe5bb68e	-0.21456358
198	0x3e28e0ad	0.16491957
199	0xbdb11ad8	-0.08647698
200	0x3b4cff01	0.0031279924
201	0x3da09225	0.07840375
202	0xbde7a4f1	-0.11310757
203	0x3e035e83	0.12829022
204	0x3e616ad2	0.22013405
205	0xbda44be9	-0.08022291
206	0xbe4c058b	-0.1992399
207	0xbb2c9b4b	-0.002633768
208	0xbb2faee0	-0.0026807114
209	0xbbe5f70b	-0.007017975
210	0xbd7c2c24	-0.061565533
211	0x3d5c321d	0.05375873
212	0xbd7575c7	-0.059926774
213	0x3e041566	0.12898788
214	0xbe680d35	-0.22661288
215	0x3d1a6893	0.037697386
216	0xbe2622d8	-0.1622423
217	0x3d2f4cdf	0.04279792
218	0x3e5cfb95	0.21580346
219	0xbdd837f7	-0.105575494
220	0x3e9dbb50	0.3080697
221	0x3e24ad8d	0.1608183
222	0xbde94b52	-0.11391319
223	0xbd956a6b	-0.07295688
224	0x3dc20544	0.094736606
225	0xbca56b6c	-0.020192824
226	0xbd467c05	-0.048458118
227	0xbd47d406	-0.048786186
228	0xbcd4ff78	-0.026000723
229	0xbe0c8195	-0.13721307
230	0x3bf393ee	0.007433406
231	0xbdcded90	-0.10055077
232	0x3d535634	0.05159588
233	0x3ad08e83	0.0015911612
234	0xbe2772be	-0.16352364
235	0x3cae3f21	0.021270337
236	0xbd90e559	-0.070749946
237	0x3d99544a	0.0748678
238	0x3df49197	0.119418316
239	0x3e29ef68	0.16595232
240	0xbc908d52	-0.017645512
241	0x3c232d7e	0.009959577
242	0x3d4bbc16	0.04973992
243	0x3d386ada	0.045023777
244	0x3e219749	0.15780367
245	0xbd21f957	-0.03954443
246	0xbda6a6ae	-0.081372604
247	0xbe626ed6	-0.22112593
248	0x3c59dd7b	0.013297434
249	0xbddf2521	-0.10895754
250	0x3e10d2ad	0.14142866
251	0xbd253531	-0.04033393
252	0x3f0a13a0	0.53936195
253	0x3eb8b5ad	0.36076108
254	0x3df618c1	0.1201644
255	0xbcea219c	-0.02858048

encoder.linear.bias f4 [40]
0	0x3dbcdbd9	0.0922162
1	0xbcd2c752	-0.025729809
2	0xbddd39ee	-0.10802065
3	0x3961b1b2	0.00021523869
4	0xbde003fb	-0.10938259
5	0xbe335117	-0.17511402
6	0x3e920d3c	0.28525722
7	0xbbeb9060	-0.0071888417
8	0xbdf29348	-0.11844498
9	0x3c05042a	0.008118669
10	0x3c97bc6e	0.018522467
11	0xbe1561f2	-0.14588144
12	0xbe0376b3	-0.12838249
13	0x3d9405d2	0.07227673
14	0x3d8cad51	0.06868995
15	0x3e3e0c28	0.18559325
16	0xbe1375b0	-0.14400363
17	0x3d158e7e	0.036512844
18	0x3dfed9ea	0.124439076
19	0x3d613618	0.05498323
20	0xbdc62377	-0.09674733
21	0x3dc07bf4	0.09398642
22	0x3b827c21	0.0039820825
23	0x3d3d4a07	0.046213176
24	0x3dd06c9f	0.10176968
25	0x3dea3e2a	0.11437638
26	0x3dbfe1dc	0.09369251
27	0x3c93a90f	0.01802495
28	0x3d5be434	0.05368443
29	0xbbe6dbbe	-0.0070452383
30	0xbd25bc5b	-0.040462833
31	0x3de5de98	0.11224097
32	0x3cfb74c8	0.030695334
33	0x3e93ab90	0.2884183
34	0x3e512c50	0.2042706
35	0xba120157	-0.00055696577
36	0x3e076a53	0.13224153
37	0xbddbee36	-0.107387945
38	0xbd1a2138	-0.037629336
39	0xbe39a5c4	-0.18129641

decoder.linear_t.weight f4 [200, 40]
0	0x3c951f24	0.018203326
1	0xbddb3989	-0.10704333
2	0xbde65e42	-0.11248447
3	0xbddf707b	-0.10910126
4	0x3d85d97c	0.065356225
5	0x3dfd4f2d	0.12368617
6	0x3e2f4b42	0.17118552
7	0xbdd006b2	-0.10157527
8	0xbd4a7ba2	-0.04943431
9	0x3d8f106a	0.069855526
10	0x3d1456fe	0.036215775
11	0x3c2968b6	0.010339906
12	0xbdf9bd70	-0.121943355
13	0xbdf05525	-0.1173499
14	0x3e08a873	0.13345508
15	0x3d56dd3a	0.05245707
16	0x3dcaca51	0.0990187
17	0x3df64043	0.12023976
18	0xbd9a3d4c	-0.07531223
19	0xbd0612d8	-0.032732815
20	0xbd11e234	-0.035616115
21	0xbcf52031	-0.029922577
22	0xbbdf167e	-0.006808101
23	0xbc74eccb	-0.014949034
24	0x3e3b120a	0.182686
25	0x3d99b0ab	0.075044
26	0xbe2eac98	-0.17058027
27	0x3dad0418	0.084480464
28	0xbe152c66	-0.14567718
29	0x3db4f139	0.08835072
30	0xbd585c62	-0.052822478
31	0xbd4b7999	-0.04967651
32	0xbb4ebac9	-0.0031544438
33	0x3e15e8e6	0.14639625
34	0x3e75efa8	0.24017203
35	0xbdd5aa37	-0.104328565
36	0x3d5b9260	0.05360639
37	0x3d53c9b3	0.051706027
38	0xbcc5c063	-0.024139589
39	0xbdedeede	-0.11617826
40	0xbc820722	-0.015872542
41	0xbe1be31a	-0.15223351
42	0x3e09b48a	0.13447776
43	0x3e85bd23	0.26120862
44	0xbe2a1b20	-0.1661191
45	0xbbfc8d8a	-0.0077073025
46	0x3d7f5774	0.06233926
47	0xbd7962f7	-0.060885396
48	0xbdc728d9	-0.09724588
49	0xbe1aa893	-0.15103368
50	0xbdee260b	-0.1162835
51	0x3e0ad891	0.13559176
52	0xbcccd292	-0.025002751
53	0x3d7c0efe	0.061537735
54	0xbd8b6d56	-0.068079636
55	0xbb2bb5db	-0.0026200924
56	0x3d339258	0.043840736
57	0x3de4b146	0.11166625
58	0xbd1b145e	-0.03786122
59	0x3c1bc0d1	0.00950642
60	0x3de425f2	0.1114005
61	0x3e2aeb77	0.16691385
62	0x3db5a0c3	0.088685535
63	0xbe92f00f	-0.28698775
64	0x3dad9d40	0.08477259
65	0x3e299755	0.16561635
66	0xbde74114	-0.112917095
67	0x3d05885a	0.032600738
68	0x3e1e8de5	0.15483816
69	0xbe4e21d8	-0.20130098
70	0xbdc4a757	-0.0960223
71	0x3e1708e3	0.14749484
72	0xbbb11e92	-0.0054052556
73	0x3e4877f6	0.19577011
74	0x3ccd7957	0.025082273
75	0x3d6a8d3e	0.057263605
76	0x3dd538c3	0.10411217
77	0xbe7b18e0	-0.24521208
78	0xbdf12cf5	-0.11776153
79	0xbddc8df3	-0.10769262
80	0x3c7f98f9	0.015600436
81	0x3ca1165a	0.019663978
82	0xbe196bea	-0.14982572
83	0xbc620fe2	-0.013797732
84	0xbcdd51b7	-0.027016504
85	0xbded96dd	-0.116010405
86	0xbe0458ab	-0.12924449
87	0xbe9d6dd3	-0.30747852
88	0xbe692a1d	-0.22769971
89	0x3e18d142	0.14923576
90	0xbdb703bc	-0.08936259
91	0x3dabd228	0.083896935
92	0x3eb68f45	0.3565618
93	0xbd9fbd83	-0.07799818
94	0x3c02d45e	0.007985203
95	0xbdadc3ea	-0.08484633
96	0xbe9eb689	-0.30998638
97	0xbd9110a4	-0.07083252
98	0x3d8a142c	0.06742129
99	0xbe25e532	-0.16200712
100	0x3d9748b4	0.07386914
101	0xbe8db2e5	-0.27675548
102	0xbeda6143	-0.4265233
103	0x3e3985a0	0.1811738
104	0x3de9d867	0.114182286
105	0x3caf8f03	0.021430498
106	0xbbe5d17c	-0.007013498
107	0x3d7599b1	0.059961025
108	0x3d8d0c13	0.068870686
109	0x3e5bd4d9	0.21467914
110	0xbe532195	-0.2061828
111	0x3ea1815e	0.31544012
112	0xbe2da238	-0.16956413
113	0x3e4f2141	0.20227529
114	0x3d879d5b	0.0662181
115	0xbd9a8e6c	-0.07546696
116	0x3ef765d3	0.48319873
117	0xbd0ee242	-0.034883745
118	0x3d624c1f	0.055248376
119	0x3e9c8b21	0.30574897
120	0xbe0c1b16	-0.13682207
121	0xbe480f30	-0.19537044
122	0xbe154be1	-0.14579727
123	0x3e25ed56	0.16203818
124	0xbe0450ed	-0.12921496
125	0xbbb0c021	-0.0053939973
126	0x3ce07344	0.027398713
127	0xbcf24a0c	-0.029576324
128	0xbdab171d	-0.08354018
129	0x3e0af09e	0.1356835
130	0x3e39dde9	0.18151058
131	0x3bd4b988	0.0064918436
132	0x3d79d0ea	0.06099025
133	0xbbf3149d	-0.007418229
134	0xbe9e5c6f	-0.30929896
135	0x3c76ed61	0.015071244
136	0x3e0d3061	0.13787986
137	0xbde291d5	-0.110629715
138	0x3dfb8ecc	0.12283096
139	0xbdce2aef	-0.10066783
140	0xbe0eb94e	-0.13937876
141	0x3d8b5a54	0.06804338
142	0x3ce7223c	0.028214566
143	0x3e65a196	0.22424921
144	0xbd471b9c	-0.048610315
145	0x3e49cca9	0.19706978
146	0x3de02450	0.10944426
147	0x3eaa57cc	0.3327011
148	0xbe23ae1a	-0.15984383
149	0x3e8f7757	0.28020737
150	0x3e328738	0.17434394
151	0xbccef40c	-0.025262855
152	0xbd9b9b81	-0.075980194
153	0xbc25060d	-0.010072243
154	0xbdc1d8ee	-0.09465204
155	0x3da5046b	0.08057483
156	0x3e669f16	0.22521624
157	0xbec0a60a	-0.37626678
158	0xbbb378d4	-0.0054770503
159	0xbe35ba82	-0.17746928
160	0x3e4e34eb	0.20137374
161	0xbde96129	-0.11395485
162	0xbe04eebf	-0.129817
163	0x3dfd3e0d	0.12365351
164	0x3db6ba95	0.089223064
165	0xbe90e17f	-0.2829704
166	0x3ea5c353	0.32375583
167	0x3d943b75	0.07237903
168	0x3e965cb3	0.293676
169	0x3dad7a2c	0.08470568
170	0xbe82966e	-0.25505394
171	0x3d0914bd	0.033467043
172	0x3d1af320	0.03782952
173	0xbd8e44ed	-0.0694674
174	0xbe42a128	-0.19006789
175	0x3d3f2779	0.046668503
176	0x3d5565c4	0.052099004
177	0x3de475d2	0.11155285
178	0x3d8f94be	0.07010792
179	0xbd6cb83f	-0.0577929
180	0xbc8e30f0	-0.01735732
181	0x3dfab4a8	0.12241489
182	0x3e2924f6	0.16518006
183	0xbe1eee30	-0.15520549
184	0x3dfe6d65	0.12423209
185	0xbd6d21bc	-0.0578935
186	0xbdca21e3	-0.09869745
187	0xbe825ba0	-0.2546053
188	0x3dd4cae0	0.10390258
189	0xbd297c4d	-0.041378308
190	0xbe2bfff2	-0.16796854
191	0x3e67a384	0.2262097
192	0xbe3a5fb9	-0.18200578
193	0x3df68ed3	0.1203896
194	0x3d89c55b	0.06727096
195	0xbc6418b8	-0.013921909
196	0xbdd1e9ce	-0.10249673
197	0x3ddb6c68	0.10714036
198	0x3da79039	0.08181805
199	0x3c9aab30	0.018880457
200	0x3d18cfba	0.03730748
201	0x3e3499bd	0.17636772
202	0xbd8b37c9	-0.067977495
203	0x3d8b6f8c	0.06808385
204	0x3cf10a11	0.029423745
205	0xba26f60f	-0.0006369063
206	0x3d1642fe	0.036684982
207	0xbbf1b344	-0.0073761065
208	0xbccd9163	-0.02509374
209	0x3dd55abd	0.104176976
210	0x3bd00372	0.006348067
211	0x3d9eec00	0.07759857
212	0xbe4cc09b	-0.19995348
213	0x3c66d1f5	0.014088144
214	0x3bdf8d9b	0.0068223006
215	0x3bdfbb79	0.0068277684
216	0x3e3d46d4	0.1848405
217	0x3dfcbb9c	0.12340471
218	0x3dc09813	0.09404006
219	0x3de3a239	0.11114926
220	0xbe05d1c1	-0.13068296
221	0xbde314c8	-0.11087948
222	0xbd8bcf04	-0.068265945
223	0x3b38814b	0.0028153236
224	0x3e134c09	0.14384474
225	0xbd58efbc	-0.052963004
226	0x3c969aa9	0.018384295
227	0x3e268312	0.16260937
228	0xbdbba84c	-0.091629595
229	0x3c8ae0a1	0.016952815
230	0xbdabf7e6	-0.08396892
231	0x3d72874b	0.059211057
232	0xbd58f3fe	-0.052967064
233	0x3e39bdf1	0.18138863
234	0x3e2b77c2	0.16744903
235	0xbdd4ffcf	-0.10400354
236	0x3db63112	0.08896078
237	0x3c008eda	0.0078465585
238	0xbe336ec3	-0.17522721
239	0x3c81b597	0.01583366
240	0xbe3b8965	-0.1831413
241	0x3dcde18c	0.10052785
242	0x3d56c075	0.052429635
243	0xbe0970a7	-0.1342188
244	0xbbf4a107	-0.007465485
245	0x3e309726	0.17245159
246	0x3dbcbe5a	0.09215994
247	0x3de3815e	0.11108659
248	0x3c7f728a	0.015591273
249	0x3e7b166e	0.24520275
250	0x3d98733f	0.074438564
251	0xbe4f1521	-0.20222904
252	0xbda49158	-0.080355346
253	0xbd983a17	-0.07432955
254	0xbdd052e3	-0.101720594
255	0x3d4c1b92	0.04983098

decoder.linear_t.bias f4 [200]
0	0xbd3ea7ee	-0.04654687
1	0x3e6c403a	0.23071375
2	0xb9da120e	-0.00041593652
3	0xbd04c633	-0.03241558
4	0xbdcbe73d	-0.099562146
5	0x3e0ce5ea	0.1375958
6	0x3e1616b2	0.14657095
7	0xbca8ac89	-0.020590084
8	0x3dd4a994	0.10383907
9	0xbe189132	-0.14899138
10	0x3e5641df	0.20923565
11	0x3e4b28bf	0.19839762
12	0xbe712c81	-0.23552133
13	0x3daaaf4c	0.083342165
14	0x3d6125e4	0.054967776
15	0x3e4814ea	0.19539228
16	0x3d22a114	0.039704397
17	0xbe7a5a89	-0.24448599
18	0x3e6d32a9	0.23163857
19	0x3e1e0ffb	0.15435784
20	0x3e319438	0.17341697
21	0xbd353d71	-0.04424805
22	0x3e2129ca	0.15738598
23	0x3e0eabd3	0.13932733
24	0xbcc2af22	-0.02376515
25	0xbcdf9c42	-0.02729619
26	0x3e2b0539	0.16701211
27	0x3d09de02	0.03365899
28	0xbde05eb5	-0.10955564
29	0x3e4dbd10	0.20091653
30	0x3d979238	0.07400936
31	0xbc8d5073	-0.017250275
32	0x3daf4eb1	0.08559931
33	0xbd9e2f32	-0.077238455
34	0x3e175fb2	0.14782599
35	0x3e4f41fe	0.20240018
36	0xbd979881	-0.07402135
37	0x3d39b223	0.0453359
38	0xbd75dc8d	-0.060024787
39	0x3d118e2c	0.035535976
40	0xbdfc1d71	-0.12310303
41	0xbe7fa832	-0.24966505
42	0x3d8696ad	0.06571708
43	0x3deb79f4	0.1149787
44	0x3c91d8ae	0.017803516
45	0xbc2bbc0c	-0.010481846
46	0x3dff5b35	0.12468568
47	0xbd8090e6	-0.06277637
48	0x3bc13bdd	0.005897029
49	0x3e6c2879	0.23062314
50	0xbdbc8045	-0.09204153
51	0x3c8e3050	0.017357022
52	0x3ea1fad1	0.3163667
53	0x3ea49cdb	0.3215092
54	0x3e29ad09	0.16569914
55	0xbdc85fbd	-0.09783886
56	0x3f011f90	0.50438786
57	0x3ea0a2f1	0.31374314
58	0x3e0ca35c	0.13734192
59	0x3e25718e	0.16156599
60	0x3cc35151	0.023842486
61	0x3f28fe82	0.6601335
62	0x3f084c7a	0.53241694
63	0x3e6d6104	0.2318154
64	0x3dfa611b	0.12225553
65	0x3e87f3d6	0.2655322
66	0x3e18188a	0.14853111
67	0x3e64f309	0.22358336
68	0x3eb79ef6	0.35863465
69	0x3df6833c	0.1203675
70	0xbd9a0944	-0.075212985
71	0x3e831779	0.25603846
72	0x3ed5dc1d	0.41769496
73	0x3e3e4424	0.18580681
74	0xbdd4e81f	-0.10395836
75	0xbe29b62c	-0.165734
76	0xbe2be66f	-0.16787122
77	0x3e3f785a	0.18698254
78	0x3e47e96f	0.19522642
79	0x3dce5fef	0.10076892
80	0xbc1861d5	-0.009300669
81	0xbe2f65b8	-0.17128646
82	0x3e7e40fa	0.24829474
83	0x3ed57339	0.4168947
84	0x3ebdec64	0.37094414
85	0xbcc19346	-0.023629796
86	0xbc6a941f	-0.014317541
87	0x3db15e57	0.08660572
88	0x3ee2a26d	0.44264546
89	0x3e39739b	0.18110506
90	0xbdd11016	-0.10208146
91	0x3e35e6c1	0.17763807
92	0xbd7c5fef	-0.061614927
93	0x3f112c2f	0.56708044
94	0x3e893ca1	0.2680407
95	0x3da1d8b5	0.07902662
96	0xbce6bee3	-0.028167194
97	0x3d57f9cf	0.05272847
98	0x3ee010c1	0.43762782
99	0x3e73c55b	0.23805754
100	0xbe26af0b	-0.16277711
101	0x3c5fdf2f	0.013664051
102	0x3df04896	0.11732595
103	0xbd7b342a	-0.061329044
104	0x3c99f0a0	0.018791497
105	0xbdafaef1	-0.08578289
106	0x3d39705e	0.045273177
107	0x3e8cb898	0.27484584
108	0x3eaa3152	0.33240753
109	0xbe2ec014	-0.1706546
110	0xbe163e34	-0.14672166
111	0xbe0e0e04	-0.13872534
112	0xbd59d511	-0.05318171
113	0x3e7ea016	0.24865755
114	0x3e99f54c	0.3006996
115	0x3d9a4512	0.07532705
116	0xbe447e80	-0.19188881
117	0x3d402c44	0.046917215
118	0x3e5c5596	0.21517023
119	0x3e2bb2c2	0.1676741
120	0x3d602c11	0.054729525
121	0x3cac5cf1	0.021040412
122	0x3ee7c3bb	0.45266518
123	0x3e818792	0.25298744
124	0x3dffc55d	0.12488816
125	0xbd02c6d7	-0.03192791
126	0x3e611224	0.21979576
127	0x3dc06220	0.09393716
128	0x3e8f70b7	0.28015682
129	0x3e3f1e54	0.18663913
130	0xbe30f5a5	-0.17281206
131	0xbd85ab24	-0.06526783
132	0x3dd5e298	0.1044361
133	0xbdaa24a4	-0.0830777
134	0x3ef7d687	0.4840586
135	0xbe176d5b	-0.1478781
136	0xbe2e0d8a	-0.16997352
137	0xbd1ab625	-0.037771363
138	0x3c475194	0.012165446
139	0xbd8d39b6	-0.06895773
140	0xbe17d43f	-0.14827059
141	0xbb3475d8	-0.002753606
142	0x3e0cf8df	0.13766812
143	0x3e1f0c3a	0.15532008
144	0xbc9ba7ba	-0.019000877
145	0xbde7998f	-0.11308586
146	0xbd5ca2b6	-0.05386611
147	0x3e19ab4c	0.15006751
148	0x3e81c017	0.25341865
149	0x3e26fde5	0.1630779
150	0x3d8e4eae	0.06948601
151	0x3d6c98a3	0.057762753
152	0x3eb21f36	0.34789437
153	0x3d588d9e	0.05286943
154	0x3eaf287e	0.3421058
155	0xbe259a3b	-0.16172116
156	0xbd8da03f	-0.0691533
157	0xbcd4d95a	-0.025982548
158	0x3ed973ff	0.4247131
159	0x3e85bbc6	0.26119822
160	0x3dc39db0	0.09551561
161	0xbe21274e	-0.1573765
162	0x3cd06ab2	0.025441501
163	0x3f0b5317	0.5442366
164	0x3e8f5cd3	0.28000507
165	0x3d1bb894	0.038017824
166	0x3ee0212b	0.43775305
167	0x3e9874fc	0.29776752
168	0x3f19ecca	0.60126936
169	0xbd48265f	-0.04886472
170	0x3ce586cb	0.028018376
171	0x3eea7815	0.4579474
172	0x3da51df0	0.08062351
173	0x3e2214c6	0.15828237
174	0xbce504b9	-0.027956354
175	0x3cf3c392	0.029756341
176	0xbe19025a	-0.14942303
177	0x3cac6e79	0.021048771
178	0x3e63d76a	0.22250143
179	0x3d126ab7	0.035746302
180	0xbde297fa	-0.110641435
181	0xbd9734f0	-0.07383144
182	0x3c91c528	0.017794207
183	0x3e1d3496	0.15352091
184	0x3d5d58c0	0.054039717
185	0x3dc2a5f0	0.09504306
186	0x3dd441ca	0.10364111
187	0x3ee8ac1c	0.4544381
188	0x3e81554e	0.25260395
189	0x3e9a5e34	0.30149996
190	0xbd104f9d	-0.035232175
191	0x3e8e8b3e	0.27840608
192	0x3db2999a	0.087207034
193	0xbdef7f5b	-0.11694213
194	0x3ddd06fe	0.10792349
195	0xbe1379d6	-0.14401945
196	0x3e08fa4d	0.13376732
197	0x3e75cd7f	0.24004172
198	0xbde016aa	-0.10941823
199	0x3e741149	0.23834719

decoder.conv2_t.weight f4 [8, 4, 3, 3]
0	0x3d1652cc	0.036700055
1	0xbea1d569	-0.31608132
2	0xbde7da2a	-0.11320908
3	0xbe5484ec	-0.2075383
4	0x3cb25595	0.021769324
5	0x3d8f546f	0.06998526
6	0xbd2b268c	-0.041784808
7	0xbdaf6c7e	-0.08565615
8	0xbd88fd5f	-0.06688952
9	0xbec83c1e	-0.39108366
10	0xbf01f417	-0.50763077
11	0x3ceb36bf	0.028712628
12	0xbf1fed2f	-0.6247129
13	0xbf0578ce	-0.5213746
14	0x3dbd9a23	0.09257915
15	0xbe2991ae	-0.16559479
16	0xbdba6dbf	-0.09102964
17	0x3d52fcd6	0.051510654
18	0xbc81f0f6	-0.01586197
19	0x3cf04f80	0.029334784
20	0xbeb69bc3	-0.35665712
21	0xbe371753	-0.17879991
22	0xbf5dff77	-0.86717933
23	0x3e157047	0.14593612
24	0xbcc4b04c	-0.024009846
25	0xbef0d204	-0.4703523
26	0xbe9cc5bf	-0.30619618
27	0xbe5d03a9	-0.21583427
28	0xbe3a412c	-0.18188924
29	0x3d826a45	0.063679256
30	0xbf1c2a29	-0.6100183
31	0xbe7de7e5	-0.24795492
32	0x3e042c09	0.12907423
33	0xbea43cf6	-0.3207776
34	0xbdd1a9b3	-0.10237446
35	0x3cabb1cb	0.020958802
36	0xbd250d88	-0.040296108
37	0xbd367d26	-0.044552945
38	0xbcc1b167	-0.023644162
39	0xbeaa2f69	-0.33239296
40	0x3c80bb6b	0.015714368
41	0xbde52ab7	-0.11189788
42	0xbd594a34	-0.05304928
43	0xbe202060	-0.1563735
44	0x3d50d987	0.0509887
45	0xbe85bd20	-0.26120853
46	0xbf02b913	-0.5106365
47	0xbebd07c6	-0.36919993
48	0xbea860b0	-0.32886267
49	0xbeee9697	-0.46599266
50	0xbed1d296	-0.40980977
51	0xbe15e884	-0.14639479
52	0xbeb0af90	-0.34508944
53	0xbe5d43a4	-0.21607834
54	0x3d20f3cd	0.039295007
55	0x3d63a5f0	0.055578172
56	0xbd85c652	-0.06531967
57	0xbe59d5b3	-0.21272926
58	0xbc251f18	-0.010078214
59	0xbe5453ee	-0.20735142
60	0x3d5c9b9f	0.05385935
61	0xbe2c6943	-0.16837029
62	0xbe8c0d68	-0.27353978
63	0xbe388a4b	-0.18021505
64	0xbe8c8b10	-0.27449846
65	0xbe139110	-0.14410806
66	0xbedc6966	-0.43049163
67	0xbf0319d8	-0.5121131
68	0xbea7dcfd	-0.32785788
69	0xbe8c6ae3	-0.27425298
70	0xbec86f5c	-0.3914746
71	0xbe1e59f4	-0.15464002
72	0xbdebad3f	-0.115076534
73	0xbda9011c	-0.08252165
74	0xbe26ec9c	-0.16301197
75	0xbd06414d	-0.03277712
76	0x3bb37856	0.0054769916
77	0x3e2ec8a5	0.17068727
78	0xbe0476bf	-0.12935923
79	0xbe6f641c	-0.23378032
80	0x3d1af3fa	0.03783033
81	0xbdc813c0	-0.09769392
82	0xbdd9fac8	-0.10643536
83	0x3e7fd270	0.2498262
84	0xbdf34533	-0.11878433
85	0x3e33fef4	0.17577726
86	0x3f1d82c6	0.6152767
87	0xbd8e8c14	-0.069603115
88	0x3de45947	0.11149841
89	0x3e500a3a	0.20316401
90	0x3dd1a75e	0.10237001
91	0x3a35faf2	0.0006941996
92	0xbeacda23	-0.33760175
93	0xbe4841a3	-0.19556288
94	0xbec88376	-0.39162797
95	0x3ebcd59b	0.36881718
96	0x3df446c2	0.119275585
97	0x3caeb015	0.021324197
98	0x3e23ea72	0.16007403
99	0xbdc15c62	-0.09441449
100	0xbe1397ed	-0.14413424
101	0x3e23b94e	0.15988657
102	0xbdb41934	-0.087938696
103	0x3eae4df5	0.34043851
104	0x3f0a523d	0.54031736
105	0x3db85040	0.089996815
106	0x3eeb29d1	0.4593034
107	0x3ea66ca4	0.3250476
108	0x3e12e9db	0.14347021
109	0x3d97f72a	0.0742019
110	0xbdfa2e58	-0.122158706
111	0x3ea14be9	0.31503227
112	0xbdb1f21e	-0.08688758
113	0xbddd0f90	-0.10793984
114	0xbd4e7075	-0.050400216
115	0x3d75a0d4	0.05996783
116	0xbe08e736	-0.1336945
117	0xbe095b42	-0.13413718
118	0x3e89d78a	0.26922256
119	0x3e0d46eb	0.13796584
120	0x3ed10312	0.40822655
121	0x3f021b30	0.50822735
122	0xbd9d2520	-0.07673097
123	0x3e996cdf	0.29965875
124	0x3e78eb73	0.24308567
125	0xbe5ccd71	-0.21562745
126	0x3da0a537	0.07844012
127	0xbea4318c	-0.3206905
128	0xbd2819db	-0.041040283
129	0x3e7315f8	0.23738849
130	0xbe4ec845	-0.20193584
131	0xbe7512ed	-0.23933001
132	0xbe931da9	-0.28733566
133	0x3ddf7256	0.1091048
134	0x3e86d7f7	0.26336643
135	0xbdc24f39	-0.09487767
136	0x3e675cb0	0.22593951
137	0x3d0d3983	0.034478676
138	0x3ef3ff31	0.47655633
139	0x3edfe276	0.43727463
140	0xbdfb3898	-0.12266654
141	0x3ea7ece9	0.32797936
142	0x3da31d4c	0.07964572
143	0xbe8d488c	-0.2759441
144	0x3c9ee69e	0.019397076
145	0x3d45dff8	0.048309296
146	0x3cad0880	0.021122217
147	0x3bd88d0a	0.00660861
148	0x3cf7e648	0.030261174
149	0xbb8f44ff	-0.0043722386
150	0xbd5bf154	-0.053696945
151	0xbd57e0a2	-0.05270446
152	0x3cc04539	0.023470508
153	0x3e180cdb	0.14848654
154	0x3e6d3018	0.23162878
155	0x3e2b7ec5	0.16747577
156	0xbcb3a74e	-0.021930363
157	0xbebbd562	-0.36686236
158	0xbeb0c3e4	-0.34524453
159	0xbec58a8b	-0.38582262
160	0xbf64c848	-0.89368105
161	0xbf010d70	-0.5041113
162	0x3d523a3e	0.051325075
163	0x3c756661	0.014978022
164	0x3dd268db	0.10273906
165	0xbd1bf4e7	-0.038075354
166	0x3ea6651f	0.32499024
167	0x3be264ed	0.006909004
168	0x3e9f3422	0.31094462
169	0x3da8faa9	0.08250935
170	0xbede390b	-0.43402895
171	0x3e10f1a9	0.14154686
172	0x3e2fd1e9	0.17169918
173	0x3e0bae2b	0.13640659
174	0x3d7c2c29	0.061565552
175	0xbde03430	-0.10947454
176	0xbd4f5944	-0.05062224
177	0xbea78c7e	-0.32724375
178	0xbf175993	-0.59121054
179	0xbe741048	-0.23834336
180	0x3b2c9357	0.0026332939
181	0xbccc3eb5	-0.024932245
182	0x3dd03179	0.10165686
183	0xbe155f2c	-0.14587086
184	0xbdc8e2ed	-0.09808908
185	0xbdeffbc8	-0.11717945
186	0xbde326e6	-0.11091404
187	0x3e35f18d	0.17767926
188	0xbe021a78	-0.1270541
189	0xbbf04617	-0.007332574
190	0xbe9495c1	-0.29020503
191	0xbecfbf05	-0.40575424
192	0x3d184f47	0.03718498
193	0xbe1b45b9	-0.15163316
194	0xbec6ff8c	-0.38866842
195	0x3ebeeb1a	0.37288743
196	0x3ec066d3	0.3757845
197	0x3dba9b0d	0.09111605
198	0x3da27c9f	0.07933926
199	0x3e1d5a1e	0.15366408
200	0xbdaaabe5	-0.083335675
201	0xbd159ce7	-0.036526587
202	0x3e992ed5	0.29918543
203	0xbe52eb9c	-0.2059769
204	0xbe710804	-0.23538214
205	0x3e6c2264	0.23059994
206	0x3e1c8fe7	0.1528927
207	0xbd66dabb	-0.05636094
208	0xbed79691	-0.4210706
209	0xbe9c3945	-0.30512443
210	0xbe34468e	-0.1760504
211	0xbf296851	-0.661748
212	0xbf0464a6	-0.5171608
213	0x3e83cf5f	0.2574415
214	0x3dc06a69	0.09395296
215	0xbcd2695f	-0.02568501
216	0xbd5b273b	-0.05350421
217	0x3e1345d4	0.14382106
218	0xbdbd1ceb	-0.09234031
219	0x3e119904	0.14218527
220	0xbd9f5aea	-0.07781012
221	0xbd50fd0b	-0.05102257
222	0x3d2ee81f	0.042701837
223	0xbddb3724	-0.107038766
224	0xbd078740	-0.03308797
225	0xbd9f98ba	-0.07792802
226	0x3e18a1dc	0.14905494
227	0x3e0c607d	0.13708682
228	0x3dd7c525	0.10535649
229	0x3ec7a8af	0.38995883
230	0x3ea2d1a9	0.31800583
231	0x3d44d7f0	0.048057497
232	0x3e5ebd70	0.21751952
233	0x3db434f4	0.087991625
234	0x3d9dc223	0.07703044
235	0xbe051da7	-0.12999593
236	0xbc69fe67	-0.014281846
237	0x3d1a7d77	0.03771731
238	0xbeae789b	-0.3407639
239	0x3cfdada8	0.030966595
240	0xbdb9d868	-0.09074479
241	0x3d3ae792	0.045631
242	0x3eab6a10	0.33479357
243	0xbd1e3ce7	-0.0386323
244	0x3dcf456c	0.10120663
245	0x3d84b015	0.064788975
246	0x3e5a0ebe	0.21294686
247	0x3edb7a46	0.42866725
248	0x3e34cd82	0.1765652
249	0x3e5e0b72	0.21684054
250	0x3ec62619	0.3870094
251	0x3de51e05	0.111873664
252	0xbd9d82fd	-0.07691
253	0x3d19065a	0.037359573
254	0xbe17c696	-0.14821848
255	0x3e4194b2	0.18904379

decoder.conv2_t.bias f4 [4]
0	0xbf01d88c	-0.5072105
1	0x3d27129f	0.040789243
2	0xbf428d0c	-0.7599647
3	0xbd952263	-0.07281949

decoder.conv1_t.weight f4 [4, 1, 5, 5]
0	0x3cb13441	0.021631362
1	0xbd4865aa	-0.04892508
2	0xbc1cd46e	-0.009572132
3	0x3c93d6cd	0.018046761
4	0x3aa65a9a	0.0012691796
5	0xbca9a46b	-0.020708283
6	0xbc9ba707	-0.019000543
7	0x3b752eca	0.0037411922
8	0xbd98ed24	-0.07467106
9	0xbd19bae5	-0.037531752
10	0xbc77551c	-0.015095975
11	0x3d4475eb	0.047964018
12	0xbe001ae9	-0.12510265
13	0xbea71e33	-0.32640228
14	0x3c95281c	0.018207602
15	0x3d17c354	0.037051514
16	0x3d74507c	0.05964707
17	0xbe9e4098	-0.30908656
18	0xbecd8f8a	-0.40148574
19	0x3dd4b6ac	0.103864044
20	0x3cdb0da0	0.026739895
21	0x3ce218e4	0.02759976
22	0xbe81e390	-0.2536893
23	0xbe5e09de	-0.21683452
24	0x3cdc4286	0.02688719
25	0x3c421a8f	0.011847152
26	0x3c7c20eb	0.015388708
27	0x3b05c3d2	0.0020410907
28	0x3d125c4e	0.03573256
29	0x3d049035	0.03236409
30	0x3cb76053	0.022384798
31	0xbb54fc39	-0.003249897
32	0xbd0c2832	-0.03421802
33	0xbcdd42c7	-0.027009381
34	0xbc2cf9f1	-0.010557638
35	0xbd3505cb	-0.044194978
36	0xbd8d0168	-0.06885034
37	0x3ceb7fa7	0.028747393
38	0xbd7a98a8	-0.06118074
39	0xbe17e005	-0.1483155
40	0xbdcf2594	-0.10114589
41	0x3dba5598	0.09098357
42	0x3efd5c0e	0.49484295
43	0x3e7ed2b7	0.24885069
44	0xbd993211	-0.074802525
45	0xbd2a754e	-0.041615777
46	0x3e463b44	0.19358546
47	0x3f0d1d1c	0.5512254
48	0x3eabbcb1	0.33542398
49	0x3d65c626	0.056097172
50	0xbd454460	-0.04816091
51	0x3b7e19f2	0.0038772789
52	0xbcc061ca	-0.02348413
53	0x3ba828da	0.005131823
54	0x3cac6dd1	0.021048458
55	0x3bd21cf5	0.0064121434
56	0xbcb4ff58	-0.022094414
57	0xbda7ea55	-0.08198992
58	0xbc6d02ce	-0.014466001
59	0x3c79057e	0.015199063
60	0x3d34ea77	0.044168916
61	0xbe2f4196	-0.17114863
62	0xbe5bfe90	-0.21483827
63	0xbd814dd1	-0.063136704
64	0x3b64c239	0.0034905805
65	0xbcc6ccaf	-0.024267523
66	0xbe9be8c2	-0.30451018
67	0xbe7a8635	-0.24465258
68	0xbbc3744d	-0.005964792
69	0xba32a768	-0.00068151066
70	0xbd66f080	-0.056381702
71	0xbe67616e	-0.2259576
72	0xbd989db0	-0.074519515
73	0xbc00222c	-0.007820647
74	0x3adc0faa	0.0016789336
75	0x3ae7048c	0.0017625256
76	0x3ce332cc	0.027734183
77	0xbca52fd0	-0.0201644
78	0xbdc2042e	-0.094734535
79	0xbd31b045	-0.043380994
80	0x3c512853	0.012765962
81	0xbbbb5d86	-0.005717936
82	0xbd366fde	-0.04454028
83	0x3d044661	0.03229368
84	0x3d41f396	0.047351442
85	0x3c7ccccd	0.015429688
86	0xbcb71469	-0.0223486
87	0x3dfd64d3	0.12372746
88	0x3f13572c	0.5755489
89	0x3edeb869	0.4350007
90	0x3d6571e8	0.056016833
91	0xbd0a8751	-0.033820454
92	0x3da74a51	0.081684716
93	0x3f0dc52d	0.5537899
94	0x3ece0cb8	0.4024408
95	0x3d5fc83d	0.05463432
96	0xbd8fea98	-0.07027167
97	0xbe1678f4	-0.14694577
98	0x3bbaff10	0.0057066754
99	0xbcb36a17	-0.021901174
