Homework/4_AutoEncoders/models/parms.pt (torch, 71745 bytes, 11 tensors)

encoder.conv1.weight f4 [4, 1, 5, 5]
000000 af 7b 06 bc 94 3d bc 3c 50 9a 16 3d 7d ff 03 3d
       -0.008208199 0.022978581 0.036768258 0.032226074
000010 fc 04 9b 3c 01 7b 53 3d db 3e c5 b9 91 4c 16 ba
       0.018923275 0.051630978 -0.000376216 -0.0005733455
000020 e5 21 b6 ba 52 76 0c 3c 4b 67 53 3d d6 5b 6c bc
       -0.0013895599 0.008573132 0.05161218 -0.014426192
000030 80 20 96 3d 37 15 80 3e 3c 7c 8f 3d b1 23 1f 3d
       0.07330418 0.25016186 0.07006118 0.038852397
000040 fd ac 06 bd ed 22 a8 3d 6a 44 a8 3e 74 32 10 3e
       -0.03287982 0.082097866 0.32864696 0.14081746
000050 66 8e 6b 3d 6c af 49 3d 52 87 b1 3d 8f 0a c6 3d
       0.05750885 0.04923956 0.086683884 0.09669983
000060 63 72 0f bd c1 a2 62 3c 84 54 eb 3c 52 5a ec 3c
       -0.035021197 0.013832749 0.028726824 0.028851662
000070 2b 3f 51 bd 54 5a 67 3c 47 01 1b bd e4 26 9b 3d
       -0.051085632 0.014120657 -0.037843015 0.07575777
000080 c3 99 20 3d 9a 54 18 bd f6 d9 d4 3b 2e 24 22 bd
       0.03920914 -0.037190057 0.0064957095 -0.039585285
000090 26 bd ea bc 59 77 bb bc 43 87 58 be 3f cf 00 3d
       -0.028654646 -0.022884058 -0.21145348 0.031447645
0000a0 63 72 a7 3d be 10 46 3e c5 93 4f 3e ec 02 42 be
       0.081761144 0.19342324 0.20271213 -0.18946427
0000b0 e2 5c ac bd 41 75 5f 3d 69 8a 0c 3d 95 ee 51 3e
       -0.084161535 0.05455518 0.034311686 0.20501168
0000c0 e2 65 af 3c c9 4f c4 3c 9f b8 2d 3d b8 00 0c 3c
       0.021410886 0.023963826 0.042412397 0.008545093
0000d0 78 e2 d0 bc 16 7f 77 bd d3 ba 38 3b 2d ef 79 bc
       -0.025498614 -0.060423933 0.0028187528 -0.015254778
0000e0 d7 4f 66 bd a9 57 84 bd 1a de e9 bd 47 06 f0 bd
       -0.056228485 -0.06462032 -0.11419316 -0.11719947
0000f0 06 9d 94 bd 05 49 c3 bd 4f f4 03 be f3 f8 9a be
       -0.07256512 -0.09535412 -0.12886165 -0.30268058
000100 01 19 1a be 91 70 c5 bd d5 98 a8 bd 64 c7 af be
       -0.150486 -0.09640611 -0.082322754 -0.3433181
000110 18 22 9e be ba db 15 be 1b ad ea bd 51 bf 2e be
       -0.30885386 -0.146346 -0.114587985 -0.17065169
000120 fc 3a 3a be 96 81 2c be 85 35 e3 bd 68 db 12 bb
       -0.18186563 -0.16846308 -0.110941924 -0.0022408608
000130 b3 ef 53 3d 39 c9 de 3d 0f 8e f5 3d 0d dc 70 3d
       0.051742267 0.10878224 0.11989986 0.058803607
000140 e1 05 c2 3c 8e ed 91 3d 44 fc d5 3b 5e 1e 9b 3d
       0.023684444 0.07125388 0.0065303165 0.075741515
000150 19 26 29 3d 6d 58 ac 3d a0 2a 3a 3d e5 33 db bd
       0.0412961 0.084153034 0.045450807 -0.107032575
000160 99 71 c5 bb 0e 9e 82 3c 90 5e a6 3d 4c 55 df 3a
       -0.006025505 0.015944507 0.08123505 0.001703897
000170 1f 3b a8 bd db 8c 06 3c 00 bd b7 3d 0f 77 06 3d
       -0.082144015 0.0082122935 0.08971596 0.032828387
000180 8b 38 20 bc a9 0c ae bd 0f a9 98 bd 03 97 df bc
       -0.009779106 -0.084985085 -0.0745412 -0.027293688

encoder.conv1.bias f4 [4]
000000 da 7b e2 bc d8 15 20 3e c3 9b 8b 3e 61 b3 e9 3e
       -0.027646948 0.15633333 0.27267274 0.45644668

encoder.conv2.weight f4 [8, 4, 3, 3]
000000 a3 dd f9 3d f6 74 ba bd 0f a9 a6 be a6 90 6b be
       0.12200477 -0.0910434 -0.32550856 -0.23004398
000010 73 09 1e be c6 c8 0e be 45 97 c1 be 0d c1 76 bd
       -0.15433292 -0.13943776 -0.37810722 -0.0602427
000020 45 0f c2 be b7 e8 22 3d 75 e4 9f 3d 3e 6a 88 3d
       -0.37902275 0.039772715 0.078072466 0.06660889
000030 81 bc 61 3e 58 97 34 3d e7 17 00 be cd 98 86 3e
       0.22044565 0.044089645 -0.12509118 0.26288453
000040 af 46 c0 3e 54 fd 38 3e b4 fb ff be fa 04 34 be
       0.37553927 0.18065387 -0.49996722 -0.17580023
000050 a1 fe e7 3e 94 ac 1b be e3 aa 97 3e 91 8e 49 3f
       0.45311454 -0.15202552 0.29622564 0.78733164
000060 78 99 d1 be 08 46 cb 3d 44 bb c8 3e 42 bd 99 be
       -0.409374 0.09925467 0.39205372 -0.30027205
000070 12 74 71 3e 54 44 07 3e 68 f5 1b bf 72 a9 c2 3e
       0.23579434 0.13209659 -0.60921335 0.38019902
000080 d5 87 b1 be ee 46 01 bf 17 d7 58 bc a0 bc c4 be
       -0.34673944 -0.50498855 -0.013234875 -0.3842516
000090 25 89 c7 3d f6 de 8e 3c f5 8b 80 3d 72 65 0f bd
       0.09742955 0.0174403 0.06276695 -0.035008855
0000a0 47 06 8d 3e 1f f7 28 3e 24 fe 2d 3e 30 7a e9 3e
       0.27543852 0.16500519 0.16991478 0.45601034
0000b0 4a 0e 6f be 69 36 a0 bc f9 5d 3f 3d c3 b7 d1 bc
       -0.23345295 -0.019557195 0.04672048 -0.02560032
0000c0 4c 4d 68 3d 3b 9a c9 bd 01 18 06 3c ba 0a a5 3d
       0.05671434 -0.0984387 0.008184434 0.080586866
0000d0 43 47 fb 3d 88 7b 7c bd 60 d8 47 be d0 0b ad 3a
       0.122694515 -0.061641246 -0.19516134 0.0013202373
0000e0 df dd 7e ba dd ff 9f 3e 5b 90 09 3e 69 f4 fa bc
       -0.00097223924 0.31249896 0.13433973 -0.030634122
0000f0 d1 43 23 3c a1 d6 1a bf aa b3 2a 3e ef fe ae bd
       0.009964899 -0.6048375 0.16670099 -0.085447185
000100 d9 1d 90 bc 9a 27 09 bd 23 cf df 3c 21 74 88 3d
       -0.017592357 -0.033485033 0.02732045 0.06662775
000110 fd 3c ad bd 97 4e 04 3e 41 c2 e0 be 68 2f 20 3e
       -0.08458898 0.12920605 -0.43898204 0.15643084
000120 0e e6 26 3c 7e a5 c8 bd b2 0c 70 3b 7e cd 19 be
       0.010186685 -0.0979719 0.003662866 -0.15019795
000130 31 95 e2 bc 8e 8c 83 bd 12 c3 b3 bd 5a 30 da bc
       -0.02765903 -0.06423293 -0.08777441 -0.026634384
000140 d4 00 93 bd b9 94 e7 3d 9d 7c f7 bd 52 ea 9e 3d
       -0.07177892 0.113076635 -0.12084315 0.07759537
000150 02 3a 76 bd fb e7 28 bd f4 95 88 bc ad 74 39 bd
       -0.060113914 -0.04123686 -0.016673066 -0.045277286
000160 a1 34 05 3d 53 f9 be bd ce b0 e5 bd 7d 46 a2 bd
       0.032520894 -0.093248986 -0.112153634 -0.07923601
000170 ce 2e 0c be 38 54 16 3e b5 ef f8 bd 13 79 9e bc
       -0.1368973 0.14680564 -0.121550955 -0.019344842
000180 2a f3 34 3d c2 8b b5 3d 33 7f 13 be f7 49 97 bc
       0.04417721 0.08864547 -0.14403991 -0.018467886
000190 ef 8f fc bd 0d 19 c9 bb 2d 17 ba bd 55 bb 03 3e
       -0.12332141 -0.0061370195 -0.09086452 0.1286443
0001a0 5b f7 8e bd 69 91 03 be 55 fe ba 3d 6f 70 22 3d
       -0.06980773 -0.12848438 0.09130541 0.039658006
0001b0 99 5a a2 3d ea 74 96 ba 43 53 b5 3c ab d0 88 3b
       0.079274364 -0.0011478935 0.022134429 0.004175266
0001c0 e2 eb 9a be f8 ed 86 3d 68 b7 ed bc 48 cf 60 3d
       -0.3025809 0.06588358 -0.029018119 0.05488518
0001d0 21 a3 c5 3e fa c3 99 ba 1a da be bd 66 70 6b bd
       0.3860102 -0.0011731379 -0.09318943 -0.05748024
0001e0 b1 6c 73 3d 15 09 11 bd 71 e4 80 3d d7 db a1 bd
       0.059429828 -0.035409052 0.06293572 -0.07903259
0001f0 cb ab b5 bd 71 7d 5a 3e 9e 8c 18 3d 64 5a 85 3b
       -0.088706575 0.21336915 0.037243478 0.0040696133
000200 b2 8b 55 bd 0a e8 1b be 7f 5c b4 3e 19 8d ea bd
       -0.052135177 -0.15225235 0.3522682 -0.114526935
000210 7f 4c 4c bd 9e f7 8c be 4f 5d 0b bf a2 7c 89 3d
       -0.04987764 -0.27532667 -0.5443925 0.06713225
000220 0a 59 58 b9 4c 02 c0 bc 61 bd 29 be ac c7 fc 3c
       -0.00020632535 -0.023438595 -0.16576149 0.03085693
000230 26 90 dd bd b6 ae 3e 3d 1b 31 01 3e d0 b2 67 be
       -0.1081851 0.046553336 0.12616388 -0.22626805
000240 1e 78 0e be 0c 5c 2e 3d 61 43 9c bd c8 77 1a bd
       -0.13913009 0.04256825 -0.07630039 -0.03771189
000250 10 57 d6 3d 72 c8 09 be 86 17 66 3b 2f da fa bc
       0.104658246 -0.1345537 0.0035109236 -0.030621616
000260 91 be 6c 3c 81 74 b7 bc 99 7d d7 bd a8 26 79 bd
       0.014449731 -0.02239442 -0.10522003 -0.06082788
000270 41 f1 85 bd ca b7 44 3e 41 ee 80 bd f4 ce 08 be
       -0.06540156 0.19210735 -0.06295443 -0.13360196
000280 d9 a6 1d 3e f4 75 49 39 89 c7 5d 3e 8a c0 08 3d
       0.15395679 0.00019212795 0.21658148 0.033386745
000290 bb ca 0d 3c d8 48 65 bd ea c8 0d bf 72 83 4d 3e
       0.008654292 -0.055977672 -0.55384696 0.20069674
0002a0 2b 29 94 be 29 c6 9d be bc da 9c 3d d5 f2 a6 3d
       -0.2893766 -0.30815247 0.07658908 0.08151785
0002b0 53 e7 55 3d 06 82 8f 3d 25 0e 5f 3d 2d 15 60 be
       0.05222256 0.07007222 0.05445685 -0.21883078
0002c0 73 6b 16 3e 6a 27 a0 3d cd ec 45 3e 80 6d 8f 3d
       0.14689426 0.07820018 0.19328614 0.07003307
0002d0 ed c5 c1 bd af 0c 9b bc 6d 7d 4f be f0 36 5a be
       -0.094615795 -0.018926946 -0.2026269 -0.2131002
0002e0 49 24 09 3e 06 9a 25 be 86 0d 58 3c c4 8d ac 3d
       0.13392748 -0.16172037 0.013186818 0.08425477
0002f0 52 32 0e 3e e8 20 03 3e a5 d3 65 3e 14 e2 ec 3d
       0.13886383 0.12805521 0.22444017 0.115665585
000300 22 dd 0f be 19 48 bc 3e a0 92 45 3d ad 7f 2f 3d
       -0.14049199 0.36773756 0.048235536 0.04284637
000310 f9 32 4f bd 29 df 12 3e 32 46 ea bc e8 34 8c be
       -0.05058572 0.14342941 -0.028597925 -0.27384114
000320 7b 32 4a 3e 1e 5b 93 3d f8 cf 2d bf e0 2e 00 3f
       0.1974582 0.071951136 -0.6789546 0.50071526
000330 76 d1 72 3e 13 e8 39 bd ae a2 85 be a0 11 0f be
       0.23712716 -0.04538734 -0.26100677 -0.13971567
000340 03 a8 89 bd 9e fa 53 3d e9 1b ab 3e cb fc 93 bd
       -0.06721499 0.05175268 0.3341973 -0.07225951
000350 38 d8 a0 3e d9 62 5e 3b ee bb c7 3d bd 37 5c be
       0.31414962 0.003393343 0.097526416 -0.21505637
000360 82 8c 8c bd 33 55 81 bb 24 ef 20 3e 46 65 b2 3c
       -0.06862737 -0.003946924 0.15716225 0.021776807
000370 15 de 45 3e e7 fc 64 3e 2a a5 a4 bd 2d ac 03 be
       0.19322999 0.223621 -0.08039315 -0.12858649
000380 b0 d3 1e bc f1 4e 0c 3c 90 d0 16 bc 73 90 07 3d
       -0.009694025 0.008563743 -0.009204999 0.033096742
000390 84 bb d7 bc 02 69 e7 bc 37 c1 fd 3d 15 bf 12 3c
       -0.026334532 -0.028248314 0.123903684 0.00895669
0003a0 91 e0 10 bd 39 49 5e 3c a4 73 bd 3c 59 88 fd 3d
       -0.035370413 0.013567262 0.02312643 0.12379522
0003b0 ab 8c 6d bd 61 18 ff bc a9 8c be be f1 20 06 bf
       -0.05799548 -0.031139554 -0.3721669 -0.52394015
0003c0 f4 af 9f bc e3 d3 63 3e 8b 72 ad 3c e3 df 21 3d
       -0.01949308 0.22248797 0.021172782 0.039520156
0003d0 b0 d9 c0 3d 66 14 62 3c e2 21 d1 3c 74 56 3e bd
       0.094165206 0.013798809 0.025528852 -0.046469167
0003e0 a9 8c 89 be 7a 61 6c 3c 4b f0 78 3e 89 df 3c 3e
       -0.26865128 0.014427537 0.24310414 0.18444647
0003f0 5a bc 16 3c 34 4f 55 3d d1 c7 dc bd b0 3e da 3c
       0.00920018 0.052077487 -0.107802995 0.02664122

encoder.conv2.bias f4 [8]
000000 8c 6a 70 3d 63 7a ad 3e a0 ea 25 be 15 06 a4 3f
       0.05869536 0.33882436 -0.16202784 1.2814356
000010 57 15 a2 3f 90 a7 18 3f 63 97 5a 3f df 9b 40 3e
       1.2662762 0.5963068 0.8538725 0.1880946

encoder.linear.weight f4 [40, 200]
000000 f8 16 11 bd 4f 9f c4 3d a0 f1 e2 bd 1d 9c be bc
       -0.035422295 0.09600698 -0.110812426 -0.0232678
000010 c6 3c e8 3c c4 f9 bb 3d 04 6d ee bd 08 cd 5b bd
       0.028349292 0.091784984 -0.11641887 -0.05366233
000020 c2 54 7a be 14 6c 27 3e c3 90 ff 3d b0 b7 d6 3c
       -0.24446395 0.16349822 0.12478783 0.026210636
000030 73 ff 38 bb 77 64 99 bd 22 50 41 3d 4c d3 7e 3d
       -0.0028228431 -0.07489865 0.04719556 0.062213227
000040 6b d7 94 bc 73 45 63 bc 84 4f 35 3d fa a1 31 bc
       -0.018169126 -0.013871538 0.044265285 -0.010841841
000050 7d 59 fd bc 68 aa 02 3e 34 63 1c bc 91 ec 08 3d
       -0.03092646 0.12760317 -0.009545136 0.033428732
000060 59 b4 b2 bc aa 79 89 3d c2 de b0 bd 04 27 02 3e
       -0.021814512 0.06712659 -0.08636238 0.12710196
000070 f8 2f 0a 3e d7 36 71 3d f8 00 df bd bf a7 7e bc
       0.13494861 0.05889019 -0.10888857 -0.0155429235
000080 a9 b9 47 be 35 b4 20 3d e4 33 66 3d 75 9e 02 bd
       -0.19504417 0.03923436 0.05620183 -0.031889398
000090 f8 69 c2 bc 57 6b c1 3c 8b d0 0e 3e 95 17 f2 3d
       -0.02373217 0.023610754 0.1394674 0.11820904
0000a0 b6 9c e7 3d 29 ae b9 3d db 39 31 3e b9 89 2f be
       0.11309187 0.090664215 0.17307226 -0.17142381
0000b0 fc 6e 6e 38 fc 88 47 3e 5d 0a 86 bc df ed a8 3d
       5.6846984e-05 0.19485849 -0.016362363 0.08248495
0000c0 0f 5d 43 3e a3 c3 aa 3d d9 c3 59 3c db 1e 2d bd
       0.19078468 0.08338096 0.013291323 -0.042265754
0000d0 13 2f 6d 3d c7 cb 7c 3d 4b 30 da 3c 3e 4d 18 3c
       0.05790622 0.061717775 0.026634356 0.00929576
0000e0 09 ee 39 3c 26 cd fe 3c df a5 17 3d 58 a4 fb 3c
       0.011348256 0.031103682 0.03702342 0.030718014
0000f0 f5 04 9a 3c ab 87 8d bd 62 26 8c 3d 74 cf 23 3d
       0.018801192 -0.06910642 0.068432584 0.039992765
000100 46 9d d4 3b 26 6a 77 3d 74 fa 00 3d 8a 0f 5d bd
       0.006488475 0.060403965 0.03148885 -0.053969897
000110 f7 e8 8e 3d 27 95 87 3d 18 96 fd 3c 29 0a b9 3c
       0.06978028 0.066202454 0.03095536 0.022587853
000120 1d 19 dc bb 2d dd 03 3c 7d ac 3e 3d b8 db 9b bd
       -0.006716861 0.008048338 0.046551216 -0.076102674
000130 0d 33 ad bd 21 79 19 3e 64 4b 36 3e 44 17 ab bb
       -0.08457003 0.14987613 0.17802197 -0.0052212793
000140 77 07 80 be 84 0b 12 be ef cb a1 be 95 21 ee 3d
       -0.25005695 -0.14262205 -0.316009 0.11627499
000150 b6 39 07 bd f4 81 c0 bd d2 5f 8a 3d ec 44 8a bd
       -0.03301402 -0.093997866 0.067565575 -0.06751427
000160 af 38 8e 3e 5c 8e d0 3c 05 d8 44 3d 83 f9 d8 3d
       0.2777762 0.025458507 0.048057575 0.105944656
000170 6a a9 74 3e d8 3f 87 be 45 4e 33 bd 33 dc 8d 3d
       0.23892751 -0.26415896 -0.043775816 0.06926765
000180 47 4d 9d bc 47 90 35 3e 57 b3 59 3c 2c ff 8d bd
       -0.019201888 0.17730819 0.013287387 -0.06933436
000190 74 18 bd bc cb 1d 2d be 91 2f c0 bd 60 4b d1 3d
       -0.02308295 -0.16905896 -0.093840726 0.10219455
0001a0 d6 65 d8 3d 7f c4 e1 3b 30 08 4b be 31 b7 ea bb
       0.10566299 0.0068898792 -0.19827342 -0.0071629514
0001b0 9b c8 62 be ee 09 4c 3e a3 5f 86 3c 9b 8e 41 be
       -0.22146837 0.19925663 0.016403025 -0.18902056
0001c0 8d 5a 5a 3e d2 b6 b4 bd d8 80 07 3e 6a 16 1f 3d
       0.21323605 -0.08823933 0.13232744 0.038839735
0001d0 48 81 c5 bd 27 0d be bd 3b 9b a8 3d d5 9f 52 be
       -0.09643799 -0.09279852 0.08232733 -0.20568784
0001e0 7b 5a fa 3d a5 04 8e 3e 26 86 04 bf 8a d3 b0 3e
       0.12224289 0.27737918 -0.51767194 0.34536391
0001f0 8c bd 5a bc 00 59 56 bd 68 90 9e bc 49 8f 10 bd
       -0.013350856 -0.05233097 -0.019355968 -0.035292897
000200 a9 a6 c5 3d ff 50 b0 bc f7 58 fa bd d1 7e a9 bd
       0.096509285 -0.021522997 -0.12224 -0.082761414
000210 4c b1 2a 3d 0d 79 2c 3b 47 ae 1f 3a 85 9c 6c bd
       0.04167299 0.002631727 0.0006091338 -0.057766456
000220 fb 33 5e 3c a0 d9 a9 bc e5 8f 6f 3d ee e7 fa bb
       0.013562198 -0.020733654 0.058486838 -0.0076570427
000230 03 a8 83 bd 26 32 33 bd 50 96 5f 3b 25 b9 a5 bd
       -0.0642853 -0.043748997 0.0034116693 -0.08091954
000240 f9 4f c3 bb 11 19 b4 bd bb 03 5f 3c 4e 57 a5 bc
       -0.005960461 -0.087938435 0.013611729 -0.020183232
000250 08 1c 63 be e0 6c 16 bd 88 99 53 3c 03 01 4a bd
       -0.22178662 -0.036724925 0.012915023 -0.04931737
000260 ed 1b 32 bd 35 0b 5e 3e 98 6c 3d be 65 45 80 bd
       -0.043483663 0.21683963 -0.18498456 -0.06263236
000270 ea b4 58 3e b0 51 1a 3e d5 68 fa 3e ae 72 94 3d
       0.21162763 0.15070224 0.48908105 0.07248436
000280 45 3a 6f be bf b6 4f 3c 89 3d e4 3d dd c5 3a bd
       -0.23362072 0.012677847 0.111445494 -0.045598853
000290 8b a3 b6 3c 42 be 04 be 71 11 00 be 2e 36 db 3d
       0.02229478 -0.12963203 -0.12506653 0.10703693
0002a0 43 9f 63 bd 61 ba ae 3b 53 65 21 3e 21 f7 cc be
       -0.055571806 0.0053322767 0.15761308 -0.40032294
0002b0 3a 59 cd be 05 15 87 3d af 49 b1 3d b2 1f 13 be
       -0.40107137 0.06595806 0.08656632 -0.1436756
0002c0 f5 2a d7 bd 77 33 e8 bd 44 2b 42 be a8 21 9b bd
       -0.1050624 -0.11337941 -0.18961817 -0.07574779
0002d0 6b a9 8a bd 4e a8 31 be aa 76 40 be 9e 52 5f be
       -0.06770595 -0.1734936 -0.18795267 -0.2180886
0002e0 4d bd 18 bd c2 61 a0 3d d1 53 f6 3d 73 f1 86 3d
       -0.037289906 0.07831146 0.120277055 0.065890215
0002f0 15 c0 ca 3c cc d6 de bc d3 89 bb 3c 0b 00 9e 3b
       0.024749795 -0.027202033 0.022892868 0.0048217825
000300 bb 5c 10 bc b3 40 5f be f1 34 12 bd 0b 16 38 be
       -0.008811171 -0.21802025 -0.03569502 -0.17977159
000310 32 38 08 bb 06 b3 1a 3e 29 82 bb bc 09 95 f9 bd
       -0.0020785448 0.15107355 -0.022889214 -0.12186629
000320 91 4f 5d 3b d8 89 87 3b 3d dd bb 3d 32 70 24 be
       0.003376935 0.0041363053 0.09173057 -0.16058424
000330 ee d0 06 3b 47 fe 9e 3e c2 d4 04 bd 56 5a 1e 3d
       0.002057131 0.31053373 -0.032429464 0.03866037
000340 8d 37 bd 3d e3 59 2a 3e 7f fa f7 3c eb 86 78 3e
       0.09239111 0.16635852 0.030270813 0.24270217
000350 ed 04 5f bd 38 f8 d0 bb fa 01 9e bd 1f 5e ba bd
       -0.054448057 -0.006377246 -0.07715221 -0.090999834
000360 30 34 08 bd 3b 2b 08 bd 59 66 65 bd 1d e6 41 3e
       -0.033252895 -0.033244353 -0.05600581 0.18935438
000370 7b 12 04 3c e7 01 a7 3d e6 83 dc bc 54 7e ad bd
       0.008061047 0.0815466 -0.026918363 -0.08471361
000380 62 09 eb 3d 3d 12 31 be db 6f 7d bd 6a 06 42 bc
       0.11476399 -0.17292114 -0.06187425 -0.01184235
000390 d8 3c 93 bc 1c de 42 3d 83 86 1c be 38 62 4f 3d
       -0.017973348 0.0475751 -0.15285687 0.050630778
0003a0 57 00 bb bd 18 7e 49 3e 34 8a ba 3c 30 61 ee 3b
       -0.09130924 0.19677007 0.022770979 0.0072747692
0003b0 fc bb e5 bd 1d 45 69 be 51 3f 7c bd 24 c1 1b 3e
       -0.11217496 -0.22780271 -0.06158382 0.15210396
0003c0 f8 29 f6 3d 7b fe 3c be c5 36 8d bc 50 6c a2 3d
       0.12019724 -0.18456452 -0.01723803 0.07930815
0003d0 b6 db 6e be 1c 40 cf 3d 3f 61 23 3e cb 35 47 3d
       -0.23326 0.1011965 0.15955065 0.048635285
0003e0 a0 fe d4 3c 49 9c 1b be 23 37 34 3d f7 c9 c5 ba
       0.02600032 -0.15196337 0.043997895 -0.0015090097
0003f0 d0 5b 60 bd 39 fe 2f 3d 64 00 14 bd 45 57 fa bc
       -0.05477506 0.042967055 -0.036133185 -0.030559191

encoder.linear.bias f4 [40]
000000 cb b3 56 be 2a 8b e1 3d 9d 7d dc 3d b6 58 49 3c
       -0.20967023 0.110128716 0.10766146 0.012289217
000010 ae c5 0a 3d 19 8d c2 3d 54 fa a7 3d ef 91 d2 3c
       0.03387993 0.094995685 0.08202043 0.025704352
000020 0b 2a 05 bd 59 1d fc 3c ac 6f ab 3c 8f f7 ac bd
       -0.0325108 0.030775713 0.020927273 -0.084456556
000030 7b 6f e1 bd e7 5e 29 be 0e b8 13 be 79 bb dc bd
       -0.11007591 -0.16540109 -0.1442568 -0.10777945
000040 c5 2a ba 3d ba e9 21 be a4 b6 32 be 1d 56 94 bc
       0.09090189 -0.15811816 -0.17452484 -0.018107468
000050 a3 0d 93 3d ec c9 1b bd 52 21 ef bd c4 76 9f 3d
       0.071803354 -0.038034365 -0.11676277 0.077863246
000060 68 67 d0 bc 44 f0 06 bd 8d 35 0b 3c 59 43 09 3e
       -0.025439933 -0.03294398 0.008496654 0.13404597
000070 98 e9 13 3d 15 50 08 be f0 0f 72 3e ca 3d 24 be
       0.036111444 -0.13311799 0.23638892 -0.16039196
000080 e9 d7 19 bc 21 3c e1 bc 86 60 b6 3d 77 b7 c6 bd
       -0.009389856 -0.027494492 0.08905129 -0.09702962
000090 21 b3 eb bd 56 82 d9 3d 67 4a e2 3d 04 96 b4 bd
       -0.115087755 0.10620563 0.11049347 -0.08817676

decoder.linear_t.weight f4 [200, 40]
000000 3d 7b 17 be cd 16 06 be 59 9c 9f 3d ea 59 47 bd
       -0.14793105 -0.13094635 0.07793493 -0.048669733
000010 74 4c ae 3d 9e a6 ff bd be 48 c1 bd c9 6d ae 3d
       0.08510676 -0.124829516 -0.094377026 0.085170336
000020 73 28 62 3d 51 ef 79 3d 23 82 7a bd 6d 30 e1 bc
       0.055214357 0.061019246 -0.061159264 -0.027488912
000030 60 31 9b 3b 2b 54 b5 3d 59 2b 92 3c 81 55 01 be
       0.0047361106 0.088539444 0.017842935 -0.12630273
000040 98 1f 1d bd 92 56 7c 3d d5 c8 bd 3b 2c 27 0a be
       -0.03836021 0.061605997 0.0057917633 -0.13491505
000050 e3 e9 54 bd 4a 67 de 3d 69 fc bf bc 49 6f 71 3d
       -0.051980864 0.108595446 -0.023435788 0.05894402
000060 28 9c 6a bc dc de 8f 3d d3 18 11 3e f5 4d 8e bc
       -0.014319457 0.07024929 0.14169626 -0.017371157
000070 dc c5 8f 3d 64 b2 f0 bc d4 87 09 be 44 af 0f bc
       0.070201606 -0.029381938 -0.1343072 -0.008769814
000080 7a b1 b2 3d bd 18 27 3e 81 bd 80 be 0e 5e d4 3d
       0.08725257 0.1631803 -0.2514458 0.10369502
000090 f5 37 93 bb a1 67 d3 bc fb 69 1c be 92 e8 76 bc
       -0.0044927546 -0.02580625 -0.15274803 -0.0150700975
0000a0 2e 64 7d 3c b5 7d 31 be e8 31 70 39 cb c7 b4 bd
       0.015465779 -0.1733311 0.00022906775 -0.0882717
0000b0 bc 38 2a be 80 58 e0 bb 3d e4 39 3d db 5a d5 3b
       -0.16623205 -0.0068464875 0.04538368 0.006511075
0000c0 f0 30 c4 bd 56 4d 4f 3d da bf 3a 3d 29 70 23 3d
       -0.095796466 0.050610863 0.04559312 0.039901886
0000d0 70 84 8d 3d 25 a2 52 3d e8 ec 5a 3d 8d c7 75 3d
       0.06910026 0.051424164 0.053448588 0.06000476
0000e0 96 02 33 3a 2b c4 06 bd bb 1c a3 3d 0c c3 6c bd
       0.00068286934 -0.032901924 0.07964464 -0.0578032
0000f0 b1 40 80 bd a4 36 2c 3d 8e 13 62 3d ed 59 ae bd
       -0.06262339 0.042044297 0.05519443 -0.08513246
000100 51 9a 49 bc ad 08 42 bd bd fb 17 3e da 36 56 bd
       -0.012304858 -0.047371555 0.14842124 -0.052298404
000110 f6 2b 02 bb 69 af 62 bd 2f 6f 93 bd fc aa 8a bc
       -0.0019862629 -0.055343065 -0.07198941 -0.016927235
000120 fc 23 60 3d b4 37 9b bd c6 3a 72 3c b8 ec 9f 3d
       0.054721817 -0.07578984 0.0147845205 0.078088224
000130 30 70 92 bd 04 6e 99 3d f8 a6 81 bd 5e d8 b5 3d
       -0.07150304 0.07491687 -0.06330675 0.088791594
000140 91 e9 49 3d 63 e3 5e bd 35 4b dc 3d b0 5b 72 3e
       0.049295012 -0.05441607 0.10756532 0.23667789
000150 9f 86 5d be 40 73 58 3e d0 79 24 3e 45 e1 2e 3d
       -0.21633385 0.21137714 0.16062093 0.042695303
000160 36 93 92 3e 95 c5 2c 3e 4d 91 96 3c 04 66 a1 be
       0.28627938 0.16872247 0.018379832 -0.31523144
000170 22 92 1b 3d 4c 4d a5 3d 52 06 ec bd 25 d5 8f 3d
       0.03798116 0.08071384 -0.11524643 0.07023076
000180 89 45 e1 3d 32 49 1b bd 30 e1 40 be c1 bd 62 bd
       0.10999591 -0.0379116 -0.18835902 -0.055356745
000190 db 4f dc 3c 65 bb a4 bd 74 f2 93 bd 3f 08 52 3e
       0.026893547 -0.08043555 -0.07223979 0.20510958
0001a0 5d c6 e6 3d 18 c9 9d 3d fb 6e b5 bc 81 93 22 be
       0.112683035 0.07704371 -0.022147646 -0.15876581
0001b0 b5 b8 77 3d aa 23 81 bd 32 8c c6 3d f6 bf bf bd
       0.060478885 -0.063056305 0.09694709 -0.093627855
0001c0 93 38 41 bb 8d 62 b7 bd 6e a8 d6 3d 28 e7 8e 3d
       -0.0029483184 -0.08954344 0.10481344 0.06977683
0001d0 76 e6 bd 3e 02 ce a9 3d 3b 65 c9 3d ca 38 dd 3c
       0.3708989 0.08291246 0.09833761 0.027004618
0001e0 a4 0d a1 bb 65 33 ee bd 40 1f 2a bc 17 93 3a 3d
       -0.004914956 -0.116308965 -0.010383427 0.045550432
0001f0 04 a0 13 3d 5b 46 38 3d 79 a4 da 3c 4b e3 48 3c
       0.036041275 0.04498897 0.026689755 0.012261222
000200 19 ea f1 bc 90 19 07 bd 1c 3d b5 3c 04 1a 21 bd
       -0.029530572 -0.032983363 0.022123866 -0.03933145
000210 6c 53 d9 3c 8e 11 46 bd 51 b5 f1 3d 5f fe c7 3b
       0.026529036 -0.048356585 0.118021615 0.0061033214
000220 10 db f9 bd 2a 1c d3 bd 7f 94 67 3e ca 5c de 3d
       -0.12199986 -0.10308106 0.2261524 0.10857542
000230 b9 6e 8a 3b 09 3b 63 3c d2 fa f5 3d d3 48 93 bd
       0.004224625 0.013869056 0.12010731 -0.071916245
000240 74 d2 b9 3d 49 7b bb 3d 2c 21 c1 3d 59 22 9e 3c
       0.09073344 0.09154374 0.09430155 0.019303488
000250 0a 25 0c 3d ed 63 02 be 02 b1 a1 bd 68 bf c0 bd
       0.03421501 -0.12733431 -0.0789509 -0.09411508
000260 47 78 48 3e 3e d2 3b bd 1f e4 14 be 18 6e 80 bb
       0.19577132 -0.0458548 -0.14540146 -0.003919374
000270 91 8d db 3d 31 09 d0 bd 19 cb d5 bd a5 08 72 3d
       0.10720361 -0.10158003 -0.104391284 0.059090275
000280 49 99 17 bd 3d f7 3f 3e cc 31 8f bd d9 0b a8 3c
       -0.03701142 0.18746658 -0.0699192 0.020513462
000290 42 b2 6d bd fd f2 05 be 9e 7c f0 bd 57 cf 4e 3d
       -0.058031328 -0.13080974 -0.11742519 0.050490703
0002a0 70 86 e4 bd aa 68 34 3d 56 5c bb 3d e0 a7 c9 3d
       -0.111584544 0.044045128 0.09148471 0.09846473
0002b0 4b 95 4e 3e a0 aa 01 3e ca cb 65 bc 26 36 8a 3c
       0.20174138 0.12662745 -0.014025638 0.016871523
0002c0 f1 e7 e3 ba 49 3c 61 bc 4b f5 44 3c 04 92 25 3e
       -0.001738785 -0.013747283 0.012021373 0.16168982
0002d0 4f c7 9c be 0a 95 6b bd be ea b2 bd 35 1a f7 bd
       -0.3062081 -0.05751518 -0.0873618 -0.120655455
0002e0 13 76 1f bd 78 cf a9 3b 83 52 98 3d 66 2d ba 3d
       -0.038930964 0.005182203 0.07437613 0.0909069
0002f0 df f9 0d bd a7 3b e7 3c c6 e7 11 be d3 06 1d 3c
       -0.034662124 0.028226687 -0.14248571 0.009584147
000300 4f fc e9 3b b6 73 2b 3d b6 27 6f bd 2f 08 1c 3d
       0.007140673 0.041858397 -0.05838748 0.038093742
000310 66 f0 e6 bd bf 26 06 3e 95 8e 7e bd 5d f2 32 3e
       -0.11276321 0.13100718 -0.062147696 0.17475267
000320 8a f3 93 3d fb a0 86 bd cc e9 07 bd ab 83 4e 3e
       0.07224186 -0.06573673 -0.03318195 0.20167415
000330 ba a2 36 3d 95 4c 51 bd 28 a5 ba bd 7a 92 76 3d
       0.044588782 -0.051098425 -0.09113532 0.060198285
000340 ce 16 e5 bc 3d 11 54 bd 4d 1b 8d bc dd 45 32 be
       -0.027964976 -0.051774252 -0.017224932 -0.17409463
000350 f5 c2 0f 3e ca 88 03 3b be 81 fd 3d cd bc 35 bc
       0.14039214 0.0020070546 0.12378262 -0.011092377
000360 65 9a 96 3c e8 a2 d0 bd 59 61 be 3d 28 c5 ab 3d
       0.018384168 -0.10187322 0.09295911 0.08387214
000370 69 42 a5 bc 16 63 1e 3c 8e 02 39 bd 16 42 93 3c
       -0.020173268 0.009667179 -0.045168452 0.017975848
000380 7c ff f7 3d b6 06 81 3d 1f b8 2c 3c e7 db dc 3d
       0.12109277 0.06300108 0.010541945 0.107841305
000390 5b 95 ab 3b 57 6e 37 3d 9c a0 56 3b 72 88 4c bd
       0.0052363104 0.044782963 0.003274954 -0.049934812
0003a0 ee 9e 9c 3d 9b dc 81 3d 4d 79 e5 bb 06 79 dc 3c
       0.07647501 0.06340905 -0.0070029856 0.026913177
0003b0 a3 d9 14 be 99 3b 1d 3c 6d 11 07 be 2b c4 d0 3d
       -0.14536147 0.009596729 -0.13190241 0.10193666
0003c0 23 e4 c2 3d 89 3d f8 3d 7c a2 6f 3d eb 90 d7 bb
       0.0951617 0.12121112 0.058504567 -0.006578555
0003d0 a4 26 64 3c 21 77 dc bc e8 56 37 3d c7 8b a5 bd
       0.013925228 -0.026912274 0.044760615 -0.08083301
0003e0 e8 48 4a bd 68 5f 39 3d a0 70 f8 3b 62 0a 4b 3e
       -0.049385935 0.045257002 0.0075817853 0.1982818
0003f0 4e c7 05 be 44 10 c6 3d 9e 1d 4c be 10 a5 67 3d
       -0.1306431 0.09671071 -0.19933173 0.0565539

decoder.linear_t.bias f4 [200]
000000 18 d8 1a be be 98 0c be ec ff 1b 3d 0d 36 50 be
       -0.15121496 -0.13730142 0.038085863 -0.20333119
000010 d3 ef 1a 3d c1 15 97 bd 0a 6b ac 3e e4 8e 0b 3e
       0.03782637 -0.07377196 0.33675414 0.13628727
000020 3b 85 46 3e 7c 5c b7 3c 6f 8e 15 bd 54 4a a7 3e
       0.19386761 0.022382967 -0.03651279 0.32673895
000030 6f e7 99 bd 06 64 aa 3e 6c 6f 6f 3d 75 be a1 3d
       -0.075148456 0.33279437 0.05845587 0.07897655
000040 33 0d a8 3e 99 d0 85 3e 9a f3 aa 3e fb b7 0e 3e
       0.3282257 0.2613571 0.33388978 0.1393737
000050 79 34 39 be a8 84 bc bd eb 09 8d 3e 5f 2d 9b 3d
       -0.18086423 -0.0920499 0.2754663 0.07577013
000060 42 cd 27 3d 89 1b 87 bd fe cd 3f be 8e e3 2c be
       0.040967233 -0.06597049 -0.18730924 -0.1688368
000070 f3 02 16 bd fe dd 66 bd d5 66 21 be 41 a2 d5 3d
       -0.036623906 -0.056364052 -0.15761884 0.10431338
000080 7f ca 4c be 2a 6f ec 3c 73 18 93 bd b3 29 cf bd
       -0.19999121 0.0288616 -0.07182398 -0.10115375
000090 22 f8 97 3d c7 77 1a 3e ab 90 c8 bd 58 a2 51 3c
       0.074203745 0.15084754 -0.09793218 0.012795053
0000a0 d0 c1 72 3e ce 9f a5 bd e8 21 0d be 07 f4 19 3d
       0.23706746 -0.08087121 -0.13782465 0.03758624
0000b0 ce 88 a7 bd a5 e5 c0 bd ed d3 dc bd cb b1 d8 bd
       -0.0818039 -0.09418801 -0.10782609 -0.10580786
0000c0 e8 e8 30 3d 6c e9 56 bd 4d 7e 0c 3d c4 68 93 bd
       0.043190867 -0.052468702 0.034300137 -0.07197717
0000d0 44 8d 9f 3d d6 d3 a1 3e b5 0c ae bd ca dc 60 bc
       0.07790616 0.3160693 -0.084985174 -0.013724515
0000e0 e3 10 92 bd 78 1b e7 3e c8 5b d3 3e 25 84 e1 bd
       -0.07132127 0.45138144 0.4128096 -0.11011533
0000f0 be 2d 4c 3e 16 4d 41 be f2 87 97 3e c3 fc 07 3f
       0.19939324 -0.18877062 0.29595906 0.5312006
000100 0a 06 52 3e 1a fe e5 bc 47 e3 cb 3e fe 05 e7 3e
       0.20510116 -0.028075267 0.39821836 0.4512176
000110 dd 2f 47 3e b0 fa 5e 3e f8 1c 28 3d c3 14 c3 3e
       0.19451852 0.21775317 0.04104325 0.38101777
000120 c7 86 a5 3d 1d 1f ab 3e d4 69 cc bd fd 93 ab bd
       0.08082347 0.33422175 -0.099811226 -0.08377836
000130 0e 01 17 3e f7 00 65 bc d2 68 99 3d 15 ba f3 3c
       0.14746496 -0.013977281 0.07490696 0.029751817
000140 79 4e ec bd 8c 84 f1 3d a2 f5 90 bd da 4c 0e be
       -0.11538405 0.117928594 -0.07078101 -0.13896504
000150 94 8c 91 3d c4 ae 61 be b3 f9 5c 3c f7 a2 0e bc
       0.07106891 -0.22039324 0.013487267 -0.008705846
000160 29 29 79 ba 32 ba 1a 3d 90 83 f0 3d 15 53 07 bd
       -0.00095047295 0.037775226 0.117438436 -0.033038218
000170 40 c7 5c 3e 1e f7 20 3e af 02 fd 3d 23 59 a7 bd
       0.21560383 0.15719268 0.123540275 -0.08171298
000180 4b 5b fd 3d 9e 1c 0f 3e c4 af 86 3d a4 aa 72 3e
       0.123709284 0.1397576 0.065764934 0.23697907
000190 92 09 a9 3c a7 fc 9b 3d a3 76 80 bd e0 ff 03 3a
       0.020634446 0.07616549 -0.06272628 0.0005035382
0001a0 c6 a9 a2 bc ea 79 b4 3c 07 b6 c3 3d 33 d1 d3 3d
       -0.019856345 0.02203079 0.09556203 0.10342636
0001b0 3a 98 77 3c d7 ec 6e bd 51 fd df 3d 8b 65 57 3d
       0.015111977 -0.058331337 0.10936988 0.052587073
0001c0 42 47 34 bd 98 f4 44 be 68 b2 86 3e cb 81 40 3e
       -0.04401327 -0.1923393 0.26307988 0.18799512
0001d0 06 dd cb bc c1 9b dd bc 06 3c d5 3d 2f be 27 3d
       -0.024885666 -0.027051808 0.10411839 0.040952858
0001e0 5f 6c 4a 3e 3b 35 7c bd d2 a2 c6 3e ef 7f 5a 3e
       0.19767903 -0.061574202 0.38796097 0.21337865
0001f0 b1 b5 29 be 97 07 3c 3d de 7f 15 3e a8 21 de 3e
       -0.16573216 0.045905676 0.14599559 0.43385053
000200 05 b4 0d 3f 76 f0 5e 3e 68 c8 93 bb 37 5b c3 bd
       0.55352813 0.21771416 -0.0045099743 -0.09538882
000210 13 40 9c bb e3 d5 f9 bd e1 e7 e6 3e e7 6e 0a 3e
       -0.0047683804 -0.12198999 0.45098785 0.13518868
000220 a5 82 00 3f a7 e4 d0 3e 79 c8 c3 3e e9 de 2e be
       0.5019935 0.40799448 0.38238886 -0.17077221
000230 8f d6 c2 3d 1a 65 35 3e b7 9a f5 bd 55 ad ba bd
       0.0951358 0.17714348 -0.119924 -0.09115092
000240 1b ad fe bd 37 45 f7 3d f2 72 f6 3d a0 4a 94 3e
       -0.12435361 0.120737486 0.12033643 0.28963184
000250 f7 93 43 3e 4f 2f 85 3d 40 2f 2c 3b ea 31 a6 3c
       0.19099413 0.06503164 0.002627328 0.020287473
000260 f4 39 9b 3e 02 b7 12 3f 96 0d a9 3c 4a 92 92 3d
       0.30317652 0.573105 0.020636361 0.07156809
000270 94 89 8f 3d 5e 63 a6 3e 70 d6 01 3f a5 01 30 be
       0.07008663 0.32497686 0.5071783 -0.17188127
000280 15 91 54 3d 1d 3d d1 3d d0 2a 3d 3d 4b 82 8a 3e
       0.051896174 0.102167346 0.046183407 0.2705253
000290 3b a6 40 3d 1e 94 10 be e1 9a 0b 3f 5a 68 d2 3e
       0.04703353 -0.14119002 0.545332 0.4109524
0002a0 5c d3 87 bd b0 a7 1d be 8f cb 54 3d 75 ed 45 bb
       -0.066321105 -0.15395999 0.05195194 -0.003020135
0002b0 31 95 be 3e 70 a2 34 3d 72 af fc bd f8 15 a6 bc
       0.372232 0.044100225 -0.12338151 -0.020274147
0002c0 c7 70 91 3d 15 05 97 3e 32 e7 c1 3d a0 d4 d3 3d
       0.07101589 0.29496065 0.09467925 0.103432894
0002d0 c0 8f 9c bd 42 bc 2b 3e 44 55 d3 3e 6f db 57 bc
       -0.07644606 0.16771033 0.4127599 -0.013174876
0002e0 c9 c2 bf bd 18 54 9f 3d 24 83 18 3d 90 55 60 3e
       -0.09363324 0.077797115 0.03723444 0.2190764
0002f0 2d d9 bd 3e cc 17 bc 3e 42 e1 a7 3d fa 36 1b be
       0.37079754 0.36736906 0.081972614 -0.1515769
000300 9d 5f 52 3e 33 01 27 3e 83 61 fa 3e 36 6f 24 3c
       0.20544286 0.16309051 0.4890252 0.01003628
000310 6c 08 d7 3e 99 3f c5 3e 03 bc b0 3e 53 0e 70 bb
       0.41998613 0.38525084 0.34518442 -0.0036629632

decoder.conv2_t.weight f4 [8, 4, 3, 3]
000000 49 dd 82 bd d7 90 55 bc 4a fb b0 be 71 00 0d be
       -0.06389863 -0.013035021 -0.34566718 -0.137697
000010 ec 82 03 3d 11 19 00 3d 34 6b ab bd 86 73 5c bd
       0.03210728 0.031273905 -0.08370057 -0.05382111
000020 41 62 7e be 37 9e e6 bd 20 c1 34 bd 11 b2 dc 3e
       -0.24842168 -0.11260646 -0.04412949 0.43104604
000030 4e 85 eb bd c6 11 9a 3d ae fe 3e 3f 8e af 7b bd
       -0.11500035 0.07522921 0.7460736 -0.06144672
000040 37 21 de bd ce b1 d6 3d ce 0b 19 be cb 6d 17 3f
       -0.10846179 0.10483132 -0.1494591 0.59151906
000050 9d d7 1b 3f b7 92 6a be e6 bc 0f 3f e1 8a ce 3e
       0.60875875 -0.2290753 0.5614761 0.4034033
000060 22 38 11 be 01 61 67 3c a1 12 0f bd c1 7b 33 3d
       -0.14181569 0.014122249 -0.034929875 0.043819193
000070 01 d1 ab bb e5 80 ee 3d 28 b3 19 be 28 76 59 be
       -0.005243421 0.116456784 -0.15009749 -0.2123648
000080 7a b2 42 3f ee ef 9c 3d 78 a5 e8 bc e4 45 8a bc
       0.76053584 0.076629505 -0.028399214 -0.01687903
000090 b9 1c 5e be 1c 84 a8 bd d6 3c c6 be 47 10 5d be
       -0.21690644 -0.08228323 -0.3871829 -0.2158824
0000a0 be 70 6a bd c8 cd 43 be 0b 8d 85 3d af b0 d4 bd
       -0.057236426 -0.19121468 0.065210424 -0.10385262
0000b0 69 c7 5b be cb 65 9f bd af 2b 0d be 72 a1 a2 bd
       -0.21462788 -0.07783087 -0.13786195 -0.079409495
0000c0 08 c2 f9 bd 63 11 2e bf a8 1a 17 bf e2 c3 8c bd
       -0.12195212 -0.6799528 -0.5902505 -0.06873299
0000d0 dc 7a 0a bf 07 85 11 bf 5a d5 69 be c6 0e cd be
       -0.5409372 -0.5684361 -0.22835293 -0.40050334
0000e0 7a 82 21 be 86 94 d8 be ba b2 5a bf a8 54 c7 be
       -0.15772429 -0.42300814 -0.85428965 -0.38931775
0000f0 ea 60 56 be 1e dd 04 bf 98 e5 65 be 97 a2 50 bc
       -0.20935407 -0.518999 -0.22450864 -0.012734077
000100 dc e4 c2 bd 2d fe 37 be f2 7b 86 bb 8d 06 e4 be
       -0.09516308 -0.17968054 -0.004104131 -0.44536248
000110 d5 f2 7b be fd 25 6d 3d 40 33 48 3d b8 e6 be be
       -0.24604352 0.057897557 0.048877 -0.372854
000120 26 4a bb be ec a7 2d 3d 20 15 97 be 90 f3 ec 3c
       -0.36580008 0.04239647 -0.29508305 0.028924733
000130 3b e2 f8 3d 2d a5 16 3c ca b7 8e 3e 08 1a 69 bd
       0.12152525 0.009194654 0.27874595 -0.05690959
000140 bb 68 97 bc 53 8e 02 be bb 76 4c 3e 5b 84 70 3d
       -0.018482557 -0.12749605 0.19967167 0.058719974
000150 96 e7 82 3e cc 6b 0f 3f 4b 82 57 be 30 86 b9 3e
       0.2556731 0.5602386 -0.21045797 0.3623519
000160 d3 40 b0 3e 97 85 62 be 76 44 75 3e bb 48 8b 3e
       0.34424457 -0.22121273 0.23951897 0.27203926
000170 6e e3 c4 3b 61 5e 2f 3f aa ec ef 3d 66 a1 a5 be
       0.006008557 0.68503386 0.11715062 -0.323497
000180 e5 f7 e1 3e f7 b5 80 3c aa 11 26 be c2 81 8b bd
       0.4413444 0.015711768 -0.16217676 -0.06811859
000190 b3 a2 0c 3d 00 7c d7 3d d7 d0 65 bc 15 01 e2 3e
       0.03433485 0.10521698 -0.014026842 0.4414145
0001a0 0b 8c 80 be 01 d7 01 be 49 57 d7 3d 7a 05 22 3e
       -0.25106844 -0.12679674 0.10514695 0.15822402
0001b0 71 c4 7c be 98 20 ad be 09 54 4c be d5 40 39 be
       -0.24684311 -0.3381393 -0.19953932 -0.18091138
0001c0 e1 a8 83 bd f8 6e 18 3d a2 25 ae bc 93 a1 c0 39
       -0.064286955 0.037215203 -0.02125818 0.00036741476
0001d0 db c1 25 3d 6e 36 ae bd e7 81 99 be b9 d8 0e be
       0.040468078 -0.085064754 -0.2998192 -0.1394986
0001e0 f4 e5 90 be 3f 3a 65 bf 52 ff cd be 3d 55 07 3d
       -0.2830044 -0.89542 -0.40233856 0.033040274
0001f0 04 64 ef bd 2e 73 e8 bd a4 48 d1 be 1b 81 2d bf
       -0.11688998 -0.11350094 -0.40875733 -0.67775124
000200 8f a4 37 be 2a 69 f4 be af 85 1f bf 2b 05 22 be
       -0.17933868 -0.47736484 -0.6231336 -0.15822284
000210 f7 88 17 3d 2b a7 53 bc 99 c6 80 3c 53 e6 86 3c
       0.036995854 -0.012918274 0.015719699 0.016467249
000220 f9 15 a4 bd 34 f2 6d be 34 11 c5 bd bf 5c 1d bf
       -0.080120035 -0.23236924 -0.09622422 -0.61469644
000230 3b 59 b8 be 2d 63 17 3d 7e a8 8f 3c 7a 9d 99 bd
       -0.36005577 0.036959816 0.017536398 -0.075007394
000240 be 49 8c be 36 2b fd 3c b5 c4 9c bd 0e 99 bc 3d
       -0.2740001 0.030904394 -0.076547064 0.0920888
000250 d5 4e b7 be 3a 01 88 3d 20 10 93 be 69 19 fb bd
       -0.35802332 0.06640859 -0.2872324 -0.12260706
000260 0e b5 29 be ac ff ff bc 87 5c a1 3d eb fe a7 3e
       -0.16572973 -0.031249844 0.07878976 0.32811674
000270 82 41 eb bd fa a0 00 be 8f 31 ce 3e 13 ef d4 be
       -0.11487104 -0.12561408 0.40272185 -0.4158865
000280 49 d8 0e bf 93 cd 37 bd 0f e7 48 bd f8 8c c9 3e
       -0.55798775 -0.044873785 -0.04904848 0.39365363
000290 a2 09 c1 3e 23 28 04 bf c4 66 0e 3a 62 d0 38 3e
       0.37702662 -0.51623744 0.00054321834 0.18048242
0002a0 fd 26 13 bf 8a c1 81 be 49 ce e9 3c a7 07 12 3d
       -0.57481366 -0.2534297 0.028540747 0.03565183
0002b0 5f cd 73 3d e7 98 3a 3e 10 64 a8 3d 6d ed 56 be
       0.05952203 0.1822239 0.082222104 -0.20989008
0002c0 e8 e4 bc 3e 85 3b 2f 3e de 56 ad be ef 18 d4 be
       0.36893392 0.17112549 -0.33855337 -0.41425273
0002d0 94 9d 93 3c 5e c5 a7 bd a4 38 92 bd 7e d4 6b be
       0.018019475 -0.08191942 -0.071397096 -0.23030278
0002e0 6f b4 09 3c 9b 45 f3 3d 7f 01 e4 3e 64 54 05 bf
       0.008404835 0.118785106 0.4453239 -0.52081895
0002f0 8b df 3d 3f 57 9c a4 bd 83 83 e1 bc ec f3 5d bb
       0.74169225 -0.08037632 -0.02752853 -0.0033867313
000300 cc 33 9a 3c 2d 45 17 3e c5 c0 16 3c 99 c6 a2 3e
       0.018823527 0.14772482 0.009201233 0.31792143
000310 4b 86 40 3f d6 3f e8 3e 5f 4f 23 bd 16 e8 bd bd
       0.75204915 0.45361203 -0.039870616 -0.092727825
000320 81 4b b9 bd a1 83 ac 3e 1c d7 16 3f 84 53 4b 3e
       -0.09047604 0.33694175 0.5892198 0.19856077
000330 84 e8 08 3f 14 c1 39 3f fc fe 0f 3e d0 be 1a bd
       0.5347979 0.7256024 0.14062113 -0.03777963
000340 c5 64 1c bc e4 d8 08 be 67 7e a3 bd 06 be 0c 3d
       -0.00954551 -0.13363987 -0.07983094 0.034360908
000350 08 43 18 be 14 4a c1 bd 91 96 5b be 50 88 1d 3f
       -0.1486932 -0.094379574 -0.21444155 0.6153612
000360 99 c2 b0 be 5c da cd 3c 72 79 ea bd 4f da 28 be
       -0.34523466 0.025128536 -0.11448945 -0.16489528
000370 4e b8 25 bd 0e a8 34 bd 45 57 11 bf fb 3d ae bb
       -0.04045897 -0.044105582 -0.5677379 -0.0053174472
000380 08 29 12 bf af 29 b2 bd 4a 7a 6f be 9e 85 1f be
       -0.5709386 -0.08699357 -0.23386493 -0.15578315
000390 3b 29 94 bc 46 40 58 3e be 70 b0 3e 56 a2 23 3e
       -0.018086066 0.21118268 0.34461015 0.15979895
0003a0 84 ef eb 3e 0c 72 9e 3e 6f 89 26 be f1 cf 6b be
       0.46081173 0.30946386 -0.16263364 -0.23028542
0003b0 5c 65 9b bd 80 d4 61 3e 95 ee 46 3f 63 5d d8 3e
       -0.07587692 0.22053719 0.777078 0.42258748
0003c0 43 14 53 3e 03 98 a3 3e a8 14 ab bc 9b de 88 bb
       0.20613198 0.31951913 -0.020883873 -0.0041769273
0003d0 f4 f2 a9 3c 3d 74 95 be f5 92 c9 bd e5 30 07 3c
       0.020745732 -0.29190245 -0.09842483 0.008251403
0003e0 a6 09 33 3e 41 04 c2 bc 5f c2 49 be 7d cd a8 3e
       0.1748415 -0.023683669 -0.19703053 0.32969275
0003f0 33 32 a1 be 9a 14 c8 3d 78 e8 c6 be 2e 1c 9d be
       -0.3148361 0.097695544 -0.38849235 -0.30685562

decoder.conv2_t.bias f4 [4]
000000 f6 9e af 3c 35 e2 ff 3c bc be cb 3c 9c e1 7f bf
       0.021438103 0.031235794 0.024871223 -0.9995363

decoder.conv1_t.weight f4 [4, 1, 5, 5]
000000 3e 67 05 3d 8f ff 90 3d ba bd b3 3d 47 4c 7a 3d
       0.032569163 0.07079994 0.08776422 0.0611079
000010 a3 b0 ed 3c 16 13 8b 3b 4f 0b 69 3c f1 81 87 bc
       0.029014891 0.0042442186 0.014223888 -0.016541453
000020 cc b0 51 bd fb ec 13 bd 8f 0a d4 bd bd a6 1f be
       -0.051193997 -0.036114674 -0.103535764 -0.1559095
000030 ae 9c 58 be 70 54 81 be a8 09 01 be 77 48 30 bd
       -0.21153519 -0.25259733 -0.1260134 -0.043037858
000040 00 b7 91 3d f5 83 d8 3d a0 06 02 3d 09 13 39 3d
       0.071149826 0.10572044 0.0317446 0.04518417
000050 f9 d1 5f 3e 4e 3b 05 3f 8d be 1f 3f 3b b0 04 3f
       0.21857442 0.52043617 0.6240013 0.51831406
000060 41 45 94 3e 1a 6e 9b 3d a2 e5 b1 3c 67 32 c8 bd
       0.28959087 0.075893596 0.021715943 -0.097752385
000070 9d 7c d8 bd 8d 3f a8 bd 01 fc 35 3d de 14 f0 bd
       -0.10570643 -0.08215246 0.044429783 -0.1172273
000080 40 9e 99 bd 3e 2e bf bd df 68 6b be 3a 84 9f bc
       -0.07500887 -0.09334992 -0.22989224 -0.01947223
000090 1f b2 43 bd 4d 29 09 3f 62 71 1d 3f 16 a5 8f 3b
       -0.04777729 0.53578645 0.61501133 0.0043836934
0000a0 c2 7d 9f bd 1f ac 17 be 9b 12 12 3f bf fb 33 3f
       -0.07787658 -0.14811753 0.5705964 0.7030601
0000b0 52 75 1a bd d1 95 ab bd 48 81 90 be 57 44 c8 3b
       -0.03770954 -0.083781846 -0.28223634 0.0061116624
0000c0 6d 67 92 bc b2 00 92 be d9 62 e2 bc d5 f3 34 bc
       -0.017871583 -0.28516155 -0.027635025 -0.011044462
0000d0 22 36 eb 3c 1d c2 33 3d 69 e4 d6 3c b7 0d b1 bc
       0.028712336 0.043886293 0.026231961 -0.021612985
0000e0 7f 5a fd 3c be 7c 99 39 76 c1 29 3c 50 bc 58 3d
       0.030926941 0.00029275374 0.010361066 0.052913964
0000f0 4e b2 5a 3c 79 24 c7 ba 38 f6 35 be 17 48 0b bd
       0.013348175 -0.0015193365 -0.17769706 -0.034004297
000100 15 81 1e 3e e3 13 2d 3d ac a1 96 3c a0 fa 8e bd
       0.15478928 0.042255294 0.018387638 -0.06981397
000110 5a fe 15 3f c5 02 3a 3f 83 67 e8 3c 8e 5a 45 3d
       0.58591235 0.72660476 0.02836967 0.048182063
000120 ab 25 a1 3d 45 e3 2f 3f f4 ea 2c 3f c4 3c 8f 3d
       0.07868513 0.6870616 0.6754601 0.06994012
000130 c4 f4 e8 3c 3a 50 64 bb 35 a7 97 3d 16 b8 dc 3d
       0.028437026 -0.0034837858 0.07404939 0.10777299
000140 14 6f db 3b 28 5d 4e be 01 22 54 be ff 96 5a 3d
       0.006696591 -0.20152724 -0.20716096 0.053366657
000150 fd e3 1d 3e 06 a7 06 be bb bf e5 be 72 f8 00 bf
       0.15419002 -0.13149652 -0.4487284 -0.503791
000160 38 b0 4c be 00 69 be 3d 48 3f 2b be 94 bd f1 be
       -0.19989097 0.09297371 -0.16723359 -0.4721495
000170 ae c6 1c bf 8f 20 a4 be b9 1c 80 3d fc 78 35 bc
       -0.6124066 -0.3205609 0.062554784 -0.011076208
000180 97 3e 59 be 6d 04 ab be a3 5f c2 bd d0 2c ea 3d
       -0.21215282 -0.33401814 -0.094908975 0.114343286
