Homework/4_AutoEncoders/models/q2_parms_nc_50.pt (torch, 87809 bytes, 11 tensors)

encoder.conv1.weight f4 [4, 1, 5, 5]
0	0xbb221aa1	-0.002473511
1	0x3c3a76b3	0.011380839
2	0x3c19daf8	0.009390585
3	0x3c44c6b6	0.012010267
4	0x3be066fc	0.006848214
5	0x398c5d6b	0.00026772483
6	0x3dbe0587	0.09278398
7	0x3d6bcf66	0.057570837
8	0xbdb6892f	-0.089128844
9	0xbc9343ad	-0.017976606
10	0xbca5c511	-0.02023557
11	0x3e1ddb63	0.1541572
12	0x3e162859	0.14663829
13	0xbd76c979	-0.060250733
14	0x3c3e04f9	0.011597865
15	0xbd81df5d	-0.06341431
16	0x3e9c3cc7	0.3051512
17	0x3ec58657	0.38579056
18	0xbbf4e31e	-0.0074733635
19	0xbd4b258a	-0.049596347
20	0x3dac8b13	0.08424964
21	0x3e8f1ec6	0.27953166
22	0x3d43b377	0.047778573
23	0xbd7e0807	-0.062019374
24	0xbb1c0dbc	-0.0023811897
25	0xbd2a98e3	-0.04164971
26	0xbd421a0a	-0.047388114
27	0x3cc46c72	0.023977492
28	0x3d441003	0.047866832
29	0x3d90a6d5	0.07063071
30	0xbd3bc6fa	-0.045844056
31	0x3e3ac12b	0.1823775
32	0x3dd569da	0.1042058
33	0x3db70ea7	0.089383416
34	0x3e1d9048	0.1538707
35	0x3c967630	0.018366903
36	0x3e5be2c6	0.21473226
37	0xbcb9f74f	-0.022700934
38	0xbbb650e8	-0.005563844
39	0x3d81e234	0.06341973
40	0xbd47682e	-0.048683338
41	0x3e5c9f68	0.21545184
42	0xbc6f1446	-0.014592236
43	0x3cc6b59f	0.024256526
44	0x3e37fe03	0.17967992
45	0x3dcae148	0.0990625
46	0x3e7c9055	0.24664433
47	0x3d0f95e9	0.035055075
48	0x3e1062ef	0.1410024
49	0xbcb4bfd4	-0.022064127
50	0xbcc78d28	-0.0243593
51	0x3cf67630	0.030085653
52	0x3cfd07bc	0.030887477
53	0x3aab5db4	0.001307419
54	0x3c644bfc	0.013934132
55	0x3c662883	0.014047745
56	0x3d2a12be	0.04152178
57	0xbdc6f953	-0.097155236
58	0xbdd02f8f	-0.10165321
59	0xbe0d927b	-0.13825409
60	0x3d043a91	0.032282416
61	0xbdb87063	-0.09005811
62	0xbd17ef04	-0.037093177
63	0xbdfb995a	-0.12285109
64	0xbea97e65	-0.33104244
65	0x3ba5d432	0.005060696
66	0xbdb5f5be	-0.08884762
67	0xbd91560c	-0.0709649
68	0xbee403e6	-0.44534224
69	0xbef676ef	-0.48137614
70	0x3d4056d8	0.04695782
71	0xbdb6bd19	-0.08922786
72	0xbe4dd26e	-0.20099804
73	0xbe9bb700	-0.30413055
74	0xbec0696c	-0.3758043
75	0xbcc727d3	-0.024310982
76	0x3cc26264	0.023728557
77	0x3d8a1ff4	0.06744376
78	0x3d4b25e5	0.049596686
79	0x3d366b34	0.04453583
80	0x3d1d1a4e	0.038355164
81	0x3d5ffaff	0.054682728
82	0x3bcedc0f	0.006312854
83	0x3cbf7d84	0.02337528
84	0x3da13e93	0.07873263
85	0x3cff8ac7	0.031194104
86	0xbc1fcc43	-0.00975329
87	0xbd78c1d1	-0.060731713
88	0x3d381dda	0.044950344
89	0x3d343907	0.043999698
90	0x3d4f9840	0.050682306
91	0xba7ce7c3	-0.00096475723
92	0xbd7a85e1	-0.061162833
93	0x3e88144f	0.26577994
94	0x3e3788c7	0.1792327
95	0x3d84f3f9	0.064918466
96	0x3da61272	0.08108987
97	0x3e4437db	0.19161932
98	0x3ea44518	0.32083964
99	0x3c4d2f42	0.012523474

encoder.conv1.bias f4 [4]
0	0x3f047667	0.5174317
1	0xbe1ba641	-0.1520014
2	0x3dcf31f5	0.101169504
3	0xbe2ce143	-0.16882806

encoder.conv2.weight f4 [8, 4, 3, 3]
0	0x3ca8e112	0.020615134
1	0xbd34fdd2	-0.044187374
2	0xbcc64694	-0.024203576
3	0x3cee9b17	0.029126687
4	0xbddb9890	-0.10722458
5	0x3e0a7029	0.13519348
6	0x3c4be2bd	0.012444195
7	0x3d0bf874	0.03417249
8	0x3e98a46b	0.2981294
9	0xbd0f9276	-0.035051785
10	0x3dcc30c4	0.09970239
11	0xbd9da28f	-0.07697021
12	0xbd23cc7d	-0.039989937
13	0x3e1250aa	0.14288583
14	0xbe2a0965	-0.16605146
15	0x3c77f7f5	0.015134801
16	0xbdbc3b09	-0.091909476
17	0xbe057c20	-0.13035631
18	0xbce24d18	-0.027624652
19	0x3d0c9dcc	0.034330174
20	0xbdb570de	-0.08859418
21	0x3d056e7a	0.03257606
22	0x3c6f2db4	0.014598299
23	0xbe242a39	-0.16031732
24	0xbd366e5f	-0.04453885
25	0xbeb0b17d	-0.34510413
26	0xbe0c027b	-0.13672821
27	0xbc9722fe	-0.018449303
28	0xbda597bf	-0.08085584
29	0x3e05ea4a	0.13077655
30	0x3d406aaa	0.046976723
31	0x3d91decb	0.071225725
32	0x3eb42113	0.35181484
33	0x3db24ea8	0.08706409
34	0x3d810d1b	0.06301328
35	0x3df10c1c	0.11769888
36	0x3d9179dc	0.07103321
37	0x3d08ec26	0.033428334
38	0xbc5db0a8	-0.013530888
39	0x3ed973ec	0.42471254
40	0x3ea82672	0.3284183
41	0xbdd9f229	-0.106418915
42	0xbe1a1227	-0.15045987
43	0x3dabb0d8	0.0838334
44	0x3e43e4e0	0.19130278
45	0xbce93d87	-0.028471721
46	0x3da9459c	0.0826523
47	0xbd13a823	-0.03604902
48	0xbeeabcdf	-0.45847222
49	0x3ea1968b	0.31560168
50	0xbe407ba4	-0.18797165
51	0xbdb10cc4	-0.08645013
52	0xbcfd2ad0	-0.030904204
53	0xbd958e48	-0.073025286
54	0xbc59ba76	-0.013289085
55	0x3e4892b8	0.19587219
56	0x3c330681	0.010926844
57	0xbf4145f8	-0.7549739
58	0x3e6a0a84	0.22855574
59	0x3bade192	0.005306431
60	0x3e22135b	0.15827696
61	0xbe151b86	-0.1456128
62	0xbc575940	-0.013143837
63	0xbcb80b7f	-0.02246642
64	0x3ced43fa	0.028963078
65	0x3ccc7d1d	0.024962002
66	0xbe247ef5	-0.16064055
67	0x3ce8d161	0.028420152
68	0x3dab2688	0.08356959
69	0xbe209429	-0.15681519
70	0xbd89d755	-0.067305245
71	0xbb73eeef	-0.0037221273
72	0x3dabf11c	0.08395597
73	0x3e7bf3d2	0.24604729
74	0x3f019777	0.5062174
75	0x3e0124ef	0.12611745
76	0xbe232f68	-0.15936053
77	0x3e2805da	0.16408482
78	0x3c937eed	0.018004859
79	0x3d86e47e	0.0658655
80	0xbd3ac04f	-0.045593556
81	0xbde1fa6b	-0.110340916
82	0xbe423265	-0.18964536
83	0xbed2ced1	-0.41173413
84	0xbdd37bd9	-0.103263564
85	0xbde45165	-0.11148337
86	0x3db62e80	0.08895588
87	0xbc0f5b7c	-0.008749839
88	0xbcdbad5c	-0.026816063
89	0xbd758f49	-0.0599511
90	0x3c2f38d6	0.010694703
91	0xbeea5167	-0.4576523
92	0xbe03c9dd	-0.12869973
93	0x3e2b589f	0.16733025
94	0xbecae6f8	-0.3962934
95	0xbcc9b36d	-0.02462169
96	0x3e6a099d	0.2285523
97	0x3e519aa9	0.20469154
98	0xbcf63444	-0.030054219
99	0x3d4b1880	0.049583912
100	0xbd1086fe	-0.03528499
101	0x3e769364	0.24079663
102	0x3d3dd549	0.046345983
103	0xbe96bf03	-0.29442605
104	0xbd9bb4af	-0.07602822
105	0xbd080777	-0.033210244
106	0x3dbbb225	0.09164838
107	0x3cffe317	0.031236215
108	0x3c4e9a36	0.012610009
109	0x3de02c83	0.1094599
110	0x3e354d4d	0.17705269
111	0x3cd5f9b6	0.026120048
112	0xbd97bd5d	-0.07409165
113	0xbe11cd81	-0.1423855
114	0x3e62abf6	0.2213591
115	0x3f053804	0.520386
116	0xbd652300	-0.05594158
117	0x3ca2c785	0.019870529
118	0xbd5863dd	-0.052829612
119	0xbdf76c58	-0.12081212
120	0x3dd7b634	0.10532799
121	0x3dd4db45	0.10393385
122	0xbcb6b45e	-0.022302803
123	0xbea3db63	-0.32003316
124	0x3c8d85d4	0.017275728
125	0xbc01092d	-0.007875723
126	0x3dc43092	0.095795766
127	0xbddfad9c	-0.10921785
128	0x39f8043b	0.00047305398
129	0x3dcefd7a	0.101069406
130	0x3e83c59c	0.257367
131	0xbce83921	-0.028347554
132	0xbf497e32	-0.78708184
133	0xbdfa01cd	-0.12207375
134	0x3c4b9d83	0.01242769
135	0xbe1d8f17	-0.15386616
136	0xbb9fbb3c	-0.004874615
137	0x3d1282e3	0.035769355
138	0xbe373b67	-0.17893754
139	0xbce26cd1	-0.027639778
140	0xbd7fed6b	-0.06248228
141	0x3d52f6e8	0.051505
142	0x3dc36952	0.09541573
143	0x3c2f0f88	0.010684855
144	0xbde39743	-0.11112835
145	0xbe11ce5a	-0.14238873
146	0xbc6c2871	-0.014413939
147	0xbd95d63f	-0.07316255
148	0x3e89edcc	0.26939237
149	0x3e87edf4	0.2654873
150	0x3d58762e	0.05284708
151	0x3e819f09	0.25316647
152	0x3e01022b	0.12598483
153	0x3daf0d48	0.08547455
154	0x3b9daef6	0.0048121167
155	0x3dfea607	0.12434011
156	0x3e4eb790	0.20187211
157	0xbef94bd0	-0.48690653
158	0x3e2f3b1e	0.17112395
159	0xbe31ba91	-0.17356326
160	0xbeacedcb	-0.33775172
161	0x3eb43edd	0.3520421
162	0x3cdb22cc	0.02674999
163	0xbd6a86df	-0.05725753
164	0x3de559d8	0.11198777
165	0xbc17cce2	-0.009265156
166	0xbf0e5c94	-0.55610013
167	0x3e1d98c2	0.15390304
168	0xbe295f51	-0.16540267
169	0xbe3a918b	-0.18219583
170	0x3e05cf6a	0.13067403
171	0x3d93cc41	0.07216693
172	0x3d9a13bc	0.07523295
173	0xbded9e7a	-0.11602493
174	0x3e3fb277	0.18720423
175	0x3de40b57	0.111349754
176	0xbe649943	-0.2232409
177	0xbd122ae0	-0.03568542
178	0xbe8ee919	-0.27912214
179	0xbe3280f0	-0.17431998
180	0x3c9872d5	0.018609444
181	0x3dfc1e6e	0.123104915
182	0xbd152c80	-0.03641939
183	0xbd4fc3cc	-0.050723836
184	0x3eb37b7e	0.35055155
185	0x3de70b54	0.112814575
186	0xbc97879a	-0.018497277
187	0xbe82cfd9	-0.255492
188	0xbe469f58	-0.19396722
189	0x3d988b6f	0.0744847
190	0xbe5bd760	-0.21468878
191	0x3d24dce0	0.040249705
192	0xbdcb2b06	-0.099203154
193	0xbcfbbddc	-0.03073018
194	0x3dc9b345	0.09848646
195	0x3e470156	0.19434103
196	0x3e8bc95b	0.2730206
197	0xbe1ad5f5	-0.1512068
198	0xbcc17f84	-0.023620375
199	0xbdcd1c64	-0.10015181
200	0xbcabac3e	-0.020956155
201	0xbedafb6e	-0.4276995
202	0xbdc6abe0	-0.09700751
203	0xbcd5e327	-0.026109291
204	0x3caae32c	0.020860277
205	0x3e8ede3d	0.2790393
206	0xbcfbab9c	-0.030721478
207	0xbc58b283	-0.013226154
208	0x3e0cbf4d	0.1374485
209	0x3caebdfd	0.021330828
210	0xbe1b3e3c	-0.1516046
211	0xbccb3592	-0.024805818
212	0x3d6ce9a7	0.057840016
213	0x3d633a54	0.055475548
214	0x3e5d4085	0.21606643
215	0x3de95231	0.1139263
216	0x3db87d7f	0.090083115
217	0x3dfcb35c	0.123388976
218	0xbe0893ea	-0.13337675
219	0x3e2bb660	0.1676879
220	0xbeb0c49b	-0.34524998
221	0xbea7b5c0	-0.32755852
222	0x3da96a1b	0.08272191
223	0xbab3f61b	-0.0013729961
224	0xbf022c47	-0.5084881
225	0xbe47bdc7	-0.19505988
226	0x3c71037e	0.014710305
227	0x3e58736a	0.21137777
228	0xbe93ae2b	-0.28843817
229	0x3ef53e90	0.47899294
230	0x3d903efa	0.07043262
231	0xbdd8414b	-0.10559329
232	0x3edbf04b	0.42956766
233	0x3d912c28	0.070885
234	0xbe92816f	-0.28614375
235	0x3cc2a49d	0.023760134
236	0x3e0f9d2d	0.14024802
237	0xbe605b4d	-0.21909828
238	0x3f221d7a	0.6332623
239	0x3f17c8fb	0.59291047
240	0xbe34ba8d	-0.17649288
241	0x3e82a9eb	0.25520262
242	0x3e36a0a5	0.17834719
243	0x3d528fa5	0.05140652
244	0xbcc07b5e	-0.023496326
245	0xbe626f23	-0.22112708
246	0xbde89e70	-0.113583446
247	0xbe48a74b	-0.19595067
248	0xbe97c4fe	-0.2964248
249	0xbe7a1528	-0.24422133
250	0x3e3b8dc7	0.18315803
251	0xbdc1fa9a	-0.094716266
252	0x3dfc9d3f	0.1233468
253	0xbc9cee38	-0.01915656
254	0x3dfb9430	0.12284124
255	0xbe5d4e47	-0.21611892

encoder.conv2.bias f4 [8]
0	0x3f6e6f5a	0.9313866
1	0x3f1f1a9c	0.6214998
2	0x3f4b7da6	0.794886
3	0x3f3e2533	0.7427551
4	0x3f8baa06	1.0911262
5	0x3f13fb44	0.57805276
6	0x3e6f834c	0.2338993
7	0x3e2c52ab	0.1682841

encoder.linear.weight f4 [50, 200]
0	0xbcbadc60	-0.022810161
1	0xbdec409e	-0.11535762
2	0x3ea32e58	0.31871295
3	0xbb293730	-0.0025820248
4	0x3e0df498	0.13862836
5	0xbdc81900	-0.09770393
6	0x3ea7a118	0.32740092
7	0x3ae49da7	0.0017442004
8	0xbdb180cf	-0.086671464
9	0xbccf14ff	-0.025278566
10	0xbdd9039f	-0.10596394
11	0x3d88be8a	0.066769674
12	0x3c35bfd3	0.011093098
13	0x3d9e7e11	0.07738889
14	0xbe8a7c15	-0.27047792
15	0x3dd0e6e7	0.10200291
16	0x3b689815	0.0035491039
17	0xbe018930	-0.12649989
18	0xbe51ba1f	-0.20481156
19	0x3daf3034	0.08554116
20	0x3e4327ee	0.190582
21	0xbe2a2816	-0.16616854
22	0xbea14b74	-0.3150288
23	0x3eb3cf49	0.35119084
24	0x3e2e106d	0.16998453
25	0x3cce2410	0.02516368
26	0x3bcb388f	0.0062018107
27	0xbe022b23	-0.12711768
28	0xbc828d07	-0.015936388
29	0xbe4a2f53	-0.19744615
30	0x3ce9c8d7	0.02853815
31	0xbd0f307e	-0.034958355
32	0x3ddb8c7e	0.10720156
33	0x3c549df6	0.012977114
34	0x3daea068	0.08526689
35	0xbd4270f2	-0.047470994
36	0xbe0491b9	-0.12946214
37	0x3df44351	0.11926902
38	0xbdade9c1	-0.08491851
39	0x3c162693	0.00916447
40	0x3c473cd7	0.012160501
41	0xbd99e2f8	-0.07513994
42	0xbd7c6ad3	-0.061625313
43	0x3e146709	0.1449243
44	0x3bd898bc	0.006610004
45	0x3df2a5c1	0.11848021
46	0x3dd427c3	0.103591464
47	0x3e7cfd47	0.24705993
48	0x3e4431a9	0.19159569
49	0xbdea0136	-0.11426012
50	0x3cea4b11	0.028600248
51	0xbdc2cc1b	-0.09511586
52	0xbe33062a	-0.1748282
53	0x3b11f7a1	0.0022272842
54	0x3d566be2	0.05234898
55	0xbcea3889	-0.028591411
56	0x3e04d7fd	0.12973018
57	0x3cd653b1	0.026162954
58	0x3c9a6949	0.018849032
59	0x3d816e6c	0.063198894
60	0xbd983123	-0.07431247
61	0x3c22bcaa	0.009932676
62	0x3cd0911f	0.025459824
63	0xbe173262	-0.14765313
64	0x3c45018c	0.012024295
65	0xbccf67bb	-0.025318017
66	0xbd3d33bb	-0.046191912
67	0x3da81f96	0.082091495
68	0xbb2698dd	-0.0025420703
69	0xbb1e1fe0	-0.0024127886
70	0x3cf4163c	0.029795758
71	0x3ced976b	0.029002866
72	0xbd754db6	-0.059888564
73	0xbd3d7b7c	-0.046260342
74	0x3d8fadee	0.07015596
75	0x3da82f9a	0.08212204
76	0x3d48150c	0.048848197
77	0x3db66fd7	0.089080505
78	0x3eadc7d3	0.33941516
79	0xbbad0e7b	-0.005281267
80	0xbd006784	-0.03134872
81	0xbdee1a38	-0.116260946
82	0x3dee7dec	0.116451114
83	0xbd8c4555	-0.068491615
84	0x3d662ee7	0.056197073
85	0x3cf56dec	0.029959641
86	0xbe3be5c2	-0.18349364
87	0xbd8aa771	-0.06770218
88	0x3e6a1ed7	0.22863327
89	0xbc3847ae	-0.0112475585
90	0x3d4e1c52	0.050319977
91	0xbce52134	-0.027969934
92	0xbc10016d	-0.008789402
93	0xbe4b3a82	-0.19846538
94	0x3e10256b	0.14076774
95	0x3b5d4e2f	0.0033768525
96	0xbd8fe4ff	-0.070260994
97	0xbef19dd1	-0.47190717
98	0x3e5d6a57	0.21622597
99	0x3c606dad	0.013698024
100	0x3b442e61	0.002993487
101	0xbdafeab0	-0.08589685
102	0xbe26072f	-0.16213678
103	0x3c623503	0.013806584
104	0xbdb2f313	-0.08737769
105	0xbd0926dd	-0.03348433
106	0x3daf2bd4	0.085532814
107	0x3d5230ca	0.05131606
108	0xbdb737db	-0.089462005
109	0x3e187a1b	0.1489033
110	0x3ccd45e1	0.025057735
111	0xbe01d631	-0.12679364
112	0xbda447c3	-0.080215
113	0xbd051197	-0.032487478
114	0x3dc58b56	0.09645717
115	0x3da3af44	0.07992414
116	0xbd1e769e	-0.03868734
117	0x3cb36eff	0.021903513
118	0xbe628c18	-0.22123754
119	0x3d885e60	0.066586256
120	0x3dd29636	0.10282557
121	0x3df8fc18	0.12157458
122	0xbdd6cec1	-0.10488654
123	0x3e9e6080	0.30933
124	0x3bd2bd29	0.006431241
125	0x3d83928a	0.064244345
126	0xbde6c981	-0.112689026
127	0xbe798bf0	-0.24369788
128	0x3d6c2379	0.057651017
129	0xbd7986ec	-0.060919687
130	0xbc717053	-0.014736253
131	0x3cbe748b	0.023248931
132	0x3e14875c	0.1450476
133	0x3da92d2a	0.082605675
134	0x3e03aba8	0.1285845
135	0x3b56ac4e	0.003275651
136	0xbc8cb931	-0.01717815
137	0x3e1475ad	0.14498015
138	0xbb65f4fb	-0.0035088647
139	0x3c3464f8	0.011010401
140	0x3d87c463	0.06629255
141	0x3cfb0861	0.030643644
142	0x3dec4668	0.115368664
143	0x3cc120af	0.023575155
144	0x3cbbc50b	0.022921106
145	0x3db6dd0b	0.08928879
146	0x3dddf0f5	0.108369745
147	0xbdff4251	-0.12463821
148	0x3e183850	0.14865232
149	0x3da71391	0.08158029
150	0xbd50ac02	-0.05094529
151	0x3c8bfcba	0.017088283
152	0xbb95437b	-0.0045551634
153	0x3e26ee51	0.16301848
154	0xbde1b594	-0.110209614
155	0x3b1ad45f	0.0023625118
156	0xbe7593af	-0.23982118
157	0xbd8b054d	-0.067881204
158	0x3d229c6f	0.039699968
159	0x3ca93c6f	0.0206587
160	0xbb02f123	-0.0019980154
161	0xbdf9037d	-0.121588685
162	0x3d490532	0.04907722
163	0x3c735bcc	0.014853429
164	0x3e30a937	0.1725205
165	0xbc7c2842	-0.015390458
166	0xba77fe84	-0.0009460228
167	0xbdc87c0b	-0.09789284
168	0xbaae7fb4	-0.0013313205
169	0xbd25bb6c	-0.040461943
170	0xbdea21fe	-0.11432265
171	0xbd94cf2a	-0.07266076
172	0xbd3fefe4	-0.046859637
173	0xbe8289a6	-0.25495642
174	0xbb0d6501	-0.0021575096
175	0xbd6b0f50	-0.05738765
176	0xbc46ff3d	-0.0121458145
177	0x3dc70f48	0.097197115
178	0xbc110760	-0.008851856
179	0x3ba97ea2	0.0051725665
180	0xbcd5f504	-0.02611781
181	0xbc955cb7	-0.018232686
182	0xbd7ef3f0	-0.062244356
183	0x3bb07488	0.0053849854
184	0xbdf5e9dc	-0.12007496
185	0xbc6c59f5	-0.014425744
186	0x3c9ecd1d	0.019384915
187	0xbd28bb0c	-0.041194007
188	0xbc4b3428	-0.012402572
189	0x3b033601	0.0020021203
190	0xbd8e4018	-0.06945819
191	0xbd91f595	-0.07126919
192	0xbc6b2b92	-0.01435365
193	0x3d65aa64	0.0560707
194	0xbd2ec329	-0.042666588
195	0xbdb938d9	-0.09044046
196	0xbc8cf63c	-0.017207257
197	0xbda5989d	-0.08085749
198	0xbe5b1b2b	-0.21397083
199	0xbd545480	-0.051838398
200	0xbca48f18	-0.020087764
201	0xbe65fe50	-0.22460294
202	0x3cf43c56	0.029813927
203	0xbe8a68f0	-0.27033186
204	0xbec5b805	-0.38616958
205	0x3d5e1468	0.05421868
206	0x3dcc12db	0.09964534
207	0x3e581573	0.21101932
208	0xbcfe1f07	-0.031020654
209	0x3dfbcdfb	0.12295147
210	0x3e5d32c4	0.21601397
211	0xbdf7438d	-0.12073431
212	0xbe5845da	-0.21120396
213	0x3e076daf	0.13225435
214	0x3de31f97	0.1109001
215	0x3d643671	0.055715982
216	0xbec997e5	-0.393737
217	0x3dae7149	0.08517701
218	0xbdcc9496	-0.09989278
219	0x3d1ed3c6	0.03877618
220	0xbda32c59	-0.07967443
221	0xbe77aa5a	-0.24186078
222	0xbdf42c6b	-0.119225346
223	0x3e0a2c37	0.13493429
224	0xbec2b83b	-0.38031182
225	0x3d58b157	0.0529035
226	0xbc7fc1f8	-0.015610211
227	0xbcdc3d73	-0.02688477
228	0x3d9117d8	0.07084626
229	0x3dda7322	0.10666491
230	0x3d55a061	0.052154902
231	0x3ddb675f	0.10713076
232	0x3d1d6ada	0.03843198
233	0xbdd810ff	-0.10550117
234	0x3c48c701	0.0122544775
235	0xbb196f53	-0.0023412302
236	0x3e0a0351	0.13477828
237	0xbd35ce16	-0.044385992
238	0x3e265ce5	0.16246374
239	0xbc7dbc20	-0.015486747
240	0x3d178c70	0.036999166
241	0x3d731ac2	0.05935169
242	0x3db743a2	0.08948447
243	0xbd3011b8	-0.042985648
244	0xbe2156dc	-0.1575579
245	0x3dac401c	0.084106654
246	0x3c8223b5	0.015886167
247	0x3e5211dd	0.20514627
248	0xbe8fe85d	-0.28106967
249	0x3cf44d98	0.029822156
250	0x3b115171	0.0022173787
251	0x3c5c2027	0.0134354
252	0xbd25b8ed	-0.040459562
253	0x3e1d53a0	0.15363932
254	0xbdb4b8d1	-0.088243134
255	0x3d3324d2	0.043736286

encoder.linear.bias f4 [50]
0	0x3c1e4a72	0.009661304
1	0x3e3e01ef	0.18555425
2	0x3a95b90d	0.0011422947
3	0x3d0fd190	0.035111964
4	0xbce72cb0	-0.02821955
5	0x3d53fb5d	0.05175339
6	0xbb507da7	-0.0031813176
7	0xbd98416f	-0.074343555
8	0x3b712f7b	0.0036801982
9	0x3ce973d8	0.028497621
10	0xbdfd080f	-0.12355053
11	0x3dad86d9	0.08472986
12	0xbe9c0f1a	-0.30480272
13	0x3e479e35	0.19493945
14	0x3d0fe49c	0.03513013
15	0x3bdb2be6	0.0066885827
16	0xbcdd0ef6	-0.026984673
17	0x3b7cdd08	0.0038583893
18	0xbe19f2c9	-0.15034021
19	0x3dd821d2	0.10553326
20	0x3d8a8ee1	0.06765533
21	0x3d808df8	0.062770784
22	0x3dcb1093	0.09915271
23	0x3dd4d90d	0.10392962
24	0x3dcf60f3	0.101259135
25	0xbd2d7868	-0.042351156
26	0xbd54bcdb	-0.05193792
27	0xbe5cb9e3	-0.21555285
28	0xbc0510fa	-0.008121723
29	0xbdcc6fa2	-0.0998223
30	0xbe1b0b3b	-0.15141003
31	0xbd345d88	-0.04403451
32	0xbc873322	-0.016503874
33	0xbd49a010	-0.049224913
34	0x3da984ba	0.08277269
35	0x3c35bd03	0.011092427
36	0x3d92d171	0.07168854
37	0xbde07685	-0.10960106
38	0xbdb25f5a	-0.08709593
39	0xbe0fe6fc	-0.14052957
40	0xbb3f1613	-0.0029157444
41	0x3ded3dfa	0.11584087
42	0x3af4a24b	0.001866409
43	0xbd1d897e	-0.0384612
44	0xbdcc4529	-0.09974129
45	0x3d204c7d	0.039135445
46	0x3d1fc696	0.039007746
47	0x3d99b232	0.07504691
48	0xbcf5530d	-0.029946828
49	0xbe153935	-0.14572604

decoder.linear_t.weight f4 [200, 50]
0	0xbd8ef28e	-0.069798574
1	0x3c1850e9	0.009296634
2	0xbe084adb	-0.13309805
3	0xbc93ce27	-0.018042637
4	0xbdcd7e91	-0.10033906
5	0xbd2b3379	-0.041797135
6	0xbd80ff91	-0.062987454
7	0x3e1c2bf3	0.1525114
8	0xbd94a75b	-0.07258483
9	0xbde44b75	-0.11147205
10	0x3e08e4c6	0.1336852
11	0xbbd4d89f	-0.00649555
12	0x3df25740	0.11833048
13	0xbde966f9	-0.113965936
14	0xbd5b4c84	-0.053539768
15	0x3cc7d34a	0.024392743
16	0x3d84a765	0.064772405
17	0x3bd0de08	0.0063741244
18	0x3d857b4b	0.06517657
19	0xbdee28dc	-0.11628887
20	0xbca24f24	-0.019813128
21	0xbdb17dc0	-0.08666563
22	0x3d50fcf4	0.051022485
23	0x3d860064	0.06543043
24	0xbd20e5fb	-0.039281826
25	0x3d359e43	0.044340383
26	0x3d661d5f	0.056180354
27	0x3db4adac	0.08822188
28	0xbae243d5	-0.0017262647
29	0x3d61e2ee	0.055148058
30	0x3c90d3b2	0.01767907
31	0x3b9e283f	0.004826575
32	0x3d535d7f	0.051602837
33	0xbd555c11	-0.052089754
34	0x3dcd3ae2	0.10020997
35	0x3e1c046f	0.15236066
36	0xbd9a815a	-0.07544203
37	0x3de36db3	0.11104908
38	0xbcc9422c	-0.024567686
39	0x3ba10fac	0.0049151983
40	0x3d999b18	0.07500285
41	0xbd49a1cc	-0.049226567
42	0xbd629c0b	-0.055324595
43	0x3db91c00	0.09038544
44	0x3d90d4b3	0.07071819
45	0xbd11b036	-0.03556844
46	0x3dbb5301	0.09146691
47	0x3c8ba8fd	0.017048353
48	0xbdab75c3	-0.08372071
49	0xbd899e97	-0.06719702
50	0x3dd409e1	0.10353447
51	0x3db3e4a4	0.08783844
52	0x3d743da3	0.059629094
53	0xbb3095c8	-0.0026944745
54	0x3e28fb7a	0.1650218
55	0x3d2fa4a3	0.04288162
56	0x3d91cf45	0.07119612
57	0x3d97cc10	0.07411969
58	0x3da766c1	0.081738956
59	0x3db2a799	0.08723373
60	0x3e0df6e9	0.1386372
61	0xbd975973	-0.07390108
62	0x3c1772bb	0.0092436625
63	0x3cc35b96	0.023847383
64	0xbdb6c954	-0.08925119
65	0x3d472c0f	0.048626002
66	0x3d341cf7	0.043972936
67	0xbce9f93c	-0.028561227
68	0xbdd72857	-0.10505741
69	0x3d100fbb	0.03517125
70	0x3e11b4bf	0.14229105
71	0xb9905013	-0.0002752548
72	0x3cde7df1	0.027159663
73	0xbd05ad66	-0.03263607
74	0xbe00c208	-0.12574017
75	0x3d9a15dc	0.075237006
76	0x3e13511b	0.14386408
77	0x3ddd6116	0.10809533
78	0xbb5c52c9	-0.003361868
79	0xbe06431f	-0.13111542
80	0x3dab4e9b	0.08364602
81	0x3ce8449f	0.028353034
82	0xbdd9e519	-0.106394
83	0x3cc75a07	0.02433492
84	0x3d8d560a	0.06901176
85	0xbcf09927	-0.029369904
86	0xbd292879	-0.041298363
87	0x3d81b6e2	0.0633371
88	0xbd0901a1	-0.03344882
89	0x3bce29e5	0.0062916153
90	0xbe402b9b	-0.18766634
91	0xbdb11f0a	-0.08648498
92	0xbd91038a	-0.07080753
93	0x3dfc49a8	0.12318736
94	0x3d9fa9d0	0.07796061
95	0xbda117c8	-0.07865864
96	0xbd1fa98c	-0.038980052
97	0xbd7c4c86	-0.061596416
98	0x3d7d3585	0.06181862
99	0x3e0842e4	0.13306767
100	0xbde73b89	-0.11290652
101	0x3ceda2a4	0.029008217
102	0xbdeb2533	-0.114817046
103	0xbd5b372e	-0.05351942
104	0xbe09891c	-0.1343121
105	0x3cde7dea	0.02715965
106	0xbdf39684	-0.11893943
107	0xbe2b84d4	-0.16749889
108	0x3e3f78ae	0.1869838
109	0x3df0322b	0.11728319
110	0x3dbc7fa7	0.09204035
111	0x3e1b82e4	0.1518665
112	0xbe5d205a	-0.21594372
113	0xbdc06aa8	-0.09395343
114	0xbd3f5633	-0.046713065
115	0xbde814d3	-0.11332097
116	0xbd2bace6	-0.041912936
117	0xbd4efce0	-0.05053413
118	0xbb25f628	-0.0025323723
119	0x3e5cf05e	0.21576068
120	0x3be5f518	0.007017743
121	0xbd424376	-0.047427617
122	0xbb625e4d	-0.003454107
123	0xbd930b5d	-0.07179902
124	0x3dd91446	0.1059957
125	0x3d257681	0.040396217
126	0xbe19f8d5	-0.15036328
127	0xbddebfc9	-0.10876424
128	0x3de29366	0.1106327
129	0x3e159af0	0.14609885
130	0xbdcb2231	-0.09918631
131	0xbe27bd50	-0.1638081
132	0xbc6b1f71	-0.014350758
133	0xbe40a2fc	-0.18812174
134	0x3cf43e37	0.029814823
135	0xbda964a0	-0.08271146
136	0x3e485e94	0.19567329
137	0xbe11b394	-0.1422866
138	0xbe8c1da3	-0.2736636
139	0x3e36c583	0.17848782
140	0xbde85a6e	-0.11345373
141	0xbd330afa	-0.04371164
142	0x3e353d6a	0.17699209
143	0xbdaba477	-0.083809786
144	0xbde85217	-0.113437824
145	0x3de1077d	0.109877564
146	0x3d847fa4	0.06469658
147	0xbd80d321	-0.0629027
148	0x3e2e4d7b	0.17021744
149	0xbc92c535	-0.017916301
150	0xbd8a4205	-0.067508735
151	0x3e576130	0.21033168
152	0x3c65be35	0.0140224
153	0xbd13041a	-0.035892583
154	0x3ca23f44	0.019805558
155	0xbd9b09ff	-0.07570266
156	0xbda0c75f	-0.07850527
157	0x3d9aa68c	0.075512975
158	0x3e06682c	0.13125676
159	0xbe1a1c3c	-0.15049833
160	0xbd2a6aa1	-0.041605595
161	0xbe007ad0	-0.12546849
162	0x3ceb3404	0.028711326
163	0xbdc7bbed	-0.09752641
164	0xbe49f013	-0.19720487
165	0x3d963da4	0.07335976
166	0x3e31f0ec	0.1737706
167	0xbcf62c74	-0.030050494
168	0xbd30cdf8	-0.043165177
169	0x3e74fe14	0.23925048
170	0xbe1273a2	-0.14301923
171	0x3da952c8	0.082677424
172	0x3c8cc2bc	0.0171827
173	0xbc053f57	-0.008132777
174	0x3e2f216e	0.17102596
175	0xbe6ddb38	-0.23228157
176	0xbe5502f3	-0.20801906
177	0xbd67b900	-0.056572914
178	0xbd90a10f	-0.070619695
179	0xbe7c091d	-0.24612851
180	0xbe0737d2	-0.13204888
181	0x3dd74593	0.10511317
182	0x3dd9f9df	0.10643362
183	0x3e197d89	0.14989294
184	0xbd8ad14b	-0.06778201
185	0xbb7e5295	-0.0038806547
186	0xbd31750a	-0.043324508
187	0x3cd3d5e0	0.02585882
188	0xbd58be3f	-0.052915808
189	0xbcbb5849	-0.022869246
190	0x3d53f2ee	0.051745348
191	0x3c044dd7	0.008075199
192	0x3dd45867	0.10368424
193	0xbd90055f	-0.070322745
194	0xbe8748b2	-0.2642265
195	0x3e0cb70e	0.13741705
196	0x3e1aaef6	0.15105805
197	0x3e2f2981	0.17105676
198	0x3d9822f4	0.07428542
199	0x3d534f57	0.051589336
200	0xbc4f3ce4	-0.012648795
201	0x3e3f6a01	0.18692781
202	0x3de162df	0.11005186
203	0x3e26ae14	0.16277343
204	0x3d0d197d	0.034448136
205	0x3e00cf9a	0.12579194
206	0x3dedc6ba	0.1161017
207	0x3cb9f93d	0.022701854
208	0x3ded7f4f	0.11596548
209	0x3d520fe6	0.051284693
210	0xbd7d7ebb	-0.061888438
211	0xbd0af57a	-0.03392551
212	0x3d2a4b28	0.04157558
213	0xbd9e7088	-0.077363074
214	0x3e1804a2	0.14845517
215	0xbcf29968	-0.029614165
216	0xbd935320	-0.07193589
217	0xbc00de73	-0.007865536
218	0xbe6fadfa	-0.2340621
219	0xbde2921d	-0.11063025
220	0x3e202234	0.15638047
221	0x3e139f98	0.14416349
222	0x3e17f1ef	0.14838384
223	0x3e0b3794	0.1359542
224	0x3d796e49	0.06089619
225	0xbdd16dda	-0.10226031
226	0x3d38d821	0.04512799
227	0xbdeb0fda	-0.11477633
228	0xbd9e3f39	-0.077269025
229	0x3c908ee6	0.017646264
230	0xbce4a04c	-0.027908467
231	0xbddda653	-0.108227395
232	0x3e25f46c	0.16206521
233	0x3de26f3e	0.11056374
234	0x3d921f7d	0.07134912
235	0xbd2571f2	-0.04039187
236	0xbb83e77a	-0.004025397
237	0xbba18055	-0.0049286284
238	0xbb1b0ae0	-0.0023657605
239	0x3cbf509f	0.023353873
240	0xbe3f321f	-0.18671463
241	0x3c3d1c15	0.01154234
242	0x3e6de4d3	0.23231821
243	0x3c894631	0.016757103
244	0xbc90028b	-0.017579338
245	0xbd55f749	-0.052237783
246	0x3d27bfb6	0.040954314
247	0xbdbf0680	-0.09327412
248	0xbe5727e9	-0.21011318
249	0xbe280617	-0.16408573
250	0xbd25696d	-0.040383745
251	0xbdffdbaf	-0.12493073
252	0xbd8e8b61	-0.06960178
253	0x3e6aa447	0.2291423
254	0xbd127835	-0.03575917
255	0xbddd4685	-0.10804466

decoder.linear_t.bias f4 [200]
0	0xbd541c1f	-0.05178463
1	0xbdd6e593	-0.104930066
2	0x3dd6dd8d	0.10491476
3	0x3ad2a5c5	0.0016071132
4	0x3cc3192f	0.02381572
5	0xbd3382e6	-0.043826006
6	0x3c656735	0.014001657
7	0x3e41ace3	0.18913607
8	0x3ce7df00	0.028304577
9	0xbccbd861	-0.024883451
10	0x3cef6056	0.029220741
11	0x3e6b5d95	0.22984917
12	0x3d6457e9	0.0557479
13	0xbd2ca1e8	-0.042146593
14	0x3d982052	0.074280396
15	0x3e29db28	0.16587508
16	0xbdc47654	-0.09592882
17	0xbc620c3e	-0.013796864
18	0x3d7cabc6	0.061687253
19	0xbb8c0278	-0.0042727552
20	0x3dc50415	0.09619919
21	0x3d9fc209	0.07800681
22	0x3cebd219	0.028786706
23	0x3ca9343b	0.020654788
24	0x3d16ef1d	0.03684913
25	0xbd3b9264	-0.045793906
26	0x3c11e803	0.008905414
27	0xbcff740c	-0.031183265
28	0x3b75cd84	0.003750653
29	0x3dae6f93	0.08517375
30	0xbc8bdc0d	-0.017072702
31	0xbe372156	-0.1788381
32	0x3eb796ed	0.35857335
33	0x3e4301b4	0.19043618
34	0x3e515bd1	0.20445181
35	0xbe01822a	-0.1264731
36	0x3c09723a	0.00838905
37	0x3e4eac19	0.20182838
38	0xbe0065a2	-0.1253877
39	0xbe15104a	-0.14556995
40	0xbd356b91	-0.044292036
41	0x3e185f42	0.14880088
42	0x3e47a79d	0.19497533
43	0xbc0c9f31	-0.008582876
44	0x3f02df07	0.5112156
45	0x3dae74d8	0.0851838
46	0x3dd6b276	0.104832575
47	0x3e88eeba	0.26744634
48	0x3f0c3764	0.5477202
49	0x3e0151ee	0.1262891
50	0x3dbef9e2	0.09325005
51	0xbc1be8b2	-0.009515928
52	0x3e7893f9	0.24275197
53	0x3e8df7f3	0.27728233
54	0x3e9b2c94	0.30307448
55	0x3e454c79	0.19267453
56	0x3d366e57	0.044538822
57	0xbd4261b6	-0.047456466
58	0x3e80ee29	0.25181702
59	0x3d4df304	0.050280586
60	0x3d99f9c4	0.07518342
61	0x3e932458	0.28738666
62	0x3e1fb678	0.1559695
63	0xbc2b5f37	-0.010459713
64	0x3dac834c	0.084234804
65	0x3dbbd378	0.09171194
66	0x3e6dde9b	0.23229448
67	0xbe0a7c80	-0.13524055
68	0x3d637ad8	0.055537075
69	0x3ca3b7cb	0.0199851
70	0xbd9985f5	-0.074962534
71	0x3ddf0fe5	0.108917035
72	0xbb42f703	-0.0029749281
73	0xbdb436ad	-0.08799491
74	0x3dfa3f86	0.122191474
75	0xbe11b004	-0.14227301
76	0xbdf3fe03	-0.11913683
77	0x3c957e0a	0.018248577
78	0x3e99add6	0.3001544
79	0x3e2e1524	0.17000252
80	0x3de5c0df	0.11218428
81	0x3dbfe94d	0.093706705
82	0x3d5d5e59	0.054045055
83	0x3ecd761b	0.4012917
84	0x3dab99d8	0.08378953
85	0xbd184f21	-0.03718484
86	0x3e1ed8f1	0.15512444
87	0x3d5d71cd	0.054063607
88	0x3ea2f7e7	0.3182976
89	0x3e8987f6	0.26861542
90	0xbd060c01	-0.03272629
91	0x3e0d002d	0.13769598
92	0xbdc9d32a	-0.098547295
93	0x3e937a28	0.28804135
94	0x3e38378c	0.1798994
95	0x3d8397c5	0.06425432
96	0x3e8503ce	0.25979465
97	0x3e9937aa	0.2992528
98	0x3ef4c227	0.47804376
99	0x3d6fa241	0.058504347
100	0x3cce8376	0.02520917
101	0x3c11d137	0.008899978
102	0xbccd4ac6	-0.025060069
103	0xbce6c8da	-0.028171945
104	0xbd55a249	-0.05215672
105	0x3dadcd52	0.08486427
106	0x3e280cc3	0.16411118
107	0xbd628384	-0.055301204
108	0xbd438972	-0.0477385
109	0xbcf809f8	-0.030278191
110	0x3d089809	0.033348117
111	0xbdead147	-0.11465698
112	0xbd1179b2	-0.03551645
113	0x3c56455f	0.013078063
114	0xbd869ee2	-0.06573273
115	0x3e3a50ee	0.18194935
116	0x3d96ff54	0.07372919
117	0xbe1e7a6d	-0.15476389
118	0x3d3c395f	0.04595315
119	0x3da28a74	0.07936564
120	0x3e2dc35c	0.16969055
121	0x3a3a03f3	0.00070959254
122	0x3d4b8d4e	0.049695306
123	0xbcad0829	-0.021122055
124	0x3b9996f6	0.0046871854
125	0x3dd4bdd6	0.10387771
126	0xbd1bf8fa	-0.03807924
127	0xbdfe072f	-0.12403714
128	0x3e9ef2ee	0.31044716
129	0x3d12190c	0.035668418
130	0xbce606ec	-0.028079472
131	0x3e1ea22b	0.1549155
132	0xbd85f298	-0.06540412
133	0x3ea9107b	0.33020386
134	0x3d67c2ec	0.056582376
135	0x3dc0c9ee	0.09413515
136	0xbd25d0ff	-0.040482517
137	0x3da421a0	0.08014226
138	0x3edfe1c3	0.4372693
139	0xbddea01b	-0.108703814
140	0xbce6425f	-0.02810782
141	0x3eb22588	0.3479426
142	0x3ea67b31	0.32515863
143	0xbdf5b9c6	-0.11998324
144	0x3d8518a7	0.06498843
145	0x3e749fa7	0.23889028
146	0x3e8bd077	0.27307484
147	0x3dc0f6ca	0.09422071
148	0x3d0b2dc8	0.033979207
149	0x3e975167	0.29554293
150	0xbe0570ea	-0.13031355
151	0x3d8dbed1	0.06921161
152	0x3e475285	0.19465072
153	0x3d29234b	0.041293424
154	0x3e0ac752	0.13552597
155	0x3d2b451f	0.041813966
156	0xbccd98d3	-0.025097286
157	0xbcbf5cab	-0.023359617
158	0xbd654952	-0.055978127
159	0xbdc561e5	-0.096378125
160	0xbc811a24	-0.015759535
161	0xbda7db62	-0.08196141
162	0x3df8d9d7	0.12150925
163	0x395bfe8f	0.00020980298
164	0xbdd1091f	-0.10206818
165	0xbd92ff56	-0.07177608
166	0x3b344595	0.0027507294
167	0x3e2a259b	0.16615908
168	0x3d131769	0.035910998
169	0x3ac367cb	0.0014908252
170	0x3d4fe03a	0.05075095
171	0xbd6981d5	-0.057008583
172	0x3e0c338b	0.13691537
173	0x3d3c33d6	0.045947872
174	0x3c84475d	0.01614731
175	0xbde84211	-0.11340726
176	0x3dea4bf1	0.11440266
177	0x3e35e995	0.17764886
178	0x3de43672	0.11143197
179	0x3e45a8c9	0.19302668
180	0xbdfaffa6	-0.12255792
181	0x3ee17eba	0.44041997
182	0x3e7d7ff7	0.24755846
183	0xbe103f4c	-0.14086646
184	0x3ec71d8d	0.38889733
185	0xbdc89a94	-0.097951084
186	0x3eb521bb	0.35377297
187	0x3ed35fa4	0.41283906
188	0x3eb7fcaa	0.35934955
189	0x3ea1af34	0.31578982
190	0xbc87b480	-0.016565561
191	0xbd29721c	-0.04136859
192	0xbdd72f8b	-0.10507115
193	0x3f2b6ffd	0.66967756
194	0x3e0ac655	0.1355222
195	0xbdc77b60	-0.09740329
196	0x3e73e1e3	0.23816638
197	0x3ebb4058	0.36572528
198	0x3df9ecec	0.122033924
199	0x3e9f7d40	0.31150246

decoder.conv2_t.weight f4 [8, 4, 3, 3]
0	0x3e123df5	0.14281447
1	0x3ebc2056	0.3674342
2	0x3eb59783	0.35467157
3	0xbf116aca	-0.5680357
4	0xbed4409d	-0.41455546
5	0x3c45f13b	0.01208144
6	0xbed63e8a	-0.4184459
7	0xbe7599ea	-0.23984495
8	0xbb8a6da1	-0.0042244946
9	0xbe69dc87	-0.22838031
10	0x3e326d3b	0.1742448
11	0x3ea497bb	0.3214701
12	0xbda53a69	-0.080677815
13	0xbe5cc880	-0.2156086
14	0x3d490c5c	0.049084052
15	0x3d6e97c2	0.058250196
16	0xbec3b0d2	-0.3822084
17	0xbe59fdac	-0.21288174
18	0xbc2ed4d7	-0.010670862
19	0x3e0a0f44	0.13482386
20	0x3e6b18a8	0.22958624
21	0xbe7e1755	-0.24813588
22	0x3e287173	0.16449527
23	0x3d429826	0.04750838
24	0xbd506620	-0.050878644
25	0xbe02d08b	-0.12774865
26	0xbdaa6282	-0.0831957
27	0x3d927d79	0.07152838
28	0x3e5bbeb2	0.21459463
29	0x3eaaac47	0.33334562
30	0xbd7a70eb	-0.061142843
31	0xbe84ee1f	-0.25962922
32	0x3df6a6b8	0.12043518
33	0xbeaf05c8	-0.34184098
34	0xbf2a40a5	-0.6650489
35	0xbdc0b200	-0.09408951
36	0x3e96c9bd	0.2945079
37	0x3eda3c9d	0.4262437
38	0xbd9d7414	-0.07688156
39	0x3f22d1e3	0.6360151
40	0xbd001824	-0.031273022
41	0xbed9f45e	-0.4256925
42	0x3e4b209e	0.19836661
43	0xbede43fd	-0.43411246
44	0xbe98e095	-0.29858842
45	0xbddffb56	-0.109366104
46	0x3e88aee1	0.26695922
47	0x3c87e189	0.016587036
48	0x3e7f924e	0.24958155
49	0x3eb0b9ef	0.34516856
50	0xbe84025e	-0.25783056
51	0xbe303c2e	-0.17210457
52	0xbdb32894	-0.08747974
53	0xbc4ab1dd	-0.0123715075
54	0xbd44d535	-0.048054893
55	0x3d5e7db0	0.054319084
56	0xbc73a31d	-0.014870432
57	0x3d4f1341	0.05055547
58	0xbdfaf890	-0.12254441
59	0x3cc367e1	0.023853244
60	0xbe155b32	-0.1458557
61	0xbea3ed5b	-0.32017025
62	0xbf05139d	-0.5198305
63	0xbd59a885	-0.05313923
64	0x3ec7a056	0.38989514
65	0xbba8232b	-0.0051311455
66	0x3eafd951	0.34345487
67	0x3f111bdb	0.5668313
68	0xbeb6d469	-0.3570893
69	0x3e84c951	0.25934842
70	0xbcf3a9ac	-0.029743992
71	0xbecb9b55	-0.39766946
72	0xbe2f7300	-0.17133713
73	0xbed2fcd2	-0.41208512
74	0xbe63af87	-0.22234927
75	0xbe13dbec	-0.14439362
76	0xbe4784f5	-0.19484313
77	0xbd4377d1	-0.047721688
78	0x3ebc1a06	0.36738604
79	0x3f02943a	0.51007426
80	0x3e8c75ca	0.27433616
81	0xbe10ba1f	-0.141335
82	0xbe08aa68	-0.13346255
83	0xbe550410	-0.20802331
84	0xbdf28b5a	-0.118429855
85	0xbe858c74	-0.2608372
86	0xbe4c4afc	-0.1995048
87	0xbdb40060	-0.08789134
88	0x3e9af3f6	0.30264252
89	0x3e8c737e	0.27431864
90	0x3cb57426	0.02215011
91	0xbce4ccf7	-0.027929766
92	0xbe4082ac	-0.18799847
93	0x3da403e1	0.08008552
94	0x3c907ed5	0.017638603
95	0xbe305343	-0.17219262
96	0x3f14e588	0.58162737
97	0x3f4692c4	0.77567697
98	0x3eef14d5	0.4669558
99	0xbc352022	-0.011055024
100	0xbe2025e9	-0.15639462
101	0xbe113f20	-0.14184237
102	0xbe4241e0	-0.18970442
103	0xbed3b5de	-0.4134969
104	0xbeb63e96	-0.35594624
105	0x3e87c05f	0.26513955
106	0x3efcaecd	0.49352112
107	0x3ea776fb	0.32707962
108	0x3ee1b4f1	0.4408336
109	0x3f0ccbbc	0.54998374
110	0xbd373227	-0.044725563
111	0x3f3ffdda	0.7499672
112	0x3e3b6ebf	0.18303965
113	0xbeb7c000	-0.35888672
114	0x3eaeed5a	0.3416546
115	0xbe02a484	-0.1275807
116	0xbe3d5071	-0.18487717
117	0xbe3797d5	-0.17929013
118	0x3eacb0b8	0.33728576
119	0x3d6e8611	0.058233324
120	0x3e9ba83a	0.30401784
121	0x3eed7b47	0.46383116
122	0xbe25bbd8	-0.16184938
123	0xbe14f176	-0.14545235
124	0x3dbba955	0.09163157
125	0x3d858a73	0.06520548
126	0xbbc78ca2	-0.006089763
127	0x3e10ed59	0.14153041
128	0xbcd84750	-0.026401192
129	0xbe389361	-0.1802497
130	0xbe64d7c0	-0.22347927
131	0x3dafc5b4	0.08582631
132	0x3d18bbaa	0.037288345
133	0x3df22aae	0.11824547
134	0x3dbf6a45	0.09346441
135	0xbc3d7ca3	-0.01156536
136	0x3ef48226	0.47755545
137	0x3bbb340a	0.0057129906
138	0x3ecc9e24	0.39964402
139	0x3f3a0c05	0.7267459
140	0xbe565e28	-0.20934355
141	0x3e77f64a	0.24215046
142	0x3e59c376	0.21265969
143	0xbe6b52f1	-0.22980858
144	0xbe233311	-0.15937449
145	0xbe030243	-0.12793832
146	0x3dd0af39	0.10189671
147	0xbecb0916	-0.3965537
148	0xbf1f374b	-0.62193745
149	0xbe4dc872	-0.20095995
150	0xbe8359f9	-0.2565458
151	0xbf169440	-0.5881996
152	0xbe876b8b	-0.26449236
153	0xbdfe2554	-0.124094635
154	0xbd853e1d	-0.06505988
155	0xbe5d2236	-0.21595082
156	0xbdd3ed99	-0.103480525
157	0xbea44f03	-0.3209153
158	0xbe4228dc	-0.18960899
159	0xbb89cc1f	-0.0042052413
160	0xbec39ff1	-0.38207963
161	0xbe9bc6f3	-0.30425224
162	0xbe10329f	-0.1408181
163	0xbe496082	-0.19665721
164	0xbdf0b187	-0.11752611
165	0xbde0ee97	-0.109830074
166	0xbdc0412f	-0.09387433
167	0xbebf870d	-0.37407723
168	0xbdb628bd	-0.08894489
169	0xbebb373e	-0.36565584
170	0xbec3dd4f	-0.38254783
171	0xbd5cd9b9	-0.053918574
172	0xbdda46f0	-0.106580615
173	0x3d87e739	0.06635899
174	0xbdc639b5	-0.096789755
175	0xbed86af5	-0.42269102
176	0xbe8d3ec2	-0.27586943
177	0xbe1b4293	-0.15162115
178	0xbf25c905	-0.64759856
179	0xbee5c44f	-0.44876334
180	0xbe6b6f68	-0.22991717
181	0x3e4665c6	0.19374761
182	0x3ef6a53d	0.48172942
183	0x3de591f0	0.11209476
184	0x3f734760	0.95030785
185	0x3f2c2204	0.67239404
186	0x3dc34dfb	0.09536358
187	0x3eaeebf9	0.34164408
188	0xbc673aa4	-0.014113102
189	0xbdd1e5b2	-0.10248889
190	0xbd80ecb8	-0.062951505
191	0x3ec0b1b6	0.37635583
192	0xbca948c5	-0.020664582
193	0x3e90e0f9	0.2829664
194	0x3f09a598	0.537683
195	0xbe2e616f	-0.17029355
196	0x3e5d5618	0.21614873
197	0xbe8a3cf4	-0.2699963
198	0xbe654250	-0.22388577
199	0xbe490bd8	-0.19633424
200	0x3d8b25ea	0.06794341
201	0xbc9eb999	-0.01937561
202	0xbc3a3ae9	-0.011366584
203	0x3dee0eaa	0.11623891
204	0xbe615afc	-0.22007364
205	0xbf034e91	-0.5129176
206	0xbe8471fd	-0.25868216
207	0xbe2f254e	-0.17104074
208	0xbe29d0a7	-0.16583501
209	0x3e8cbaaa	0.27486163
210	0xbce484c7	-0.027895344
211	0x3eaffcf2	0.3437267
212	0x3f44ca0a	0.7687079
213	0x3dbcdf02	0.09222223
214	0x3e9f9568	0.31168675
215	0x3e5d69c0	0.21622372
216	0xbefb8d5c	-0.49131286
217	0xbf2dc85a	-0.6788384
218	0xbe97a717	-0.29619667
219	0xbdc39d3d	-0.09551475
220	0xbead558d	-0.33854333
221	0xbe17809e	-0.14795157
222	0x3dcade09	0.09905631
223	0xbe13f5ae	-0.14449188
224	0xbe585bb6	-0.21128735
225	0x3d5cd091	0.053909842
226	0xbe9fc21e	-0.31202787
227	0xbd5b1abc	-0.053492293
228	0xbdbbff13	-0.09179511
229	0xbe973a39	-0.29536608
230	0xbe8ec69b	-0.278859
231	0xbe380ef2	-0.17974451
232	0xbb4cadd4	-0.003123154
233	0xbce44638	-0.027865514
234	0xbcfce12b	-0.030869087
235	0xbeab0c97	-0.33408043
236	0xbe046332	-0.12928465
237	0x3e900673	0.2812992
238	0xbe02ed0d	-0.1278574
239	0xbe50beb1	-0.20385243
240	0x3daaa44e	0.0833212
241	0x3d529a1d	0.051416505
242	0xbe4091c8	-0.18805611
243	0xbe4a245d	-0.19740434
244	0xbed89bfd	-0.4230651
245	0xbe842db2	-0.25816113
246	0xbdda3ce7	-0.106561475
247	0xbee3ffd0	-0.44531107
248	0xbee73379	-0.45156458
249	0x3e319dfd	0.17345424
250	0x3d4921ba	0.04910443
251	0xbe53a016	-0.20666537
252	0xbe806618	-0.2507789
253	0x3e6aff44	0.22948939
254	0x3f08ffbc	0.5351522
255	0x3d33e5da	0.043920375

decoder.conv2_t.bias f4 [4]
0	0xbf45c566	-0.7725433
1	0xc00bbd04	-2.1834116
2	0x3c56d4d1	0.013112263
3	0xbf1db52e	-0.61604583

decoder.conv1_t.weight f4 [4, 1, 5, 5]
0	0xbd17e9be	-0.03708815
1	0xbc954a4a	-0.0182239
2	0x3d033410	0.032032073
3	0x3d1a139a	0.03761635
4	0x3cfc6469	0.030809598
5	0xbcd9c510	-0.026583225
6	0x3cc11443	0.023569232
7	0xbc476b48	-0.012171574
8	0xb9c77844	-0.00038045843
9	0x3d69dc13	0.057094645
10	0x3c306148	0.010765381
11	0xbba91c0d	-0.0051608146
12	0xbe477412	-0.19477871
13	0xbd5e07fb	-0.05420683
14	0x3e56ca58	0.20975626
15	0x3d024805	0.031806964
16	0x3d01e4e2	0.03171242
17	0xbdba5d9b	-0.09099885
18	0x3f09c21e	0.53811824
19	0x3f3a8fe8	0.72875834
20	0x3cd9f46d	0.02660581
21	0x3d6508dd	0.055916656
22	0x3de0c8be	0.109757885
23	0x3f240b99	0.64080197
24	0x3f18edb9	0.59737736
25	0xbd860897	-0.06544607
26	0xbd21e59c	-0.039525613
27	0x3d09f598	0.033681482
28	0x3d3935ed	0.045217443
29	0x3d9b26a0	0.075757265
30	0xbc20a631	-0.009805248
31	0x3c895814	0.016765632
32	0x3de78a04	0.11305621
33	0x3daec918	0.08534449
34	0x3dc06e77	0.093960695
35	0x3e017357	0.12641655
36	0x3e0aa1d1	0.1353829
37	0xbc29220e	-0.010323061
38	0xbf1e6c30	-0.6188383
39	0xbe6a5f86	-0.22888002
40	0x3dcf2d22	0.1011603
41	0xbd88c338	-0.0667786
42	0xbf53b502	-0.8269807
43	0xbfb97b99	-1.4490844
44	0xbeabfeeb	-0.33592924
45	0x3dbd5cb7	0.092461996
46	0x3df89880	0.12138462
47	0xbdfcb063	-0.123383306
48	0xbd76e9c3	-0.060281526
49	0x3e1011b2	0.1406925
50	0x3af7ea8a	0.0018914503
51	0xbccdf817	-0.025142713
52	0xbcb958f4	-0.022625424
53	0x3da5db67	0.08098488
54	0x3de5bba8	0.11217433
55	0x3d47430b	0.04864792
56	0x3c1cc95b	0.009569491
57	0xbdd9146d	-0.10599599
58	0xbbaa3171	-0.005193882
59	0x3dc7eb38	0.09761661
60	0x3d92f333	0.07175293
61	0x3da8bd76	0.08239262
62	0xbe4c3690	-0.19942689
63	0xbecb30ca	-0.3968566
64	0xbe31e34f	-0.17371868
65	0xbc6e3e82	-0.01454127
66	0x3dd13d6c	0.102167934
67	0x3d8c2dfa	0.06844707
68	0xbe1e9b14	-0.15488845
69	0xbda1cc97	-0.079003505
70	0xbdfde23d	-0.12396667
71	0x3de96e08	0.1139794
72	0x3efc4fb2	0.49279553
73	0x3ef14e97	0.47130272
74	0x3e605661	0.21907951
75	0x3dae5844	0.08512929
76	0x3d37aee5	0.044844527
77	0xbda1cf58	-0.07900876
78	0xbdbed4e9	-0.09317953
79	0xbde8ca1b	-0.113666736
80	0x3d88ea63	0.06685331
81	0xbdab9d9d	-0.08379672
82	0xbd4d3a96	-0.0501047
83	0xbd9671c8	-0.07345921
84	0xbe60d696	-0.21956858
85	0xbcb7b823	-0.02242667
86	0xbd888fc5	-0.06668047
87	0x3eec48fd	0.46149436
88	0x3f2b0c5f	0.6681575
89	0x3d5f8a7e	0.054575436
90	0xbd7be697	-0.061499204
91	0xbe2824fe	-0.16420361
92	0x3f1621e7	0.5864548
93	0x3f3bd2f8	0.7336879
94	0xbda77b3f	-0.08177804
95	0xbdac5784	-0.0841513
96	0xbe809fbd	-0.2512187
97	0x3d45665e	0.048193328
98	0xbd842096	-0.06451528
99	0xbea5e39b	-0.32400212
