Homework/4_AutoEncoders/models/q2_parms_nc_10.pt (torch, 23617 bytes, 11 tensors)

encoder.conv1.weight f4 [4, 1, 5, 5]
-0.09696084 0.03003753 0.12777148 0.09975542 0.025524624 -0.04054331 0.14841053 0.12803403
0.1000249 -0.0904499 0.08996513 0.16911444 0.03998535 -0.106872134 -0.103133485 0.12495041
0.18038101 0.052865405 -0.1204896 -0.13287099 0.15937193 0.07563607 -0.022551155 -0.19017217
-0.30154446 -0.08064874 0.0034323419 -0.039800324 -0.065933555 0.067424595 -0.0488382 -0.059664484
-0.056252535 -0.10297396 0.10110284 0.0022406133 -0.06892661 0.011651445 -0.054487642 0.08579106
-0.122959174 -0.076114416 -0.008604784 0.0041041877 0.18180485 -0.026950795 0.030027064 -0.004654187
0.11904502 0.20805947 -0.009782519 -0.03926896 -0.023076145 -0.054260187 -0.036855698 -0.11263256
-0.09394174 -0.014509634 -0.067775205 -0.0855596 -0.06739685 -0.05454997 -0.15279947 -0.08591108
-0.014150994 -0.12193909 -0.03367867 -0.054954536 -0.11775896 -0.10900594 -0.04830437 -0.040204607
-0.06657311 -0.13328949 -0.09120235 -0.003927281 0.07550114 -0.058431342 0.023687325 0.025767842
0.020637507 0.074726045 -0.0022914887 0.1125058 -0.008277574 0.03882571 0.08964244 0.0108451
0.17158404 0.05852387 0.023769438 0.07480659 0.1726119 0.16757879 0.19672796 0.013236677
0.02928702 0.064070866 0.15779942 0.19084376
00000000: 6893 c6bd 4411 f63c 87d6 023e 924c cc3d
00000010: 0419 d13c be10 26bd eef8 173e 5a1b 033e
00000020: dbd9 cc3d cc3d b9bd a33f b83d 562c 2d3e
00000030: aec7 233d c7df dabd a637 d3bd 00e6 ff3d
00000040: cdb5 383e 6589 583d 40c3 f6bd 550f 08be
00000050: 6532 233e 15e7 9a3d 33bd b8bc 7ebc 42be
00000060: 0964 9abe 2b2b a5bd 24f1 603b aa05 23bd
00000070: 2c08 87bd e815 8a3d 900a 48bd bf62 74bd
00000080: 0f69 66bd 03e4 d2bd 010f cf3d 41d7 123b
00000090: 6529 8dbd b4e5 3e3c 6f2e 5fbd 39b3 af3d
000000a0: 05d2 fbbd e0e1 9bbd 14fb 0cbc 6c7c 863b
000000b0: 0d2b 3a3e eac7 dcbc 51fb f53c 2682 98bb
000000c0: e0cd f33d 8b0d 553e dc46 20bc 7dd8 20bd
000000d0: 2f0a bdbc ee3f 5ebd 00f6 16bd e6ab e6bd
000000e0: 8764 c0bd d1b9 6dbc bacd 8abd df39 afbd
000000f0: 5c07 8abd ca6f 5fbd 7777 1cbe 26f2 afbd
00000100: 92d9 67bc 34bb f9bd a5f2 09bd 0218 61bd
00000110: 9c2b f1bd 823e dfbd ceda 45bd 96ad 24bd
00000120: 7c57 88bd 0a7d 08be 4cc8 babd 6cb0 80bb
00000130: 57a0 9a3d b455 6fbd ec0b c23c 1517 d33c
00000140: fd0f a93c f809 993d cd2c 16bb 7169 e63d
00000150: a99e 07bc b507 1f3d 7596 b73d a5af 313c
00000160: bab3 2f3e bab6 6f3d 20b8 c23c 3334 993d
00000170: 2dc1 303e c699 2b3e 0e73 493e a6de 583c
00000180: 55eb ef3c 9637 833d 2c96 213e 8c6c 433e

encoder.conv1.bias f4 [4]
-0.84260386 -0.0135316895 0.5784109 -1.1681496
00000000: e3b4 57bf 05b4 5dbc bd12 143f ed85 95bf

encoder.conv2.weight f4 [8, 4, 3, 3]
-0.1647589 0.1672145 0.24353081 -0.065704405 0.06720201 0.08401965 -0.21118881 0.09369226
0.10636225 0.27864867 0.05326773 -0.096286274 0.30215436 -0.065131515 0.072676614 0.23229204
0.13472559 -0.10738321 0.1945831 -0.1251093 -0.21387506 0.11275205 -0.031585578 -0.0059780097
-0.007335116 -0.06446148 -0.17287521 0.00088577153 -0.18655197 -0.32399875 -0.17538126 -0.08255981
-0.2749143 -0.10942756 -0.08077984 -0.13315843 0.1521601 0.16794305 -0.3448881 -0.199723
-0.19233206 -0.36769548 -0.14684051 0.056470886 -0.009907058 -0.27271888 -0.36287376 -0.26124516
0.19703598 0.11894097 0.09561435 0.21369794 0.023350889 -0.05573598 0.06617817 0.08148738
0.16094537 0.45576027 0.36900526 -0.0667585 -0.26432014 -0.5631275 -0.5067507 -0.23918644
-0.24666151 -0.34329984 -0.2690492 0.006469794 0.0007713463 0.12952375 0.038877767 0.014430603
0.16411032 0.07454284 0.16921356 0.21979919 0.006199449 -0.14429156 0.13209006 0.039721377
-0.12834959 -0.0007648571 0.060903955 -0.1487364 0.026726946 -0.5663939 -0.50748557 0.07879885
-0.3172784 -0.5871911 -0.26753816 -0.05054163 0.010556597 -0.57590246 0.1484491 0.4305917
-0.27520162 0.21963596 0.34054136 0.04379064 -0.12947397 0.121867344 0.029956114 -0.008564134
-0.16399448 0.06218349 0.041198973 -0.32182863 0.04945839 0.05016649 0.04954824 0.010756605
-0.026849521 0.015054936 -0.12084349 -0.013167927 0.057126373 -0.14973402 -0.046376906 0.044334695
0.014761345 0.01083956 0.099465586 0.07622439 -0.0968351 -0.10352349 0.014722625 0.02327201
0.1145574 -0.18888792 -0.19388397 0.07286446 -0.07221106 -0.5336814 -0.048467413 -0.003952905
-0.14553946 -0.0027366474 0.010073265 0.06354992 0.05528784 0.18666247 0.22919418 -0.0044294796
-0.11614519 0.08247221 0.0119839 -0.05733107 0.22711933 0.24292155 0.122181915 0.22433902
-0.058015253 0.12807003 0.044004694 0.13813594 0.11710021 -0.10510927 -0.19678313 0.054051813
-0.06841337 -0.065076984 0.026934989 -0.06436524 -0.05358043 0.20946659 -0.44032916 -0.15735415
0.11374383 -0.023485508 0.11833311 -0.026229333 0.08062592 -0.087171294 -0.098261304 -0.010885652
-0.017391764 0.0066388114 0.10860522 -0.12914361 -0.007523403 -0.11771543 -0.013286223 -0.00519131
-0.24627423 0.13938414 -0.16620669 0.11330006 0.16051596 -0.023287151 -0.02708316 -0.08727861
-0.01254428 0.23996294 -0.098606095 -0.018090695 0.24877425 -0.17066619 0.17342985 0.2178979
-0.30534598 0.39821178 0.12975456 -0.47461852 0.3382506 -0.027723763 -0.42397082 0.06163399
-0.119208045 0.016977847 -0.09226301 -0.14284015 0.07520573 -0.10528292 -0.022567464 0.06378859
-0.060342714 -0.0727298 -0.07022207 -0.036056664 -0.06691322 -0.11801838 0.023003407 0.019187288
0.02885772 0.12794277 0.12804149 0.07030457 0.027278006 0.011394054 -0.07999862 -0.055722978
-0.07281416 -0.10763228 -0.035149004 -0.058202874 0.04663464 -0.12177108 -0.19684932 -0.22646801
0.06555618 -0.022266986 -0.15065797 -0.101336494 0.112195045 0.11745812 -0.027845398 0.17295264
0.2705827 -0.09483861 -0.12404147 0.015474074 -0.019566415 -0.004419458 -0.09139968 0.004444098
00000000: 8fb6 28be 473a 2b3e 2460 793e 0890 86bd
00000010: 35a1 893d 7f12 ac3d e141 58be bae1 bf3d
00000020: 74d4 d93d 0aab 8e3e 432f 5a3d bd31 c5bd
00000030: fab3 9a3e ac63 85bd 7ad7 943d f7dd 6d3e
00000040: 81f5 093e baeb dbbd cb40 473e a71c 00be
00000050: 1002 5bbe 8cea e63d e15f 01bd 2ee3 c3bb
00000060: 6a5b f0bb 6104 84bd 3306 31be 1f33 683a
00000070: 7b07 3fbe 2ae3 a5be 2597 33be 1e15 a9bd
00000080: 91c1 8cbe 8e1b e0bd e76f a5bd af5a 08be
00000090: dbcf 1b3e 43f9 2b3e 2c95 b0be 3084 4cbe
000000a0: b2f2 44be 9542 bcbe 5c5d 16be 044e 673d
000000b0: 3751 22bc cfa1 8bbe 97ca b9be edc1 85be
000000c0: cdc3 493e 5397 f33d 75d1 c33d a2d3 5a3e
000000d0: 5d4a bf3c 694b 64bd 6c88 873d dbe2 a63d
000000e0: ddce 243e 6959 e93e 42ee bc3e aeb8 88bd
000000f0: f854 87be 2029 10bf 6aba 01bf 4aed 74be
00000100: d694 7cbe ffc4 afbe d1c0 89be 9100 d43b
00000110: 2d34 4a3a e0a1 043e 4b3e 1f3d 566e 6c3c
00000120: 890c 283e eba9 983d 5246 2d3e 0a13 613e
00000130: bf24 cb3b 2bc1 13be 9e42 073e e2b2 223d
00000140: 136e 03be b180 48ba 6d76 793d 5b4e 18be
00000150: 78f2 da3c 31ff 10bf 93ea 01bf 4b61 a13d
00000160: 5072 a2be 2852 16bf c3fa 88be bd04 4fbd
00000170: 94f5 2c3c 586e 13bf 0a03 183e 8476 dc3e
00000180: 3ae7 8cbe 40e8 603e 705b ae3e d05d 333d
00000190: d394 04be 9695 f93d 8666 f53c 9550 0cbc
000001a0: 2bee 27be 1db4 7e3d 41c0 283d b9c6 a4be
000001b0: e194 4a3d 617b 4d3d 18f3 4a3d 793c 303c
000001c0: 87f3 dbbc faa8 763c cb7c f7bd 4abe 57bc
000001d0: 58fd 693d e053 19be b6f5 3dbd 4c98 353d
000001e0: 92d9 713c 6998 313c 9db4 cb3d 881b 9c3d
000001f0: 7b51 c6bd 2004 d4bd 2a37 713c f1a4 be3c
00000200: 129d ea3d d66b 41be 8589 46be f639 953d
00000210: 64e3 93bd 589f 08bf c485 46bd 5f87 81bb
00000220: 4c08 15be 5359 33bb 560a 253c 7626 823d
00000230: 8175 623d 7224 3f3e e1b1 6a3e 2b25 91bb
00000240: 88dd edbd 31e7 a83d 1f58 443c fcd3 6abd
00000250: f891 683e 6dc0 783e 833a fa3d 21b9 653e
00000260: 67a1 6dbd ca24 033e 443e 343d 8273 0d3e
00000270: 3cd2 ef3d 8743 d7bd 8481 49be 6f65 5d3d
00000280: 4f1c 8cbd 1547 85bd c4a6 dc3c ecd1 83bd
00000290: 2777 5bbd 697e 563e d372 e1be 7221 21be
000002a0: 86f2 e83d ae64 c0bc a158 f23d e6de d6bc
000002b0: 341f a53d dd86 b2bd 393d c9bd bc59 32bc
000002c0: 2c79 8ebc 638a d93b 6a6c de3d 393e 04be
000002d0: e186 f6bb ca14 f1bd 75ae 59bc dd1b aabb
000002e0: 502f 7cbe b7ba 0e3e 1632 2abe dd09 e83d
000002f0: 4c5e 243e b2c4 bebc 81dd ddbc 21bf b2bd
00000300: 8686 4dbc d8b8 753e fef1 c9bd f032 94bc
00000310: adbe 7e3e 1ec3 2ebe 9897 313e a120 5f3e
00000320: 4f56 9cbe 6ae2 cb3e 61de 043e 3301 f3be
00000330: 2f2f ad3e f21c e3bc b412 d9be ec73 7c3d
00000340: 5923 f4bd 2015 8b3c 64f4 bcbd b044 12be
00000350: 7605 9a3d 929e d7bd 67df b8bc 98a3 823d
00000360: ec29 77bd 5df3 94bd 97d0 8fbd 27b0 13bd
00000370: cc09 89bd 9fb3 f1bd a471 bc3c a92e 9d3c
00000380: 0667 ec3c 6e03 033e 4f1d 033e d8fb 8f3d
00000390: 2076 df3c 20ae 3a3c 51d6 a3bd c73d 64bd
000003a0: 971f 95bd 506e dcbd 67f8 0fbd 2366 6ebd
000003b0: f703 3f3d 1e63 f9bd de92 49be 3be7 67be
000003c0: 5242 863d 4169 b6bc 1546 1abe 8289 cfbd
000003d0: 84c6 e53d e28d f03d 081c e4bc 7f1a 313e
000003e0: d189 8a3e bf3a c2bd 7409 febd f886 7d3c
000003f0: bf49 a0bc 1ad1 90bb c12f bbbd cc9f 913b

encoder.conv2.bias f4 [8]
-0.018270828 0.3320073 0.0006657517 0.69267946 0.33126673 -0.03204464 0.88910586 -0.2605518
00000000: b4ac 95bc dcfc a93e d785 2e3a 7153 313f
00000010: cb9b a93e 3e41 03bd 719c 633f 0c67 85be

encoder.linear.weight f4 [10, 200]
-0.0024011764 -0.013264857 0.02353647 -0.037209053 -0.0701243 -0.0340789 -0.033655327 -0.011428441
-0.021410884 -0.09052054 -0.010479229 -0.09338103 -0.047007207 0.029597893 0.06992254 0.10976386
0.008857214 -0.17070358 0.07533708 0.015420124 -0.018369328 0.039603077 -0.09028092 -0.046050273
0.15420473 0.08133755 0.08751298 0.06496196 -0.0057160244 0.07044182 0.22627312 0.23461358
0.12583409 0.01987967 0.064298615 0.09059894 -0.084299766 0.22808734 -0.2857257 -0.093629934
-0.0042747897 -0.13970833 0.31935596 -0.22480859 -0.44663388 0.098823115 0.2048327 0.051267993
-0.23468311 0.014423646 0.04097449 -0.10914365 -0.23094577 0.06864427 0.13742284 0.025085382
-0.11998573 -0.10076278 0.14754388 0.24377947 -0.07714212 -0.0011706594 -0.1707322 0.46050662
-0.13153102 -0.0053243577 0.036417555 -0.029721176 -0.29462028 0.02930666 -0.044396926 -0.05235895
0.04921222 0.44897324 0.017516896 -0.016379945 -0.06921286 -0.10576319 0.036613338 0.10091878
-0.07731193 -0.006606338 -0.12962548 0.14542413 -0.56745183 0.27589595 0.1653282 0.17871112
0.27867457 -0.18063037 0.023097184 -0.2851544 -0.4472013 -0.0074927094 0.10200016 0.22376397
0.16920517 -0.09650967 -0.09822381 -0.089205295 -0.060264125 -0.09595556 -0.13303488 0.12606011
0.06733086 0.014337664 -0.0007713539 -0.017110484 0.32670724 0.004884624 0.30822465 0.17212239
0.055399753 0.32502377 -0.36384577 0.32221875 -0.12693182 -0.5279586 0.2184855 0.1389035
0.19141303 -0.08465203 0.24475123 0.041663665 -0.082901694 0.00029919067 -0.032158285 -0.021671431
0.011722139 0.25189942 0.0124935005 0.075906694 0.118608266 -0.018937692 -0.30270296 0.046529427
-0.037609607 -0.020452479 0.009212993 -0.91965324 -0.12100981 -0.33687496 -0.06939545 0.3866895
-0.2204766 0.03197923 0.104434215 0.1789264 0.022974094 0.042722818 -0.09353697 -0.06962978
0.004515522 0.13657913 0.16648348 -0.15594693 -0.07306956 -0.083523124 -0.0077935937 -0.4797767
0.19074634 0.18605393 0.49735603 0.20659901 -0.6892675 -0.06478488 -0.5206653 -0.32102892
0.105283685 -0.22973287 0.17249483 0.033281446 0.20995626 0.028970173 0.017808085 -0.121277496
-0.063569725 0.07535343 0.07241341 0.09888382 -0.12714143 0.0943989 0.16572924 0.08046788
0.23193601 0.04986478 -0.04342743 0.035661563 -0.13123573 0.12454545 -0.047674175 -0.31422308
-0.039095987 0.11059486 -0.041778516 -0.11989679 0.013224141 0.21707037 -0.09398336 0.016774766
0.04668879 0.062415157 -0.03391037 -0.016947506 0.0917615 -0.007973497 -0.029365188 0.11742944
-0.016605828 -0.014460824 -0.003160448 0.032127965 0.13976967 0.04881914 -0.014694996 0.04498732
0.13947174 0.035526283 -0.039250076 -0.020121276 0.066184774 0.07465613 -0.061176058 -0.0033648664
-0.008815784 -0.053713445 0.057154182 0.059554264 0.14321113 -0.041133136 0.041135073 -0.06403414
-0.024991179 -0.16925123 -0.11943913 0.007906155 -0.010523149 0.06378997 -0.1302583 0.05802356
0.14016753 0.049266763 0.11077734 0.052979197 0.20751202 0.10026281 0.1992875 -0.24587213
-0.12942526 0.0155352615 0.0395756 0.01861979 0.20514001 -0.20264223 0.120778754 -0.05095131
00000000: 0e5d 1dbb d854 59bc 8ecf c03c 8568 18bd
00000010: 549d 8fbd 5196 0bbd 2bda 09bd 5b3e 3bbc
00000020: e165 afbc d562 b9bd 12b1 2bbc 8e3e bfbd
00000030: a18a 40bd 4877 f23c 8c33 8f3d e0cb e03d
00000040: d91d 113c ebcc 2ebe 544a 9a3d b0a4 7c3c
00000050: 467b 96bc d636 223d 34e5 b8bd 369f 3cbd
00000060: d8e7 1d3e 4d94 a63d 013a b33d c70a 853d
00000070: 7d4d bbbb cd43 903d 24b4 673e 8b3e 703e
00000080: a7da 003e b1da a23c feae 833d f08b b93d
00000090: 5ba5 acbd ba8f 693e a44a 92be 0dc1 bfbd
000000a0: 8913 8cbb b30f 0fbe a082 a33e 3934 66be
000000b0: 32ad e4be c663 ca3d aabf 513e 63fe 513d
000000c0: c550 70be 2851 6c3c ded4 273d b586 dfbd
000000d0: 0c7d 6cbe 5e95 8c3d 93b8 0c3e dc7f cd3c
000000e0: 14bb f5bd b75c cebd be15 173e 53a1 793e
000000f0: b0fc 9dbd d070 99ba 6cd4 2ebe 86c7 eb3e
00000100: 11b0 06be f377 aebb 932a 153d d379 f3bc
00000110: 78d8 96be 8514 f03c 8dd9 35bd 5776 56bd
00000120: c192 493d d2df e53e 987f 8f3c 3c2f 86bc
00000130: 79bf 8dbd 5f9a d8bd def7 153d 81ae ce3d
00000140: b855 9ebd fb79 d8bb 8bbc 04be 10ea 143e
00000150: 8644 11bf 3c42 8d3e cc4b 293e 0c00 373e
00000160: 6fae 8e3e 2bf7 38be 4e36 bd3c c2ff 91be
00000170: 92f7 e4be 6785 f5bb 76e5 d03d 6222 653e
00000180: 1f44 2d3e dda6 c5bd 9129 c9bd 44b1 b6bd
00000190: 84d7 76bd 5984 c4bd 4c3a 08be e715 013e
000001a0: c3e4 893d 85e8 6a3c af34 4aba 492b 8cbc
000001b0: 2c46 a73e 320f a03b 9fcf 9d3e da40 303e
000001c0: daea 623d 8469 a63e fe49 babe dbf9 a43e
000001d0: 6afa 01be 4b28 07bf aaba 5f3e b83c 0e3e
000001e0: c701 443e 0b5e adbd 11a0 7a3e 85a7 2a3d
000001f0: 5dc8 a9bd b1dc 9c39 68b8 03bd 4988 b1bc
00000200: 370e 403c f6f8 803e 8ab1 4c3c f874 9b3d
00000210: e4e8 f23d 3823 9bbc e2fb 9abe a495 3e3d
00000220: 880c 1abd f58b a7bc 18f2 163c 656e 6bbf
00000230: fed3 f7bd e07a acbe 341f 8ebd 2bfc c53e
00000240: 9ec4 61be a7fc 023d 9be1 d53d 7b38 373e
00000250: 2b34 bc3c 1ffe 2e3d 5090 bfbd 0f9a 8ebd
00000260: f2f6 933b 66db 0b3e a57a 2a3e 8db0 1fbe
00000270: 7ea5 95bd 2c0e abbd 6761 ffbb 4ba5 f5be
00000280: 0253 433e ec84 3e3e 73a5 fe3e b18e 533e
00000290: d673 30bf efad 84bd 524a 05bf e75d a4be
000002a0: f99e d73d 183f 6bbe 7ca2 303e 2052 083d
000002b0: c6fe 563e db52 ed3c 43e2 913c 5660 f8bd
000002c0: d830 82bd e652 9a3d 7b4d 943d 9a83 ca3d
000002d0: 5d31 02be 3654 c13d edb4 293e 58cc a43d
000002e0: a280 6d3e 033f 4c3d f6e0 31bd dc11 123d
000002f0: a962 06be af11 ff3d ff45 43bd d9e1 a0be
00000300: 1d23 20bd 8f7f e23d f31f 2bbd 738c f5bd
00000310: 11aa 583c b247 5e3e 597a c0bd 3c6b 893c
00000320: bf3c 3f3d 09a7 7f3d 9ae5 0abd 7fd5 8abc
00000330: 74ed bb3d 45a3 02bc 438f f0bc d97e f03d
00000340: f208 88bc 18ed 6cbc 851f 4fbb 9d98 033d
00000350: c81f 0f3e 94f6 473d 48c3 70bc a044 383d
00000360: aed1 0e3e 0284 113d b0c4 20bd 60d5 a4bc
00000370: e28b 873d 50e5 983d bf93 7abd 1785 5cbb
00000380: 1470 10bc a102 5cbd 811a 6a3d 2cef 733d
00000390: f0a5 123e 387b 28bd 407d 283d 5524 83bd
000003a0: 4dba ccbc 3250 2dbe 819c f4bd d188 013c
000003b0: 4969 2cbc 51a4 823d 6f62 05be 1daa 6d3d
000003c0: 1488 0f3e f2cb 493d 3bdf e23d b700 593d
000003d0: 087e 543e 9756 cd3d 0612 4c3e e7c5 7bbe
000003e0: 0e88 04be 9c87 7e3c 061a 223d 8888 983c
000003f0: 3910 523e 7281 4fbe da5a f73d 52b2 50bd

encoder.linear.bias f4 [10]
0.0060648015 -0.22787455 -0.28339815 0.052292142 0.16108818 -0.12448359 -0.6437834 0.011804586
0.148184 0.08750908
00000000: 3ebb c63b f257 69be 9019 91be 4930 563d
00000010: 4df4 243e 41f1 febd fdce 24bf 0668 413c
00000020: 8cbd 173e f637 b33d

decoder.linear_t.weight f4 [200, 10]
0.20221442 0.01904633 -0.17265117 -0.0067403074 -0.19563033 0.047217093 -0.30976838 0.16023356
-0.04069584 0.1497284 0.27251223 0.03824859 0.19913493 -0.21664831 0.11226309 -0.06768921
0.27343222 0.07531737 -0.14892027 -0.013934936 -0.13956718 0.059575666 -0.07692826 0.38340542
0.0282654 -0.27777377 -0.1101588 -0.056127284 -0.12869105 -0.05658498 0.065548874 0.24211879
-0.4452822 0.053512573 -0.01820291 0.8673343 0.45162326 -0.029149638 0.5802129 0.045953266
0.38153204 0.45728597 -0.048465025 -0.011228009 -0.6991075 0.42738554 0.5485138 -0.123404786
0.13734941 0.31088877 -0.08001584 -0.35394257 -0.10322114 -0.32583308 0.28013557 -0.33778927
-0.010210866 -0.08878208 0.42851427 0.11575178 -0.021470323 0.06752287 -0.0015401392 0.16586338
-0.27956638 -0.034070376 -0.29856288 0.23713128 -0.012185462 -0.1286927 0.055861108 -0.455492
0.4125528 -0.031112408 -0.0027211006 -0.28668496 -0.089873 0.1194075 0.2252396 0.30446032
-0.03558952 -0.2912528 0.20741244 0.03238402 -0.14676324 0.20666741 0.23553638 -0.00032741425
0.5838487 0.18407036 0.074104704 -0.55030215 0.45781645 -0.2588466 -0.18647411 -0.27229214
-0.09983079 0.0616744 0.16309312 0.41237608 0.17263956 -0.10250224 0.25312385 -0.07985291
-0.06141382 -0.14688241 0.048516028 -0.075196534 -0.10157923 0.030782262 -0.5737067 0.09227346
-0.32093024 0.11880977 0.11328118 -0.26682854 0.06415898 -0.20286874 -0.10245121 -0.037064943
-0.100395955 0.008923301 0.11271809 0.017827395 0.17831713 0.4787707 -0.00668988 0.22319788
0.0571804 0.41522416 -0.0894382 0.08876904 -0.32223952 0.17073387 0.1816294 -0.06683417
0.46351823 -0.0028263985 0.51243085 0.55578196 -0.32584777 -0.04841628 0.053644486 0.44256544
0.53804463 0.41475067 0.21557774 0.24874102 0.15837865 -0.13476805 0.22604732 -0.1792982
0.29258615 0.18004398 -0.11928068 0.0075022965 0.14762953 -0.22211559 -0.083320685 -0.049630668
-0.03418752 -0.14704414 -0.08292625 0.04914804 -0.094499335 0.22647032 -0.11223163 -0.2532608
0.11830458 0.3473178 -0.09419246 0.49488246 0.30372563 -0.08430316 -0.04439662 0.15004446
-0.18814923 -0.044175323 0.08081799 0.026515743 -0.011150444 0.06586872 0.36238158 0.18800554
0.46344227 0.3362042 0.2175322 0.37082636 -0.028193941 -0.34420866 0.13364126 0.009841227
-0.0059480267 0.0017822692 0.065039545 0.5855166 -0.2748958 -0.20877759 0.11784045 -0.08602669
0.1646527 -0.16858804 -0.105459146 -0.078484066 0.009913512 -0.36087558 -0.101309605 -0.2489292
-0.14432912 -0.11129456 -0.072343424 -0.09195268 -0.030701037 -0.12832448 0.020070685 -0.22431353
0.021111626 -0.25452548 -0.19752154 0.0072475644 0.27921018 0.13722275 0.37457877 0.1536467
0.059340484 -0.55337006 0.24020554 0.060394444 -0.2901261 0.32588002 0.16751058 -0.037432373
-0.28349808 -0.23009187 -0.1850745 0.6204998 -0.111035414 0.33887094 -0.13829428 -0.1380663
-0.19352019 -0.0301521 -0.16229263 -0.09065031 -0.35770977 0.17592756 -0.9976046 -0.27285108
0.2318208 0.17786811 0.057422098 -0.050175995 -0.2639207 0.31571856 -0.18280177 0.36664233
00000000: 4c11 4f3e 0d07 9c3c 78cb 30be ccdd dcbb
00000010: 5153 48be b666 413d f699 9ebe 4414 243e
00000020: aeb0 26bd 6752 193e b986 8b3e 8eaa 1c3d
00000030: 07ea 4b3e 0ed9 5dbe 31ea e53d a4a0 8abd
00000040: 4fff 8b3e fe3f 9a3d 8e7e 18be 5c4f 64bc
00000050: b3ea 0ebe 9d05 743d 908c 9dbd b74d c43e
00000060: d78c e73c 5d38 8ebe f09a e1bd b9e5 65bd
00000070: 96c7 03be a7c5 67bd 7d3e 863d fded 773e
00000080: 07fc e3be 0030 5b3d 451e 95bc 9f09 5e3f
00000090: 2a3b e73e 39cb eebc d588 143f 7e39 3c3d
000000a0: 2b58 c33e 6321 ea3e 4383 46bd aff5 37bc
000000b0: b6f8 32bf 47d2 da3e 676b 0c3f a6bb fcbd
000000c0: 53a5 0c3e d02c 9f3e 58df a3bd f637 b5be
000000d0: 9b65 d3bd 98d3 a6be ee6d 8f3e b7f2 acbe
000000e0: 7a4b 27bc 61d3 b5bd 3966 db3e 450f ed3d
000000f0: 88e2 afbc 6e49 8a3d 7fde c9ba 17d8 293e
00000100: 5323 8fbe 618d 0bbd 3cdd 98be 8bd2 723e
00000110: 88a5 47bc 05c8 03be 9ece 643d 3f36 e9be
00000120: 1f3a d33e 73df febc 7e54 32bb 5fc8 92be
00000130: 560f b8bd eb8b f43d 36a5 663e 39e2 9b3e
00000140: 51c6 11bd 161f 95be ed63 543e 1ba5 043d
00000150: 1a49 16be 9fa0 533e 7330 713e cca8 abb9
00000160: 1c77 153f f17c 3c3e 35c4 973d 9ae0 0cbf
00000170: eb66 ea3e 8b87 84be 12f3 3ebe e069 8bbe
00000180: 1674 ccbd 4c9e 7c3d e201 273e f522 d33e
00000190: 6dc8 303e b2ec d1bd 7399 813e ec89 a3bd
000001a0: 0f8d 7bbd 5868 16be beb8 463d a400 9abd
000001b0: c508 d0bd 152b fc3c 71de 12bf def9 bc3d
000001c0: f850 a4be 8952 f33d f7ff e73d c09d 88be
000001d0: c965 833d d3bc 4fbe f1d1 d1bd 69d1 17bd
000001e0: 659c cdbd 0933 123c bed8 e63d c20a 923c
000001f0: c498 363e 6f21 f53e c836 dbbb fc8d 643e
00000200: ff35 6a3d 4398 d43e 602b b7bd 8bcc b53d
00000210: 94fc a4be dcd4 2e3e 0ffd 393e 5ae0 88bd
00000220: 4352 ed3e 193b 39bb ab2e 033f ba47 0e3f
00000230: 85d5 a6be 2650 46bd 52ba 5b3d f097 e23e
00000240: 4bbd 093f 335a d43e 69c0 5c3e f7b5 7e3e
00000250: 032e 223e a300 0abe f378 673e f399 37be
00000260: dacd 953e 735d 383e 6e49 f4bd d3d5 f53b
00000270: 322c 173e 4572 63be 09a4 aabd 8749 4bbd
00000280: 3708 0cbd bd92 16be 3dd5 a9bd 754f 493d
00000290: de88 c1bd d6e7 673e b2d9 e5bd 66ab 81be
000002a0: ac49 f23d a4d3 b13e fae7 c0bd 3c61 fd3e
000002b0: ed81 9b3e 23a7 acbd 3bd9 35bd 41a5 193e
000002c0: 31aa 40be 2ff1 34bd e783 a53d 8b37 d93c
000002d0: 5ab0 36bc 2ee6 863d 148a b93e 8684 403e
000002e0: 4e48 ed3e f522 ac3e c3c0 5e3e f4dc bd3e
000002f0: fbf6 e6bc 1e3c b0be 41d9 083e 193d 213c
00000300: aae7 c2bb 089b e93a 7433 853d 6ae4 153f
00000310: 24bf 8cbe cbc9 55be 5556 f13d c32e b0bd
00000320: b89a 283e 58a2 2cbe f7fa d7bd 41bc a0bd
00000330: 486c 223c afc4 b8be 697b cfbd 4ce7 7ebe
00000340: 03cb 13be 67ee e3bd ca28 94bd b051 bcbd
00000350: be80 fbbc 7e67 03be 476b a43c 72b2 65be
00000360: 4af2 ac3c 2a51 82be 1643 4abe fa7c ed3b
00000370: a3f4 8e3e 1f84 0c3e cac8 bf3e 8f55 1d3e
00000380: 020f 733d a9a9 0dbf 71f8 753e 2a60 773d
00000390: 688b 94be bfd9 a63e e587 2b3e b052 19bd
000003a0: a926 91be 349d 6bbe 2b84 3dbe 13d9 1e3f
000003b0: 8966 e3bd 7e80 ad3e 049d 0dbe 4161 0dbe
000003c0: 282a 46be 8901 f7bc 0a30 26be dfa6 b9bd
000003d0: bc25 b7be 5b26 343e 0463 7fbf 23b3 8bbe
000003e0: 6f62 6d3e 0f23 363e 6f33 6b3d 5885 4dbd
000003f0: 9d20 87be dda5 a13e 6330 3bbe 8bb8 bb3e

decoder.linear_t.bias f4 [200]
-0.33738112 -0.15797248 -0.17545295 -0.15562898 -0.3222451 0.19227064 -0.20800151 -0.07484134
0.4607306 -0.027488565 -0.08823023 0.1354634 -0.55229867 -0.09119117 -0.6192452 -0.20947064
0.2627423 -0.013122873 0.23028919 -0.32885697 -0.07119243 -0.18354437 -0.33332714 1.0505172
0.098896906 0.21895301 -0.17493422 0.11106403 -0.48228773 0.17946103 0.35010037 0.01653213
0.13698728 -0.48133755 -0.15007599 0.5876204 -0.07439309 0.019335333 -0.17322011 0.7999844
-0.03553616 0.23381396 -0.05490053 -0.24771036 0.37213835 0.14481135 -0.12358807 -0.35821086
-0.7094173 0.7297351 -0.20148513 -0.07951505 -0.1892147 0.24604896 -0.25361827 0.31462917
0.06769919 0.18807067 0.114273116 -0.106618345 0.36609828 0.07881421 -0.094941445 -0.32699737
0.19577691 0.56147504 -0.07481886 -0.04510431 -0.16380383 -0.49767786 0.2884486 0.21668223
-0.23969385 0.10290973 -0.09442903 -0.3005191 0.28092042 0.5720069 0.8252135 0.3591671
-0.2112183 0.06904119 0.248879 -0.08971361 0.02104478 -0.30684623 -0.056417897 0.35552374
0.43608835 -0.3957805 0.07194822 -0.26199615 -0.014587136 0.041694958 -0.016496437 0.07969313
-0.19405532 0.07890433 -0.2934992 -0.2579485 -0.30145067 0.18724413 -0.009787932 0.12693356
-0.012043947 -0.030630702 0.32236356 -0.04338455 0.29405344 -0.0024659757 -0.2234746 -0.2448387
0.3036838 0.5107328 0.3397931 -0.19693612 0.12708125 0.27858388 0.03536938 0.23475398
0.1789114 -0.48391142 -0.595939 0.08001493 -0.15014201 -0.30446675 0.13159858 0.41717762
-0.1429485 -0.32012278 0.19807196 0.39109322 -0.40189922 0.36298132 0.0026351968 -0.3529296
-0.034110248 0.47026065 0.5778454 -0.10806101 0.15622841 -0.12130328 0.47464004 0.85559714
-0.17993353 -0.074626 0.22905083 -0.23399386 0.1688736 -0.23121567 -0.14044361 0.013399795
-0.22433941 0.017217048 0.23017128 -0.35387698 0.17502995 0.11193306 -0.22989629 0.52434623
-0.12796497 -0.06022952 0.08959156 -0.2519258 -0.249674 0.08341693 -0.17312074 -0.22605908
0.07316413 0.24354984 0.009572961 0.47634238 0.4601284 -0.30997398 0.2974165 -0.14705496
0.09104278 -0.22884414 0.024617916 -0.1516434 0.049378995 0.15611053 -0.17977639 0.31723237
-0.16180125 -0.3572229 0.7869489 -0.25847632 0.3235671 0.046898536 -0.15609023 0.39661288
0.31987447 0.7318565 -0.13742355 -0.104011744 0.73197937 0.26737478 0.45491555 -0.27449206
00000000: 38bd acbe 8ac3 21be f0a9 33be 345d 1fbe
00000010: 4ffd a4be 98e2 443e 59fe 54be 6b46 99bd
00000020: e2e4 eb3e b32f e1bc 0db2 b4bd ebb6 0a3e
00000030: 7263 0dbf 70c2 babd da86 1ebf 797f 56be
00000040: 2986 863e 5201 57bc eed0 6b3e f15f a8be
00000050: 56cd 91bd 0ef3 3bbe dba9 aabe 5977 863f
00000060: 768a ca3d 3835 603e f521 33be 8a75 e33d
00000070: 6bee f6be a2c4 373e 5b40 b33e 646e 873c
00000080: 6546 0c3e e071 f6be 85ad 19be 4a6e 163f
00000090: 685b 98bd 2265 9e3c 9d60 31be c7cb 4c3f
000000a0: 5d8e 11bd ed6c 6f3e 61df 60bd c9a7 7dbe
000000b0: eb88 be3e 6d49 143e be1b fdbd 6a67 b7be
000000c0: 5f9c 35bf ebcf 3a3f 1e52 4ebe c9d8 a2bd
000000d0: 80c1 41be 42f4 7b3e 41da 81be 1317 a13e
000000e0: dfa5 8a3d 9995 403e 0608 ea3d b85a dabd
000000f0: 3c71 bb3e 5869 a13d a970 c2bd 336c a7be
00000100: be79 483e d4bc 0f3f a13a 99bd 4cbf 38bd
00000110: 31bc 27be a2cf febe 89af 933e f2e1 5d3e
00000120: 4e72 75be 56c2 d23d 0264 c1bd a4dd 99be
00000130: cdd4 8f3e 0b6f 123f 3141 533f c0e4 b73e
00000140: 9c49 58be 7865 8d3d 23da 7e3e c5bb b7bd
00000150: 1a66 ac3c f31a 9dbe 7416 67bd 3507 b63e
00000160: f946 df3e bea3 cabe 9759 933d 5c24 86be
00000170: e2fe 6ebc 55c8 2a3d 8923 87bc 2736 a33d
00000180: 70b6 46be 9898 a13d 8745 96be d311 84be
00000190: be57 9abe edbc 3f3e 905d 20bc dffa 013e
000001a0: fa53 45bc 3ded fabc d60c a53e ffb3 31bd
000001b0: 2c8e 963e 359c 21bb 87d6 64be ffb6 7abe
000001c0: 717c 9b3e 63bf 023f 5cf9 ad3e 9fa9 49be
000001d0: 9621 023e 8ca2 8e3e 7cdf 103d 5963 703e
000001e0: 8d34 373e 3dc3 f7be 758f 18bf dede a33d
000001f0: d4be 19be 11e3 9bbe c7c1 063e 4e98 d53e
00000200: 1761 12be 22e7 a3be 60d3 4a3e 5f3d c83e
00000210: bcc5 cdbe b0d8 b93e 44b3 2c3b 30b3 b4be
00000220: 30b7 0bbd 01c6 f03e aded 133f 174f ddbd
00000230: 57fa 1f3e db6d f8bd 0504 f33e 6a08 5b3f
00000240: 7f40 38be 84d5 98bd 4d8c 6a3e 169c 6fbe
00000250: 33ed 2c3e cdc3 6cbe 73d0 0fbe d08a 5b3c
00000260: 3bb9 65be c40a 8d3c 05b2 6b3e 5d2f b5be
00000270: 0d3b 333e 293d e53d ef69 6bbe 8e3b 063f
00000280: 4009 03be 3bb3 76bd c87b b73d 6bfc 80be
00000290: 8baa 7fbe 7fd6 aa3d 9046 31be 087c 67be
000002a0: 13d7 953d 2165 793e e9d7 1c3c 26e3 f33e
000002b0: f395 eb3e e9b4 9ebe fa46 983e 9395 16be
000002c0: a374 ba3d 1e56 6abe 83ab c93c 6848 1bbe
000002d0: a141 4a3d 70db 1f3e 4d17 38be 486c a23e
000002e0: 3aaf 25be ece5 b6be 7c75 493f 0257 84be
000002f0: 96aa a53e ae18 403d 1ed6 1fbe d810 cb3e
00000300: 96c6 a33e f35a 3b3f c2b8 0cbe 1c04 d5bd
00000310: 0063 3b3f 59e5 883e b1ea e83e 398a 8cbe

decoder.conv2_t.weight f4 [8, 4, 3, 3]
0.36102536 -0.011634106 0.36329773 0.19387317 0.09488385 0.23132206 -0.28124028 0.026105465
-0.045372885 -0.090574436 0.17406726 0.15613657 0.331174 0.065720186 -0.122940116 -0.32182845
0.20382059 -0.009343773 0.33192566 0.6927691 0.22521433 0.6272111 0.7966338 0.123977296
0.021233233 0.20947339 0.0025819456 0.480529 0.5862805 0.023655113 0.52038574 0.49013868
-0.15328285 0.08391915 -0.13718441 -0.19957224 -0.07099135 -0.24386829 -0.36985964 -0.29560888
-0.4737568 -0.37634543 0.06326423 -0.12192047 -0.553607 0.19917475 -0.11240155 -0.6020442
-0.71296877 -0.31223115 0.07253515 0.035392266 -0.3690039 -0.8573516 0.017500784 -0.4636628
-0.4710643 -0.45443174 -0.95188195 -0.80053926 -0.284524 -0.65019506 -0.61879826 -0.20339097
-0.60575646 -0.38413766 -0.6489053 -0.448886 -0.5361869 -0.6520335 -0.5087422 -0.38502744
-0.1664692 -0.31463233 -0.060077682 -0.42196634 -0.18390322 -0.506695 -0.74549043 -0.18600231
0.052075446 -0.4641482 -0.7583215 -0.07189386 -0.21971606 -0.31659392 0.031292103 -0.8515709
-1.0572243 -0.2225302 -0.36232802 -0.22269136 0.05077938 -1.1536627 -0.5180695 0.2790449
-1.0369824 -0.4802387 0.24968897 -0.6733477 0.033659726 0.16069053 -1.0091927 -0.4238376
0.33742675 -0.8566828 -0.038682017 0.4467566 -0.2885709 -0.5405941 -0.5245543 -0.03780726
0.048939284 0.1336035 0.5649283 -0.043674584 0.3810784 -0.09728429 -0.55490583 -0.61795837
-0.21548136 0.09636659 0.15942591 0.07129314 -0.17654337 0.24597147 -0.45526418 -1.141369
-0.37793517 -0.610004 -0.53938216 0.19427274 0.28461805 0.30419514 0.2971607 -0.50044787
-0.77833694 0.023243872 -0.41625196 -0.6240849 0.47147462 0.31848338 0.45454013 0.3511427
-0.2541451 -0.23150484 -0.27664685 0.06627819 0.17758837 -0.15194044 0.19468422 0.22665364
0.08574771 -0.44128042 -0.7664478 -0.37578866 0.07200689 0.21847539 0.09995443 -0.32410726
-0.34400463 0.31607422 -0.38779405 -0.47222394 0.2220189 -0.60184705 -0.16186155 0.63665617
-0.07432656 0.4406082 0.53603905 -0.35656962 0.0048570177 0.43939573 -0.34308076 -0.29163122
0.61272734 0.056359794 0.6417733 0.4996511 -0.23270413 0.1658353 0.07469757 -0.021571027
0.3041311 0.12798864 0.3633099 0.18841618 0.65323246 -0.07158551 0.09366331 0.12248618
0.3516916 0.27243274 -0.05384976 -0.08920635 0.24152517 0.47523063 -0.12615366 0.0464739
0.13811404 0.2863845 0.50378543 0.45645037 0.34976086 0.6656951 0.5977618 -0.046693265
0.01997826 -0.05676762 0.43140537 0.279388 0.23575477 0.48313093 0.49062118 0.40466696
0.05578134 0.21212539 0.1193925 -0.22854559 0.02457424 0.060650297 -0.6267938 -0.08521747
-0.9988182 0.30867007 0.22103657 0.041948993 0.078887716 -0.03908745 -0.022088325 0.11789256
0.13842191 -0.1879332 0.5628875 0.48902443 0.09628187 0.6479251 0.44200435 -0.023694903
0.11309079 -0.025096228 -0.31956166 0.6492354 0.3104171 -0.058611892 0.47259158 0.31939602
-0.2727585 -0.12147086 -0.3825814 -0.64178944 0.09469223 0.322755 -0.3637624 0.027459577
00000000: 51d8 b83e fa9c 3ebc 2902 ba3e b086 463e
00000010: 7752 c23d b1df 6c3e bafe 8fbe 21db d53c
00000020: ebd8 39bd 177f b9bd b03e 323e 44e2 1f3e
00000030: a38f a93e 4e98 863d 07c8 fbbd b3c6 a4be
00000040: 58b6 503e a016 19bc 29f2 a93e 5159 313f
00000050: 969e 663e e890 203f 31f0 4b3f cfe7 fd3d
00000060: 51f1 ad3c 3180 563e dc35 293b e607 f63e
00000070: 7b16 163f 5ec8 c13c 0038 053f 75f3 fa3e
00000080: 2ef6 1cbe cedd ab3d 127a 0cbe aa5c 4cbe
00000090: ea63 91bd 9cb8 79be 3e5e bdbe 0c5a 97be
000000a0: 4090 f2be 59b0 c0be ad90 813d 70b1 f9bd
000000b0: 30b9 0dbf 77f4 4b3e c932 e6bd 921f 1abf
000000c0: 1f85 36bf c3dc 9fbe 4f8d 943d 7bf7 103d
000000d0: 14ee bcbe 657b 5bbf ce5d 8f3c 3665 edbe
000000e0: 572f f1be 47ab e8be 89ae 73bf 24f0 4cbf
000000f0: 21ad 91be 2f73 26bf 9069 1ebf b945 50be
00000100: db12 1bbf b1ad c4be a81e 26bf 63d4 e5be
00000110: 8b43 09bf abeb 26bf ee3c 02bf 5122 c5be
00000120: e776 2abe 7d17 a1be 0414 76bd f90b d8be
00000130: 2051 3cbe c3b6 01bf 76d8 3ebf 6477 3ebe
00000140: 104d 553d d5a4 edbe 5c21 42bf 173d 93bd
00000150: 3ffd 60be 9918 a2be 262c 003d 8d00 5abf
00000160: 2053 87bf f5de 63be 0f83 b9be 3409 64be
00000170: 0afe 4f3d 38ab 93bf 34a0 04bf f9de 8e3e
00000180: d7bb 84bf d9e1 f5be 77ae 7f3e 8460 2cbf
00000190: c8de 093d 0f8c 243e 3a2d 81bf 3e01 d9be
000001a0: 33c3 ac3e 904f 5bbf 0971 1ebd 48bd e43e
000001b0: 91bf 93be 6064 0abf 3149 06bf c9db 1abd
000001c0: 8f74 483d 5bcf 083e 249f 103f 1fe4 32bd
000001d0: b51c c33e fc3c c7bd 4f0e 0ebf 8532 1ebf
000001e0: 25a7 5cbe d95b c53d 8c40 233e 2302 923d
000001f0: c9c7 34be f2df 7b3e 6318 e9be 6118 92bf
00000200: b880 c1be 3929 1cbf f314 0abf 6fef 463e
00000210: 75b9 913e 77bf 9b3e 7325 983e 5a1d 00bf
00000220: 1741 47bf ef69 be3c fa1e d5be 07c4 1fbf
00000230: 1f65 f13e 4110 a33e 7cb9 e83e fac8 b33e
00000240: 4e1f 82be 9b0f 6dbe a8a4 8dbe dcbc 873d
00000250: bad9 353e 4696 1bbe 4d5b 473e e417 683e
00000260: 7f9c af3d 82ef e1be ec35 44bf 5f67 c0be
00000270: 5978 933d 03b8 5f3e e8b4 cc3d 63f1 a5be
00000280: 6021 b0be 7bd4 a13e f18c c6be 56c7 f1be
00000290: ec58 633e a612 1abf 09bf 25be e6fb 223f
000002a0: 8638 98bd 6697 e13e db39 093f 4b90 b6be
000002b0: 9e27 9f3b 7af8 e03e 48a8 afbe b050 95be
000002c0: b3db 1c3f 87d9 663d 414b 243f 45d2 ff3e
000002d0: fe49 6ebe bbd0 293e 0afb 983d b9b5 b0bc
000002e0: 12b7 9b3e 740f 033e c103 ba3e 2cf0 403e
000002f0: 3e3a 273f 6d9b 92bd 8dd2 bf3d 09da fa3d
00000300: ec10 b43e 4e7c 8b3e 9191 5cbd d2b1 b6bd
00000310: 6052 773e 6e51 f33e 6d2e 01be 6b5b 3e3d
00000320: c46d 0d3e fda0 923e 15f8 003f ddb3 e93e
00000330: db13 b33e fe6a 2a3f eb06 193f 7041 3fbd
00000340: 73a9 a33c 2a85 68bd 2ae1 dc3e f20b 8f3e
00000350: b369 713e f05c f73e b332 fb3e 8230 cf3e
00000360: f97a 643d 6637 593e 0e84 f43d db07 6abe
00000370: eb4f c93c 726c 783d 8f75 20bf 7f86 aebd
00000380: 8db2 7fbf 010a 9e3e 6957 623e b5d2 2b3d
00000390: e28f a13d 291a 20bd 93f2 b4bc a871 f13d
000003a0: 79be 0d3e 9071 40be 6519 103f 6961 fa3e
000003b0: 6e2f c53d 6bde 253f 654e e23e d01b c2bc
000003c0: 259c e73d 9b96 cdbc 969d a3be 4b34 263f
000003d0: fdee 9e3e 0613 70bd 86f7 f13e e087 a33e
000003e0: 01a7 8bbe b7c5 f8bd b6e1 c3be 504c 24bf
000003f0: 00ee c13d 2540 a53e 113f babe e8f2 e03c

decoder.conv2_t.bias f4 [4]
-0.50213665 -0.9413559 -1.4395411 -2.2525756
00000000: 078c 00bf b3fc 70bf e242 b8bf 332a 10c0

decoder.conv1_t.weight f4 [4, 1, 5, 5]
0.017157067 0.016606638 0.0091849975 -0.010948437 -0.008367182 -0.02354737 -0.057281844 -0.0810932
-0.087373756 -0.057539094 -0.037969843 -0.039829805 -0.03828684 -0.00035860835 -0.002897763 0.094638266
0.1917184 0.25494695 0.3003324 0.16263327 0.14516306 0.2546505 0.3345831 0.34901047
0.18285935 -0.037075575 0.035441454 0.08416515 -0.012176053 -0.04481948 -0.015783042 0.1255369
0.098005645 -0.17430173 -0.19589227 0.028952343 0.12724417 -0.055460192 -0.41801187 -0.32706517
0.030162321 0.059157882 -0.18484129 -0.48697966 -0.3269795 0.045232717 0.061797686 -0.10843498
-0.2921861 -0.1648008 0.0045229783 -0.029157352 -0.039835 -0.030151466 -0.025144748 -0.013646104
-0.015380529 0.11100778 0.20976537 0.10882274 -0.033067632 0.09811565 0.49272287 0.6639083
0.33630425 -0.07879785 0.13453123 0.6116298 0.67274344 0.25937077 -0.09214431 0.016761526
0.2594753 0.21782559 0.016488465 0.007557207 0.03256036 0.03192084 0.035756756 0.043808147
0.04572955 -0.0069232383 -0.17743663 -0.24823837 -0.11252463 0.05093422 -0.16038759 -0.5424353
-0.6259601 -0.2886137 0.084174804 -0.17958947 -0.5684958 -0.50203097 -0.13233107 0.09901531
-0.039920613 -0.20351392 -0.06933267 0.06132863
00000000: fa8c 8c3c a50a 883c ac7c 163c 1361 33bc
00000010: 8116 09bc 6ae6 c0bc 5ea0 6abd 3114 a6bd
00000020: 03f1 b2bd 1dae 6bbd 4486 1bbd 9424 23bd
00000030: a9d2 1cbd 9903 bcb9 65e8 3dbb b5d1 c13d
00000040: d451 443e 6888 823e 2bc5 993e 5689 263e
00000050: a0a5 143e 8d61 823e 7a4e ab3e 80b1 b23e
00000060: 7b3f 3b3e 8fdc 17bd 0f2b 113d c75e ac3d
00000070: 117e 47bc a294 37bd 704b 81bc bf8c 003e
00000080: 2fb7 c83d 277c 32be fc97 48be 772d ed3c
00000090: 4c4c 023e 3a2a 63bd a705 d6be 1675 a7be
000000a0: f916 f73c 894f 723d 0947 3dbe 6655 f9be
000000b0: db69 a7be f145 393d 921f 7d3d 2913 debd
000000c0: 6b99 95be 8ac1 28be 7e35 943b 66db eebc
000000d0: 062a 23bd 3500 f7bc 5cfc cdbc e993 5fbc
000000e0: 9dfe 7bbc 0c58 e33d bccc 563e 75de de3d
000000f0: ed71 07bd dcf0 c83d 2c46 fc3e e5f5 293f
00000100: 1230 ac3e c460 a1bd 8ec2 093e c593 1c3f
00000110: ea38 2c3f 3fcc 843e 28b6 bcbd 784f 893c
00000120: f2d9 843e ac0d 5f3e d112 873c 72a2 f73b
00000130: 035e 053d 6dbf 023d ad75 123d 2c70 333d
00000140: e94e 3b3d 55dc e2bb f3b1 35be 3332 7ebe
00000150: 5073 e6bd 67a0 503d a53c 24be 0add 0abf
00000160: ec3e 20bf 2dc5 93be d763 ac3d 4de6 37be
00000170: f188 11bf 1a85 00bf cc81 07be 8ac8 ca3d
00000180: cc83 23bd f465 50be 49fe 8dbd bb33 7b3d
