Homework/4_AutoEncoders/models/q2_parms_nc_100.pt (torch, 168001 bytes, 11 tensors)

encoder.conv1.weight f4 [4, 1, 5, 5]
0	0x3c6d010d	0.014465583
1	0xbd77f390	-0.060535014
2	0x3ca9ab19	0.020711469
3	0x3cf29aa4	0.029614754
4	0xbc71e3c1	-0.014763773
5	0xbcb08a7c	-0.02155041
6	0x3dad94db	0.084756576
7	0x3d745ab6	0.05965682
8	0x3d91a8c1	0.071122654
9	0x3d8d3d9d	0.068965174
10	0x3d7e9340	0.062152147
11	0x3c9ac839	0.018894302
12	0xbd8d5aa0	-0.06902051
13	0x3cd66cff	0.02617502
14	0x3df4a857	0.11946171
15	0x3dcbf61e	0.099590525
16	0x3d15d4ed	0.036580015
17	0xbc679f73	-0.014137137
18	0x3d01ecf1	0.031720106
19	0x3e10e950	0.14151502
20	0x3d807d7b	0.062739335
21	0x3da5e59a	0.08100434
22	0x3d816688	0.063183844
23	0x3e053811	0.13009669
24	0x3e3326cc	0.17495269
25	0x3d568976	0.052377187
26	0x3d5e090c	0.054207847
27	0x3c25cdde	0.010119883
28	0x3bb06da3	0.0053841635
29	0x3d2ef19e	0.042710893
30	0x3cad75f6	0.021174412
31	0xbe63c2ce	-0.22242281
32	0xbe442bd1	-0.1915734
33	0xbe5b1627	-0.21395169
34	0x3c84e611	0.016222985
35	0x3d346a89	0.044046912
36	0xbe6867b9	-0.22695817
37	0xbe929837	-0.28631756
38	0xbe40baad	-0.18821211
39	0x3d04a8dd	0.032387603
40	0xbdfb1ca7	-0.122613244
41	0xbe8c5b01	-0.2741318
42	0xbe0ee19c	-0.1395325
43	0xbe500d31	-0.20317532
44	0x3b1c0bd4	0.002381076
45	0x3dba8426	0.091072366
46	0xbdc3c108	-0.09558302
47	0x3d74ce3c	0.059766993
48	0xbc8f0b6e	-0.017461505
49	0x3d06443c	0.032779917
50	0x3a489436	0.00076514797
51	0x3bdc6cb2	0.0067268247
52	0x3bbb259e	0.0057112714
53	0x3cc4670b	0.023974916
54	0x3c3ff031	0.011714981
55	0x3c3199c6	0.010839885
56	0x3c496669	0.012292483
57	0xbc39a574	-0.011330951
58	0xbbce13e3	-0.006288992
59	0xbbd896af	-0.0066097598
60	0x3b1603b7	0.0022890398
61	0xbcb5c4af	-0.022188513
62	0x3c276f8a	0.010219464
63	0x3b89b635	0.004202629
64	0xbd6c1874	-0.057640508
65	0x3bbd7337	0.005781557
66	0x3c7f485b	0.015581216
67	0x3e3c9b73	0.18418674
68	0x3e6df402	0.23237613
69	0x3d9c6aaa	0.07637532
70	0xbcedd139	-0.02903043
71	0xbc5ed791	-0.0136012
72	0x3e44cf98	0.19219816
73	0x3e80022a	0.2500165
74	0x3decaefa	0.11556812
75	0xbca9c297	-0.02072267
76	0xbd42277c	-0.047400936
77	0x3c956800	0.018238068
78	0x3cc14664	0.023593135
79	0xbc7c3dca	-0.015395591
80	0xbde3449d	-0.11097071
81	0x3c0bd1cc	0.008533906
82	0x3d9ab5cc	0.07554206
83	0x3d1368ba	0.035988547
84	0x3b88a473	0.0041699945
85	0xbd00f535	-0.031483848
86	0x3e3d7970	0.18503356
87	0x3e9f9dac	0.31174982
88	0x3ccc3cc5	0.02493132
89	0x3cf2fc43	0.029661303
90	0x3d06c1bc	0.032899603
91	0x3e15e40f	0.14637779
92	0x3e189998	0.14902341
93	0xbc03b50d	-0.008038771
94	0x3cbb3b36	0.022855382
95	0xbc4a7abf	-0.0123583665
96	0xbc8d6f36	-0.017264944
97	0xbdd0120f	-0.101596944
98	0xbd01d2db	-0.031695228
99	0xbbb6c1fc	-0.005577324

encoder.conv1.bias f4 [4]
0	0x3da5ad38	0.080896795
1	0x3f0bb04e	0.54565895
2	0x3f25845b	0.64655083
3	0x3e9c1376	0.30483598

encoder.conv2.weight f4 [8, 4, 3, 3]
0	0xbd8a7b37	-0.067617826
1	0x3e5218c1	0.20517255
2	0x3e4adace	0.1981003
3	0x3d9383f6	0.07202904
4	0xbe9ee15f	-0.3103132
5	0xbd4326d2	-0.047644444
6	0x3d39bbf7	0.045345273
7	0x3d293d03	0.04131795
8	0x3e1278c6	0.14303884
9	0xbdc53bb1	-0.09630526
10	0x3de16f06	0.11007504
11	0x3e09eb02	0.13468555
12	0x3d2cb67c	0.04216622
13	0xbebf6f92	-0.3738981
14	0xbe813fb6	-0.2524392
15	0x3caf3a66	0.021390151
16	0xbf0a1e53	-0.5395252
17	0x3e157a08	0.14597332
18	0xbd196229	-0.03744713
19	0xbdd888be	-0.105729565
20	0xbdb68711	-0.089124806
21	0x3e150a2c	0.14554662
22	0x3f001411	0.5003062
23	0xbd9926aa	-0.07478078
24	0xbe6de204	-0.2323075
25	0xbd35813f	-0.04431271
26	0x3ce1ba22	0.027554575
27	0x3d906c8e	0.07051955
28	0xbd9fce2f	-0.07802998
29	0xbdd36cb2	-0.10323466
30	0x3d5586af	0.052130397
31	0x3e53f78e	0.20699903
32	0x3e6330c2	0.22186568
33	0xbc93ca47	-0.01804079
34	0x3e37c983	0.17947964
35	0xbdd5eeba	-0.10445924
36	0xbe0e816b	-0.13916557
37	0x3c92285d	0.017841512
38	0x3e145712	0.1448634
39	0xbe3b3edf	-0.18285702
40	0xbe54ce32	-0.20781782
41	0x3cd5b6b0	0.026088089
42	0xbdbb28d5	-0.091386475
43	0xbdafe569	-0.085886784
44	0x3efc0162	0.49219805
45	0x3d33dc88	0.043911487
46	0x3cb75900	0.022381306
47	0x3d5eb1a3	0.054368626
48	0x3d2efe60	0.04272306
49	0x3cd746ae	0.02627882
50	0x3e75316f	0.23944639
51	0xbe1512eb	-0.14557998
52	0x3cf82f75	0.030296067
53	0x3e65861e	0.22414443
54	0xbdf50f0a	-0.11965759
55	0x3d443ff2	0.047912546
56	0xbd5f0bf1	-0.054454748
57	0x3d0eb4a2	0.034840234
58	0xbdcf5ae7	-0.1012476
59	0xbe1659ef	-0.14682744
60	0x3d65570b	0.055991214
61	0xbd50e6f6	-0.05100151
62	0xbc4693f2	-0.012120234
63	0x3d96243d	0.07331131
64	0x3d8cc613	0.06873717
65	0xbbd77b33	-0.006575966
66	0x3d8e6054	0.06951967
67	0x3e35918a	0.177313
68	0x3c839226	0.0160609
69	0x3de68c01	0.112571724
70	0xbd8794eb	-0.06620201
71	0xbe04d7a9	-0.12972893
72	0xbd822d0b	-0.063562475
73	0xbe465c6e	-0.19371197
74	0x3d515bf7	0.051113095
75	0xbdc861fc	-0.09784314
76	0x3e42c62e	0.19020912
77	0xbdb6a585	-0.08918289
78	0xbdabc141	-0.0838647
79	0xbe27c378	-0.16383159
80	0xbdbf72bc	-0.09348056
81	0x3d2d3bca	0.042293347
82	0x3c9d4e3f	0.01920235
83	0xbcf3cf60	-0.02976197
84	0xbb64f55e	-0.003493629
85	0x3d94049e	0.07227443
86	0x3eef9774	0.46795237
87	0x3e9fa5c2	0.3118115
88	0xbf27df71	-0.6557532
89	0x3c7a2738	0.01526814
90	0x3e04241f	0.12904404
91	0x3da3ac4c	0.079918474
92	0x3d5121c1	0.05105758
93	0xbae505b1	-0.001747301
94	0xbc940f43	-0.018073684
95	0x3e71c1f5	0.23609145
96	0x3e97113a	0.2950533
97	0xbdb60fcb	-0.08889731
98	0xbebb89f4	-0.36628687
99	0x3cffeda6	0.03124125
100	0xbc57520d	-0.013142121
101	0x3ddced7e	0.107874855
102	0x3d22963a	0.03969405
103	0x3d62252a	0.055211224
104	0xbe8201da	-0.25392038
105	0xbe64665b	-0.2230467
106	0x3f1133f0	0.56719875
107	0xbe37d906	-0.17953882
108	0xbe108b9d	-0.14115758
109	0x3d2b8a3e	0.041879885
110	0x3ca3aecd	0.019980812
111	0x3dadbefb	0.08483692
112	0xbe9aeb95	-0.3025786
113	0xbdbf2773	-0.09333696
114	0x3cbee82b	0.023304066
115	0xbe408900	-0.18802261
116	0x3d5981dc	0.05310236
117	0xbd60561e	-0.054769628
118	0xbd0aaf5b	-0.03385864
119	0x3ddbdf63	0.10735967
120	0xbdcb3618	-0.09922427
121	0x3d9e5d7f	0.07732677
122	0xbdc004da	-0.09375925
123	0x3e1bd60a	0.15218368
124	0x3ecd46a1	0.40092948
125	0x3eb00e09	0.34385708
126	0x3c4acb5b	0.012377585
127	0x3e4ac39b	0.1980118
128	0x3db6de8a	0.08929165
129	0xbc6b656a	-0.014367441
130	0xbb949ece	-0.0045355326
131	0x3e30d09b	0.17267077
132	0xbef73ef4	-0.48290217
133	0xbebc4cbf	-0.36777303
134	0xbdd519c2	-0.104053035
135	0xbd04c2d2	-0.032412358
136	0x3ccb9b1f	0.024854241
137	0xbe36e44b	-0.17860524
138	0x3daac7ac	0.08338866
139	0x3db3197b	0.087450944
140	0x3e41f1fe	0.18939969
141	0xbdbcb5c0	-0.092143536
142	0xbe993845	-0.29925743
143	0xbeb30731	-0.34966424
144	0x3d5e2112	0.054230757
145	0xbc0405e1	-0.008058042
146	0xbe97cbc6	-0.29647654
147	0x3bfad6dd	0.007655008
148	0x3cfd6b6f	0.030935017
149	0xbe854899	-0.2603195
150	0x3d6850fb	0.056717854
151	0x3db9590c	0.090501875
152	0xbd09855d	-0.03357445
153	0x3d87ccbc	0.06630847
154	0xbd523fa8	-0.05133024
155	0xbd8392a5	-0.064244546
156	0x3c6bba50	0.014387682
157	0x3e2bcfdf	0.16778515
158	0xbf6684dc	-0.9004648
159	0x3daaebd1	0.0834576
160	0x3e837dc6	0.25681895
161	0x3e1501da	0.14551488
162	0xbdbb7986	-0.09154038
163	0x3e833526	0.25626487
164	0x3dd3845f	0.10327982
165	0x3ca4f456	0.02013604
166	0xba92b7ea	-0.0011193727
167	0x3d180a82	0.037119396
168	0x3de0e64c	0.10981426
169	0x3dbd1903	0.09233286
170	0xbd977034	-0.07394448
171	0xbdc65a2a	-0.09685166
172	0x3dedd48b	0.11612805
173	0xbd30998b	-0.04311518
174	0x3d1073f5	0.035266835
175	0xbe567752	-0.20943955
176	0x3f17ffd2	0.59374726
177	0xbcd2d2d7	-0.025735302
178	0xbe451b3b	-0.19248669
179	0x3d79ef0f	0.061019
180	0x3c8b193f	0.016979812
181	0xbb8e6345	-0.00434533
182	0xbdb3e587	-0.08784013
183	0x3d54c751	0.051947895
184	0x3cd70e2e	0.026251879
185	0x3e413a00	0.18869781
186	0x3d2963bd	0.041354883
187	0xbde93575	-0.11387149
188	0xbd7c543d	-0.061603773
189	0xbd67f265	-0.05662765
190	0xbc7f1b6c	-0.015570503
191	0xbda284b1	-0.07935465
192	0xbd649772	-0.055808492
193	0xbdf5af37	-0.1199631
194	0x3df2d543	0.11857083
195	0x3d99ff21	0.07519365
196	0xbcae53e3	-0.021280235
197	0xbeb2fbb2	-0.34957653
198	0xbd137f88	-0.036010295
199	0xbcbcd6e7	-0.023051692
200	0xbaae515e	-0.0013299396
201	0xbc7a1726	-0.015264308
202	0x3d3b62be	0.045748465
203	0xbe87bb97	-0.26510307
204	0x3d8a3110	0.06747639
205	0x3f037232	0.51346123
206	0x3ebcffad	0.36913815
207	0x3cf4fd8a	0.029906053
208	0xbd060ea0	-0.03272879
209	0x3d5f6ba4	0.054546013
210	0x3d5ae7c1	0.053443674
211	0x3cc3a0fa	0.02388047
212	0xbe1204cb	-0.14259641
213	0x3cb295a7	0.021799875
214	0x3dbef7c2	0.093246
215	0x3ec6b5b5	0.38810506
216	0x3e1713bc	0.14753622
217	0xbe106f91	-0.14105059
218	0x3d96cc1e	0.07363151
219	0xbc211de1	-0.009833784
220	0xbd98d50f	-0.07462513
221	0x3c3ce025	0.01152805
222	0x3df029ac	0.11726698
223	0x3bcfd843	0.006342919
224	0xbe12b07d	-0.14325137
225	0xbc04dc19	-0.008109116
226	0xbded0606	-0.115734145
227	0x3d520746	0.051276468
228	0x3d313b27	0.043269303
229	0xbf55fe05	-0.8359073
230	0x3e78853a	0.24269572
231	0x3d8a0d97	0.06740873
232	0x3ec8ce49	0.39219883
233	0xbe65946c	-0.224199
234	0x3ea3515b	0.31898007
235	0x3e71ac57	0.23600899
236	0x3bc2b1e4	0.0059416164
237	0xbdd60377	-0.104498796
238	0x3c4ea535	0.012612631
239	0x3e0a9dad	0.13536711
240	0x3e34caa5	0.17655428
241	0xbd6211fd	-0.055192936
242	0x3dc5a05b	0.09649726
243	0x3d938d0b	0.07204636
244	0xbc8ffbe8	-0.017576173
245	0x3c8408a4	0.016117401
246	0xbdd4dabc	-0.10393283
247	0x3f007744	0.50181985
248	0xbe0be0ce	-0.13659975
249	0x3bc43b80	0.0059885383
250	0xbe3b3e83	-0.18285565
251	0x3e04b7af	0.12960695
252	0x39bb0557	0.00035671398
253	0xbd05a6de	-0.03262984
254	0x3e823cd9	0.25437048
255	0xbcfa5aae	-0.030560818

encoder.conv2.bias f4 [8]
0	0x3f9d5007	1.2290047
1	0xbe33f20c	-0.17572802
2	0x3fa63aa6	1.2986648
3	0x3e33241f	0.17494248
4	0x3fac2b63	1.345074
5	0x3f121f1a	0.5707871
6	0x3f2e6c94	0.6813443
7	0x3f611955	0.8792928

encoder.linear.weight f4 [100, 200]
0	0xbd4a095d	-0.049325336
1	0xbdd09518	-0.101846874
2	0xbe08e222	-0.13367513
3	0xbdc68857	-0.096939735
4	0xbdc22a33	-0.09480705
5	0xbdc7cbc8	-0.09755665
6	0x3e6a9560	0.22908545
7	0xbddb5f44	-0.1071153
8	0xbd313f0a	-0.04327301
9	0xbcd64409	-0.026155489
10	0xbd1b1b03	-0.037867557
11	0xbd9e899f	-0.07741093
12	0x3d4b97e4	0.0497054
13	0x3e1a4bc6	0.15067968
14	0xbcdf8939	-0.027287113
15	0xbdb4cbf0	-0.088279605
16	0xbbf7c84d	-0.0075617195
17	0x3d3e0a00	0.046396255
18	0x3e1f9641	0.15584661
19	0xbcd18b0f	-0.025579004
20	0x3ce88e5a	0.028388191
21	0x3e32b6fa	0.17452613
22	0xbdc8299d	-0.09773562
23	0x3e55bd70	0.20873046
24	0xbe54ffb2	-0.20800665
25	0xbcf3aeec	-0.029746495
26	0x3a03ac41	0.0005022921
27	0x3d06b443	0.032886755
28	0xbd65e55f	-0.05612695
29	0x3cb90225	0.02258403
30	0xbceec95b	-0.029148748
31	0x3c69ac86	0.014262324
32	0x3c98515f	0.018593488
33	0x3ca636f7	0.020289881
34	0x3beaeae7	0.007169116
35	0xbc0eb19f	-0.00870934
36	0x3c823e38	0.015898809
37	0xbd7a8341	-0.06116033
38	0x3c3e60d7	0.011619768
39	0xbd695d6b	-0.056973856
40	0x3c2ba9f8	0.010477535
41	0xbd194e4f	-0.037428197
42	0xbc59fa61	-0.013304324
43	0xbde63568	-0.11240655
44	0xbd17cccd	-0.037060548
45	0xbd77c374	-0.060489133
46	0x3bfc4bc7	0.007699463
47	0xba993a2c	-0.001169031
48	0x3cfeddf5	0.031111697
49	0xbd165890	-0.036705554
50	0xbd48d4ea	-0.049031176
51	0xbe31c5d2	-0.17360619
52	0xbd72c97c	-0.05927418
53	0xbdb01fcf	-0.08599817
54	0xbe09b8c7	-0.13449393
55	0xbd977b0e	-0.07396518
56	0x3d66777f	0.056266304
57	0xbccf70c0	-0.025322318
58	0xbd4a8fc5	-0.049453516
59	0xbd512c00	-0.051067352
60	0xbe0dabd8	-0.13835084
61	0x3d814bce	0.06313287
62	0xbc77138e	-0.015080346
63	0x3d4b7bc6	0.049678586
64	0xbdd4576b	-0.10368236
65	0xbd94cacd	-0.07265244
66	0xbd978fed	-0.074004985
67	0xbc7663fa	-0.015038485
68	0xbd11e276	-0.03561636
69	0x3b46bb00	0.0030323863
70	0xbdb7c03f	-0.08972215
71	0xbe289326	-0.16462383
72	0x3e0e5972	0.13901308
73	0x3d9f6d24	0.07784489
74	0xbd872093	-0.0659801
75	0x3d6358dc	0.055504665
76	0x3cc0ad86	0.023520242
77	0xbc66d216	-0.014088174
78	0x3dac3508	0.084085524
79	0x3d2d65c5	0.042333383
80	0xbdb98dc1	-0.090602405
81	0xbb2362e9	-0.0024930781
82	0xbcb206f7	-0.021731837
83	0x3c1ae5bc	0.009454187
84	0xbc9befb0	-0.01903519
85	0xbd8ad0c3	-0.067780994
86	0xbb9e2897	-0.004826616
87	0xbdca82b4	-0.09888211
88	0x3bb7b7bb	0.005606619
89	0x3dc9a4c2	0.09845878
90	0x3c5a7503	0.013333562
91	0x3b04a423	0.0020239435
92	0x3d1f9157	0.038956966
93	0x3c5491ee	0.0129742455
94	0xbc815295	-0.015786448
95	0x3d49957f	0.049214836
96	0x3cbd3b93	0.023099696
97	0x3d590af8	0.052988976
98	0x3cffb1e9	0.031212764
99	0x3c4f1fd3	0.012641865
100	0xbcd0a30b	-0.02546837
101	0x3d46ea10	0.048563063
102	0xbd1e8500	-0.038701057
103	0xbc6cfdbc	-0.014464792
104	0xbdc540bb	-0.09631487
105	0xbd1d8486	-0.038456462
106	0x3dccf8af	0.1000837
107	0xbd8ab388	-0.06772524
108	0x3cdbbc25	0.026823113
109	0xbd7649ee	-0.0601291
110	0x3ddba4c4	0.10724786
111	0xbd49f4d9	-0.04930577
112	0x3dc7a8c5	0.09748987
113	0xbd3b4a2b	-0.04572503
114	0xbd7fcc74	-0.06245084
115	0x3b2fabd5	0.00268053
116	0x3c2562f8	0.010094397
117	0xbd778e83	-0.060438644
118	0x3e0ad634	0.13558275
119	0xbd2f3a30	-0.0427801
120	0x3dd72943	0.10505917
121	0x3e0b07de	0.1357722
122	0xbdc892c9	-0.09793622
123	0xbd1ef858	-0.038811058
124	0xbd4f76b3	-0.05065031
125	0xbdf79a47	-0.12089973
126	0xbe114f95	-0.14190514
127	0xbdc0a846	-0.094070956
128	0xbdb4b508	-0.088235915
129	0x3e2c07d3	0.1679986
130	0x3e03f891	0.1288779
131	0xbdf54d59	-0.119776435
132	0xbbc0be8e	-0.005882091
133	0xbda4655e	-0.08027147
134	0xbd655303	-0.05598737
135	0xbcdb960b	-0.026804945
136	0x3d6d0e36	0.05787488
137	0x3de25d9d	0.110530116
138	0x3dc2ac52	0.09505524
139	0xbd6634cf	-0.056202706
140	0x3d62b2a8	0.05534616
141	0xbc748435	-0.014924099
142	0xbe41dde8	-0.18932307
143	0x3d31da9c	0.043421373
144	0x3e178317	0.147961
145	0xbdaa75e8	-0.0832327
146	0x3bcdb592	0.0062777484
147	0xbd7f50b5	-0.062332828
148	0xbcce64a3	-0.025194472
149	0x3d4d6635	0.0501463
150	0xbd89f18f	-0.06735527
151	0x3d7cad28	0.061688572
152	0x3e11c144	0.14233881
153	0x3c90a2a3	0.017655676
154	0xbb6c4261	-0.0036050307
155	0xbd8a0386	-0.06738953
156	0x3cbd5edf	0.023116527
157	0x3dc00742	0.09376384
158	0x3d707980	0.05870962
159	0xbc9dbf34	-0.019256212
160	0x3d436a38	0.04770872
161	0xbdcdef78	-0.10055441
162	0x3e2672d2	0.16254738
163	0xbbfc711d	-0.007703914
164	0x3d675401	0.056476597
165	0xbd8a6d9a	-0.06759186
166	0x3e0298dc	0.12753624
167	0x3e349452	0.17634705
168	0x3e382831	0.17984082
169	0xbe9294a7	-0.28629038
170	0x3c5d0955	0.013490994
171	0x3d939051	0.072052605
172	0xbd051eba	-0.032500006
173	0xbdd9872c	-0.10621485
174	0xbdb6d646	-0.08927588
175	0xbda23292	-0.07919802
176	0xbd9013d9	-0.07035036
177	0xbda6daa6	-0.08147173
178	0xbc8d49e7	-0.017247153
179	0x3e6712f5	0.22565825
180	0x3e5c2eda	0.21502247
181	0x3ce33c6f	0.027738778
182	0xbdb7e8bc	-0.089799374
183	0xbd0744b2	-0.033024497
184	0xbbd4b116	-0.006490837
185	0x3dc56149	0.09637696
186	0xbdec72ca	-0.11545332
187	0x3da8bf9f	0.08239674
188	0xbd53ba48	-0.051691324
189	0xbd293920	-0.041314244
190	0x3deb1b7f	0.11479854
191	0xbd588d66	-0.052869223
192	0xbd70490a	-0.058663405
193	0x3e224bbc	0.15849203
194	0x3d425498	0.047443956
195	0x3cdc481d	0.026889855
196	0x3d75c2a0	0.060000062
197	0x3d3e7db6	0.046506606
198	0xbdbef765	-0.093245305
199	0x3d31764d	0.04332571
200	0xbd3ae892	-0.045631953
201	0x3d798528	0.060918003
202	0x3d1373ea	0.035999216
203	0x3e130a6e	0.14359447
204	0x3e3de507	0.18544398
205	0x3e356c7a	0.17717162
206	0x3cc5f42a	0.024164278
207	0x3e5a33f1	0.21308877
208	0x3c37ee5f	0.011226266
209	0x3d5f1a57	0.05446848
210	0xbe244d6e	-0.16045162
211	0xbc8ce5cc	-0.01719942
212	0x3d815c77	0.063164644
213	0xbe1b31b3	-0.15155677
214	0xbcff60f4	-0.03117416
215	0xbd5f0edd	-0.054457534
216	0x3cbbc4c2	0.02292097
217	0x3db6243a	0.088936284
218	0xbe3751fb	-0.17902367
219	0x3e04d7c1	0.12972929
220	0xbceef704	-0.02917052
221	0xbdbefd93	-0.09325709
222	0xbea28f9b	-0.31750187
223	0xbd34da4d	-0.0441535
224	0xbb8ac9b9	-0.004235473
225	0xbce3a8f7	-0.02779053
226	0x3d2b0195	0.041749556
227	0x3c279eca	0.010230729
228	0x3d383262	0.044969924
229	0x3ce4654a	0.02788033
230	0x3c9e8d05	0.019354353
231	0x3a16d5e0	0.0005753916
232	0x3db8cd7c	0.09023568
233	0x3d025dd4	0.031827763
234	0xbbc489ac	-0.005997857
235	0x3cc16ffa	0.023612965
236	0x3d317ccf	0.043331917
237	0xbc422567	-0.011849738
238	0xbc1729a9	-0.009226241
239	0x3c160063	0.009155366
240	0x3dbddd64	0.092707425
241	0x3db15254	0.08658281
242	0xbc87ae7d	-0.016562695
243	0xbccf949c	-0.025339417
244	0xbd5feb60	-0.05466783
245	0xbd015cc8	-0.031582624
246	0x3a8dd46a	0.0010820751
247	0x3dabe108	0.08392531
248	0xbb3d9c39	-0.0028932227
249	0x3bc21e17	0.005923997
250	0x3d146010	0.036224425
251	0x3d85e12a	0.06537087
252	0xbd2e120b	-0.042497676
253	0x3caa817c	0.020813696
254	0x3db93940	0.09044123
255	0x3dd1d976	0.102465555

encoder.linear.bias f4 [100]
0	0xbd8bd528	-0.06827766
1	0x3dcefd92	0.101069584
2	0xbd4b1db1	-0.049588863
3	0xbcf3b994	-0.029751576
4	0x3d850b00	0.06496239
5	0x3c9d6cbb	0.019216886
6	0x3d0ab891	0.033867422
7	0x3e0a2299	0.1348976
8	0xbcbbf407	-0.02294351
9	0x3b570741	0.003281072
10	0xbccf95cf	-0.025339989
11	0x3cd99182	0.026558641
12	0xbe1f3725	-0.1554838
13	0x3d2bd514	0.041951254
14	0xbd3bfa12	-0.045892783
15	0x3daa6364	0.083197385
16	0xbda7e9b5	-0.08198873
17	0x3e1e1c95	0.1544059
18	0xbdfffb1a	-0.12499066
19	0x3d2777d1	0.04088575
20	0xbd2ebc1d	-0.042659868
21	0xbda9b5de	-0.082866415
22	0xbda1ecce	-0.07906495
23	0x3d2ec1f0	0.042665422
24	0x3c0a7d8f	0.008452787
25	0xbcaca4b6	-0.021074634
26	0x3d11ba60	0.03557813
27	0xbc00a871	-0.00785266
28	0x3cb38b8a	0.021917123
29	0xbd3438d7	-0.04399952
30	0x3d0a040a	0.03369526
31	0x3d2c088c	0.04200034
32	0x3d6eb0a1	0.058273915
33	0x3d37b86a	0.044853605
34	0xbdf20d9c	-0.11819002
35	0x3d511c95	0.05105265
36	0xbd3b2c26	-0.0456964
37	0xbb812f53	-0.003942409
38	0xbdafc064	-0.085816175
39	0x3be448e2	0.006966696
40	0x3c9a924e	0.018868592
41	0x3d6f0924	0.058358327
42	0x3b2418ea	0.0025039264
43	0xbc0916dc	-0.0083672665
44	0x3ca91a92	0.020642553
45	0x3db6b844	0.08921865
46	0xbe0065c7	-0.12538825
47	0x3c8cf30f	0.017205743
48	0xbde86ce0	-0.11348891
49	0x3d3afaa4	0.045649186
50	0x3d4a7239	0.049425337
51	0xbcada700	-0.021197796
52	0xbd8e6680	-0.06953144
53	0xbcca1d0e	-0.024672057
54	0x3d84e27d	0.06488512
55	0x3cf8c7e3	0.03036875
56	0xbe4a79cb	-0.19773023
57	0xbdfcd1df	-0.12344717
58	0xbd3fc4ff	-0.04681873
59	0xbe01dfce	-0.12683031
60	0x3d6997a4	0.05702938
61	0xbe061c14	-0.13096648
62	0xbd7a0909	-0.061043773
63	0x3e24a094	0.1607688
64	0x3bc82088	0.0061073937
65	0xbd723ffa	-0.059143044
66	0x3cc420dc	0.02394145
67	0xbdffce1c	-0.12490484
68	0x3de657e4	0.112472326
69	0x3d5b98cc	0.053612515
70	0x3d7edc08	0.062221557
71	0xbd9cf03d	-0.07663009
72	0x3d37518c	0.044755504
73	0x3bc59837	0.0060301083
74	0xbd415d54	-0.047208145
75	0xbda45a19	-0.08024997
76	0x3cb633fe	0.022241589
77	0xbcd66a3e	-0.026173707
78	0x3d9d5fed	0.07684312
79	0x3d2ce719	0.04221258
80	0xbc011842	-0.007879319
81	0x3da98154	0.082766205
82	0x3df6ecad	0.12056861
83	0x3b959fc7	0.004566166
84	0xbd0c6d34	-0.03428383
85	0xbdba900c	-0.09109506
86	0x3db6bb87	0.08922487
87	0x3e0a6b58	0.13517511
88	0x3b60874a	0.0034260326
89	0xbdeb5deb	-0.11492523
90	0xbda05152	-0.078280106
91	0xbdd66ccd	-0.10469971
92	0x3e26468e	0.16237852
93	0xbd0bcf63	-0.034133326
94	0xbda2f486	-0.079567954
95	0xbd056807	-0.03256991
96	0xbd0723f3	-0.03299327
97	0xbd54cb06	-0.05195143
98	0xbdcc245b	-0.09967872
99	0x3d42947f	0.0475049

decoder.linear_t.weight f4 [200, 100]
0	0xbdc82016	-0.09771745
1	0x3c124e4a	0.008929798
2	0x3b8b6f13	0.0042551844
3	0xbb8ed177	-0.0043584662
4	0x3d64f074	0.055893376
5	0x3df62d53	0.12020364
6	0xbd602895	-0.054726202
7	0xbc1200ba	-0.008911306
8	0x3d91f99b	0.071276866
9	0xbd9cefe6	-0.076629445
10	0xbc4c4914	-0.012468595
11	0xbd2d65f1	-0.042333547
12	0xbdf2d86c	-0.118576854
13	0x3d00b673	0.031423997
14	0x3d59eae0	0.05320251
15	0xbde81676	-0.11332409
16	0x3ca51190	0.020149976
17	0xbd4345a7	-0.047673848
18	0xbdbb1713	-0.091352604
19	0xbc2303f1	-0.00994967
20	0xbd38821e	-0.045045964
21	0x3d291032	0.04127521
22	0xbd8f2492	-0.06989397
23	0x3d983544	0.074320346
24	0xbd6e677a	-0.05820415
25	0xbd9d561b	-0.07682439
26	0xbb2c5f5a	-0.002630195
27	0x3c33c887	0.010973102
28	0x3d873836	0.06602518
29	0x3d15aa49	0.03653935
30	0x3da69be4	0.081352025
31	0xbcb97138	-0.022636995
32	0x3d5e6189	0.054292236
33	0x3d2cbee6	0.042174242
34	0xbde37ce5	-0.11107806
35	0xbd1ff49f	-0.03905165
36	0xbd81c5fe	-0.06336592
37	0x3dbc3084	0.09188941
38	0x3d054a9c	0.032541856
39	0xbd061bf7	-0.032741513
40	0xbd92a049	-0.07159478
41	0xbd02eebe	-0.031965964
42	0xbde175a6	-0.11008768
43	0x3d758015	0.0599366
44	0x3d2e688c	0.042580172
45	0x3bb3e294	0.0054896567
46	0xbb6605e3	-0.0035098724
47	0xbc5a98c4	-0.013342086
48	0x3d5fa53f	0.05460095
49	0xbd475109	-0.048661266
50	0x3dc9b557	0.09849041
51	0xbd12bef2	-0.03582663
52	0xbd458c78	-0.048229665
53	0xbb4fe11f	-0.0031719876
54	0x3d32ca5c	0.043650016
55	0xbd3d6ee4	-0.04624833
56	0xbabdd514	-0.0014483058
57	0xbc73e387	-0.01488579
58	0x3cbfbc16	0.023405116
59	0xbce674ca	-0.028131861
60	0xbbf6fc68	-0.0075374134
61	0xbda7f41b	-0.08200856
62	0x3ce71c23	0.028211659
63	0x3dabd25e	0.08389734
64	0x3d27b935	0.04094811
65	0xbdb5d3e9	-0.08878309
66	0x3d32fc36	0.04369756
67	0xbd8cf0fc	-0.068819016
68	0x3c06cfcc	0.008228254
69	0xbda83ecd	-0.08215103
70	0x3cefba8d	0.029263759
71	0x3d911303	0.07083704
72	0x3da643a9	0.08118374
73	0xbd801609	-0.06254203
74	0x3d641ee3	0.05569352
75	0xbd571a32	-0.052515216
76	0xbc89307e	-0.016746756
77	0xbd056660	-0.032568336
78	0xbd365a46	-0.044519685
79	0xbcf581a9	-0.029969053
80	0x3b9e6b49	0.0048345667
81	0x3d687f7f	0.056762215
82	0xbd31770f	-0.043326434
83	0x3dc07475	0.093972124
84	0x3d698ed4	0.057020977
85	0xbc87009f	-0.016479788
86	0xbd2fe50c	-0.042943045
87	0x3d72c019	0.05926523
88	0xbcb3a5b0	-0.021929592
89	0xbc39a537	-0.011330894
90	0x3dc67d1d	0.09691832
91	0xbdb43580	-0.08799267
92	0xbd2e2032	-0.042511173
93	0x3c857001	0.01628876
94	0xbd58f3ca	-0.05296687
95	0xbde16133	-0.110048674
96	0xbbdacdcf	-0.0066773663
97	0xbdd2e245	-0.10297064
98	0xbcd592a5	-0.026070902
99	0x3d87dd7b	0.06634041
100	0xbe2ca487	-0.16859637
101	0x3d5fb94a	0.054620065
102	0x3c1f3fe5	0.0097198235
103	0xbcf309b4	-0.029667713
104	0x3d8f0208	0.06982809
105	0xbcdfb708	-0.027308956
106	0x3dc788b3	0.0974287
107	0xbe16e062	-0.14734033
108	0xbddaa48a	-0.106759146
109	0xbe34891d	-0.1763043
110	0xbd877d24	-0.066156656
111	0x3d0efa28	0.034906536
112	0x3d85b927	0.06529456
113	0x3dab939b	0.08377763
114	0xbcc8e953	-0.02452532
115	0x3b848eff	0.004045367
116	0xbdef425e	-0.116825804
117	0x3d47d361	0.04878557
118	0xbe125869	-0.14291538
119	0x3d138258	0.036012977
120	0x3d469c40	0.048488855
121	0xbd457cfb	-0.048214894
122	0x3d8f72d7	0.07004326
123	0x3da8e1af	0.08246171
124	0x3db34f8b	0.08755406
125	0xbd98393b	-0.07432791
126	0x3d327aed	0.043574262
127	0xbca972a8	-0.020684555
128	0x3daa2e67	0.08309632
129	0xbd70813e	-0.058717005
130	0x3da20d64	0.0791271
131	0x3e50ecb2	0.20402792
132	0x3b7ed8d1	0.0038886557
133	0x3e134de0	0.14385176
134	0xbd9b05ce	-0.075694665
135	0x3ddeec9b	0.10884973
136	0x3d8e88a3	0.06959655
137	0xbcebe14c	-0.028793953
138	0x3c7e687d	0.015527842
139	0x3d02ad33	0.031903457
140	0xbe265782	-0.16244319
141	0x3e47d1ca	0.19513622
142	0x3d4ef234	0.05052395
143	0x3dc5f922	0.09666659
144	0x3de70520	0.112802744
145	0xb8ae2f8e	-8.305824e-05
146	0xbced5f94	-0.02897624
147	0x3be0db88	0.0068621077
148	0x3c70b946	0.01469261
149	0xbe071643	-0.13192086
150	0xbe096e4a	-0.13420978
151	0x3cabe796	0.020984452
152	0x3c335df7	0.010947696
153	0xbdd612ee	-0.10452829
154	0x3db401bb	0.087893926
155	0x3d9f19ed	0.07768617
156	0x3cf1d606	0.029521
157	0xbcee21e8	-0.029068902
158	0xbcc06f4a	-0.023490567
159	0xbdb57fdd	-0.088622786
160	0x3b3aa576	0.002847997
161	0xbd3df194	-0.046372965
162	0x3d082b5e	0.033244483
163	0xbd9abaef	-0.07555186
164	0xbe18c87c	-0.14920229
165	0x3b55af2c	0.0032605631
166	0xbd8b875e	-0.068129286
167	0xbd865df7	-0.06560891
168	0x3da7c637	0.08192103
169	0xbe131144	-0.14362055
170	0xbe68ea10	-0.22745538
171	0xbd48168a	-0.04884962
172	0x3c1ffa8e	0.009764327
173	0x3cf5bac6	0.029996287
174	0xbd55cdca	-0.05219821
175	0x3cb1a236	0.021683794
176	0xbe249d7b	-0.16075699
177	0x3e406378	0.18787944
178	0xbcc5c006	-0.024139415
179	0x3d3571b7	0.0442979
180	0x3cbebf94	0.023284711
181	0xbdaf9aa1	-0.08574415
182	0xbd351925	-0.044213433
183	0xbdc11ef2	-0.094297305
184	0xbc02bf54	-0.0079801865
185	0xbbf552b8	-0.0074866675
186	0x3caec9a7	0.02133639
187	0x3e87520e	0.2642979
188	0xbd94232f	-0.07233273
189	0x3cc79b98	0.024366185
190	0xbe15ab07	-0.14616023
191	0x3b9e943b	0.004839448
192	0xbe05ceea	-0.13067213
193	0x3d847a9d	0.06468699
194	0xbded7e27	-0.11596327
195	0x3cd81a4d	0.026379729
196	0x3da59c00	0.08086395
197	0xbdd3df8d	-0.10345373
198	0xbe2835dc	-0.16426796
199	0xbbfb8e40	-0.0076768696
200	0xbe0e606e	-0.13903973
201	0x3e33f5d0	0.17574239
202	0x3cb30165	0.02185125
203	0x3da76796	0.08174054
204	0xbcf53c89	-0.029936092
205	0xbd634546	-0.055485986
206	0x3df9ef20	0.122038126
207	0xb9d2f50e	-0.000402369
208	0x3dbb3cf3	0.091424845
209	0x3d187347	0.037219312
210	0xbd509369	-0.05092183
211	0xbce431ba	-0.027855743
212	0x3ca9790e	0.020687606
213	0xbce0c47c	-0.027437441
214	0xbd8524db	-0.0650117
215	0x3df9008d	0.12158308
216	0x3dc0f59d	0.09421847
217	0xbd44f9aa	-0.04808966
218	0xbe0cd81c	-0.13754314
219	0x3d9b207d	0.07574556
220	0xbe0343ff	-0.12818907
221	0xbd85366e	-0.06504522
222	0xb9ed6bf2	-0.00045284588
223	0xbdac2d54	-0.08407083
224	0x3dc4e8d2	0.096147195
225	0x3d960de9	0.07326872
226	0x3d77d2d9	0.060503814
227	0x3e575a7d	0.21030612
228	0x3d05e807	0.03269198
229	0xbd9e587b	-0.0773172
230	0xbde4e877	-0.11177152
231	0x3d9b1251	0.07571853
232	0xbdbeb95e	-0.093127
233	0xbd5092b3	-0.050921153
234	0xbddd91b7	-0.108188085
235	0xbd4ffca9	-0.050778065
236	0x3e412805	0.18862922
237	0x3d927e51	0.07152999
238	0x3da293ca	0.07938345
239	0x3d8fb0bf	0.070161335
240	0xbd402cec	-0.04691784
241	0x3de5bd71	0.11217774
242	0x3d34a875	0.044105966
243	0x3d7e9c8e	0.06216102
244	0xbd6ba89a	-0.057533838
245	0x3d9c10b9	0.07620377
246	0x3db6e965	0.08931235
247	0xbdcb367d	-0.09922502
248	0xbdc380f0	-0.09546077
249	0xbe21cf00	-0.1580162
250	0xbdb3ea7e	-0.0878496
251	0x3d128c35	0.035778243
252	0xbcd3e807	-0.025867475
253	0xbda14c55	-0.07875887
254	0xbd6345d3	-0.05548651
255	0x3cb81c65	0.022474477

decoder.linear_t.bias f4 [200]
0	0xbd8432de	-0.06455015
1	0x3df8dcce	0.1215149
2	0x3df10e89	0.117703505
3	0x3e1c2dfd	0.15251918
4	0x3d4da38d	0.050204802
5	0xbcca3cdd	-0.024687225
6	0x3e06ddee	0.13170597
7	0x3e6646d3	0.22487955
8	0xbd44b572	-0.048024602
9	0x3cabffd7	0.020996017
10	0x3d0a38ae	0.03374546
11	0x3e7895c9	0.24275889
12	0x3e949c18	0.2902534
13	0x3e7c0a7f	0.24613379
14	0x3de2745d	0.11057351
15	0xbda2949b	-0.079385005
16	0x3e6dbed1	0.23217322
17	0x3e1a03a2	0.15040448
18	0x3dda3d65	0.10656241
19	0x3dbafcc3	0.09130242
20	0x3df35ce1	0.118829496
21	0x3e2cb1c7	0.16864692
22	0x3e882dc1	0.26597407
23	0x3ca584aa	0.02020486
24	0xbc49bed8	-0.012313567
25	0x3e0098a3	0.12558226
26	0xbc5c0be0	-0.013430566
27	0xbc9b85df	-0.018984733
28	0x3df1c84a	0.1180578
29	0x3dd71754	0.10502496
30	0x3e333448	0.17500412
31	0x3ca02f4e	0.019553807
32	0xbe18886d	-0.14895792
33	0xbbd509bf	-0.006501406
34	0xbcb1eb78	-0.021718726
35	0xbc7ff4d3	-0.0156223355
36	0xbb942cd2	-0.0045219446
37	0x3cba4d74	0.02274201
38	0x3cfa4f61	0.030555429
39	0x3dd61ac3	0.10454323
40	0xbcd2dc3c	-0.025739782
41	0x3d16980d	0.0367661
42	0x3d18588d	0.037193824
43	0x3d2037b5	0.039115626
44	0x3e01b579	0.12666883
45	0x3df00bdb	0.11721011
46	0x3d85c5e3	0.065318845
47	0xbe243065	-0.16034086
48	0xbde6197c	-0.112353295
49	0x3e19f2bc	0.15034002
50	0x3d027127	0.03184619
51	0x3e3f94f8	0.18709171
52	0x3def2395	0.116767086
53	0x3d5ff7f5	0.05467983
54	0xbb17d23e	-0.0023166086
55	0x39dd7ffa	0.00042247755
56	0x3d662e05	0.05619623
57	0xbdc5bd0c	-0.096551985
58	0x3a5b87ed	0.00083744415
59	0x3cc93e4e	0.024565842
60	0x3e06870b	0.13137452
61	0xbd0ca7c1	-0.03433967
62	0x3ca91526	0.020639967
63	0xbb20b939	-0.0024524464
64	0x3dc84248	0.09778267
65	0xbcc67e3c	-0.024230115
66	0xbd8d821d	-0.06909583
67	0x3cd17b1c	0.025571398
68	0x3b95aa66	0.004567432
69	0x3db8fd11	0.090326436
70	0xbcf797a5	-0.030223677
71	0x3d4dc199	0.050233457
72	0x3d35864d	0.044317532
73	0xbd68edbe	-0.056867354
74	0x3de76920	0.11299348
75	0xbd4a2b08	-0.049357444
76	0xbced0756	-0.028934162
77	0x3d4667d5	0.048438866
78	0x3d3ed360	0.0465883
79	0xbd0af616	-0.033926092
80	0x3de692fc	0.11258504
81	0x3d75f6b9	0.060049746
82	0x3e50e746	0.20400724
83	0x3e4f5413	0.20246916
84	0x3daeb6e7	0.085309796
85	0x3cb415a5	0.021982977
86	0x3d7da593	0.061925482
87	0x3d6e2de9	0.058149252
88	0x3d65b169	0.056077395
89	0xbb070a02	-0.002060533
90	0x3df92bf3	0.12166586
91	0x3e3639d2	0.17795494
92	0x3e1bb9f6	0.15207657
93	0x3d938e22	0.07204844
94	0xbddff2f1	-0.10935009
95	0x3d3c0e3b	0.04591201
96	0x3dfca8b4	0.12336865
97	0x3e7a986a	0.24472204
98	0x3e2b1016	0.16705355
99	0x3d57838d	0.05261569
100	0xbc702052	-0.014656143
101	0xbbf8a975	-0.00758856
102	0x3e8940c0	0.26807213
103	0x3ce9800d	0.028503442
104	0xbd483738	-0.048880786
105	0x3dadae77	0.08480542
106	0x3e937109	0.28797176
107	0x3e8ec8a5	0.27887455
108	0x3eb2a5b3	0.34892043
109	0x3df7b216	0.12094514
110	0xbc992135	-0.018692592
111	0x3ea43cc7	0.3207762
112	0x3e069eb5	0.1314648
113	0x3e69c196	0.22827753
114	0x3dffcd8e	0.12490378
115	0x3e38dd41	0.18053152
116	0x3e9b48a2	0.30328852
117	0x3e6e407a	0.23266783
118	0x3e9584dd	0.2920293
119	0xbc8ca215	-0.01716713
120	0x3d7401eb	0.05957214
121	0xbd14e964	-0.03635539
122	0xbb33eee2	-0.0027455618
123	0x3e0ad166	0.13556442
124	0xbde81fbe	-0.11334179
125	0xbb10d0a3	-0.0022097013
126	0xbdb3f18d	-0.087863065
127	0x3cd948b3	0.026523924
128	0xbd925b74	-0.071463495
129	0x3db03a4c	0.08604869
130	0xbd5bfc95	-0.053707678
131	0xbaec5af4	-0.0018032477
132	0x3e7783c9	0.24171366
133	0x3dadb438	0.084816396
134	0x3e97803e	0.2959003
135	0x3d733202	0.059373863
136	0x3dca99a7	0.09892588
137	0x3dccfcde	0.10009168
138	0x3e7094ae	0.23494217
139	0xbcf411f4	-0.029793717
140	0x3cafb685	0.021449337
141	0x3dfe71d6	0.12424056
142	0x3d03f878	0.03221938
143	0x3e11c10f	0.14233802
144	0x3de72d1d	0.112879016
145	0xbdc45bda	-0.09587832
146	0x3dcfdde8	0.10149747
147	0x3e471042	0.19439796
148	0x3ed5b026	0.41735953
149	0xbb8806af	-0.0041511874
150	0xbc1c5208	-0.009541042
151	0x3d05bab6	0.032648765
152	0x3e8b8289	0.27248028
153	0xbdbf0690	-0.093274236
154	0x3df5403d	0.11975143
155	0x3d44d0d1	0.048050705
156	0xbd8eada6	-0.069667146
157	0xbd229874	-0.039696172
158	0xbd6b7826	-0.05748763
159	0x3dcbec71	0.09957207
160	0xbe090692	-0.13381413
161	0x3e19f861	0.15036155
162	0x3db37107	0.08761793
163	0x3e1ac717	0.15115009
164	0x3dca013f	0.09863519
165	0xbcf23cae	-0.02956995
166	0xbd1e083e	-0.03858208
167	0x3df93c32	0.121696845
168	0x3e35e6ba	0.17763796
169	0xbd2fc6f2	-0.04291434
170	0xbd8090fa	-0.06277652
171	0x3e06f214	0.13178283
172	0x3e269612	0.16268185
173	0x3d75d170	0.06001419
174	0xbdaae7f8	-0.08345026
175	0xbd80b56f	-0.06284606
176	0xbd6ee420	-0.058323026
177	0x3e876ba2	0.26449305
178	0x3eaf6861	0.34259322
179	0x3e208a19	0.1567768
180	0xbd9b0ba9	-0.075705834
181	0x3e00044b	0.12501638
182	0x3e320b86	0.17387208
183	0x3e19d0fb	0.15021126
184	0x3e4bb753	0.19894151
185	0x3dc5f5e0	0.096660376
186	0x3e0f28fa	0.13980475
187	0xbd867c11	-0.065666325
188	0xbd92c134	-0.07165757
189	0x3e6a3219	0.22870673
190	0x3df3f73b	0.1191239
191	0x3e02477e	0.12722585
192	0x3e0114e8	0.12605631
193	0xbd1e3a63	-0.0386299
194	0x3e5c21ef	0.2149732
195	0xbdb2914b	-0.08719119
196	0x3d83d76c	0.06437573
197	0x3de88dfb	0.113552056
198	0x3e0befcd	0.13665695
199	0xbd5f25df	-0.054479476

decoder.conv2_t.weight f4 [8, 4, 3, 3]
0	0xbe5ec5cb	-0.2175514
1	0xbe9438e6	-0.2894966
2	0xbd0e6080	-0.03476
3	0xbde6091a	-0.11232205
4	0x3e622f78	0.2208842
5	0x3f2477ec	0.64245486
6	0xbe0e7a94	-0.13913947
7	0xbd70d43c	-0.058796152
8	0xbb90d353	-0.004419723
9	0xbe9136c9	-0.2836211
10	0xbecd569f	-0.4010515
11	0x3dbb3155	0.09140269
12	0xbe699ad3	-0.22812967
13	0x3ec64166	0.3872177
14	0x3f58fb08	0.84758043
15	0xbe35a77a	-0.17739668
16	0xbcedc12c	-0.029022776
17	0x3d4612d1	0.04835779
18	0xbdf09191	-0.117465146
19	0x3da32fef	0.07968127
20	0x3eada0b7	0.33911678
21	0xbe03ef06	-0.12884149
22	0x3db5b9c6	0.08873324
23	0x3e9278b0	0.28607702
24	0xbebc44e7	-0.36771318
25	0xbe74a7e2	-0.23892167
26	0xbd9fb427	-0.07798033
27	0xbe1a9eda	-0.1509966
28	0xbe72ad6c	-0.23698968
29	0x3e0d9a20	0.13828325
30	0xbea63dca	-0.32469016
31	0x3d48402c	0.048889324
32	0x3eae84ce	0.34085697
33	0x3db2bf85	0.08727936
34	0x3ed976d9	0.42473486
35	0x3ec76039	0.389406
36	0xbe2705a7	-0.1631075
37	0xbe470cc0	-0.19438457
38	0x3cf74c27	0.03018768
39	0xbdc4e39c	-0.096137255
40	0xbec7d52f	-0.39029834
41	0xbe38eebb	-0.18059818
42	0xbdad127f	-0.084507935
43	0xbe8419e1	-0.25800994
44	0xbe2dcbf4	-0.16972333
45	0xbe725927	-0.23666821
46	0xbe79ed17	-0.24406849
47	0x3dbef366	0.09323768
48	0xbeb9676a	-0.3621171
49	0xbf093338	-0.5359378
50	0xbec2e393	-0.3806425
51	0xbdf40e2b	-0.11916765
52	0xbec29512	-0.38004357
53	0xbe6f2236	-0.23352894
54	0xbef6348b	-0.48086962
55	0xbe6d528b	-0.23176019
56	0xbe8ff18d	-0.28113976
57	0xbe95be06	-0.2924654
58	0xbd83104a	-0.06399591
59	0xbebfd7c6	-0.3746931
60	0x3cee372c	0.029079042
61	0xbd3b401d	-0.04571544
62	0xbdc08294	-0.09399906
63	0xbdad7e6c	-0.08471379
64	0x3d30e9d0	0.04319173
65	0xbe36fa2b	-0.17868869
66	0xbf231ef5	-0.6371911
67	0xbdb86159	-0.090029426
68	0xbbfadb51	-0.007655539
69	0xbe1a5e59	-0.15075053
70	0xbf201a10	-0.6253977
71	0xbe84d6d6	-0.25945157
72	0x3e10d2a2	0.1414285
73	0x3e5e8726	0.21731243
74	0xbead5476	-0.338535
75	0x3dbe9fbf	0.09307813
76	0xbe6001d8	-0.21875703
77	0xbf01e04f	-0.5073289
78	0xbd977650	-0.07395613
79	0xbdde3ef1	-0.10851849
80	0x3e6905a3	0.22756056
81	0x3e78cf69	0.2429787
82	0xbe8b4b81	-0.27206042
83	0xbf22f05e	-0.6364802
84	0x3dcefeb9	0.10107178
85	0xbe95491f	-0.2915735
86	0xbe4e70f9	-0.20160283
87	0xbd9c00d9	-0.07617349
88	0xba9b5bf4	-0.0011852966
89	0x3eaac38a	0.3335231
90	0xbe843e19	-0.25828627
91	0xbf36dd1a	-0.71431124
92	0xbd116ebb	-0.03550599
93	0xbe01212e	-0.12610313
94	0x3c19a095	0.009376665
95	0x3ec9bd92	0.39402443
96	0xbe876f0f	-0.26451918
97	0xbd6773a3	-0.056506764
98	0x3e986271	0.29762605
99	0xbd69078b	-0.05689196
100	0xbed8fb1b	-0.42379078
101	0x3dffced9	0.12490625
102	0x3e646a69	0.22306217
103	0x3d51ca9c	0.051218614
104	0xbea8df52	-0.3298288
105	0x3c8712e7	0.016488506
106	0x3e92a0db	0.28638348
107	0x3ed9e126	0.42554587
108	0x3e8906d8	0.26763034
109	0x3ee8e9ad	0.4549078
110	0x3dac99bd	0.08427761
111	0x3e30df8a	0.17272773
112	0xbd143900	-0.036187172
113	0x3ca0b44e	0.019617226
114	0xbe9c5ce1	-0.3053961
115	0xbf230dcd	-0.63692933
116	0x3e067041	0.13128759
117	0x3ee12959	0.43976858
118	0x3f403497	0.75080246
119	0x3dfa7790	0.12229836
120	0x3e6d89b5	0.23197062
121	0xbd378e94	-0.044813707
122	0x3cd4c59e	0.025973137
123	0xbecd0c47	-0.4004843
124	0xbef90736	-0.48638314
125	0x3e78ca3d	0.24295898
126	0xbe3c0138	-0.1835984
127	0x3f02144b	0.50812215
128	0x3e79c549	0.24391665
129	0xbed50ae7	-0.4160988
130	0xbe005189	-0.12531103
131	0x3cbddbd9	0.02317612
132	0x3d0755a6	0.033040665
133	0x3e81bb3b	0.25338158
134	0x3f209905	0.6273349
135	0xbda86097	-0.08221548
136	0x3e6ceddd	0.23137613
137	0x3e090091	0.13379122
138	0x3f31aff2	0.69409096
139	0x3e67cd59	0.22636928
140	0x3d632f76	0.055465184
141	0x3d5ae281	0.053438667
142	0xbe212514	-0.157368
143	0x3d801502	0.06254007
144	0xbd8baaf9	-0.0681972
145	0xbdba5c61	-0.09099651
146	0x3e09358d	0.13399334
147	0xbdaae238	-0.08343929
148	0x3cf19ef7	0.029494746
149	0x3efac134	0.48975527
150	0xbc893911	-0.016750844
151	0x3e0cbe73	0.13744526
152	0x3de0dc0b	0.1097947
153	0xbdd22775	-0.10261432
154	0xbd91abf1	-0.07112873
155	0x3ea55e05	0.32298294
156	0xbea7f9dd	-0.32807818
157	0x3da1ec8a	0.07906444
158	0x3f371272	0.7151252
159	0xbc9d442f	-0.019197552
160	0x3ea68cc0	0.3252926
161	0x3e56f0e4	0.2099033
162	0xbe245348	-0.16047394
163	0x3e162f10	0.1466639
164	0x3d7cc01f	0.06170666
165	0xbe01559e	-0.12630317
166	0xbdca8773	-0.09889116
167	0x3ea39675	0.31950727
168	0xbebaac80	-0.36459732
169	0x3d803344	0.06259778
170	0xbd989c9f	-0.07451748
171	0xbdad750b	-0.0846959
172	0x3dd1f26a	0.10251315
173	0x3dc7353b	0.0972695
174	0xbf05a6a9	-0.5220743
175	0xbd2168ae	-0.03940647
176	0x3eec8bf2	0.4620052
177	0xbc73bb60	-0.014876217
178	0x3efc5f50	0.49291468
179	0x3ec6972e	0.38787216
180	0x3e15a5d1	0.14614035
181	0x3e0149dc	0.12625831
182	0xbc8bd621	-0.017069878
183	0x3e252d76	0.16130623
184	0x3e47dbd0	0.19517446
185	0x3d16eba8	0.036845833
186	0x3cbca090	0.02302578
187	0x3e237ea9	0.15966286
188	0xbe5b7e0b	-0.214348
189	0x3e45781c	0.192841
190	0x3e7a055c	0.24416107
191	0xbd56a345	-0.0524018
192	0x3f0eed1c	0.5583055
193	0x3ee5da8c	0.448933
194	0xbe1b5544	-0.15169245
195	0x3d65f97c	0.05614613
196	0xbe852353	-0.26003513
197	0xbec06ea6	-0.37584418
198	0xbed4195f	-0.41425607
199	0x3eb5982c	0.3546766
200	0xbd529941	-0.051415686
201	0x3f05cd9e	0.5226687
202	0x3d53403d	0.051574934
203	0xbe9c8b17	-0.30574867
204	0xbed90558	-0.4238689
205	0xbf035043	-0.51294345
206	0xbef834a9	-0.48477677
207	0xbe036716	-0.12832293
208	0xbd60b73d	-0.05486225
209	0xbc5490c7	-0.012973971
210	0x3f2dd2d9	0.67899853
211	0xbcb41e6b	-0.02198716
212	0xbd87f723	-0.066389345
213	0xbe04a62d	-0.12954016
214	0xbea03b67	-0.3129532
215	0xbe235417	-0.15950046
216	0x3b5a1a29	0.0033279753
217	0x3d536048	0.051605493
218	0x3d33e8e4	0.043923274
219	0xbd9da2c0	-0.07697058
220	0xbd58d1a4	-0.052934304
221	0xbde72a88	-0.11287409
222	0x3e867cf1	0.26267198
223	0x3f1affbc	0.6054647
224	0x3e00a9d9	0.12564792
225	0xbd0c93e1	-0.034320716
226	0x3d8f0780	0.069838524
227	0x3d2be2c1	0.041964296
228	0xbda2c7d4	-0.079482704
229	0x3af146a1	0.001840789
230	0xbe095374	-0.13410741
231	0x3ec22014	0.379151
232	0x3f5ec835	0.8702424
233	0x3e8ef62c	0.2792219
234	0x3d4be1b6	0.0497758
235	0xbdb1080f	-0.08644115
236	0xbed3f00c	-0.4139408
237	0x3ec3b33e	0.38222688
238	0xbc89a188	-0.016800657
239	0x3d8d1bfa	0.06890102
240	0x3e0b87ec	0.13626069
241	0x3f00e973	0.50356215
242	0x3ebe96a8	0.37224317
243	0xbd6b7a46	-0.057489656
244	0x3e135e29	0.14391388
245	0xbdfdea93	-0.12398257
246	0xbe631745	-0.22176845
247	0xbe51f699	-0.20504226
248	0xbce1bb8f	-0.027555255
249	0xbe4f5de1	-0.20250656
250	0x3ecd0a77	0.40047047
251	0xbdd6a921	-0.104814775
252	0xbc9d0444	-0.019167073
253	0xbc6869ef	-0.014185413
254	0xbdc26847	-0.094925456
255	0xbc910a20	-0.017705023

decoder.conv2_t.bias f4 [4]
0	0xbf184fcc	-0.5949676
1	0x3d14aa93	0.036295485
2	0x3c99626d	0.01872369
3	0xb8ff7cb7	-0.000121825775

decoder.conv1_t.weight f4 [4, 1, 5, 5]
0	0x3d3fc5d5	0.046819527
1	0x3dde163e	0.10844086
2	0xbd015424	-0.031574383
3	0xbd5cde88	-0.05392316
4	0x3d08b461	0.033375148
5	0x3ce50d7a	0.027960528
6	0x3c502f16	0.012706539
7	0x3db6073e	0.088881
8	0xbd9c8c50	-0.0764395
9	0x3bdedf9e	0.0068015596
10	0xbe1ecdc7	-0.15508185
11	0xbd201652	-0.039083786
12	0x3f57935d	0.84209234
13	0x3d705acd	0.058680344
14	0x3da55612	0.08073057
15	0xbe9fbd55	-0.31199136
16	0x3df598e9	0.11992056
17	0x3ef0aca9	0.4700673
18	0xbf3d91d7	-0.7405066
19	0xbe9bb3a2	-0.30410486
20	0xbdc7eeac	-0.0976232
21	0x3db6e19f	0.089297526
22	0x3e283821	0.16427661
23	0xbe193cd6	-0.14964613
24	0x3d9637f4	0.07334891
25	0xbc8a64a7	-0.016893698
26	0xbc8285f6	-0.015933018
27	0x3ade9c86	0.0016983903
28	0x3c286662	0.010278316
29	0x3c360c01	0.01111126
30	0x3cd55123	0.026039666
31	0x3b547a95	0.0032421697
32	0xbd82ff99	-0.06396408
33	0xbd0792d8	-0.033099025
34	0xbdd6f96e	-0.10496794
35	0x3d3ac70d	0.045599986
36	0xbdc23d4e	-0.09484349
37	0xbd29f569	-0.041493807
38	0x3ea8cf02	0.32970434
39	0xbe5ed75e	-0.21761844
40	0x3d88f3e6	0.06687145
41	0xbd3a12d1	-0.0454281
42	0x3f2bc2c4	0.67094064
43	0x3f9f3573	1.2438186
44	0x3e31942d	0.17341681
45	0xbc852609	-0.016253488
46	0xbe19c4b7	-0.15016447
47	0x3e29a114	0.16565353
48	0x3e9bc541	0.3042393
49	0xbe2a6eae	-0.16643783
50	0xb8b0df46	-8.433922e-05
51	0xbc27fe79	-0.010253542
52	0x3c0ae614	0.008477706
53	0x3c9abcd4	0.018888868
54	0xbc93883b	-0.018009296
55	0xbc022472	-0.00794326
56	0x3b996b7b	0.004682002
57	0x3d313863	0.043266665
58	0x3c85acd7	0.016317768
59	0x3cc992d1	0.02460614
60	0x3b02c7ba	0.0019955472
61	0x3d2a96fe	0.041647904
62	0xbd4df2a0	-0.050280213
63	0xbe7408f2	-0.23831537
64	0x3db465b4	0.08808461
65	0xbd08a4f6	-0.033360444
66	0xb9834242	-0.00025035633
67	0xbe1aee49	-0.15129961
68	0x3d6723db	0.05643068
69	0x3ece9602	0.40348822
70	0xbc8007f1	-0.015628787
71	0x3c78b0c4	0.015178863
72	0x3e886041	0.26635936
73	0x3f6a209c	0.9145601
74	0x3f4108ce	0.7540406
75	0xbaa12d6e	-0.0012296864
76	0x3d2fdade	0.042933337
77	0xbb51247d	-0.0031912618
78	0xbd69b2ab	-0.057055157
79	0x3c0f2523	0.008736881
80	0xbca7c8e2	-0.02048153
81	0x3c22c476	0.009934535
82	0xbde9fe0d	-0.114254095
83	0x3d533110	0.05156046
84	0x3ea7518b	0.326794
85	0xbb9c0530	-0.0047613606
86	0x3dc6f293	0.09714236
87	0x3d86f6eb	0.065900646
88	0x3f435811	0.76306254
89	0x3f92f5c1	1.1481248
90	0x3cb5d5a8	0.022196606
91	0x3c0a7a24	0.008451972
92	0xbea90228	-0.33009458
93	0x3c7f73c5	0.015591566
94	0x3ed5950d	0.4171528
95	0x3ce5b107	0.028038515
96	0x3d5a0f76	0.0532374
97	0xbe1d7fd4	-0.15380794
98	0xbe25cdd0	-0.16191792
99	0x3d11544c	0.035480782
