Homework/4_AutoEncoders/models/q2_parms_nc_25.pt (torch, 47745 bytes, 11 tensors)

encoder.conv1.weight f4 [4, 1, 5, 5]
0.0067142015 -0.048422452 -0.04265972 -0.041000936 -0.060825147 0.036784988 0.102627575 -0.047384206
-0.05614423 -0.115180776 0.08377826 0.15242295 0.034229815 -0.113628685 -0.12503088 0.16772759
0.20212448 0.09060758 -0.061916586 -0.11159326 0.08348775 0.10220736 0.039228212 -0.08364554
-0.071275204 -0.006056499 0.06241985 0.017654022 -0.057444457 -0.043414492 0.07302462 -0.0037639108
-0.11998246 -0.1623098 -0.10870523 -0.014331959 -0.049042486 -0.10387482 -0.12796524 -0.16013935
-0.0650309 -0.08170407 -0.12979676 -0.20800695 -0.23630765 -0.03313076 -0.16703957 -0.19795026
-0.23128584 -0.25604287 -0.108564876 0.13605012 0.07543369 -0.033727292 -0.089174286 -0.12463911
0.14650221 0.11511951 -0.07361297 -0.13059357 -0.20165718 0.16717137 0.2793801 0.19040543
-0.048417345 -0.27850735 -0.026201354 0.12452801 0.19703776 0.14394341 -0.25092992 -0.1969262
-0.20378156 -0.07727155 0.017149312 0.004151822 -0.008442348 -0.021445502 0.025167959 0.011300788
-0.03173985 -0.0536306 0.037765916 0.06655099 0.005287946 -0.022020489 0.018046744 0.14636247
0.13899322 0.050197348 -0.052674305 0.08190631 0.17448908 0.21461296 0.112442315 -0.01532601
0.061313774 0.08779681 0.137008 0.028456049
00000000: ce02 dc3b 9f56 46bd f5bb 2ebd 99f0 27bd
00000010: ca23 79bd dbab 163d 682e d23d f115 42bd
00000020: 7ef7 65bd e6e3 ebbd f093 ab3d c314 1c3e
00000030: 9034 0c3d 28b6 e8bd 1808 00be c8c0 2b3e
00000040: b8f9 4e3e 7890 b93d 3f9c 7dbd 028b e4bd
00000050: a0fb aa3d 1852 d13d c3ad 203d 5a4e abbd
00000060: bcf8 91bd 9975 c6bb f5ab 7f3d 2b9f 903c
00000070: e14a 6bbd 65d3 31bd ef8d 953d f2ab 76bb
00000080: 5db9 f5bd 8a34 26be d9a0 debd 98d0 6abc
00000090: c6e0 48bd 52bc d4bd 5209 03be 92fb 23be
000000a0: ec2e 85bd 7754 a7bd 71e9 04be c6ff 54be
000000b0: a2fa 71be 1fb4 07bd 6c0c 2bbe 79b3 4abe
000000c0: 32d6 6cbe 0d18 83be 4357 debd b950 0b3e
000000d0: fa7c 9a3d a125 0abd 02a1 b6bd ca42 ffbd
000000e0: ad04 163e c7c3 eb3d 66c2 96bd 52ba 05be
000000f0: 387f 4ebe f92e 2b3e e90a 8f3e a4f9 423e
00000100: 4451 46bd 8498 8ebe 39a4 d6bc 8b08 ff3d
00000110: 44c4 493e e765 133e e379 80be 06a7 49be
00000120: 1dac 50be 8c40 9ebd b77c 8c3c 020c 883b
00000130: c651 0abc 7aae afbc 092d ce3c f126 393c
00000140: a501 02bd c3ab 5bbd 6fb0 1a3d e34b 883d
00000150: 8246 ad3b 5064 b4bc c4d6 933c 0be0 153e
00000160: 3d54 0e3e bc9b 4d3d 03c1 57bd 7fbe a73d
00000170: 44ad 323e 80c3 5b3e 2848 e63d f219 7bbc
00000180: 2724 7b3d d0ce b33d d34b 0c3e a91c e93c

encoder.conv1.bias f4 [4]
0.049823355 0.42717716 -0.109313145 0.11956624
00000000: 9313 4c3d f7b6 da3e 92df dfbd 25df f43d

encoder.conv2.weight f4 [8, 4, 3, 3]
-0.116746716 -0.15336244 0.33273363 -0.60840714 -0.073010564 0.00802607 -0.49333683 -0.29940093
0.24289437 0.13143313 0.36695996 -0.09268616 0.07421543 0.40513387 -0.015797218 0.419131
0.18771161 -0.2954034 -0.04859907 -0.16568275 -0.046659507 -0.2944547 -0.45738882 -0.14855994
-0.08447618 -0.44998685 -0.23656672 -0.08837341 -0.12318089 0.067085385 -0.1554749 -0.16968009
0.18109486 -0.4183198 -0.30314177 0.25974366 -0.044009678 -0.017658388 -0.027881239 0.053581268
-0.06989627 0.025511552 0.096880145 -0.052322034 -0.032155346 -0.06378753 -0.01601055 -0.011767105
0.13623028 0.11056851 -0.08796395 -0.10662773 -0.37562567 -0.008444845 -0.0087660365 -0.023883438
-0.016931897 -0.02997342 -0.13022736 -0.16219813 -0.04292856 -0.11823574 -0.10101593 0.042515937
0.03277939 0.040098332 -0.023015717 -0.14583887 0.1986838 0.092123166 0.36845583 0.18631402
0.012405356 -0.048892394 -0.17540723 0.052668553 -0.08770726 -0.1822293 -0.044723425 -0.12847689
-0.26184133 0.115669206 0.16496374 0.059186164 -0.24946226 -0.5050524 -0.37707523 0.061940167
0.20927854 0.1933525 -0.04409866 0.09163191 0.09830108 -0.037523475 0.04256032 0.012109941
0.010625843 0.058161326 -0.10824524 0.0727734 -0.078915566 -0.07179129 0.17647687 0.45058808
0.12749967 0.2252571 -0.048401255 -0.24784061 0.03450612 0.045296967 0.018323163 0.02163753
0.07477917 0.13185114 0.019729747 0.092690535 0.13434656 0.023959696 -0.008619034 -0.0016486438
0.082179345 -0.16963415 -0.16816828 0.15851313 0.015334007 -0.12626027 0.04936866 0.012476468
-0.027573008 0.026904365 0.017830411 0.075534984 0.01866376 0.056779385 0.097695164 0.025435839
0.04613514 1.5317637e-06 0.020864807 0.18210731 0.26741466 -0.16587894 -0.02792823 0.11373737
0.081139 0.17253411 -0.06705662 0.098323636 0.3001205 0.019855939 -0.04211071 0.09008737
0.17482252 -0.031847756 0.16586536 0.1324313 -0.27171004 0.0858999 0.2458807 0.04196516
-0.112243496 -0.090932764 0.100795805 0.10815244 -0.032505542 0.17454745 0.23057233 -0.014165428
0.0058612977 0.112516545 0.04973014 -0.16593958 -0.045543026 -0.19702116 -0.024773939 0.17082098
-0.15683466 -0.068308674 0.029185837 0.073169164 -0.027167253 -0.016281461 0.057502575 -0.09287426
0.07984518 -0.09261806 -0.06838203 0.21891779 0.030655986 -0.010382886 0.030928478 -0.006341833
0.119300045 -0.12238933 0.14087516 -0.17929484 -0.3308765 -0.044676386 -0.0378003 -0.02298719
0.019508954 -0.023401104 0.042506166 0.12240012 0.052278053 0.11580221 0.16669193 0.01289462
0.0030966187 -0.009831408 -0.20031379 0.054581743 -0.19361664 0.06770868 0.16017483 -0.09499058
0.068053626 -0.20974465 -0.21834287 0.09128249 -0.5250044 -0.10785798 0.22570638 -0.4064738
-0.3841662 0.12628861 0.21756631 0.28117275 0.5935641 -0.2502534 0.30125055 0.1596199
0.08476155 -0.12112137 0.08319519 -0.17496355 -0.29262817 0.18762578 -0.1974224 -0.47173163
0.16602257 -0.18746847 -0.36915 0.24985749 -0.38856417 -0.44225782 0.033658903 -0.24276191
-0.573274 0.2869758 -0.22073512 0.012242751 -0.01575785 0.095630445 0.1651115 -0.017412322
00000000: e718 efbd 0b0b 1dbe 105c aa3e 92c0 1bbf
00000010: 9086 95bd c77f 033c a596 fcbe 144b 99be
00000020: 4db9 783e 6896 063e 2de2 bb3e 3ed2 bdbd
00000030: 42fe 973d b56d cf3e 2b69 81bc 5798 d63e
00000040: 7937 403e 1d3f 97be d20f 47bd bda8 29be
00000050: 0a1e 3fbd c4c2 96be de2e eabe 1920 18be
00000060: d901 adbd ad64 e6be 8c3e 72be 1efd b4bd
00000070: 4346 fcbd 1064 893d d034 1fbe 9ec0 2dbe
00000080: ee70 393e 032e d6be 6635 9bbe 1ffd 843e
00000090: 7e43 34bd 53a8 90bc 3267 e4bc 0878 5b3d
000000a0: c725 8fbd 9afd d03c 1969 c63d a14f 56bd
000000b0: 53b5 03bd 09a3 82bd 8f28 83bc d1ca 40bc
000000c0: f37f 0b3e be71 e23d 7226 b4bd a45f dabd
000000d0: 0252 c0be 3f5c 0abc 6c9f 0fbc 33a7 c3bc
000000e0: c3b4 8abc d18a f5bc 525a 05be 4417 26be
000000f0: dcd5 2fbd 9425 f2bd 71e1 cebd 3125 2e3d
00000100: af43 063d 263e 243d 758b bcbc c956 15be
00000110: c473 4b3e 12ab bc3d 3ea6 bc3e 1ac9 3e3e
00000120: d63f 4b3c 6443 48bd f49d 33be fbba 573d
00000130: dd9f b3bd 519a 3abe e92f 37bd 728f 03be
00000140: 1110 86be fae3 ec3d 41ec 283e 316d 723d
00000150: 0973 7fbe 1d4b 01bf 0110 c1be f9b4 7d3d
00000160: 1d4d 563e 33fe 453e cca0 34bd 83a9 bb3d
00000170: 1452 c93d 37b2 19bd bb53 2e3d c668 463c
00000180: 0418 2e3c 923a 6e3d aeaf ddbd 380a 953d
00000190: 7c9e a1bd 5007 93bd 5ab6 343e 7bb3 e63e
000001a0: 468f 023e cca9 663e 6540 46bd eec9 7dbe
000001b0: 4a56 0d3d 5089 393d 751a 963c 3041 b13c
000001c0: d225 993d fc03 073e 47a0 a13c 89d4 bd3d
000001d0: 2592 093e 2047 c43c d936 0dbc 4e17 d8ba
000001e0: a54d a83d 93b4 2dbe 4e34 2cbe 4451 223e
000001f0: 7d3b 7b3c 5f4a 01be cb36 4a3d 1a6a 4c3c
00000200: cae0 e1bc 8b66 dc3c 1511 923c 16b2 9a3d
00000210: bee4 983c 8091 683d 6714 c83d d25e d03c
00000220: 33f8 3c3d 0097 cd35 acec aa3c 577a 3a3e
00000230: 93ea 883e 2bdc 29be bec9 e4bc 23ef e83d
00000240: 342c a63d c8ac 303e fb54 89bd e75d c93d
00000250: 65a9 993e eca8 a23c 487c 2cbd ba7f b83d
00000260: ad04 333e cb72 02bd 9cd8 293e 129c 073e
00000270: 941d 8bbe 49ec af3d 26c8 7b3e a9e3 2b3d
00000280: ebdf e5bd f53a babd 086e ce3d 077f dd3d
00000290: 8824 05bd 91bc 323e 271b 6c3e 1c16 68bc
000002a0: 2110 c03b 136f e63d d5b1 4b3d 11ec 29be
000002b0: 538b 3abd eabf 49be b7f2 cabc b2eb 2e3e
000002c0: 4499 20be 6be5 8bbd 2317 ef3c b7d9 953d
000002d0: dc8d debc b360 85bc d287 6b3d dc34 bebd
000002e0: df85 a33d 8aae bdbd e10b 8cbd fc2b 603e
000002f0: 4322 fb3c fb1c 2abc b85d fd3c 27cf cfbb
00000300: 9553 f43d 42a7 fabd 9441 103e 1199 37be
00000310: a568 a9be 96fe 36bd 7dd4 1abd a24f bcbc
00000320: 3ed1 9f3c acb3 bfbc f21a 2e3d eaac fa3d
00000330: 8321 563d b629 ed3d 4ab1 2a3e f543 533c
00000340: a4f0 4a3b ea13 21bc 0f1f 4dbe 1b91 5f3d
00000350: 7143 46be d9aa 8a3d df04 243e 6c8a c2bd
00000360: b35f 8b3d 4dc7 56be 4695 5fbe 50f2 ba3d
00000370: b066 06bf a5e4 dcbd 931f 673e 551d d0be
00000380: 6fb1 c4be cd51 013e b4c9 5e3e e0f5 8f3e
00000390: d1f3 173f 3721 80be 833d 9a3e 6673 233e
000003a0: 7797 ad3d 7b0e f8bd 3d62 aa3d a529 33be
000003b0: 5cd3 95be f920 403e 1929 4abe cf86 f1be
000003c0: d201 2a3e bcf7 3fbe 3b01 bdbe a4da 7f3e
000003d0: e2f1 c6be 9e6f e2be ebdd 093d 9496 78be
000003e0: 16c2 12bf 7eee 923e 6308 62be d295 483c
000003f0: 9b16 81bc e5d9 c33d fd12 293e 49a4 8ebc

encoder.conv2.bias f4 [8]
-0.09228912 0.6173033 0.47965956 0.2875684 -0.12606609 0.79907924 -0.16565922 0.38645527
00000000: 1402 bdbd 9707 1e3f f095 f53e 2a3c 933e
00000010: 7817 01be 7590 4c3f 92a2 29be 77dd c53e

encoder.linear.weight f4 [25, 200]
-0.037622076 -0.07029298 -0.06219498 0.06227305 0.08622683 -0.03764373 0.03724859 0.059798058
-0.05796385 -0.031007469 -0.03421913 0.09742446 0.023862882 0.033383112 -0.19020058 -0.020901365
0.11748082 0.10588066 -0.1355962 -0.2667009 -0.11849298 0.08677998 -0.033137042 0.05713746
-0.3481496 0.20030615 0.09538892 -0.16452353 -0.09262563 -0.13747421 -0.026898224 -0.102682486
0.22277668 0.09536791 0.05350077 -0.12471033 0.014368845 -0.07638415 0.2036667 0.009415714
-0.017299403 -0.32102838 -0.0842396 0.29074958 0.26318628 0.06986772 0.34017298 -0.046708368
0.118004866 0.040011525 0.06696223 0.021755937 -0.23114973 -0.12705383 -0.13947652 0.034367263
-0.06440453 0.13024455 -0.068004094 0.07661414 0.041750778 0.12168776 -0.123471186 0.12601946
-0.028696308 -0.07624951 -0.29535887 0.12152091 0.16159509 0.16281231 0.23742601 -0.01391285
0.10317793 0.3383138 -0.09030586 0.09488636 0.1692985 0.025199423 -0.1187388 -0.23603347
0.015073353 -0.012431397 0.27367342 -0.020533813 0.043622214 -0.04372676 0.1432344 -0.09626168
0.12616186 0.18782549 -0.2529666 -0.32145792 0.30354336 0.20375362 0.06825687 0.16229257
-0.28205985 -0.4551766 0.50119203 0.017300159 -0.017849 0.0066846884 0.03296198 0.08499212
-0.11355037 -0.06497304 0.114210814 0.026565656 0.14659046 0.06851207 0.041453138 -0.00015193061
0.079769544 -0.06794738 -0.019044727 -0.100501806 -0.17405383 0.101955436 -0.014811234 0.1045032
0.20155215 -0.070583284 -0.173244 -0.07545286 -0.0087920185 0.0088358335 0.055126023 -0.102401406
-0.13843438 -0.18005659 -0.041996993 -0.0297812 0.1041843 0.0018566486 0.1690006 0.020226644
-0.15560237 0.10753565 0.08942335 -0.07640359 -0.013994461 -0.3327231 -0.16128615 -0.016491406
0.093407385 0.19204946 0.2687126 0.033411574 -0.046515733 0.019590862 -0.09240514 -0.050289974
0.11928408 0.079458736 -0.001813617 0.0058920244 0.21069035 -0.033464912 0.07045223 -0.04940594
0.011527836 -0.09606147 0.091744184 -0.18762358 -0.15486811 0.10655958 0.25558364 -0.24965757
-0.088059515 -0.045226753 -0.14708625 0.19713585 0.12520434 -0.63051844 0.030310651 -0.07105397
0.09689891 -0.058832843 -0.013373981 -0.11238436 0.076411195 -0.14736795 -0.18479413 -0.11222964
0.0020071906 -0.14883861 -0.0194751 -0.121417336 0.16953199 -0.026547242 0.016098358 -0.11068047
0.05039673 -0.15547043 0.090151526 0.08888359 -0.093633905 0.14556757 0.21606243 0.114242576
-0.06871305 -0.0060780286 -0.04699221 -0.16426067 -0.055535357 -0.06410268 0.26473916 -0.26611686
0.11270118 -0.7153409 0.058761414 0.37906763 -0.00036106116 -0.035912987 -0.04961025 -0.06479035
0.24442676 -0.08666669 0.1801058 -0.07335186 -0.014384157 -0.116886735 0.10162506 -0.08586085
0.022068635 -0.11031644 -0.16555928 0.23717077 -0.11148219 -0.1714035 -0.15415722 -0.15417632
-0.12709124 0.41320464 0.05938983 -0.120458946 -0.042179793 -0.07262073 -0.038393993 -0.07985808
0.058576748 0.22346717 -0.09329976 0.046506852 -0.02142113 0.02770526 -0.323074 -0.097373426
0.12879767 -0.027018316 0.07075952 -0.20017004 0.0600213 -0.14362048 -0.023061864 0.032407217
00000000: 9b19 1abd c4f5 8fbd 2ac0 7ebd 0712 7f3d
00000010: b197 b03d 5030 1abd fa91 183d cfee 743d
00000020: 816b 6dbd 6003 febc 5c29 0cbd 7a86 c73d
00000030: 177c c33c bbbc 083d f1c3 42be 5739 abbc
00000040: c999 f03d f6d7 d83d bbd9 0abe 058d 88be
00000050: 73ac f2bd b4b9 b13d b5ba 07bd f808 6a3d
00000060: aa40 b2be 0e1d 4d3e 445b c33d db78 28be
00000070: 82b2 bdbd 0ac6 0cbe aa59 dcbc 324b d2bd
00000080: 921f 643e 4050 c33d a023 5b3d 2168 ffbd
00000090: 4e6b 6b3c 4b6f 9cbd 018e 503e 5e44 1a3c
000000a0: 7ab7 8dbc d55d a4be d085 acbd 21dd 943e
000000b0: 5ac0 863e cf16 8f3d 272b ae3e 4651 3fbd
000000c0: 89ac f13d 20e3 233d 7e23 893d 8239 b23c
000000d0: 84b2 6cbe 661a 02be efd2 0ebe b0c4 0c3d
000000e0: 86e6 83bd d45e 053e bb45 8bbd e0e7 9c3d
000000f0: dd02 2b3d 6f37 f93d 76de fcbd 3f0b 013e
00000100: 8514 ebbc b428 9cbd 4739 97be f4df f83d
00000110: 2f79 253e 45b8 263e ce1f 733e b9f2 63bc
00000120: f34e d33d 7737 ad3e 47f2 b8bd c853 c23d
00000130: 965c 2d3e 056f ce3c 542d f3bd c2b2 71be
00000140: 3af6 763c 0fad 4bbc ec1e 8c3e 8736 a8bc
00000150: 35ad 323d d51a 33bd 0aac 123e d824 c5bd
00000160: 9330 013e 5355 403e d784 81be 2296 a4be
00000170: 096a 9b3e caa4 503e 42ca 8b3d 0630 263e
00000180: 266a 90be e80c e9be 1f4e 003f 10b9 8d3c
00000190: 1138 92bc 3b0b db3b 2403 073d 5910 ae3d
000001a0: 198d e8bd 9610 85bd 5ce7 e93d 38a0 d93c
000001b0: cf1b 163e 0e50 8c3d c4ca 293d 904f 1fb9
000001c0: 375e a33d ff27 8bbd b003 9cbc e4d3 cdbd
000001d0: 2b3b 32be 03ce d03d d1aa 72bc c605 d63d
000001e0: b063 4e3e f88d 90bd e066 31be 0787 9abd
000001f0: 660c 10bc 2cc4 103c d3cb 613d d4b7 d1bd
00000200: bec1 0dbe c160 38be 0a05 2cbd b4f7 f3bc
00000210: 945e d53d ca5a f33a 7e0e 2d3e 59b2 a53c
00000220: 3a56 1fbe a73b dc3d 9723 b73d 7c79 9cbd
00000230: 0649 65bc af5a aabe 3228 25be fc18 87bc
00000240: 5f4c bf3d 9da8 443e b394 893e 93da 083d
00000250: 4887 3ebd 047d a03c e83e bdbd dcfc 4dbd
00000260: 364b f43d 43bb a23d e3b6 edba e211 c13b
00000270: 36bf 573e 8112 09bd 4249 903d e25d 4abd
00000280: 40df 3c3c e0bb c4bd 60e4 bb3d 6520 40be
00000290: bf95 1ebe e93b da3d dcdb 823e 3ca6 7fbe
000002a0: 8c58 b4bd b03f 39bd c79d 16be fbdd 493e
000002b0: 9135 003e a869 21bf 0b4e f83c be84 91bd
000002c0: f072 c63d b5fa 70bd 8b1e 5bbc c529 e6bd
000002d0: 797d 9c3d a0e7 16be ac3a 3dbe a7d8 e5bd
000002e0: 128b 033b 2669 18be 3f8a 9fbc a7a9 f8bd
000002f0: cb99 2d3e 9a79 d9bc b4e0 833c 71ac e2bd
00000300: cd6c 4e3d a433 1fbe 5da1 b83d 9a08 b63d
00000310: 22c3 bfbd aa0f 153e 783f 5d3e 03f8 e93d
00000320: 6db9 8cbd 332a c7bb e77a 40bd f333 28be
00000330: 0b79 63bd 4448 83bd e48b 873e 7840 88be
00000340: e0cf e63d 9520 37bf cfaf 703d 2715 c23e
00000350: cf4c bdb9 7f19 13bd 1e34 4bbd ceb0 84bd
00000360: 024b 7a3e 4e7e b1bd a86d 383e 8039 96bd
00000370: 87ab 6bbc 5062 efbd cd20 d03d d0d7 afbd
00000380: 48c9 b43c 96ed e1bd 5f88 29be e5dc 723e
00000390: c650 e4bd 6684 2fbe 64db 1dbe 66e0 1dbe
000003a0: 3524 02be 8f8f d33e c042 733d 2eb3 f6bd
000003b0: b8c4 2cbd 2dba 94bd 0543 1dbd a28c a3bd
000003c0: 2cee 6f3d 94d4 643e f213 bfbd f87d 3e3d
000003d0: 5e7b afbc 24f6 e23c f569 a5be b86b c7bd
000003e0: 89e3 033e 8455 ddbc 5eea 903d 60f9 4cbe
000003f0: e5d8 753d 3f11 13be 3cec bcbc 6ebd 043d

encoder.linear.bias f4 [25]
0.08864968 0.084804036 -0.016025964 0.097214006 0.024428077 0.13809057 -0.18895222 -0.0042152624
-0.081637055 0.04298498 -0.051968373 -0.015489947 -0.06423292 0.24212973 0.04213396 -0.05796361
-0.078759745 0.097527966 -0.06321588 0.005765227 -0.078021966 -0.11145657 0.031829227 -0.12932353
-0.0015201049
00000000: f78d b53d bdad ad3d e248 83bc 2318 c73d
00000010: 641d c83c 9d67 0d3e b17c 41be 2f20 8abb
00000020: 5431 a7bd 0511 303d cadc 54bd 8cc9 7dbc
00000030: 8d8c 83bd dbf0 773e a994 2c3d 406b 6dbd
00000040: ca4c a1bd bebc c73d 5477 81bd 3bea bc3b
00000050: fbc9 9fbd 5843 e4bd 5d5f 023d 636d 04be
00000060: 423e c7ba

decoder.linear_t.weight f4 [200, 25]
0.27737466 -0.12011253 0.01746259 -0.14984022 0.13927582 -0.059652716 -0.25878552 0.046793457
0.036303498 0.07348765 0.14776117 0.041793004 -0.03234269 -0.021970982 -0.24434939 0.19856039
0.20733082 0.07763082 0.077275455 -0.1857783 0.076282956 0.22162111 0.217165 0.09529988
-0.07927865 -0.12722954 0.119242616 -0.04947438 -0.04772515 0.051537193 0.086771734 0.25548208
0.07268525 -0.18683113 0.03507954 -0.035872474 -0.3312078 0.0346337 -0.018645175 0.16982615
0.15338597 -0.1047594 -0.058804918 -0.33001545 0.39323282 -0.1393123 0.1082807 -0.09723223
-0.21676004 0.03361381 -0.14349927 -0.05468038 -0.0628764 0.13114317 0.029163439 0.14634866
-0.18233253 -0.010288119 -0.16111016 0.07875828 0.055806234 0.09974057 -0.053180773 -0.15726735
0.09835908 -0.050383687 0.091629595 -0.08282184 -0.037920944 0.068150744 -0.043578118 0.14652054
-0.089247815 -0.006276854 0.009592165 0.07474963 -0.0066200094 -0.08037916 0.031119598 0.1270576
0.106865436 -0.60737574 -0.0041589686 -0.18061055 0.12641935 0.27080584 0.0758342 -0.0128068365
0.0047837184 0.10932554 0.11285367 0.044760466 0.2826267 -0.12392266 0.15908973 -0.20406254
0.13315536 -0.06749098 -0.15036443 0.26358646 0.00968964 -0.25593066 -0.1755362 -0.081628904
0.07242056 0.025781184 -0.2768072 -0.23783046 0.093383566 0.030184072 0.23356691 -0.0048461813
0.026433786 -0.08229635 0.24143483 0.29741564 0.19274315 0.24081041 0.054313444 0.08088934
0.033270665 0.03130806 -0.46505824 -0.09828438 0.4248527 -0.025376022 -0.35742548 -0.0023573446
-0.07522883 0.0032659702 0.08917306 0.047447212 -0.19647273 -0.10849467 0.19132327 -0.11953955
-0.08295117 0.29252392 -0.025581667 -0.026827773 0.03594035 -0.17841217 -0.054757897 -0.054471154
0.26664835 -0.08722893 0.11330642 -0.0393646 -0.111549206 0.060081586 0.019777084 0.2290104
-0.29722574 0.08356342 -0.12091633 0.18473361 0.17185336 -0.19980595 0.2126729 -0.013488197
0.049233165 0.061363213 0.059674516 0.26337862 0.16708247 -0.14383997 -0.046686016 0.19317512
-0.07012272 0.09532938 -0.2957583 -0.20364872 -0.13005626 0.08070307 -0.15359136 0.16608675
-0.25806648 0.1079591 -0.3476054 0.052950215 -0.077358305 -0.098489866 0.020417947 0.059953522
0.077153414 0.13700545 0.11095439 0.107862584 0.062817365 -0.15529546 -0.15823668 0.12916668
-0.018749187 0.1616502 -0.11956516 -0.04002689 -0.06053044 -0.009942558 -0.018820569 -0.30038062
0.14140311 0.30919206 -0.028825026 -0.3075863 0.020436695 0.160706 0.18354183 0.006350619
-0.2640138 -0.042730864 0.004301035 0.0005006463 0.12987381 -0.092912145 -0.23724997 0.11172554
-0.16234468 -0.14114521 -0.04375446 -0.022610212 -0.04942561 -0.10938892 -0.16810976 0.20754062
-0.18690884 0.09832161 -0.101343445 -0.012334658 -0.0672166 -0.004069344 0.013694734 -0.06474181
-0.20131242 0.23994218 0.11533481 -0.039746244 0.23807245 0.09140519 0.054844767 0.12577915
0.12306117 -0.17363188 -0.054541007 -0.010178912 -0.16786066 0.019387702 -0.13361366 -0.07898481
-0.21232668 0.18818004 -0.16749425 -0.3989645 -0.10483749 0.0405623 -0.15658757 -0.036605716
00000000: 0d04 8e3e 8ffd f5bd b50d 8f3c b76f 19be
00000010: 529e 0e3e 6856 74bd 897f 84be 7faa 3f3d
00000020: fab2 143d b180 963d b44e 173e 242f 2b3d
00000030: c579 04bd 7dfc b3bc ba36 7abe 6a53 4b3e
00000040: 884e 543e e8fc 9e3d 9842 9e3d ab3c 3ebe
00000050: 3d3a 9c3d a5f0 623e 8060 5e3e 952c c33d
00000060: d85c a2bd 7648 02be 7935 f43d a6a5 4abd
00000070: 727b 43bd aa18 533d 61b5 b13d 8cce 823e
00000080: 01dc 943d a950 3fbe 90af 0f3d 04ef 12bd
00000090: 1294 a9be 11dc 0d3d c4bd 98bc e8e6 2d3e
000000a0: 3611 1d3e 198c d6bd 6ddd 70bd c9f7 a8be
000000b0: d055 c93e e2a7 0ebe 46c2 dd3d b121 c7bd
000000c0: 58f6 5dbe a2ae 093d 79f1 12be 89f8 5fbd
000000d0: 58c5 80bd 654a 063e 2ae8 ee3c 6cdc 153e
000000e0: 61b5 3abe 808f 28bc 10fa 24be 054c a13d
000000f0: 1495 643d c944 cc3d 15d4 59bd b10a 21be
00000100: 7c70 c93d 205f 4ebd 4ca8 bb3d 7f9e a9bd
00000110: fe52 1bbd 9e92 8b3d f87e 32bd 7b09 163e
00000120: 8fc7 b6bd 11ae cdbb 7528 1d3c 5616 993d
00000130: aaec d8bb d49d a4bd 87ee fe3c 631b 023e
00000140: 44dc da3d fa7c 1bbf f547 88bb f9f1 38be
00000150: 1374 013e 10a7 8a3e f64e 9b3d c4d3 51bc
00000160: bdc0 9c3b 12e6 df3d d31f e73d c056 373d
00000170: 72b4 903e 2acb fdbd 6be8 223e c5f5 50be
00000180: e159 083e b638 8abd 22f9 19be cef4 863e
00000190: 4cc1 1e3c 5809 83be c3bf 33be 0e2d a7bd
000001a0: 3b51 943d 1033 d33c acb9 8dbe d489 73be
000001b0: e23f bf3d 9644 f73c 2a2c 6f3e b7cc 9ebb
000001c0: ab8b d83c fd8a a8bd b13a 773e dd46 983e
000001d0: 765e 453e 0197 763e c677 5e3d 4fa9 a53d
000001e0: d246 083d e13c 003d 1d1c eebe 5249 c9bd
000001f0: 4b86 d93e 60e1 cfbc 7900 b7be ae7d 1abb
00000200: 9311 9abd e309 563b 5ea0 b63d 0258 423d
00000210: 2630 49be 7432 debd 3fea 433e 27d1 f4bd
00000220: 4ee2 a9bd b2c5 953e a590 d1bc ebc5 dbbc
00000230: 3036 133d aeb1 36be d149 60bd 251d 5fbd
00000240: 2286 883e 15a5 b2bd 320d e83d c63c 21bd
00000250: e973 e4bd 1c18 763d 8d03 a23c b481 6a3e
00000260: f92d 98be 4c23 ab3d fba2 f7bd cf2a 3d3e
00000270: 54fa 2f3e ee99 4cbe edc6 593e 99fd 5cbc
00000280: b7a8 493d fe57 7b3d 446d 743d 90d9 863e
00000290: ab17 2b3e c94a 13be d639 3fbd b3cf 453e
000002a0: 809c 8fbd 0d3c c33d a26d 97be 4a89 50be
000002b0: 782d 05be a747 a53d 0e47 1dbe a512 2a3e
000002c0: 4a21 84be a919 dd3d 56f9 b1be 53e2 583d
000002d0: 086e 9ebd 0eb5 c9bd 8a43 a73c d391 753d
000002e0: 9c02 9e3d 284b 0c3e 0e3c e33d 0fe7 dc3d
000002f0: 64a6 803d c605 1fbe cc08 22be 4544 043e
00000300: e597 99bc a187 253e 94de f4bd 3cf3 23bd
00000310: c4ee 77bd 1ce6 22bc 982d 9abc 7dcb 99be
00000320: facb 103e 6c4e 9e3e 7622 ecbc f47b 9dbe
00000330: db6a a73c 1d90 243e 64f2 3b3e da18 d03b
00000340: d12c 87be 8f06 2fbd b2ef 8c3b ce3d 033a
00000350: a4fd 043e b948 bebd a8f1 72be 5cd0 e43d
00000360: af3d 26be 5f88 10be e037 33bd 0d39 b9bc
00000370: 8272 4abd 4c07 e0bd f724 2cbe 8785 543e
00000380: 0865 3fbe d75c c93d 278d cfbd 4e17 4abc
00000390: dba8 89bd 2258 85bb e15f 603c 5b97 84bd
000003a0: d824 4ebe 67b3 753e a834 ec3d f5cc 22bd
000003b0: 44c9 733e a532 bb3d e8a4 603d 40cc 003e
000003c0: 7f07 fc3d 8ecc 31be 6466 5fbd 74c5 26bc
000003d0: aae3 2bbe f5d2 9e3c 05d2 08be cac2 a1bd
000003e0: 2a6c 59be 45b2 403e 9d83 2bbe 1345 ccbe
000003f0: 0ab5 d6bd a724 263d 7e58 20be e0ef 15bd

decoder.linear_t.bias f4 [200]
0.09716344 0.22529726 -0.019861115 0.34880745 -0.08793644 -0.001312723 0.11384085 0.62104815
1.0506766 -0.031897787 -0.07104272 0.24840333 -0.0920248 0.18882594 -0.063741185 0.13598175
0.17692725 0.61039597 -0.13044608 0.24213475 -0.09635903 -0.30811366 -0.21386345 0.25950927
-0.17621368 0.25230545 -0.0059768623 0.31565267 0.12088129 0.020409731 0.09378361 0.2259228
-0.114153504 0.14591871 0.09823259 0.17949207 0.2772434 0.8016768 0.13330127 0.11046411
-0.09792337 0.54659647 0.13950756 0.37994176 0.26414618 0.37361443 0.21435907 0.8289512
0.042574003 0.122011214 -0.0001143249 -0.13311356 0.46181998 0.061083224 -0.08285791 0.09748401
0.39507583 -0.062725246 -0.07940126 0.44652224 -0.21200322 -0.07004946 0.13142575 -0.009306324
0.55184114 0.018876985 0.145283 0.03235127 -0.00023320218 -0.04834863 0.071095504 0.15839192
0.25731906 0.45194492 0.07348512 -0.12733902 -0.2061834 0.15525891 -0.15736642 -0.13993952
0.07628282 0.004035829 0.59931344 0.012453267 0.0007721798 -0.1409029 0.078710295 0.831289
0.32145885 0.05607093 0.7027185 0.28631034 0.4779331 0.08450621 0.090040736 -0.08223551
-0.029986676 -0.17023385 -0.11494024 0.062315598 0.061187178 0.2496346 0.28506866 0.2533924
0.06394728 -0.033061262 0.06945264 0.13669045 -0.02200486 -0.1154289 0.12882403 0.05308382
-0.08228189 0.28724974 -0.02492015 0.09463393 0.076568425 0.18670605 0.54440665 -0.09426656
0.51219374 0.26166466 0.26722127 0.3765176 -0.04011985 -0.09512708 -0.21640156 -0.09967052
0.20810835 -0.029962145 -0.08101275 0.09748759 -0.006101111 0.07776541 -0.20723788 -0.1894543
0.14015277 -0.02426885 -0.08892929 -0.10193084 -0.11278741 -0.20206827 -0.13713823 0.051535062
0.14679815 -0.11076989 0.14855763 0.24842009 0.12556109 0.2251933 0.16449907 0.017757041
0.5909794 -0.046444405 0.36835086 0.03749284 0.065397374 0.08741096 0.0343718 -0.094870284
0.0021059883 0.34517282 -0.094858676 0.29139966 0.19060038 0.06412005 0.27454302 0.40783536
0.111105755 0.027383737 -0.1467183 0.024611369 0.27841154 -0.08932403 -0.09379274 -0.119193986
-0.12588216 -0.07680086 0.09946196 0.37832233 0.020333868 -0.066836916 0.52248025 -0.21868202
0.47596577 -0.003150712 -0.009495716 0.069725506 0.21643624 0.38556495 -0.06926559 0.24625091
-0.16730312 -0.07281346 0.5032237 0.025506299 -0.0806713 -0.09036271 -0.034579635 0.19447078
00000000: a0fd c63d 53b4 663e c7b3 a2bc e496 b23e
00000010: 0518 b4bd ad0f acba 6425 e93d 03fd 1e3f
00000020: 927c 863f 41a7 02bd d87e 91bd 715d 7e3e
00000030: 8077 bcbd 965b 413e bd8a 82bd cd3e 0b3e
00000040: 6b2c 353e e942 1c3f a893 05be 2cf2 773e
00000050: e257 c5bd 13c1 9dbe 05ff 5abe 66de 843e
00000060: 5c71 34be 2e2e 813e 8ed9 c3bb 3a9d a13e
00000070: 9c90 f73d 4f32 a73c 9f11 c03d 4e58 673e
00000080: 50c9 e9bd b76b 153e 2b2e c93d c5cc 373e
00000090: d9f2 8d3e b13a 4d3f 2180 083e 023b e23d
000000a0: 0c8c c8bd bfed 0b3f 12db 0e3e ba87 c23e
000000b0: 2b3e 873e 644a bf3e f280 5b3e 2536 543f
000000c0: 1462 2e3d 04e1 f93d b7c1 efb8 ec4e 08be
000000d0: ab73 ec3e 6732 7a3d 68b1 a9bd b2a5 c73d
000000e0: 6147 ca3e 1876 80bd 219d a2bd 909e e43e
000000f0: 5f17 59be 1776 8fbd 7994 063e 8d79 18bc
00000100: 7645 0d3f e8a3 9a3c 11c5 143e c482 043d
00000110: bc87 74b9 3709 46bd 859a 913d 7e31 223e
00000120: 53bf 833e 5365 e73e 5e7f 963d 2965 02be
00000130: be21 53be 31fc 1e3e aa24 21be 4e4c 0fbe
00000140: 2b3a 9c3d fd3e 843b 9b6c 193f ca08 4c3c
00000150: 1c6c 4a3a da48 10be dd32 a13d 5bcf 543f
00000160: 4196 a43e a2aa 653d 5ce5 333f 4597 923e
00000170: a6b3 f43e 9811 ad3d 4767 b83d 176b a8bd
00000180: 9ea6 f5bc c851 2ebe ca65 ebbd a43e 7f3d
00000190: 689f 7a3d 36a0 7f3e 85f4 913e a6bc 813e
000001a0: cbf6 823d 3f6b 07bd 303d 8e3d 95f8 0b3e
000001b0: 8943 b4bc fd65 ecbd 72ea 033e 6b6e 593d
000001c0: 6883 a8bd 6612 933e 5825 ccbc 6fcf c13d
000001d0: e8cf 9c3d df2f 3f3e 3c5e 0b3f d40e c1bd
000001e0: 211f 033f e9f8 853e 3ad1 883e eac6 c03e
000001f0: b654 24bd fdd1 c2bd 5f98 5dbe 0f20 ccbd
00000200: 5b1a 553e 2c73 f5bc 03ea a5bd 93a7 c73d
00000210: d4eb c7bb 7943 9f3d 2b36 54be 4f00 42be
00000220: 3584 0f3e 78cf c6bc 8f20 b6bd 1ec1 d0bd
00000230: 16fd e6bd fcea 4ebe f76d 0cbe 6e16 533d
00000240: 4152 163e 53db e2bd 7e1f 183e d661 7e3e
00000250: 1693 003e 1399 663e 7272 283e 3777 913c
00000260: 6d4a 173f 7d3c 3ebd 7c98 bc3e 1892 193d
00000270: 0fef 853d 8404 b33d 72c9 0c3d 5a4b c2bd
00000280: 9f04 0a3b 7eba b03e 4445 c2bd 5632 953e
00000290: bf2c 433e 5f51 833d e790 8c3e cccf d03e
000002a0: 6a8b e33d dc53 e03c 523d 16be c89d c93c
000002b0: f58b 8e3e 84ef b6bd 6816 c0bd fa1b f4bd
000002c0: 41e7 00be c549 9dbd b6b2 cb3d 77b3 c13e
000002d0: 3693 a63c cbe1 88bd 44c1 053f 2eee 5fbe
000002e0: c9b1 f33e 2d7c 4ebb eb93 1bbc 3fcc 8e3d
000002f0: 76a1 5d3e c568 c53e 1edb 8dbd 3329 7c3e
00000300: 8251 2bbe 391f 95bd 45d3 003f 96f2 d03c
00000310: ff36 a5bd 1610 b9bd 60a3 0dbd 5923 473e

decoder.conv2_t.weight f4 [8, 4, 3, 3]
0.04982855 -0.19822189 -0.079444684 -0.19085845 -0.030640628 -0.033568755 -0.022711877 0.48901454
-0.25051486 -0.25095388 -0.33635956 0.035537645 -0.40384355 -0.02350848 0.21258841 0.2467113
0.8146654 0.28890717 0.005636796 0.05459661 -0.046195515 -0.11220007 0.13117844 -0.2854658
-0.24198498 -0.015241491 0.14713039 -0.012684225 -0.14487535 -0.052836295 -0.3889427 -0.45306605
-0.10408788 -0.002740665 0.31856328 0.23766015 0.08725138 -0.33097973 0.12481244 0.030757
0.15844046 -0.6278297 -0.017474072 0.18882123 -0.15900286 0.1746557 0.034080468 0.13578197
-0.19716083 -0.05581485 -0.60792667 -0.22155166 -0.89951986 -0.4333044 0.115889184 0.010133631
0.090297155 0.031030862 0.19570856 -0.15239196 -0.015217092 0.24977158 -0.64413506 0.13323984
0.15184961 0.15350711 0.08879343 -0.088141665 -0.35967165 -0.06609257 -0.46425772 -0.9411365
-0.08620015 -0.3345932 0.24215682 -0.011500621 0.13206817 0.82559323 0.019141769 -0.107512526
0.14448674 0.109075025 0.42996535 0.30506262 0.4486554 0.15938096 0.3857523 0.13476633
0.06918036 -0.04908534 0.015742978 -0.057134848 0.020834934 -0.0899279 -0.2961086 0.5258029
0.068681486 -0.04270204 0.34877244 -0.11484335 0.08755204 0.19636257 0.12300357 0.63217103
0.72036755 0.13290352 0.21331383 0.20891318 -0.045717724 -0.04623561 0.18306892 -0.06470528
0.1263336 0.95717514 -0.004536509 -0.07716043 0.16668214 0.014535992 0.42096233 0.39179957
0.26485184 -0.02938747 0.47620416 0.2081648 0.26001447 0.06463283 0.023135304 0.004298292
0.02804264 -0.12904191 -0.42916176 0.44678104 0.013913825 -0.07623187 0.40094313 -0.10579355
0.06373441 0.20927419 -0.021489896 0.49112827 0.7428909 0.11872337 0.35079294 0.33007395
-0.17716408 -0.19076087 -0.051364776 -0.24113034 -0.28033754 -0.6565194 -0.0783805 -0.58382994
-0.054612037 -0.5981221 -0.308015 0.0927178 -1.088569 -0.09255585 -0.07295017 -0.55652857
-0.5544316 -0.11562356 -0.20258927 -0.0674582 -0.015136452 -0.31084305 -0.7155847 -0.30414194
-0.67393655 -0.44730863 -0.54243505 -0.29629862 -0.22413935 0.051131174 -0.7109324 -0.76321125
-0.23435706 -0.5503462 -0.79470927 -0.2931699 -0.12356546 -0.041016888 0.08275116 0.2254303
0.015524481 0.2994163 0.060131475 -0.4380778 0.17205846 -0.1255277 -0.080731936 -0.07968425
0.5366349 -0.036634117 -0.08125833 0.054076456 -0.45136106 -0.27851978 -0.08907585 -0.08661293
-0.055584844 0.026242105 -0.012740875 0.05481342 0.30262607 0.021937493 -0.047170177 -0.24397732
-0.22951677 -0.10823066 0.26895463 0.2709131 0.06333369 0.26958433 0.016844671 -0.102746986
-0.062266942 -0.45664534 -0.24112985 -0.07807549 -0.10359517 -0.5106086 -0.005773975 0.1542549
-0.008877029 -0.5603459 -0.785498 -0.4741982 -0.3706203 -0.06976684 -0.23913163 0.029307641
-0.045565158 -0.020288203 -0.12511338 -0.18475126 -0.051295836 -0.14816608 -0.25555205 -0.5409956
-0.17285827 0.06138201 -0.15045984 -0.19616319 -0.4432985 -0.4564365 -0.28406575 -0.705453
-0.6009662 -0.026666906 -0.082087494 -0.103546396 0.08843539 -0.088733226 -0.051079586 0.093178265
00000000: 0619 4c3d aefa 4abe e5b3 a2bd 6670 43be
00000010: 0e02 fbbc 647f 09bd 420e babc 1d60 fa3e
00000020: 7c43 80be 077d 80be 5237 acbe ec8f 113d
00000030: 95c4 cebe db94 c0bc c7b0 593e e3a1 7c3e
00000040: e98d 503f a4eb 933e dfb4 b83b b2a0 5f3d
00000050: 8237 3dbd 26c9 e5bd a453 063e 9328 92be
00000060: e9ca 77be 72b7 79bc 59a9 163e 7fd1 4fbc
00000070: 345a 14be df6a 58bd 7f23 c7be 46f8 e7be
00000080: 072c d5bd bb9c 33bb ba1a a33e 2f5d 733e
00000090: dab0 b23d 2d76 a9be aa9d ff3d 1bf6 fb3c
000000a0: 373e 223e 72b9 20bf c925 8fbc 5a5a 413e
000000b0: a5d1 22be f2d8 323e f697 0b3d 6e0a 0b3e
000000c0: 87e4 49be 1d9e 64bd 15a1 1bbf 70de 62be
000000d0: ef46 66bf 13da ddbe 4f57 ed3d 8707 263c
000000e0: b7ed b83d 6f34 fe3c d367 483e a30c 1cbe
000000f0: 1c51 79bc 1fc4 7f3e 09e6 24bf 0670 083e
00000100: 777e 1b3e f830 1d3e 54d9 b53d 9e83 b4bd
00000110: e226 b8be 8b5b 87bd 30b3 edbe 52ee 70bf
00000120: b489 b0bd cd4f abbe f5f7 773e 1a6d 3cbc
00000130: e13c 073e 145a 533f 33cf 9c3c 872f dcbd
00000140: 55f4 133e ba62 df3d 6b24 dc3e 2b31 9c3e
00000150: 29b6 e53e c334 233e 5381 c53e 2f00 0a3e
00000160: 6fae 8d3d b60d 49bd 6bf7 803c 3b06 6abd
00000170: 06ae aa3c 1e2c b8bd 8c9b 97be 059b 063f
00000180: e1a8 8c3d 56e8 2ebd 4d92 b23e fe32 ebbd
00000190: 7c4e b33d 4513 493e 4ce9 fb3d f6d5 213f
000001a0: 026a 383f dc17 083e f16e 5a3e 56ed 553e
000001b0: 8242 3bbd 8d61 3dbd 6b76 3b3e 3484 84bd
000001c0: 985d 013e 6e09 753f ffa6 94bb 4a06 9ebd
000001d0: b9ae 2a3e 5f28 6e3c 6088 d73e f499 c83e
000001e0: a99a 873e febd f0bc 08d1 f33e 2729 553e
000001f0: 9e20 853e 385e 843d 4086 bd3c b0d8 8c3b
00000200: aeb9 e53c 9023 04be 17bb dbbe 7cc0 e43e
00000210: d0f6 633c 741f 9cbd 6b48 cd3e 4aaa d8bd
00000220: 3087 823d f94b 563e 940b b0bc 2a75 fb3e
00000230: 192e 3e3f 3d25 f33d 229b b33e 74ff a83e
00000240: 806a 35be d156 43be df63 52bd dfea 76be
00000250: 6788 8fbe a811 28bf f585 a0bd e175 15bf
00000260: dfb0 5fbd 881e 19bf 24b4 9dbe d4e2 bd3d
00000270: 3b56 8bbf ec8d bdbd e666 95bd a878 0ebf
00000280: 3bef 0dbf 0ccc ecbd 9073 4fbe 8627 8abd
00000290: e2fe 77bc d226 9fbe 8f30 37bf 7eb8 9bbe
000002a0: 1b87 2cbf a305 e5be 06dd 0abf 74b4 97be
000002b0: c984 65be ec6e 513d aaff 35bf d061 43bf
000002c0: 4cfb 6fbe 7de3 0cbf 1172 4bbf 5d1a 96be
000002d0: e30f fdbd 5301 28bd 7179 a93d 33d7 663e
000002e0: 655a 7e3c 184d 993e 6c4c 763d bc4b e0be
000002f0: 1830 303e 558a 00be c956 a5bd 7f31 a3bd
00000300: e860 093f a80d 16bd c46a a6bd 467f 5d3d
00000310: cc18 e7be 259a 8ebe 666d b6bd 1f62 b1bd
00000320: efac 63bd aff9 d63c 1abf 50bc 0984 603d
00000330: cef1 9a3e 42b6 b33c 8435 41bd 31d5 79be
00000340: 7206 6bbe 09a8 ddbd 6cb4 893e 1fb5 8a3e
00000350: 18b5 813d f506 8a3e d6fd 893c 036d d2bd
00000360: 9f0b 7fbd 6bcd e9be beea 76be 0be6 9fbd
00000370: b429 d4bd 3fb7 02bf 9d33 bdbb fff4 1d3e
00000380: f570 11bc d472 0fbf 6616 49bf 1bca f2be
00000390: f2c1 bdbe ebe1 8ebd ecde 74be 9416 f03c
000003a0: 88a2 3abd 7233 a6bc b91d 00be 6f2f 3dbe
000003b0: 951b 52bd d9b8 17be b8d7 82be b07e 0abf
000003c0: c201 31be b46b 7b3d 2512 1abe 01df 48be
000003d0: 05f8 e2be 0cb2 e9be 1171 91be 9198 34bf
000003e0: ecd8 19bf 8e74 dabc 7d1d a8bd 2210 d4bd
000003f0: 9d1d b53d c4b9 b5bd d438 51bd 3fd4 be3d

decoder.conv2_t.bias f4 [4]
-0.491632 0.026359102 -0.6734021 0.021250304
00000000: 31b7 fbbe 0bef d73c 1464 2cbf 1e15 ae3c

decoder.conv1_t.weight f4 [4, 1, 5, 5]
0.0038634844 0.03289539 0.050515644 0.04907576 0.02706824 -0.05980376 -0.025956873 0.018926226
0.028413108 0.0300937 -0.2038219 -0.042979967 0.035792366 -0.12815772 -0.019062921 -0.04692984
0.62297547 0.52584493 -0.16391572 -0.012309254 0.17105977 0.78723377 0.6264834 0.0055047767
0.052670337 -0.017461149 0.0028007433 0.021747276 0.027545022 0.028965123 0.00037130946 0.022887167
-0.030779986 -0.01729081 0.0415917 0.0052433005 -0.0063188504 -0.1531847 0.008902228 0.18162715
0.01726568 -0.0037769186 -0.030688832 0.57365984 0.63627934 0.036188167 0.029761929 0.16372417
0.7009401 0.6058728 0.036534905 -0.013041688 -0.15485324 -0.15584391 -0.02111919 -0.029413871
-0.20958918 -0.3979407 -0.20267123 -0.008969158 -0.11782533 -0.30128548 -0.613199 -0.39344695
-0.05820099 -0.12814456 -0.26469648 -0.67482764 -0.45229816 0.00016631563 -0.028595226 -0.13700432
-0.29541713 -0.05562674 0.13119546 0.06295424 -0.015635243 -0.08566591 -0.08449344 -0.09256685
0.062071547 -0.07702874 0.008260041 -0.04011015 -0.18951237 -0.013626559 -0.012021256 0.6065605
0.6311201 -0.010407817 -0.08309982 -0.11510937 0.70584947 0.6874344 -0.089177765 -0.13856858
-0.28018567 0.00998869 -0.11713832 -0.34311467
00000000: 8332 7d3b 51bd 063d 7ee9 4e3d aa03 493d
00000010: 37be dd3c caf4 74bd 82a3 d4bc 2c0b 9b3c
00000020: 9bc2 e83c 1087 f63c b0b6 50be c30b 30bd
00000030: 049b 123d c73b 03be d829 9cbc 8139 40bd
00000040: 527b 1f3f c69d 063f 86d9 27be c1ac 49bc
00000050: 4b2a 2f3e 2788 493f 3761 203f 6a61 b43b
00000060: dabc 573d af0a 8fbc ad8c 373b 5827 b23c
00000070: 19a6 e13c 4448 ed3c 50ac c239 de7d bb3c
00000080: 4f26 fcbc 75a5 8dbc 0f5c 2a3d fecf ab3b
00000090: 5c0e cfbb 73dc 1cbe a7da 113c 78fc 393e
000000a0: c170 8d3c 2e86 77bb 2567 fbbc 5fdb 123f
000000b0: 34e3 223f 0b3a 143d 4acf f33c 4fa7 273e
000000c0: cf70 333f 7b1a 1b3f a0a5 153d ceac 55bc
000000d0: d991 1ebe 8c95 1fbe 2702 adbc 5cf5 f0bc
000000e0: 8c9e 56be e2be cbbe 0c89 4fbe 60f3 12bc
000000f0: 684e f1bd 1742 9abe 9cfa 1cbf e171 c9be
00000100: 2964 6ebd 5438 03be 4c86 87be 81c1 2cbf
00000110: a093 e7be 0365 2e39 8940 eabc dc4a 0cbe
00000120: ea40 97be ddd8 63bd 1a58 063e 27ee 803d
00000130: 7b15 80bc 9c71 afbd e60a adbd b093 bdbd
00000140: bc3e 7e3d 3ec1 9dbd 1f55 073c 8a4a 24bd
00000150: 880f 42be ee41 5fbc cdf4 44bc 8d47 1b3f
00000160: 1691 213f 8c85 2abc 3d30 aabd 76be ebbd
00000170: 8db2 343f b3fb 2f3f d5a2 b6bd ece4 0dbe
00000180: 7f74 8fbe 9aa7 233c 37e6 efbd baac afbe
